pretrainedNetworks/actor_local2.pth (torch_old, 230166 bytes, 12 tensors)

fc1.weight f4 [256, 24]
0	0x3dcdd697	0.100506954
1	0xbe19e97d	-0.15030475
2	0xbc1cf093	-0.009578842
3	0x3c9f8f77	0.019477589
4	0x3d46249a	0.04837475
5	0xbeb93b17	-0.36177894
6	0x3cd75d22	0.026289526
7	0x3d0de0a9	0.03463808
8	0x3e64d28d	0.22345944
9	0xbd55cfec	-0.052200243
10	0x3d615474	0.05501218
11	0x3d654239	0.055971358
12	0x3d15dcca	0.036587514
13	0xbf0484cf	-0.5176515
14	0xbd4a429e	-0.049379937
15	0x3d6c37c2	0.057670362
16	0x3e2474e8	0.16060221
17	0xbd199ed6	-0.037504993
18	0x3bf06bb4	0.007337058
19	0x3dbf24dc	0.09333202
20	0xbd80c575	-0.06287662
21	0xbf0b0aee	-0.5431355
22	0xbd03bfb5	-0.032165248
23	0x3c89d4ab	0.01682504
24	0x3c294755	0.010331948
25	0x3e14f761	0.14547493
26	0xbc9639d6	-0.018338125
27	0x3d852ba2	0.06502463
28	0x3d32dcce	0.043667607
29	0x3e23d3fd	0.15998836
30	0xbd62edc7	-0.055402543
31	0x3d07a510	0.0331164
32	0xbb0b5a8e	-0.0021263692
33	0x3e66af2d	0.22527762
34	0x3c9c3b42	0.019071225
35	0xbcc1f896	-0.023678105
36	0xbd88eb2f	-0.06685483
37	0xbe4f871b	-0.20266382
38	0x3cf16552	0.029467259
39	0xbd32000a	-0.04345707
40	0x3e3592ba	0.17731753
41	0x3e81dd75	0.2536427
42	0x3e2ef0bf	0.17084025
43	0x3d240d75	0.040051896
44	0xbe4d7924	-0.20065743
45	0xbf113f5f	-0.5673732
46	0x3e041bb3	0.12901191
47	0x3db2b69b	0.087262355
48	0x3d0148d2	0.031563587
49	0xbdf47fe4	-0.11938456
50	0xbe1b91fd	-0.15192409
51	0x3daabd48	0.08336884
52	0xbe717bfd	-0.23582454
53	0xbe49aa66	-0.19693908
54	0xbd1f4c08	-0.03889087
55	0x3db3c613	0.08778014
56	0x3c7f4af1	0.015581832
57	0xbd5db084	-0.054123417
58	0xbe69386a	-0.22775427
59	0x3d57e088	0.052704364
60	0xbe1b7c46	-0.15184125
61	0xbdfb337d	-0.1226568
62	0xbe10fb27	-0.14158307
63	0xbb38e7a8	-0.002821425
64	0xbd915865	-0.07096938
65	0xbc9e258f	-0.019305019
66	0xbde130c8	-0.109956324
67	0x3cec7756	0.028865498
68	0xbd41b013	-0.047287058
69	0xbdaa1081	-0.08303929
70	0xbdde199a	-0.10844727
71	0x3cb37580	0.021906614
72	0x3eb58410	0.35452318
73	0xbdd7ea4d	-0.10542736
74	0xbdc26e3d	-0.094936825
75	0x3cb12c45	0.021627555
76	0xbe91612c	-0.2839445
77	0xbe2b74ed	-0.16743822
78	0xbd9c14a8	-0.07621127
79	0xbd4f4b29	-0.050608788
80	0x3de9e40c	0.114204496
81	0xbe9fc339	-0.3120363
82	0xbba5d1d4	-0.005060414
83	0xbcbd3cb4	-0.023100235
84	0x3c61f2e2	0.013790818
85	0xbdf50d12	-0.119653836
86	0x3b8e6fc9	0.004346822
87	0xbd04f99c	-0.03246461
88	0x3d4f2812	0.050575323
89	0xbe9fc8d7	-0.31207916
90	0xbd0ea9f4	-0.03483005
91	0x3ec89796	0.3917815
92	0x3dd0b09b	0.10189935
93	0xbdbe2606	-0.09284596
94	0xbcbd5bd4	-0.023115076
95	0x3eb1492a	0.34626132
96	0x3db4d91a	0.08830471
97	0xbe099fb7	-0.13439833
98	0xbc909aba	-0.017651904
99	0x3b442b8a	0.0029933178
100	0xbe69926d	-0.22809763
101	0xbe598a23	-0.21244101
102	0x3d043042	0.032272585
103	0x3b04c874	0.002026108
104	0x3e8c2a59	0.2737606
105	0xbdade61b	-0.08491155
106	0x3cf85026	0.030311655
107	0xbe071f85	-0.13195617
108	0xbde99a9d	-0.11406443
109	0xbe6e271d	-0.23257108
110	0x3d2c67df	0.042091247
111	0xbe188d4e	-0.14897653
112	0x3e8d2656	0.2756831
113	0xbe041e22	-0.1290212
114	0xbdba584f	-0.09098875
115	0xbdfbaf46	-0.1228929
116	0xbe7d1423	-0.24714713
117	0xbeb32ef6	-0.34996766
118	0xbc6f633e	-0.0146110635
119	0xbce6a8ce	-0.028156664
120	0xbc9cd6e2	-0.019145433
121	0xbec28816	-0.3799445
122	0x3d0c20b7	0.034210887
123	0xbdc5b925	-0.09654454
124	0x3e089edf	0.13341855
125	0xbe77fccf	-0.24217533
126	0xbc243e93	-0.0100246845
127	0xbb3cfe71	-0.0028838182
128	0xbc85acdc	-0.016317777
129	0xbeb58deb	-0.35459837
130	0x3cd06bd0	0.025442034
131	0x3df281b4	0.11841145
132	0x3e4ba360	0.19886541
133	0xbebe21cc	-0.3713516
134	0x3d25b76c	0.040458128
135	0x3dfad370	0.1224736
136	0x3cb81a13	0.02247337
137	0xbead723d	-0.3387622
138	0xbd32a4c4	-0.043614164
139	0x3e5ae447	0.21376143
140	0x3e4a4e24	0.19756371
141	0xbef01a67	-0.46895143
142	0x3a0a76f0	0.00052820053
143	0x3e30cef3	0.17266445
144	0xbd738a6a	-0.059458174
145	0x3e1a7949	0.15085329
146	0x3d3307ae	0.043708496
147	0xbdaff5f1	-0.085918315
148	0x3d11f7d8	0.035636753
149	0xbf2eeeb6	-0.68332994
150	0xbc2b633f	-0.010460674
151	0xbdead4b7	-0.114663534
152	0x3c8ff89c	0.0175746
153	0x3e2febc8	0.17179787
154	0xbbb797a7	-0.005602795
155	0xbd894633	-0.067028426
156	0xbc76bfac	-0.015060347
157	0xbf227635	-0.6346162
158	0x3d94b331	0.072607405
159	0xbe22a1e6	-0.15882072
160	0xbcdde0ae	-0.027084675
161	0x3cd0ebd1	0.025503071
162	0xbab1d4eb	-0.0013567483
163	0xbe50e910	-0.20401406
164	0x3d272344	0.040805116
165	0xbce0aa13	-0.027424848
166	0x3da6126f	0.08108985
167	0xbe8d3e41	-0.27586558
168	0x3e012e1e	0.12615249
169	0x3da29b12	0.079397336
170	0xbe09b751	-0.13448836
171	0xbe42c220	-0.19019365
172	0x3de54ac3	0.111959
173	0xbed09375	-0.407375
174	0xbd9c8a9a	-0.07643624
175	0xbe82655d	-0.2546796
176	0x3d405ed9	0.046965454
177	0x3d486a99	0.048929784
178	0xbe0d7851	-0.13815428
179	0xbe6596b9	-0.22420777
180	0x3d91c43d	0.071175076
181	0xbe9ca68e	-0.3059582
182	0xbd8f1f20	-0.069883585
183	0xbe36217d	-0.17786212
184	0x3de6385b	0.11241218
185	0xbc5f4d43	-0.0136292605
186	0xbd23431f	-0.039858934
187	0xbdcbc8ed	-0.09950433
188	0xbcbcca61	-0.02304572
189	0xbe1e0a36	-0.15433583
190	0x3b57779f	0.0032877696
191	0xbd99f7f0	-0.075179935
192	0xbe9913dd	-0.29897967
193	0x3df866be	0.121289715
194	0xbda7af38	-0.08187717
195	0xbdc20da6	-0.094752595
196	0x3da565e7	0.08076077
197	0xbeaed609	-0.3414767
198	0xbd0ab1e3	-0.033861052
199	0xbd60e2ff	-0.05490398
200	0xbe67ee15	-0.22649415
201	0x3df68861	0.12037731
202	0xbbdf97a3	-0.0068234964
203	0xbe178771	-0.1479776
204	0xbc032bca	-0.008006046
205	0xbe49b7e1	-0.1969905
206	0xbd71596d	-0.058923174
207	0xbe1023eb	-0.14076202
208	0xbe602e22	-0.21892598
209	0xbcbbf7ad	-0.02294525
210	0x3c3971af	0.011318608
211	0xbdf8f43c	-0.12155959
212	0xbe0fe7e5	-0.14053304
213	0x3e7e8227	0.24854337
214	0xbdcaad15	-0.09896294
215	0xbde5e6ed	-0.11225686
216	0xbc407d87	-0.011748678
217	0xbea2bb31	-0.3178344
218	0xbd546e3a	-0.051862933
219	0x3d84f3ab	0.064917885
220	0x3ded48cd	0.11586151
221	0xbd93c156	-0.0721461
222	0x3c7f2077	0.015571705
223	0x3c8e9d78	0.017409071
224	0x3bb60766	0.005555081
225	0xbe92f661	-0.28703597
226	0xbe01bd12	-0.12669781
227	0x3dc8e1c6	0.09808688
228	0x3e08d335	0.13361819
229	0xbe16f9d0	-0.14743733
230	0xbd292716	-0.04129704
231	0x3d59b707	0.053153064
232	0xbbe702e3	-0.0070499047
233	0xbe372898	-0.17886579
234	0xbe0b7243	-0.13617806
235	0x3e55b6df	0.20870541
236	0x3daa17ed	0.08305345
237	0xbeddbd23	-0.43308362
238	0xbe3749f7	-0.17899309
239	0x3e672eec	0.22576493
240	0x3e041ebb	0.12902348
241	0x3e9126f9	0.28350046
242	0x3cf2a577	0.029619915
243	0xbe73e0c5	-0.23816212
244	0x3da0186a	0.078171566
245	0xbe3a8264	-0.18213803
246	0x3b8a88e1	0.004227743
247	0xbeab1148	-0.33411622
248	0x3ddf1391	0.10892404
249	0x3e4d4e02	0.20049289
250	0xbc1e130c	-0.009648096
251	0xbee13c2c	-0.4399122
252	0xbdc69870	-0.09697044
253	0xbe09ff05	-0.13476188
254	0xbd75832e	-0.059939556
255	0xbee79e78	-0.4523809

fc1.bias f4 [256]
0	0xbec5a96e	-0.38605827
1	0xbe94d61f	-0.2906961
2	0x3d9e0c2c	0.07717165
3	0xbe5334a8	-0.20625556
4	0xbdd270b9	-0.102754064
5	0xbe6bd21c	-0.23029369
6	0xbe6acb29	-0.22929062
7	0xbebac929	-0.36481598
8	0x3c92d07a	0.017921675
9	0xbe2a88e2	-0.16653779
10	0xbe15323a	-0.14569941
11	0x3c941d41	0.018080356
12	0xbdfea870	-0.12434471
13	0xbe979efa	-0.29613477
14	0xbe4210f9	-0.18951787
15	0xbef7349e	-0.4828233
16	0xbe54871a	-0.20754662
17	0xbe0ec907	-0.13943873
18	0xbbf2b6d1	-0.0074070473
19	0xbe7723af	-0.24134706
20	0xbe6fb0f0	-0.2340734
21	0xbddab9f7	-0.10680001
22	0x3c620fbc	0.013797697
23	0x3e0efc83	0.13963513
24	0xbe3a75c5	-0.18208988
25	0x3e3730d7	0.17889725
26	0xbddff7dc	-0.10935947
27	0xbe04898b	-0.12943093
28	0xbcd46362	-0.025926296
29	0xbe332919	-0.17496146
30	0x3ca9711c	0.020683818
31	0xbdec4871	-0.115372546
32	0xbddb7ea4	-0.10717514
33	0xbe2f7590	-0.1713469
34	0x3a8292f7	0.0009962012
35	0xbeaba4ea	-0.33524257
36	0xbe07ac24	-0.1324926
37	0x3d9d51b3	0.076815985
38	0xbe9374cb	-0.28800043
39	0xbec83944	-0.3910619
40	0x3ea0f2dc	0.31435287
41	0xbe11a36e	-0.142225
42	0x3e418396	0.18897852
43	0xbe27a094	-0.1636985
44	0xbd8e99ff	-0.06962966
45	0xbdeccbb8	-0.11562294
46	0xbee02a88	-0.4378245
47	0xbe760d08	-0.24028409
48	0xbd005b77	-0.031337228
49	0xbdd47e3a	-0.10375638
50	0x3ded39d8	0.115832984
51	0xbed22726	-0.41045493
52	0xbe3eca39	-0.1863183
53	0x3cab3d65	0.020903299
54	0xbe1b0c08	-0.15141308
55	0x3d5a90da	0.053360797
56	0xbe4ffe74	-0.2031191
57	0xbe4338ef	-0.19064687
58	0xbe89fc9e	-0.26950544
59	0x3dfd5783	0.12370207
60	0x3d625961	0.05526102
61	0x3e10edf0	0.14153266
62	0x3dbcd540	0.09220362
63	0xbe7f00bb	-0.24902622
64	0xbdc68a66	-0.09694366
65	0xbe929109	-0.28626278
66	0x3e7c028c	0.24610347
67	0xbe90ba19	-0.2826698
68	0x3e238a81	0.15970804
69	0x3cd942ca	0.026521105
70	0xbe729173	-0.23688297
71	0x3e4c3343	0.1994143
72	0xbe0644de	-0.13112208
73	0xbd98e3af	-0.07465302
74	0xbe4e1809	-0.20126356
75	0x3d571f01	0.052519802
76	0xbe913b4d	-0.28365555
77	0xbebca53f	-0.36844823
78	0xbe1027bb	-0.14077656
79	0x3d04575b	0.03230987
80	0xbe5c0442	-0.21485999
81	0xbe8f717d	-0.28016272
82	0xbeab9259	-0.33510092
83	0xbecb612f	-0.39722583
84	0xbd567911	-0.05236155
85	0x3edaf480	0.42764664
86	0xbeb1d7c5	-0.34734932
87	0xbdb5b7c5	-0.08872942
88	0xbd182888	-0.03714803
89	0xbe392829	-0.18081726
90	0xbe31cd78	-0.17363536
91	0xbe58b4b7	-0.21162687
92	0xbe52b9cf	-0.20578693
93	0xbd9c7bbc	-0.07640788
94	0xbd417110	-0.047226965
95	0x3e8e6c18	0.27816844
96	0x3d6869fc	0.0567417
97	0xbeba7207	-0.3641512
98	0xbeb03d6f	-0.3442187
99	0xbe541a5b	-0.20713179
100	0xbe377b18	-0.1791805
101	0x3e3b5d42	0.18297294
102	0xbe57b2bf	-0.2106428
103	0x3e62c58b	0.22145669
104	0xbd1a2559	-0.037633274
105	0xbd50770b	-0.05089478
106	0xbd0f8b6e	-0.03504508
107	0xbe48e0a1	-0.19616939
108	0xbdcd35a0	-0.10019994
109	0xbe9c06d1	-0.3047395
110	0xbe20dc0d	-0.15708943
111	0xbe2caf6d	-0.16863795
112	0x3dce1ee0	0.10064483
113	0xbd64427d	-0.05572747
114	0xbee253a0	-0.44204426
115	0xbe27b683	-0.16378216
116	0xbe3ff71f	-0.18746613
117	0x3dafc952	0.08583321
118	0xbdb8a57f	-0.09015941
119	0x3db3362f	0.08750569
120	0xbe8bc346	-0.2729742
121	0xbe8ea506	-0.27860278
122	0xbd8cb58c	-0.06870565
123	0xbda86822	-0.08222987
124	0xbd9066fb	-0.07050892
125	0xbdb21736	-0.086958334
126	0xbceef008	-0.02916719
127	0x3e373a1f	0.17893265
128	0x3e0f69a3	0.14005141
129	0xbe574599	-0.21022643
130	0x3da9becc	0.08288345
131	0xbe79a853	-0.24380617
132	0xbe8b2489	-0.27176312
133	0xbe5dd0a1	-0.21661617
134	0xbe3be44d	-0.18348809
135	0xbe5964a2	-0.21229795
136	0x3e6def64	0.23235852
137	0xbdb62e8a	-0.08895595
138	0xbe11737e	-0.14204213
139	0x3e9eab99	0.30990294
140	0x3de7bc06	0.113151595
141	0xbe3ece24	-0.18633324
142	0xbded156c	-0.115763515
143	0xbd490f3f	-0.049086805
144	0xbea4b114	-0.3216635
145	0x3e2cfb66	0.16892776
146	0x3b641c22	0.0034806808
147	0xbe4e17ca	-0.20126262
148	0xbe6de0bf	-0.23230265
149	0xbcff216f	-0.031143872
150	0x3d4af923	0.049554
151	0xbe14061d	-0.14455457
152	0xbe8892fc	-0.2667464
153	0xbddaf64a	-0.10691507
154	0xbe25fb58	-0.16209161
155	0xbe37c87a	-0.1794757
156	0xbea058e8	-0.3131783
157	0x3eaa28b3	0.33234176
158	0xbe2a9d64	-0.16661602
159	0xbe325d97	-0.17418514
160	0xbeb7a8ba	-0.35870916
161	0xbe167b1a	-0.14695397
162	0xbd154d83	-0.036450874
163	0xbe2a7ce9	-0.16649212
164	0x3de95e4a	0.11394937
165	0x3ca3f2ee	0.020013299
166	0xbe32c5a0	-0.174582
167	0x3e1e4cf0	0.15459037
168	0xbeb52e6e	-0.35386986
169	0xbdaaa2df	-0.083318464
170	0xbe50f30b	-0.20405214
171	0xbda3f3d5	-0.08005492
172	0xbe8efd45	-0.27927604
173	0xbe44ae8f	-0.19207214
174	0x3e09a9ac	0.13443631
175	0xbe2bd4bf	-0.16780375
176	0xbdae9be0	-0.085258245
177	0xbdfcf646	-0.123516604
178	0xbe257cc4	-0.16160876
179	0x3d7b3325	0.061328072
180	0x3dbd3bc1	0.09239913
181	0xbd0c821f	-0.03430378
182	0xbd13cc3d	-0.03608345
183	0xbd313e54	-0.04327233
184	0xbe26a151	-0.16272475
185	0x3d58922d	0.05287378
186	0xbeb80f28	-0.35949063
187	0xbd86e1b8	-0.06586021
188	0xbe19f89c	-0.15036243
189	0x3d6359ca	0.05550555
190	0x3d8090a2	0.062775865
191	0xbf13ca8f	-0.57730955
192	0xbead2969	-0.33820656
193	0xbd8048d3	-0.0626389
194	0x3e104afb	0.14091103
195	0xbe90e6a8	-0.28300977
196	0xbe8d1d17	-0.27561256
197	0xbec37c71	-0.3818088
198	0x3dad3584	0.08457473
199	0xbec7cfcf	-0.39025733
200	0xbded29ad	-0.11580215
201	0xbed67324	-0.4188472
202	0xbecb4d78	-0.3970754
203	0xbead1226	-0.3380291
204	0x3d9fda04	0.07805255
205	0xbe9c00b1	-0.30469278
206	0xbe334dcb	-0.17510144
207	0xbdf5e090	-0.120057225
208	0xbd164e61	-0.03669584
209	0x3dcf69c0	0.10127592
210	0xbc4be9df	-0.012445896
211	0xbde2ab77	-0.110678606
212	0x3e562c60	0.20915365
213	0xbe58d670	-0.21175551
214	0xbe42774f	-0.18990825
215	0xbe64a917	-0.22330128
216	0xbe00d9f5	-0.12583144
217	0xbd4ad8dd	-0.049523223
218	0xbe882cbc	-0.2659663
219	0xbd308740	-0.043097734
220	0x3d570daa	0.052503265
221	0xbde00cc3	-0.10939934
222	0xbe4601e4	-0.19336659
223	0xbe8a0f30	-0.26964712
224	0xbdbd08ba	-0.0923018
225	0xbeb672cc	-0.35634458
226	0xbe6fffd8	-0.2343744
227	0xbe5db600	-0.21651459
228	0xbe4e05c9	-0.20119394
229	0xbe335114	-0.17511398
230	0x3e17074c	0.14748877
231	0xbecd5758	-0.401057
232	0xbe79a346	-0.2437869
233	0x3bd6756c	0.0065447595
234	0xbec679e7	-0.3876488
235	0xbe5bb2c2	-0.2145491
236	0xbdcefcb6	-0.101067945
237	0xbecde3f5	-0.4021298
238	0x3e37ab36	0.17936406
239	0xbd85a736	-0.065260336
240	0xbe9e407b	-0.3090857
241	0xbe5f8064	-0.21826321
242	0xbe383e14	-0.17992431
243	0xbddfeb04	-0.109334975
244	0xbe870b07	-0.263756
245	0xbe76f24c	-0.24115866
246	0xbdd165dd	-0.10224507
247	0x3eb35e5c	0.35032928
248	0xbd87f45e	-0.06638406
249	0xbe4c1608	-0.19930279
250	0xbdc09032	-0.09402503
251	0xbf011b98	-0.5043273
252	0xbea7bd73	-0.32761726
253	0xbda0b0c2	-0.07846214
254	0x3d2ae6ec	0.04172413
255	0x3e1fcb54	0.15604907

fc2.weight f4 [128, 256]
0	0x3e52af7a	0.20574751
1	0xbe1dcb7b	-0.15409653
2	0xbee0c85d	-0.43902865
3	0xbcc1ab4a	-0.023641247
4	0x3bfe3e58	0.007758897
5	0x3e914886	0.28375643
6	0xbd5872c3	-0.05284382
7	0xbe3064fc	-0.17226022
8	0x3ca3ae63	0.019980615
9	0xbe0c5e08	-0.13707745
10	0x3bb28671	0.0054481556
11	0xbdf2a74a	-0.11848314
12	0xbe2f7c48	-0.17137253
13	0xbdb1502e	-0.08657871
14	0xbd1eb21c	-0.038744077
15	0xbe79b556	-0.2438558
16	0x3d4c92af	0.049944576
17	0xbd35372f	-0.04424208
18	0x3e1cebe1	0.15324356
19	0xbdcb6e6f	-0.09933173
20	0x3d6c78c5	0.057732362
21	0x3e786389	0.2425672
22	0xbe799c4b	-0.24376027
23	0xbd0fd372	-0.03511376
24	0xbd22e9fb	-0.039773922
25	0x3c3fadcb	0.01169915
26	0x3e22fe33	0.15917282
27	0x3e5682cc	0.20948333
28	0xbce24d13	-0.027624642
29	0x3dd4967a	0.103802636
30	0xbd00644d	-0.031345654
31	0xbd07f1d2	-0.033189602
32	0xbe2f5446	-0.17121992
33	0x3e105d3c	0.14098066
34	0xbd020083	-0.03173877
35	0xbc31e19e	-0.010857014
36	0x3e161f12	0.1466029
37	0x3d5d372c	0.054007694
38	0xbcb715fe	-0.022349354
39	0x3e652178	0.22376049
40	0x3e3b698a	0.18301979
41	0xbc342540	-0.010995209
42	0xbc9b7466	-0.018976402
43	0x3dd03ada	0.10167475
44	0xbe1cacbb	-0.15300266
45	0x3e0907bd	0.13381858
46	0xbe2318f1	-0.15927483
47	0x3e0849ea	0.13309446
48	0x3c6883f1	0.0141916135
49	0x3e0f1f8a	0.13976875
50	0x3e128b83	0.14311032
51	0x3eaa2f8f	0.3323941
52	0x3e23fdc3	0.16014771
53	0x3e460591	0.19338061
54	0x3e8083e5	0.25100628
55	0x3e33f291	0.17573
56	0x3c404679	0.011735552
57	0x3df728bf	0.120683186
58	0x3b1f2498	0.0024283286
59	0x3e8b6f0b	0.27233157
60	0x3b87ea08	0.0041477717
61	0x3e431cde	0.1905398
62	0x3e9f9712	0.31169945
63	0xbe3aa1de	-0.1822581
64	0x3dd5fef2	0.104490176
65	0xbdb6a8c5	-0.08918909
66	0xbe3a656b	-0.1820275
67	0xbd830a4c	-0.06398448
68	0x3e2beae5	0.16788824
69	0x3d2e7d33	0.042599868
70	0x3e744b38	0.23856819
71	0xbdd993cc	-0.10623893
72	0xbdaa3385	-0.08310608
73	0x3e1341ae	0.14380524
74	0x3d81618a	0.06317432
75	0xbdc60938	-0.09669727
76	0x3e46d520	0.19417238
77	0xbe5a1ad4	-0.21299297
78	0xbd9de41c	-0.07709524
79	0x3e136219	0.1439289
80	0x3e3db2ec	0.18525285
81	0xbdaf2a26	-0.08552961
82	0xbd043ec4	-0.03228642
83	0x3c0921e5	0.0083698975
84	0x3dcf9f12	0.10137762
85	0xbe238e1a	-0.15972176
86	0x3dfad47c	0.122475594
87	0x3d9ce000	0.07659912
88	0x3e51cb57	0.20487724
89	0xbbc660da	-0.006054026
90	0x3e3a3611	0.18184687
91	0x3dd10f21	0.10207964
92	0xbd44f15a	-0.048081733
93	0xbe11ae82	-0.14226726
94	0xbd2e1eeb	-0.042509954
95	0x3e73675f	0.23769902
96	0x3e285bca	0.16441265
97	0x3e810453	0.25198612
98	0x3de69a81	0.11259938
99	0x3dc2848d	0.09497938
100	0xbde342e5	-0.110967435
101	0xbd179546	-0.037007593
102	0xbd873d4f	-0.066034906
103	0xbd31ee4b	-0.043440145
104	0x3e50c375	0.20387061
105	0xbd9c60f1	-0.076356776
106	0x3e71f343	0.23627953
107	0xbc649171	-0.013950692
108	0x3b52dcd4	0.003217508
109	0x3bf9b04d	0.0076198936
110	0xbd20b317	-0.039233293
111	0x3edbd24f	0.4293389
112	0xbe0d20b3	-0.13782005
113	0x3d770a48	0.06031254
114	0xbe6b5317	-0.22980915
115	0xbd702121	-0.058625344
116	0xbdfdf385	-0.12399963
117	0x3e7e2fbd	0.24822898
118	0xbe3fb47c	-0.18721193
119	0xbce7ac4d	-0.028280402
120	0xbe110392	-0.14161518
121	0x3e161599	0.14656676
122	0x3e388031	0.18017651
123	0xbdf78683	-0.12086203
124	0xbe5935f8	-0.21211994
125	0x3cb65a69	0.022259908
126	0xbd8b8dcc	-0.06814155
127	0x3e397931	0.18112637
128	0x3e3ab09f	0.18231438
129	0x3ea744f6	0.326698
130	0x3d924e5d	0.07143853
131	0xbdee3324	-0.11630848
132	0x3dd1a8d8	0.102372825
133	0x3eb55baa	0.35421497
134	0xbd910ba9	-0.07082302
135	0xbda0bc59	-0.078484245
136	0x3e18236d	0.14857264
137	0x3e32ade1	0.17449142
138	0xbba04759	-0.004891318
139	0x3bbf1724	0.005831616
140	0x3de6d7e8	0.112716496
141	0xbe262d9e	-0.16228339
142	0xbc8ddf00	-0.017318249
143	0xbdad7d05	-0.08471111
144	0x3e3c7a42	0.18406013
145	0x3e819817	0.25311348
146	0xbc49ef81	-0.012325169
147	0xbe0bc54d	-0.13649483
148	0xbdba7a85	-0.091054
149	0x3dfcba5c	0.12340233
150	0xbda5b7c3	-0.080916904
151	0x3d866eea	0.06564124
152	0x3d666a9d	0.056254018
153	0x3d574322	0.052554257
154	0x3cab20e4	0.020889707
155	0x3e0cf89e	0.13766715
156	0x3db39b28	0.08769828
157	0xbc4bb93c	-0.0124343
158	0x3df34c94	0.118798405
159	0x3d90ae1b	0.07064458
160	0xbd66cc96	-0.056347452
161	0x3e1e2ba8	0.15446341
162	0x3d7e00bd	0.062012423
163	0x3cb9ca9a	0.022679616
164	0x3d94250e	0.0723363
165	0x3e98cfed	0.29846135
166	0x3e1901b9	0.14942063
167	0x3c39b839	0.011335426
168	0xbdb916e6	-0.09037571
169	0x3d22200a	0.039581336
170	0x3d8d822a	0.069095924
171	0xbdf1c6d6	-0.11805503
172	0xbdeba6a7	-0.11506396
173	0x3b8d2c0d	0.00430823
174	0xbe5d668f	-0.21621154
175	0x3da05926	0.07829504
176	0x3e9df83a	0.30853444
177	0xbe020fbf	-0.12701319
178	0xbde48a37	-0.11159175
179	0xbd41d790	-0.047324717
180	0x3e9aa2c1	0.30202296
181	0x3d83a0a1	0.06427122
182	0x3ea7946d	0.32730427
183	0xbdf85039	-0.12124676
184	0xbe4f8a67	-0.2026764
185	0x3d4d65d1	0.050145928
186	0xbda31bc1	-0.07964278
187	0xbd7cefa7	-0.061751988
188	0x3d9eba1a	0.0775034
189	0x3e946371	0.28982118
190	0x3e1da82a	0.15396181
191	0x3e60f9cd	0.21970291
192	0xbcb78e7a	-0.022406805
193	0xbc19536c	-0.009358268
194	0x3dfd7922	0.1237662
195	0xbe10af47	-0.14129363
196	0x3d032e71	0.03202671
197	0x3da34c9a	0.07973595
198	0xbdc5ebe8	-0.09664136
199	0xbda33952	-0.07969917
200	0xbe8f7780	-0.2802086
201	0x3daa7518	0.08323115
202	0x3d4f99dc	0.05068384
203	0x3d7f5f9c	0.06234704
204	0x3a81984c	0.0009887307
205	0x3e176dfc	0.1478805
206	0x3e8ef71a	0.279229
207	0x3cf4d658	0.029887363
208	0x3e41d316	0.18928179
209	0xbd81571a	-0.063154414
210	0x3d5c51f7	0.053789105
211	0xbca1ce36	-0.01975165
212	0xbd8f4bca	-0.069968775
213	0x3d93f494	0.07224384
214	0x3e30f4cc	0.17280883
215	0xbc3d195f	-0.0115416935
216	0x3de0b3a1	0.109717615
217	0x3e0942b0	0.13404346
218	0xbcc49968	-0.023998931
219	0xbd918310	-0.07105076
220	0xbe0bd644	-0.13655955
221	0xbd915dbe	-0.07097958
222	0xbe347bd0	-0.17625356
223	0x3d31eafe	0.043436997
224	0x3e67d9bf	0.22641657
225	0x3c497674	0.012296308
226	0xbd861265	-0.06546477
227	0xbbe595ef	-0.007006399
228	0x3d8d2929	0.06892616
229	0x3e74aa16	0.23893008
230	0x3e34447a	0.17604247
231	0x3e095e23	0.13414817
232	0x3e8b3bf1	0.2719417
233	0x3c48e865	0.012262438
234	0x3e3f7dc1	0.18700315
235	0xbdc8405c	-0.097779006
236	0x3e5f6be1	0.21818496
237	0xbe0c8cb6	-0.13725552
238	0x3d858de9	0.06521208
239	0x3e009e93	0.12560491
240	0x3e89e486	0.26932162
241	0x3e01870a	0.1264917
242	0x3ceb1f1a	0.028701354
243	0x3b016941	0.0019746574
244	0x3ead8bef	0.33895823
245	0x3df3833b	0.118902646
246	0x3c804c66	0.01566143
247	0xbe638f28	-0.22222579
248	0x3dfb19e7	0.122608
249	0xbed52b55	-0.41634622
250	0xbdb75871	-0.08952416
251	0x3dcf0fff	0.10110473
252	0x3c2300d1	0.009948925
253	0x3de37381	0.11106015
254	0x3db7f1ba	0.089816526
255	0xbdbd2b6f	-0.092368

fc2.bias f4 [128]
0	0xbdc03495	-0.09385029
1	0xbd3435db	-0.043996673
2	0x3d0c6e98	0.034285158
3	0xbe72efc1	-0.23724271
4	0xbd89c066	-0.0672615
5	0xbd85c4fc	-0.065317124
6	0xbd26d03f	-0.040725943
7	0xbeab46ce	-0.33452457
8	0xbd913759	-0.07090635
9	0xbe63e59e	-0.22255561
10	0xbe0628fa	-0.13101569
11	0xbb7942cb	-0.0038034196
12	0xbe28d821	-0.16488697
13	0xbc9ace18	-0.018897101
14	0x3d0ff052	0.035141297
15	0xbdf74803	-0.12074282
16	0xbe34ef22	-0.17669347
17	0xbe5c4955	-0.21512349
18	0x3b17fab3	0.00231902
19	0xbd90b894	-0.070664555
20	0xbe629b98	-0.22129667
21	0xbcf28139	-0.029602634
22	0xbd107f25	-0.035277504
23	0xbddd3626	-0.108013436
24	0xbd08884f	-0.03333312
25	0xbda9f35b	-0.082983695
26	0xbe21aed7	-0.15789352
27	0xbe035a3d	-0.12827392
28	0xbd35086b	-0.04419748
29	0xbe2b1490	-0.16707063
30	0xbe5ed599	-0.21761169
31	0xbe34f7c8	-0.17672646
32	0xbdefa7c7	-0.11701923
33	0xbd5f0b52	-0.054454155
34	0x3d937e89	0.07201869
35	0xbe13c48f	-0.1443045
36	0xbe2ed74b	-0.17074315
37	0xbe34f94e	-0.17673227
38	0xbded0474	-0.11573115
39	0xbe3c65c8	-0.18398201
40	0xbc92ec8c	-0.01793506
41	0xbe72ac42	-0.23698524
42	0xbdca8c61	-0.098900564
43	0xbe0a1894	-0.13485938
44	0xbdbcca64	-0.092182904
45	0xbe3471c5	-0.17621525
46	0xbe1daf34	-0.15398866
47	0x3cef06a0	0.029177964
48	0xbe1d7f60	-0.15380621
49	0xbd14e643	-0.036352407
50	0xbde69aad	-0.11259971
51	0xbb057a24	-0.002036699
52	0xbddf8904	-0.109148055
53	0xbe390e08	-0.18071759
54	0xbe960ff4	-0.29309046
55	0xbe564872	-0.20926073
56	0xbe38734b	-0.18012731
57	0xbe43c7e2	-0.19119218
58	0xbb21e330	-0.0024702065
59	0xbc9afa89	-0.018918293
60	0x3d9a6bf5	0.075401224
61	0xbe1648f8	-0.14676273
62	0xbd8af722	-0.06785418
63	0xbe7883bb	-0.24269001
64	0xbe0556ed	-0.13021441
65	0xbe1f0425	-0.15528925
66	0xbe760a41	-0.24027349
67	0xbe09cf87	-0.13458072
68	0xbe83cf1d	-0.25743952
69	0xbe96f65e	-0.29484838
70	0xbdec68e5	-0.115434445
71	0xbcd00068	-0.025390819
72	0xbd00ebe4	-0.031474963
73	0x3d95f2f2	0.07321729
74	0xbd0ab8d2	-0.033867665
75	0xbd8abcf4	-0.06774321
76	0xbe76c298	-0.24097669
77	0xbaff60ea	-0.0019483839
78	0xbdc0945b	-0.094032966
79	0x3bcdc492	0.0062795365
80	0xbe619dd1	-0.22032858
81	0xbddaa7e3	-0.10676553
82	0xbdeb8877	-0.11500638
83	0xbe08bd47	-0.13353454
84	0xbe1ff4b0	-0.15620685
85	0xbe0c61da	-0.13709202
86	0xbddf8288	-0.10913569
87	0xbd877e41	-0.06615878
88	0xbd9e068e	-0.07716094
89	0xbcbd15a5	-0.02308161
90	0xbe2e807e	-0.17041203
91	0xbe532e2c	-0.20623082
92	0xbe0443e5	-0.12916525
93	0xbd5025e7	-0.050817396
94	0xbdd21d61	-0.1025951
95	0xbe9ba465	-0.3039886
96	0xbdfa1c3e	-0.12212418
97	0xbe057c69	-0.1303574
98	0x3cadc7d0	0.021213442
99	0x3be225a5	0.0069014602
100	0xbd0f9397	-0.035052862
101	0xbddb3c35	-0.10704843
102	0xbe0ea678	-0.1393069
103	0xbe60336b	-0.21894614
104	0xbe427000	-0.18988037
105	0xbe2e2777	-0.17007242
106	0xbd42e354	-0.04758008
107	0xbc3b1158	-0.011417709
108	0x3812e26a	3.5019977e-05
109	0xbdbf100a	-0.09329231
110	0xbe8d2056	-0.27563733
111	0xbd8b2961	-0.06795002
112	0xbdf05ed0	-0.11736834
113	0xbe417778	-0.1889323
114	0xbdff84d7	-0.12476509
115	0x3d8c34df	0.06846022
116	0x3d6c801f	0.057739373
117	0xbd412a34	-0.04715939
118	0xbdf8e8e6	-0.12153797
119	0xbd579b11	-0.052638117
120	0x3d331490	0.04372078
121	0xbd77560f	-0.060384806
122	0xbdca401c	-0.09875509
123	0xbe1d5c8d	-0.15367337
124	0x3d8a1547	0.067423396
125	0xbe374549	-0.17897524
126	0xbeb7a60c	-0.3586887
127	0xbdc96184	-0.09833053

fc3.weight f4 [128, 128]
0	0x3d915994	0.07097164
1	0xbe543940	-0.20724964
2	0x3d57908f	0.052628096
3	0x3e63eb69	0.2225777
4	0xbd4d78b1	-0.05016393
5	0x3e0895d7	0.1333841
6	0x3cf75838	0.030193433
7	0x3e0dd1d6	0.13849577
8	0xbe107ced	-0.14110155
9	0x3bf9503d	0.007608442
10	0xbd8ea7bc	-0.069655865
11	0xbe426470	-0.18983626
12	0xbc8d90bc	-0.017280929
13	0xbe7a3ad7	-0.24436508
14	0xbecf8178	-0.40528464
15	0x3e87f186	0.26551455
16	0x3d586fa8	0.05284086
17	0xbcdf7f4f	-0.027282385
18	0xbd2eef5e	-0.042708747
19	0x3da496a6	0.080365464
20	0x3ca33f2d	0.019927585
21	0x3d3331b4	0.043748572
22	0x3e097ae8	0.13425791
23	0x3e648e25	0.22319849
24	0x3d9c105c	0.07620308
25	0x3c3a5f04	0.011375193
26	0xbdea87fe	-0.1145172
27	0xbe090b69	-0.13383259
28	0xbe51d466	-0.2049118
29	0x3e196622	0.14980367
30	0x3e8c466d	0.2739748
31	0xbc9f8f45	-0.019477496
32	0xbd738354	-0.059451416
33	0x3ca2c534	0.019869424
34	0xbdc6fc10	-0.09716046
35	0xbe6ad2fb	-0.22932045
36	0xbc52078d	-0.012819183
37	0xbdb5e64a	-0.08881815
38	0x3d821f17	0.06353586
39	0x3e6d01ca	0.23145214
40	0x3d35ab10	0.04435259
41	0xbdaa62dc	-0.08319637
42	0x3da0a8a2	0.07844664
43	0xbd91445b	-0.07093116
44	0x3d89a7fc	0.067214936
45	0xbd1b3d78	-0.037900418
46	0x3e9014dd	0.28140917
47	0x3d89265c	0.066967696
48	0xbe8a928f	-0.2706494
49	0xbcad2f7f	-0.021140812
50	0x3ced2ba4	0.028951474
51	0x3e1ce29c	0.1532082
52	0xbdf27001	-0.11837769
53	0x3e2d5991	0.16928698
54	0xbd63e1e9	-0.055635367
55	0x3e531cdb	0.20616476
56	0xbafdf358	-0.001937489
57	0x3df1118b	0.11770924
58	0x3d0aa2c7	0.033846643
59	0xbd9bf42b	-0.07614931
60	0xbb811a22	-0.003939883
61	0x3dbfb8f3	0.09361448
62	0xbdb61a10	-0.0889169
63	0xbe021128	-0.12701857
64	0xbddffc11	-0.1093675
65	0xbe350138	-0.17676246
66	0xbd9fa4fd	-0.07795141
67	0xbc9f319f	-0.01943284
68	0x3da86015	0.08221451
69	0xbdf9de32	-0.122005835
70	0x3e0d17e5	0.13778646
71	0xbdeb793a	-0.114977315
72	0xbd84c7e8	-0.064834416
73	0x3e04e966	0.1297966
74	0xbd5fb39f	-0.05461466
75	0x3dbcd3f2	0.09220113
76	0x3e12e097	0.14343487
77	0x3dc17e8e	0.094479665
78	0xbd6c512b	-0.057694595
79	0xbd9d01cd	-0.07666359
80	0x3d4c2275	0.04983755
81	0x3dfb0dd7	0.12258499
82	0xbe20bd0c	-0.15697116
83	0xbe7f45d7	-0.24928986
84	0x3e2b90e2	0.16754487
85	0xbe1e0cc0	-0.15434551
86	0xbda062e8	-0.07831365
87	0x3dfd551b	0.12369748
88	0xbe044754	-0.12917835
89	0x3d193c78	0.037411183
90	0xbe12b0b5	-0.14325221
91	0x3e1e762f	0.15474771
92	0x3d107569	0.03526822
93	0x3e1f1660	0.15535879
94	0x3e3a5fd9	0.18200625
95	0x3dd4e90c	0.10396013
96	0xbd8f085c	-0.06984016
97	0xbe1463bf	-0.14491175
98	0x3cfa7196	0.03057174
99	0xbc0e4747	-0.008683986
100	0x3e528aea	0.20560804
101	0x3db971d1	0.09054912
102	0xbd80bf7c	-0.06286523
103	0x3e04b9ac	0.12961453
104	0x3d573ddb	0.052549224
105	0x3da57a02	0.08079912
106	0xbd0408e7	-0.032235052
107	0x3e131432	0.14363173
108	0xbd0750b6	-0.033035956
109	0x3dee5f93	0.11639323
110	0x3e507fe5	0.20361288
111	0xbe3a591e	-0.18198058
112	0x3df13bdb	0.11778995
113	0x3d9a06d4	0.075208336
114	0xbdb47ca0	-0.08812833
115	0x3d739329	0.059466515
116	0x3e465eeb	0.19372146
117	0xbcebefe1	-0.028800907
118	0x3e4ab989	0.19797339
119	0xbdf6c60e	-0.12049495
120	0x3dc3bd51	0.095575936
121	0xbdca278b	-0.098708235
122	0x3dd3764a	0.10325296
123	0x3d419134	0.047257617
124	0x3be47153	0.006971517
125	0x3e0d79eb	0.1381604
126	0xbd89c276	-0.067265436
127	0xbd9f3db4	-0.07775441
128	0x3aebe064	0.0017995951
129	0x3adacbac	0.0016692779
130	0xbab8bb9e	-0.0014094
131	0x3b3ae5f6	0.0028518415
132	0xba86d9b6	-0.0010288272
133	0x3af24d2c	0.0018486134
134	0x3957dc20	0.00020586001
135	0xba39c01c	-0.00070858165
136	0x3b37da04	0.0028053531
137	0xbad40d22	-0.001617823
138	0x392cd0c0	0.00016480964
139	0x3aaed14c	0.0013337522
140	0x3b2e6ff0	0.0026617013
141	0xbae10e82	-0.0017170461
142	0xba864238	-0.0010243123
143	0x3afa8c78	0.0019115349
144	0x3ad299ac	0.0016067526
145	0xbab606b0	-0.0013887491
146	0x3a22aee8	0.00062058726
147	0x3a2fb05c	0.0006702
148	0xbb234951	-0.0024915526
149	0x39f11430	0.00045982143
150	0x3ad86274	0.0016508834
151	0xb966ee10	-0.00022023194
152	0xbb0d209e	-0.0021534334
153	0x3a757928	0.0009364062
154	0xbb075d7e	-0.002065509
155	0xbb1c0b38	-0.0023810398
156	0xbab10174	-0.0013504461
157	0xba75e62c	-0.00093803066
158	0x3864b180	5.4524746e-05
159	0xba330124	-0.0006828478
160	0x3a89c690	0.0010511447
161	0xb98bce00	-0.00026665628
162	0x3ade55a4	0.0016962779
163	0x3a8c90a0	0.0010724254
164	0x3a00cc3c	0.0004913246
165	0xba100324	-0.0005493632
166	0xbaa70731	-0.0012743232
167	0x3a1e9f74	0.0006050982
168	0x39b4c730	0.00034480682
169	0xb8890fa0	-6.5355795e-05
170	0x39115420	0.00013859617
171	0x3b3f38ca	0.0029178136
172	0xba9b9f3b	-0.0011873016
173	0xba8c4f87	-0.0010704853
174	0xb9aa72e0	-0.00032510515
175	0x3a2ad5d0	0.0006516846
176	0xbb3332d0	-0.002734352
177	0x3a632b58	0.00086658215
178	0xbb3697eb	-0.0027861546
179	0xba353c60	-0.00069135986
180	0xbb139d14	-0.0022524046
181	0xbb223b18	-0.002475446
182	0xbae5b38d	-0.0017524824
183	0xbb22cc14	-0.0024840878
184	0xb94d1400	-0.00019557774
185	0xb97f0fc0	-0.00024324562
186	0xba903efd	-0.00110051
187	0xbab62897	-0.0013897595
188	0xba5c1be0	-0.00083964877
189	0x39f08248	0.00045873434
190	0xbada07d1	-0.001663441
191	0xba3f2bcc	-0.0007292598
192	0xbac68ccc	-0.0015148162
193	0x3a396b44	0.0007073174
194	0x3a63c2c0	0.0008688383
195	0xbb25a640	-0.0025276095
196	0xbb3dbaf7	-0.002895055
197	0x39039340	0.00012547988
198	0xbb38c9f5	-0.0028196548
199	0x3ae2b4f0	0.0017296355
200	0x3b1ff368	0.0024406556
201	0xbb0ee268	-0.002180243
202	0xbace8c6b	-0.00157584
203	0xba5b8c6c	-0.00083751115
204	0x3b195336	0.0023395545
205	0x39e10a18	0.00042922865
206	0x3af0b7f0	0.0018365365
207	0xb9250870	-0.0001573877
208	0x3a362b68	0.0006949217
209	0xb9a23298	-0.00030936743
210	0xb9d23e20	-0.00040100608
211	0xba54e27c	-0.0008120907
212	0xb9e8add8	-0.00044380012
213	0x3af386d8	0.0018579615
214	0x3a032a28	0.0005003535
215	0x3b09f396	0.002104973
216	0x3b3a0dce	0.0028389576
217	0xba1da634	-0.0006013841
218	0x3a8bd22c	0.0010667494
219	0x3ad2ef34	0.0016093017
220	0xba91d5ec	-0.0011126376
221	0xba86ee9c	-0.00102945
222	0xbb22496a	-0.0024762996
223	0xbb0410e2	-0.0020151665
224	0xbb3bbf95	-0.0028648127
225	0x3a9306c8	0.0011217231
226	0xbacf5c17	-0.0015820292
227	0xbb0ca534	-0.0021460773
228	0x3a8843ac	0.0010396144
229	0x39bf5770	0.00036495505
230	0xbae79108	-0.0017667124
231	0x3b33955e	0.0027402262
232	0xba626784	-0.0008636641
233	0xba1bf194	-0.00059487787
234	0x3b15d250	0.0022860952
235	0xba77a86c	-0.0009447399
236	0xb9f662b0	-0.00046994304
237	0x3aa78168	0.0012779655
238	0xbaaede56	-0.0013341408
239	0x3b2b68e2	0.0026155044
240	0x3b2b4f1a	0.0026139678
241	0xba148be8	-0.00056665996
242	0xb9c75858	-0.0003802206
243	0xba4ae458	-0.00077397143
244	0xbb0e2a74	-0.0021692785
245	0x3ae86a18	0.0017731814
246	0xbb050aa4	-0.0020300532
247	0xbae81b49	-0.0017708327
248	0x3b333030	0.0027341954
249	0xba380d4c	-0.00070210244
250	0x3afa7780	0.00191091
251	0xba6af7e4	-0.000896333
252	0x39cee348	0.0003946072
253	0x3a86eb24	0.0010293466
254	0xb9a6d068	-0.00031817262
255	0xbad9172e	-0.0016562694

fc3.bias f4 [128]
0	0xbd60390e	-0.05474191
1	0xbdaf3be7	-0.08556347
2	0x3c525617	0.012837908
3	0xbd08c0b4	-0.0333869
4	0x3df16a96	0.11787908
5	0x3dac4fca	0.08413656
6	0x3d96dff0	0.073669314
7	0xbd1e62e1	-0.038668517
8	0xbe249580	-0.16072655
9	0xbd42a560	-0.047520995
10	0x3e106717	0.14101826
11	0x3e4bb32f	0.19892572
12	0xbd4174f1	-0.047230665
13	0x3b79a8f3	0.0038095086
14	0x3de90644	0.11378148
15	0x3d086cfa	0.033307053
16	0xbd153a1a	-0.036432363
17	0x3e47e3b8	0.19520462
18	0xbcf3b1ea	-0.029747922
19	0xb9fe8b6c	-0.00048550533
20	0xbd0d18b8	-0.0344474
21	0xbdca1ba1	-0.09868551
22	0xbe43dc88	-0.19127095
23	0xbd3be648	-0.04587391
24	0x3e0b373e	0.13595292
25	0xbdab7966	-0.08372764
26	0xbcbf2193	-0.02333144
27	0x3cae6829	0.021289902
28	0xbdf53aab	-0.11974081
29	0xbd4d4f8b	-0.050124686
30	0xbd9d589c	-0.076829165
31	0x3bc1843e	0.005905657
32	0xbd13693a	-0.035989024
33	0xbdc6a89b	-0.09700128
34	0xbd94bf34	-0.072630316
35	0x3e1795c1	0.1480322
36	0xbdf596cb	-0.11991652
37	0xbd06f531	-0.032948676
38	0x3dfa6a99	0.12227363
39	0xbd9139a7	-0.070910744
40	0xbd05b1a0	-0.0326401
41	0xbd8945ae	-0.067027435
42	0xbdb0a3e9	-0.086250134
43	0xbe3df5a4	-0.18550736
44	0x3dc7c0c3	0.09753563
45	0x3da8bcab	0.082391106
46	0xbd65bba8	-0.056087166
47	0xbd8d384b	-0.06895503
48	0x3d4b858a	0.0496879
49	0x3cf62e9f	0.030051528
50	0xbce0f48b	-0.027460357
51	0x3e63485e	0.22195575
52	0xbe6b0ddb	-0.22954504
53	0x3e0174c8	0.12642205
54	0x3d278a58	0.04090342
55	0x3b6e0738	0.003632022
56	0x3e98c443	0.29837236
57	0x3d6ef766	0.058341406
58	0xbd4512e0	-0.048113704
59	0x3e19528e	0.14972898
60	0xbd5a4032	-0.053283878
61	0x3d2285aa	0.039678253
62	0xbd772847	-0.060341146
63	0x3dcf33c1	0.10117293
64	0xbd88146e	-0.06644522
65	0xbdb342a5	-0.08752946
66	0x3e493257	0.1964811
67	0x3dc32f70	0.09530532
68	0x3dae83ac	0.08521208
69	0x3e658c0c	0.22416705
70	0x3db424f0	0.08796108
71	0x3cc5eaf5	0.024159888
72	0xbd2039f6	-0.039117776
73	0x3d5c0f74	0.053725675
74	0xbd0b3e96	-0.033995233
75	0x3e010e6f	0.12603162
76	0xbd400f17	-0.04688939
77	0x3ce9276b	0.028461179
78	0x3dea584e	0.11442624
79	0xbdaea932	-0.08528365
80	0xbc366ff7	-0.011135093
81	0xbd573f05	-0.052550334
82	0x3df607dc	0.12013218
83	0xbd381ebb	-0.04495118
84	0xbdaedd91	-0.08538354
85	0xbcc14833	-0.023593998
86	0xbd819f4c	-0.063292116
87	0xbd9a9731	-0.07548369
88	0x3e1cadc7	0.15300666
89	0xbd95bf02	-0.073118225
90	0xbc33a103	-0.010963681
91	0xbd60c64f	-0.05487662
92	0x3c0bf0a4	0.00854126
93	0xbe0853f3	-0.13313274
94	0x3dcf0ef9	0.10110278
95	0xbda73d1c	-0.081659526
96	0x3d6d3d22	0.05791963
97	0xbe1c3b55	-0.15257008
98	0x3e1c8839	0.1528634
99	0x3ddeaa2d	0.10872302
100	0xbdb60b75	-0.08888904
101	0xbd8881cc	-0.06665382
102	0x3e1a7c60	0.15086508
103	0xbd8dbad1	-0.06920398
104	0xbcf24dbb	-0.02957808
105	0xbdc9e8c6	-0.09858851
106	0xbd819aaf	-0.06328332
107	0x3e02a4e2	0.1275821
108	0x3dec0fd5	0.11526457
109	0xbcd81b11	-0.026380094
110	0xbd057a98	-0.032587618
111	0x3e5c3e9a	0.21508256
112	0x3e0be8b6	0.13662991
113	0xbd3238f3	-0.043511342
114	0x3d883ca7	0.066521935
115	0xbd1312bd	-0.035906542
116	0x3e22e166	0.15906295
117	0xbd98efb7	-0.07467597
118	0xbd4fbaa3	-0.0507151
119	0x3da629bc	0.08113429
120	0x3d72441b	0.05914698
121	0xbdcfe515	-0.10151116
122	0xbdaf5386	-0.08560853
123	0x3e2b3a40	0.1672144
124	0x3df62c53	0.12020173
125	0xbda9cdad	-0.08291183
126	0xbe3e65db	-0.18593542
127	0xbd7be0ab	-0.061493557

fc4.weight f4 [2, 128]
0	0xbce6d6de	-0.028178629
1	0xbda80213	-0.082035206
2	0xbf5ed948	-0.87050295
3	0xbe58d154	-0.21173602
4	0x3f304db9	0.68868595
5	0x3e95b8c7	0.29242536
6	0x3e059c12	0.13047817
7	0xbd28b89f	-0.041191693
8	0xbf0ec0d2	-0.5576297
9	0x3d7539fe	0.05986976
10	0x3cf30b40	0.02966845
11	0x3cd017ae	0.025401916
12	0xbe1ca15b	-0.15295927
13	0xbf0078bb	-0.5018422
14	0x3e0a77bd	0.13522239
15	0x3e84158f	0.25797698
16	0x3d9d420c	0.07678613
17	0x3e670f39	0.225644
18	0xbce62c2e	-0.028097238
19	0xbc7c5947	-0.015402145
20	0xbca47634	-0.020075895
21	0xbf5543f6	-0.83306825
22	0x3ea54439	0.32278612
23	0xbd0352d6	-0.03206142
24	0x3f29a4d6	0.66267145
25	0xbe54b31c	-0.2077145
26	0x3de6d771	0.11271561
27	0x3eddb097	0.4329879
28	0xbe6e46b1	-0.23269154
29	0xbd5e226f	-0.054232057
30	0xbeb5e0fd	-0.35523215
31	0x3ea146aa	0.31499225
32	0xbbc65819	-0.0060529825
33	0xbd814b8b	-0.06313237
34	0x3ac98300	0.0015374124
35	0x3d8e13da	0.0693738
36	0xbd2dff4f	-0.04247981
37	0x3cce5d3b	0.02519094
38	0x3e1e1858	0.15438974
39	0x3dc6d993	0.09709468
40	0xbe887e75	-0.2665898
41	0x3d0e7856	0.03478273
42	0xbbf84de0	-0.007577643
43	0xbeb827c1	-0.3596783
44	0xbd5a43fa	-0.053287484
45	0x3e9df891	0.30853704
46	0xbd8deebb	-0.069303
47	0x3b0f99b5	0.0021911685
48	0x3d0f676c	0.03501074
49	0xbcd86ef9	-0.026420103
50	0x3cd99eff	0.026565073
51	0x3ef203b1	0.4726844
52	0x3e8b9f4b	0.27269968
53	0x3cfe428f	0.031037597
54	0xbd17ef83	-0.03709365
55	0xbda33a60	-0.079701185
56	0x3ee77a8c	0.45210683
57	0x3f116cce	0.5680665
58	0xbc419b20	-0.01181677
59	0x3da32bb5	0.07967321
60	0xbc77a104	-0.015114073
61	0xbe5d3da5	-0.21605547
62	0xbccae6a1	-0.024768176
63	0x3de19625	0.11014966
64	0xbdb0db1a	-0.0863554
65	0xbd989c3b	-0.074516736
66	0x3d000b6f	0.031260904
67	0xbdb096b2	-0.08622493
68	0x3dfdb6b8	0.123883665
69	0x3d0ae2d1	0.033907715
70	0x3e931648	0.28727937
71	0xbf00504c	-0.50122523
72	0xbccf115a	-0.025276829
73	0x3f1a81c3	0.6035425
74	0xbea2523c	-0.31703365
75	0x3f2251b0	0.63405895
76	0x3f290d04	0.66035485
77	0xbd4c4ba6	-0.04987683
78	0x3ed74f61	0.4205275
79	0xbd7494f1	-0.059712354
80	0xbd9e6565	-0.07734183
81	0x3c286ac8	0.010279365
82	0x3f0fbbdd	0.5614603
83	0x3ca55bdd	0.020185405
84	0x3d2c092d	0.04200094
85	0xbcd2d5e8	-0.025736764
86	0xbd8e7fab	-0.069579445
87	0xbc479c4b	-0.012183259
88	0x3caa79a5	0.020809958
89	0xbd4b35b9	-0.04961178
90	0xbf20337b	-0.6257855
91	0xbe0fbbd7	-0.14036499
92	0xbdc453f9	-0.09586329
93	0xbea5a5a7	-0.32352945
94	0x3f4cf203	0.8005678
95	0x3d69b574	0.057057813
96	0x3ba1f2de	0.004942282
97	0x3c853f5f	0.01626557
98	0x3dfe7df3	0.12426367
99	0xbd8b19de	-0.06792043
100	0x3d271f68	0.040801436
101	0xbcc76e83	-0.024344688
102	0x3f2c56e6	0.67320096
103	0x390afbf0	0.0001325456
104	0xbd96ec20	-0.07369256
105	0x3c983a63	0.018582528
106	0x3d759802	0.05995942
107	0x3e931491	0.28726628
108	0x3f1d1892	0.61365616
109	0xbf13e075	-0.5776437
110	0x3db2f19f	0.08737492
111	0x3cf2453a	0.029574025
112	0x3ce4ee74	0.027945735
113	0xbe9c709d	-0.30554667
114	0x3d84c17f	0.06482219
115	0xbc949b1c	-0.018140368
116	0x3db8ea75	0.09029094
117	0x3c88ee2c	0.016715132
118	0xbd7f1b01	-0.062281612
119	0x3e948aa9	0.2901204
120	0xbe7eeb8f	-0.24894546
121	0xbd2d0706	-0.042243026
122	0xbd892144	-0.06695798
123	0x3f1ad63e	0.6048316
124	0x3ed10e6f	0.40831324
125	0xbd805ddd	-0.06267903
126	0xbea8be3b	-0.32957634
127	0xbd87d8f1	-0.06633175
128	0xbe4844c0	-0.19557476
129	0x3d3517d6	0.044212185
130	0xbb57e734	-0.0032944204
131	0xbe8f52c2	-0.27992827
132	0x3cc78a5e	0.02435797
133	0xbf2057ef	-0.62634176
134	0xbf102bf1	-0.5631705
135	0x3e3bb98d	0.18332501
136	0xbe883694	-0.2660414
137	0x3ca45713	0.020061051
138	0xbf3f1fce	-0.74657905
139	0x3e7e48ec	0.24832505
140	0xbf143323	-0.5789053
141	0x3d996b91	0.0749122
142	0x3ed01f43	0.4064885
143	0xbe0dfd8f	-0.13866256
144	0xbc1eb693	-0.009687084
145	0x3edf3022	0.4359141
146	0xbd8e91a4	-0.069613725
147	0x3e2202a6	0.15821323
148	0x3e153a35	0.14572985
149	0xbd4118bf	-0.04714274
150	0xbebdf794	-0.3710295
151	0x3e419428	0.18904173
152	0x3d881825	0.0664523
153	0xbe68f08a	-0.22748008
154	0xbf30fde5	-0.6913741
155	0x3eacd829	0.33758667
156	0xbe5d2316	-0.21595415
157	0xbd8351ac	-0.06412062
158	0xbe62e652	-0.22158173
159	0xbf0b1e88	-0.5434346
160	0xbd96fee6	-0.07372837
161	0xbea9b30e	-0.3314442
162	0x3d86bb3c	0.06578681
163	0xbf08df6c	-0.53465915
164	0xbe76b26d	-0.24091502
165	0xbcd0ea68	-0.025502399
166	0xbf196f3d	-0.5993536
167	0x3f53dc13	0.8275768
168	0x3e77daa4	0.24204499
169	0xbd1546ca	-0.036444463
170	0x3c425400	0.0118608475
171	0xbed67d13	-0.418923
172	0x3ebcc49d	0.36868754
173	0xbf444bb4	-0.76678014
174	0xbe3f4623	-0.18679099
175	0xbd0677fc	-0.03282927
176	0x3ee8300f	0.45349166
177	0x3ed63be0	0.41842556
178	0x3d3dc5d6	0.04633125
179	0xbaeaebbc	-0.0017923038
180	0xbeca0a0f	-0.394608
181	0x3eae6d74	0.3406788
182	0x3ea6368a	0.32463485
183	0x3e1167db	0.14199774
184	0x3de07e3c	0.10961577
185	0xbd8f31d1	-0.069919236
186	0xbc47fdbf	-0.012206494
187	0xbf7cb3f3	-0.9871208
188	0x3c254035	0.010086109
189	0x3ec2d93e	0.38056368
190	0x3d650db7	0.055921283
191	0xbf659469	-0.8967958
192	0x3da04037	0.07824748
193	0xbdadc350	-0.084845185
194	0x3e85c0d8	0.2612369
195	0x3ee3ed9f	0.44517228
196	0xbec5d901	-0.38642123
197	0x3ea032c3	0.31288728
198	0xbf028762	-0.5098783
199	0xbbf81e19	-0.0075719473
200	0x3e2c54b6	0.1682919
201	0xbecc7c67	-0.3993866
202	0xbe40de90	-0.18834901
203	0x3e15a733	0.14614563
204	0x3e318cd6	0.17338881
205	0x3e178e39	0.14800347
206	0x3ea9104f	0.33020255
207	0xbeb868f5	-0.36017576
208	0x3c90ed52	0.017691288
209	0x3db10477	0.0864343
210	0x3e06bafd	0.13157268
211	0x3cf90be7	0.030401183
212	0x3d9dd41d	0.07706473
213	0x3c9ccb80	0.019140005
214	0xbc96df5f	-0.018417059
215	0x3d0c04f2	0.034184404
216	0x3ec64884	0.387272
217	0x3dac830a	0.08423431
218	0xbe0cc962	-0.13748696
219	0xbe335fe8	-0.17517054
220	0x3ea635a8	0.3246281
221	0xbe35d886	-0.17758378
222	0xbc7b2950	-0.015329674
223	0x3c9590a4	0.018257447
224	0x3ec348d1	0.38141492
225	0xbeb4e337	-0.353296
226	0xbf2937fd	-0.66101056
227	0xbf4db9f1	-0.8036185
228	0x3b832ce0	0.0040031523
229	0xbcbc0dfa	-0.022955883
230	0x3e60b36a	0.21943441
231	0x3c03b0e9	0.008037784
232	0xbe4c8d88	-0.19975865
233	0x3bc29c7f	0.005939066
234	0x3c6ebad1	0.014570908
235	0xbd74407c	-0.05963181
236	0xbf46395e	-0.77431285
237	0x3d254537	0.04034921
238	0x3cc131ad	0.023583258
239	0x3e71b8e1	0.23605682
240	0x3ecfac25	0.40561023
241	0x3ebebb0a	0.37252074
242	0xbf31c64f	-0.6944322
243	0xbbf881d2	-0.007583835
244	0xbee96cdd	-0.4559087
245	0xbd925921	-0.07145906
246	0xbd16c71d	-0.036810983
247	0xbee02e89	-0.43785504
248	0x3eb656fe	0.35613245
249	0xbd5abd83	-0.05340339
250	0xbba593d5	-0.0050530233
251	0x3da80363	0.08203771
252	0x3e59f64d	0.21285363
253	0x3c3ea5be	0.011636196
254	0xbe67e404	-0.22645575
255	0xbd1c794d	-0.03820162

fc4.bias f4 [2]
0	0x3cb901a4	0.02258379
1	0x3d9d27fc	0.07673642

bn1.weight f4 [256]
0	0x3ecd9eee	0.40160316
1	0x3f4b2cb3	0.7936508
2	0x3e0cfee0	0.13769102
3	0x3ec986cc	0.39360654
4	0x3eff9867	0.4992096
5	0x3f2e16a1	0.6800328
6	0x3f0cf266	0.5505737
7	0x3ec96614	0.39335692
8	0x3f348acb	0.7052428
9	0x3e18f5dd	0.1493754
10	0x3f34b902	0.705948
11	0x3f194203	0.5986635
12	0x3f10c17f	0.5654525
13	0x3d718e67	0.058973696
14	0x3ee528aa	0.44757587
15	0x3e9fa9cb	0.3118423
16	0x3ed90e1c	0.42393577
17	0x3f4744dc	0.77839446
18	0x3f8134b2	1.0094206
19	0x3ea6d831	0.32586816
20	0x3f8250af	1.0180873
21	0x3ef6beac	0.48192346
22	0x3f596ac0	0.8492851
23	0x3e275ce2	0.16344026
24	0x3ee1dbb7	0.44112942
25	0x3f4e52aa	0.80594885
26	0x3eb25e98	0.34837794
27	0x3ee66ac8	0.45003343
28	0x3f73778b	0.95104283
29	0x3e45e9d4	0.1932748
30	0x3f5cd924	0.8626883
31	0x3e911852	0.28338867
32	0x3f22a996	0.6354002
33	0x3f73a264	0.95169663
34	0x3f05a906	0.52211034
35	0xbcf843e1	-0.030305805
36	0x3e8b353e	0.27189058
37	0x3f4e510f	0.80592436
38	0x3f0459f7	0.51699775
39	0x3f4d8281	0.8027726
40	0x3f5ee6f4	0.87071157
41	0x3e931b3c	0.28731716
42	0x3f42c51f	0.7608203
43	0x3ddd2faa	0.10800107
44	0x3f05bf67	0.5224518
45	0x3e4b49d0	0.19852376
46	0x3ecef5cf	0.40421912
47	0x3f25cb1f	0.64763063
48	0x3edddad4	0.43331015
49	0x3f9ab29f	1.2085761
50	0x3ef32610	0.47489977
51	0x3e6171ee	0.22016117
52	0x3f65284c	0.89514613
53	0x3f8ed7a4	1.1159558
54	0x3f093afd	0.53605634
55	0x3ea49a86	0.32149142
56	0x3e5a2715	0.21303971
57	0x3f770830	0.9649687
58	0x3eb0624b	0.34449992
59	0x3f17a291	0.5923243
60	0x3ecc8678	0.39946342
61	0x3f12ad57	0.57295746
62	0x3f572ccc	0.8405273
63	0x3f1aacee	0.6042012
64	0x3eb0ccc8	0.34531236
65	0x3ea4c91a	0.32184678
66	0x3e73ca4e	0.23807642
67	0x3f09c181	0.5381089
68	0x3f756a8e	0.95865715
69	0x3e4a2e42	0.19744208
70	0x3e9f83e5	0.31155315
71	0x3edc1c8c	0.4299053
72	0x3ebd5ebd	0.36986342
73	0x3f818a76	1.012038
74	0x3f1ca0b3	0.6118271
75	0x3f12f747	0.57408565
76	0x3f7a533a	0.97783244
77	0x3e8fa0ae	0.28052276
78	0x3e9dceba	0.30821782
79	0x3e851048	0.25988984
80	0x3f18967a	0.5960461
81	0x3eb8f7e7	0.36126634
82	0x3ee7e05d	0.45288363
83	0x3f1cc6b2	0.61240685
84	0x3f274b8c	0.6534965
85	0x3eb637a1	0.35589316
86	0x3f0cb5f1	0.5496512
87	0x3ee4e34b	0.4470466
88	0x3f936649	1.151559
89	0x3f8445f6	1.033385
90	0x3f8ec11d	1.1152683
91	0x3f16529c	0.587198
92	0x3e4fe879	0.20303525
93	0x3ecb8079	0.39746454
94	0x3f14e480	0.58161163
95	0x3fbd1b26	1.477391
96	0x3f243eb7	0.64158195
97	0x3f3e479f	0.74328035
98	0x3eaf2643	0.3420888
99	0x3f0c2d99	0.54757077
100	0x3eefaf20	0.46813297
101	0x3f72a10a	0.94776976
102	0x3f6cd596	0.92513406
103	0x3f29979b	0.66246957
104	0x3e867452	0.2626062
105	0x3e807e87	0.25096533
106	0x3f79a970	0.97524166
107	0x3eed7ca6	0.46384162
108	0x3efff686	0.4999277
109	0x3f083d15	0.53218204
110	0x3f3b9b00	0.73283386
111	0x3f11a372	0.5689002
112	0x3eb35508	0.3502581
113	0x3f4385ec	0.76376224
114	0x3f7be298	0.9839263
115	0x3f1f0a69	0.6212526
116	0x3e90fb3c	0.28316677
117	0x3e45b603	0.19307713
118	0x3e653e98	0.22387159
119	0x3ecac279	0.39601496
120	0x3f44cc37	0.7687411
121	0x3e47e3ed	0.1952054
122	0x3ea8f0db	0.32996258
123	0x3e968d6d	0.29404774
124	0x3ebf7210	0.3739171
125	0x3f5a4ca1	0.85273176
126	0x3f61bc56	0.88178
127	0x3f92a8fa	1.1457818
128	0x3f438f17	0.7639021
129	0x3f98bbbf	1.1932296
130	0x3f64c909	0.89369255
131	0x3f52d708	0.8235936
132	0x3e8ff23c	0.28114498
133	0x3f4dad24	0.80342317
134	0x3eb2d619	0.3492897
135	0x3f27647a	0.6538769
136	0x3f2a7eb5	0.6659959
137	0x3d2d5923	0.042321336
138	0x3f5d8581	0.86531836
139	0x3db18b6d	0.086691715
140	0x3f1f2a76	0.62174165
141	0x3f51a559	0.81892926
142	0x3e93d78d	0.2887539
143	0x3efd4b98	0.49471736
144	0x3f53c06b	0.8271548
145	0x3f6ef735	0.9334596
146	0x3ecd646d	0.4011568
147	0x3edfdb0f	0.43721816
148	0x3ef7499d	0.4829835
149	0x3f048370	0.5176306
150	0x3ec9e3a4	0.3943149
151	0x3ec934bf	0.39298055
152	0x3e91ee9c	0.28502357
153	0x3ee3d21e	0.44496244
154	0x3f47770e	0.7791604
155	0x3f26231a	0.6489731
156	0x3f5a8bd6	0.8536962
157	0x3dd6bae3	0.104848646
158	0x3f90b21d	1.1304356
159	0x3eff5b2b	0.49874243
160	0x3ef0987f	0.46991345
161	0x3f4910a1	0.78541
162	0x3eac639f	0.33669755
163	0x3f866ae0	1.0501366
164	0x3f4c7874	0.79871297
165	0x3f51e2e6	0.81986845
166	0x3f9beeb0	1.2182217
167	0x3f5a52cb	0.8528258
168	0x3f23780d	0.6385506
169	0x3f7fe943	0.99965304
170	0x3e3e2aba	0.18570986
171	0x3e520dc5	0.20513065
172	0x3e503d7b	0.20335953
173	0x3efd2127	0.49439356
174	0x3f3941ac	0.7236583
175	0x3f851554	1.0397134
176	0x3f2912c6	0.6604427
177	0x3e801e51	0.2502313
178	0x3e661b8a	0.22471443
179	0x3f3196a4	0.69370484
180	0x3f10ea84	0.5660784
181	0x3f6811ed	0.9065235
182	0x3f74b566	0.9558929
183	0x3ded2eea	0.11581214
184	0x3dbd8914	0.09254661
185	0x3f3ce32b	0.7378413
186	0x3f16707d	0.58765393
187	0x3f17406c	0.59082675
188	0x3f4c539f	0.79815096
189	0x3f9c2060	1.219738
190	0x3f353d1f	0.7079639
191	0x3ed8445e	0.4223966
192	0x3ed08c18	0.40731883
193	0x3f5eb88a	0.87000334
194	0x3f671d46	0.9027904
195	0x3e33fd5e	0.1757712
196	0x3f159240	0.58426285
197	0x3f742edc	0.95384
198	0x3e83e85c	0.25763214
199	0x3ed4577c	0.41472995
200	0x3e62a7dc	0.22134346
201	0x3ed08a05	0.407303
202	0x3f437cbe	0.76362216
203	0x3f74b4bd	0.95588285
204	0x3f033b02	0.51261914
205	0x3f28ef10	0.6598978
206	0x3f96ca8a	1.178056
207	0x3f466306	0.7749485
208	0x3f6d1ce8	0.9262223
209	0x3f12b974	0.5731423
210	0x3f873bb0	1.056509
211	0x3f3cb076	0.7370676
212	0x3f508b31	0.8146239
213	0x3f3894a0	0.72101784
214	0x3f967065	1.175305
215	0x3ef50d41	0.47861674
216	0x3f551e60	0.83249474
217	0x3f556a1b	0.8336503
218	0x3e0a3f84	0.13500792
219	0x3f70c4e6	0.94050443
220	0x3f4a4f03	0.7902681
221	0x3f18d5a7	0.5970101
222	0x3e195eb5	0.14977534
223	0x3e9a3290	0.301167
224	0x3e7c1f98	0.24621427
225	0x3f7dd020	0.991457
226	0x3f18bb39	0.5966068
227	0x3e8e0479	0.27737787
228	0x3f0a8279	0.54105335
229	0x3f1d6cd3	0.6149418
230	0x3e2c3ca1	0.16820003
231	0x3f0144eb	0.50495785
232	0x3f19908d	0.5998619
233	0x3f4f553a	0.8098942
234	0x3edb0d3b	0.42783532
235	0x3e06da9a	0.13169327
236	0x3faba2c1	1.3409044
237	0x3f0316f0	0.51206875
238	0x3eacf31b	0.33779225
239	0x3f34e443	0.706608
240	0x3eea285a	0.4573391
241	0x3ed84093	0.42236766
242	0x3f3580f7	0.7089991
243	0x3f5ad50a	0.8548132
244	0x3e75a9d0	0.2399056
245	0x3f120f5d	0.5705469
246	0x3efe98e7	0.4972603
247	0x3e06f50e	0.13179418
248	0x3f4ddc99	0.8041473
249	0x3f2ffe5f	0.68747514
250	0x3f4711bf	0.77761453
251	0x3f083969	0.532126
252	0x3f1cf997	0.61318344
253	0x3f0f4e6b	0.5597903
254	0x3e279a1d	0.16367383
255	0x3f31a075	0.69385463
