pretrainedNetworks/actor_local2.pth (torch_old, 230166 bytes, 12 tensors)

fc1.weight f4 [256, 24]
000000 69 9b 17 3e 9a 9e da bd d1 b0 65 bd 56 82 84 3d
       0.14805378 -0.10674782 -0.05607683 0.06470172
000010 4a d4 32 bd 0d 1a ca be 55 8c a5 bc ed 8e a3 3d
       -0.043659486 -0.39473 -0.020208517 0.07986245
000020 18 55 8e 3e 63 3a 14 bd c4 67 d4 3b 4b 1c 57 3d
       0.27799296 -0.036188494 0.0064820964 0.052517217
000030 fb 0d 77 bd df bb 11 bf 34 85 c8 bd f9 11 5e 3d
       -0.060316067 -0.56927294 -0.097910315 0.05421636
000040 05 fd 39 3e 1b 05 0e bc 84 4d 06 bd 8e 3f 48 3d
       0.18162926 -0.008668209 -0.03278877 0.048888735
000050 53 a0 28 be be d8 12 bf 18 0d 94 bd b0 3f e2 bc
       -0.16467409 -0.5736197 -0.0722906 -0.02761826
000060 8f c1 53 3d 95 c1 2a 3e 27 0f 18 bd 06 60 70 bd
       0.051698264 0.16675408 -0.037123825 -0.058685325
000070 92 e4 2d bd 82 0e 57 3e e9 ef 97 bd 32 89 b9 bd
       -0.04245431 0.21001628 -0.07418806 -0.09059371
000080 50 53 8e 3d 80 0c 68 3e 1f db 1e bc 02 8c 59 bd
       0.06949484 0.22661018 -0.009695797 -0.053112037
000090 45 50 2c be 00 77 3a be a1 8a 37 3a a4 47 95 bd
       -0.16827495 -0.18209457 0.00070015533 -0.07289055
0000a0 93 d6 73 3e c2 81 5b 3e 13 88 17 3e 00 09 ab bc
       0.23812322 0.21436217 0.14798002 -0.020878315
0000b0 95 91 a6 be 5d 48 2c bf cf 65 d9 3d 32 b6 d7 3c
       -0.32532945 -0.6729792 0.106151216 0.026331995
0000c0 f6 aa 05 3d a5 ab 9f 3d c4 6f 05 be 3d b4 a6 3d
       0.032633744 0.077964105 -0.13030916 0.081398465
0000d0 31 5f c1 be 13 60 a1 be 5c 84 8d bc 1b bd af 3d
       -0.37767938 -0.3151861 -0.017275028 0.08580991
0000e0 52 44 89 3d aa 4b 2f 3e e4 11 05 be 91 b8 42 bd
       0.06702484 0.17118707 -0.12995106 -0.047539297
0000f0 35 fc 93 be dd 8b 99 be 5f 52 33 bd 1b 14 d3 bd
       -0.28903356 -0.2998952 -0.043779727 -0.10306569
000100 97 98 b6 bc df c5 f8 3d 53 74 af bd 1d 60 2a 3d
       -0.022289557 0.12147116 -0.08567109 0.041595567
000110 d6 ff 55 be 94 f0 28 be 2c 5d ac bd 28 df 0d 3d
       -0.20898375 -0.16498023 -0.084162086 0.034636647
000120 47 4c a7 3e 0b 95 3f be 57 93 df bd 0d a2 b7 3d
       0.32675382 -0.18709199 -0.10916775 0.089664556
000130 bc 89 97 be 5d 01 4a be 9c 39 b9 bd 95 c5 8e 3c
       -0.2959727 -0.19727083 -0.09044191 0.017428199
000140 42 73 2f 3e d2 98 9c be 5c 5d d8 3c c0 47 00 3d
       0.17133811 -0.30585343 0.026411705 0.031318426
000150 c9 ef 06 bd b0 70 6f be 00 b7 12 3d 2f d9 b3 3c
       -0.03294352 -0.2338283 0.035819054 0.021954147
000160 e8 89 43 3d 1a 77 b4 be 48 49 8a bd f2 dc f5 3e
       0.04773894 -0.35247117 -0.067522585 0.4802013
000170 ab cb 0b 3e 70 99 81 bd d2 96 64 bd 86 8e de 3e
       0.13651912 -0.06328094 -0.055807896 0.43468112
000180 23 08 f3 3d 3e 88 8a bc c1 aa bb bc 2a 69 5a 3d
       0.11866786 -0.016910668 -0.02290857 0.05332295
000190 53 3d ba be 48 ec a3 be 49 50 dd 3c fe 72 56 3d
       -0.36374912 -0.32016206 0.027015822 0.05235576
0001a0 2a d0 a4 3e 98 4c 44 3d bc 9f 37 3c 15 fa 95 bd
       0.32190067 0.047924608 0.011207517 -0.0732309
0001b0 a2 2f 81 be 67 d1 9e be c2 4f bc 3c 8f d5 b8 bd
       -0.25231653 -0.31019136 0.02298725 -0.09025108
0001c0 8d 6d 8c 3e c9 52 39 bc d3 8f 04 bd b7 41 8a bd
       0.2742733 -0.011311241 -0.032363724 -0.06750815
0001d0 be fb bf be bb 8f d2 be c1 47 34 3d e8 0d df 3c
       -0.37496752 -0.41125283 0.044013742 0.02722831
0001e0 f2 51 c8 bc d6 21 96 be ce 67 74 3c 9f 76 0d bd
       -0.024453137 -0.2932269 0.014917327 -0.034536954
0001f0 e6 55 cd 3d 41 00 00 bf 4f 2d f0 bc 9f 2b 72 3d
       0.100261495 -0.5000039 -0.02931848 0.05912363
000200 de 6a 49 bd bb 74 a6 be ca 7e a8 bc 88 0b 09 3d
       -0.049174182 -0.32510933 -0.02056827 0.033458263
000210 e5 1a 40 3e 45 73 08 bf 4d ee b5 bb ee ae 19 3d
       0.1876026 -0.5330089 -0.0055520893 0.03752034
000220 59 b3 06 bd 18 14 9b be 84 9e b5 bd 6f 34 87 3e
       -0.032885883 -0.30288768 -0.08868125 0.2640719
000230 ea 42 50 3e 5c 2e 10 bf 21 6e 36 bd fc 53 64 3e
       0.20338026 -0.5632074 -0.04453862 0.22297662
000240 ba f2 69 bd 4c d1 3f 3e 1e 9c 2b 3c d3 e4 cd 3b
       -0.057116248 0.18732184 0.010474233 0.0062833815
000250 85 b0 de 3d 29 7e 52 bf d9 f9 32 bd e8 01 b8 bc
       0.10873512 -0.82223755 -0.043695305 -0.022461846
000260 32 e9 80 3d e1 7e 64 3e 8a 11 aa bc 5a 27 73 bd
       0.062944785 0.22314025 -0.020760316 -0.0593637
000270 5f de 99 3d 19 7f 45 bf ce 50 6b 3d 9e c8 1a be
       0.07513117 -0.7714706 0.05745011 -0.15115592
000280 64 4f 6d 3d 88 f3 9b 3d a9 c1 0c bb 82 cf 53 be
       0.05793704 0.07614809 -0.0021477735 -0.20684627
000290 de 43 03 3e dd 55 23 bd a8 73 a4 3d 76 b1 8e be
       0.12818858 -0.039876807 0.08029872 -0.27869767
0002a0 91 b1 62 3e 7d 2e 4f bd 25 c1 4a be 37 3d 78 be
       0.22138049 -0.050581444 -0.19800241 -0.24242102
0002b0 e8 0f ab 3d b0 95 d3 be 2b 4f 0f be ed 22 9d be
       0.08352643 -0.4132514 -0.13995044 -0.3069071
0002c0 bb 2b 07 3e bf 87 c7 bd fe 15 e1 bd 42 8b 24 be
       0.13200276 -0.097426884 -0.10990523 -0.16068748
0002d0 40 c0 0d 3d 29 fa 8c be f7 88 2a bd b6 2c ea bd
       0.034607172 -0.27534607 -0.041634526 -0.11434309
0002e0 d8 90 2e 3e e6 55 64 bd cd b4 8f bd f7 08 08 3d
       0.17047441 -0.05574598 -0.07016907 0.033211675
0002f0 8f 53 7d bd 5a 94 ac bd 85 5e dd bc 0f ab 6b 3d
       -0.061847266 -0.08426733 -0.02702261 0.05753618
000300 bf 02 b8 be 60 70 2e bd 99 c5 a5 bd 31 50 1c be
       -0.35939595 -0.042587638 -0.080943294 -0.15264966
000310 eb 76 49 3e 54 37 57 be 86 de 06 bd e5 03 e7 bd
       0.1967427 -0.210172 -0.03292706 -0.1128004
000320 ac 32 60 be c8 d1 10 bc 53 ba 1d bc 0a 18 4f be
       -0.2189433 -0.008839078 -0.009626943 -0.20224014
000330 2b 12 2f 3d 78 43 dc bd 4a d5 7c bd 84 b4 47 be
       0.042741936 -0.10755056 -0.061726846 -0.19502455
000340 e2 c6 70 be 00 f4 30 be 31 bb 98 bb 82 5d 49 be
       -0.23513368 -0.17280579 -0.004660987 -0.19664577
000350 34 68 ae bd 51 1d c6 3e 4c 67 eb bd ed d6 3f be
       -0.08515969 0.38694242 -0.11494312 -0.18734331
000360 f8 b3 ee 3d b0 ff 85 be 45 cc 3a bb 23 04 46 be
       0.1165542 -0.26171637 -0.0028503102 -0.19337516
000370 52 c6 6b 3d 6f e4 65 be d8 44 84 3d 57 aa 76 be
       0.05756218 -0.22450422 0.064584434 -0.24088417
000380 05 38 04 3e 7c 3e ad be 8d 19 61 bd 61 f7 1a bc
       0.12911995 -0.33836734 -0.054956008 -0.009458394
000390 96 25 90 3d ff 19 98 be 38 66 f9 3c 16 ca 5e bd
       0.07038419 -0.29707333 0.03044425 -0.054391943
0003a0 cb c9 fc 3d ed ac 76 be af 75 f0 bd ef 57 63 3e
       0.123431765 -0.24089403 -0.11741196 0.22201513
0003b0 e9 76 79 3c 67 1c 23 bf 8f 12 24 be f7 cf 74 3e
       0.015226104 -0.63715214 -0.16022705 0.23907457
0003c0 de c8 54 3e 7c 23 b5 3e d4 92 c3 3c 3b 5f 6f be
       0.2077975 0.35378635 0.023873724 -0.23376171
0003d0 25 d8 4d 3d 12 39 68 be 2b 05 c7 ba 8c d0 a8 be
       0.05025496 -0.2267802 -0.0015184035 -0.3297161
0003e0 72 a8 18 3e e6 6b 81 3e f1 63 78 bc ba 2a f9 be
       0.14908007 0.25277632 -0.015160547 -0.4866541
0003f0 62 08 dc bd 0d 0b 15 be ad 0b 86 bd 13 8d ff be
       -0.107437864 -0.14554997 -0.06545196 -0.4991232

fc1.bias f4 [256]
000000 cd f4 e4 be c4 9d 8b be 24 9a 05 3a e8 7b 92 be
       -0.44718018 -0.27268803 0.0005096516 -0.28610158
000010 e4 7d c6 bd 98 58 8a be f3 fb 8e be 3d 85 ed be
       -0.096919805 -0.27020717 -0.27926597 -0.46390715
000020 8f 8c c6 3c 75 5f 99 be 37 8f 35 be 0f 69 10 bd
       0.024236945 -0.2995564 -0.17730413 -0.03525644
000030 90 9b 1a bd 3d 7c 80 be 05 a4 6d be 5d 93 c0 be
       -0.037746012 -0.25094786 -0.232071 -0.3761243
000040 b5 c1 8b be b0 9b 43 be df d8 94 3d d8 79 ac be
       -0.27296224 -0.19102359 0.072679274 -0.3368671
000050 87 c7 bb be e4 e5 54 be 18 37 d7 3d fc 35 1c 3e
       -0.36675665 -0.20790821 0.10508555 0.15254968
000060 bc 49 9d bd 16 cc d3 bb 1a de be bd b6 b7 d9 bd
       -0.07680079 -0.006463538 -0.09319706 -0.10630743
000070 82 41 9c 3d 4e 30 8c be 4e 87 1f 3c 56 f7 05 be
       0.07629682 -0.27380604 0.009736849 -0.13082632
000080 fe e6 26 be 81 82 73 be c0 7e a0 bd d2 ec dd be
       -0.16299054 -0.23780252 -0.07836676 -0.43344742
000090 b5 7b fa bd d4 d8 88 3d 5c 77 86 be 49 53 db be
       -0.122306265 0.06681982 -0.2626294 -0.4283698
0000a0 c4 91 a4 3e 36 af 4c be 0c fe 12 3e d3 8a 5f be
       0.3214246 -0.19988713 0.14354724 -0.21830301
0000b0 2b e9 a4 3c 8b 83 1b be 99 cb 05 bf 0f 96 98 be
       0.020130714 -0.15186898 -0.5226379 -0.29801986
0000c0 9c fa 87 bd 01 37 d1 bd 92 dd cc 3d aa 3e d0 be
       -0.06639597 -0.10215569 0.10003199 -0.4067281
0000d0 24 bf 4d be ae 88 f1 3c 98 33 fa bc c2 8e 7e bc
       -0.20092446 0.02948412 -0.03054218 -0.015536966
0000e0 bb 94 4c be e5 44 32 be b5 2d 13 be e3 4b ab 3d
       -0.19978611 -0.17409094 -0.14372905 0.083640836
0000f0 c2 bd 4f 3e f8 3f ef 3c a6 c4 2e 3e f3 52 97 be
       0.2028723 0.029205307 0.17067203 -0.29555473
000100 3e ee f5 bd e3 da 53 be 07 7d 4b 3e c9 ec 94 be
       -0.12008332 -0.20688967 0.19871913 -0.29086903
000110 25 13 15 3d 9e 92 b0 3c 2f 14 9c be 74 09 66 3e
       0.03639521 0.021554288 -0.3048415 0.22464544
000120 3c a6 01 be 7f d2 e9 bd 81 6b 88 be 8d 21 22 3d
       -0.1266107 -0.11417102 -0.2664452 0.039582778
000130 ff fe 98 be 31 e0 d6 be 33 89 6c be 64 53 ad 3d
       -0.29882047 -0.4196792 -0.23099212 0.08463171
000140 d5 20 9d be b9 b2 b0 be 36 eb c7 be 03 56 13 bf
       -0.3068911 -0.34511355 -0.3904664 -0.5755312
000150 40 2f d3 bd 6f ce d5 3e c1 92 e7 be 2e b9 3b 3e
       -0.103117466 0.4175906 -0.45229152 0.18332359
000160 49 54 8b bd 96 f4 f5 bd b8 11 47 be 0a 1e f9 bd
       -0.068031855 -0.12009542 -0.19440353 -0.121639326
000170 ab 69 22 be 03 1a 0d bd 1c 49 4d bd a2 6e 42 3e
       -0.15860622 -0.034448635 -0.05011855 0.18987516
000180 32 ac 6f ba 1b 0d c9 be a4 7b a5 be 68 90 9d be
       -0.00091427856 -0.3926781 -0.32320893 -0.30774236
000190 68 7b 13 be d6 74 d9 3d 2c 15 a0 be b7 c4 98 3d
       -0.14402544 0.10617988 -0.31266153 0.074593954
0001a0 94 b4 01 be d7 ba e8 bd b7 3a 58 bd f4 2f 66 be
       -0.12666541 -0.11363762 -0.05279037 -0.2247923
0001b0 bb 20 96 bc 0e 2f 66 be 72 34 f5 bd d7 ec 2a be
       -0.018326154 -0.22478887 -0.11972894 -0.1669191
0001c0 ae e6 1d 3d 55 2c 8e bd a6 ce 0c bf 59 4a 2b be
       0.03855007 -0.069420494 -0.5500282 -0.1672758
0001d0 e1 ff 20 be 54 6b a2 3d c1 8c 65 bd b0 93 2d bd
       -0.1572261 0.079306275 -0.056042437 -0.042377174
0001e0 ae 2e c4 be cf 92 a3 be fe 28 50 bd 7b 92 f5 bd
       -0.38316864 -0.31947944 -0.050820343 -0.119908296
0001f0 0b 7f 6b bd 53 34 fd bd 69 97 b2 bc e9 be 05 3e
       -0.057494204 -0.12363496 -0.021800714 0.13061108
000200 0a 3d 0f 3e 1a 88 89 be 17 a4 43 bd 8e 27 d6 be
       0.13988128 -0.2686165 -0.04776391 -0.41827053
000210 7a bb d1 be 18 f6 af be 55 a0 9c be b7 b8 51 be
       -0.40963346 -0.34367442 -0.30591074 -0.2048062
000220 6d 74 86 3e d9 3f a7 bc eb 5d 2f be fa 69 9f 3e
       0.262607 -0.020416187 -0.1712567 0.3113554
000230 3b ab c3 3d 61 d9 81 be 34 e2 60 bd 7b 87 a3 bd
       0.09554144 -0.2536116 -0.054903224 -0.07984825
000240 17 e2 b2 be 46 64 19 3d cd 0d 77 be 34 96 9c be
       -0.34938118 0.037449144 -0.24126358 -0.30583346
000250 90 9b 98 be 94 1b d7 bd 94 54 f9 3c 1f 5a 08 be
       -0.29806185 -0.10503307 0.030435838 -0.13315628
000260 e5 f4 aa be 8b 80 88 bd 93 5e 3c be 72 46 a9 be
       -0.33389965 -0.066651426 -0.18395452 -0.33061558
000270 9a da ca be e2 7d 9b 3e d0 37 85 3c 73 17 80 be
       -0.39619905 0.30369478 0.016261965 -0.2501789
000280 45 fb c4 be b3 96 52 be 2d 93 f5 bd 3b fc 7b be
       -0.38472953 -0.205653 -0.11990962 -0.24607937
000290 7f 22 f7 bc 67 0a be 3d d8 7b 64 be 16 a8 be 3d
       -0.030167816 0.09279328 -0.22312868 0.093094036
0002a0 b0 68 ae be 77 96 3a be 91 1e f6 bb 64 2f 5c 3c
       -0.34064245 -0.1822146 -0.007510968 0.013439033
0002b0 fd 0f af be 99 30 a1 be 31 49 f6 3d bf d4 2b be
       -0.34191886 -0.3148239 0.12025679 -0.16780375
0002c0 71 cb c5 bd 8d 60 3a be f5 7b 7c be ab 26 4c 3d
       -0.09657944 -0.18200894 -0.24656661 0.049841564
0002d0 02 8d 07 3e 78 b6 a5 be df ac 2a be e6 2c 45 bc
       0.13237384 -0.32365775 -0.16667508 -0.01203463
0002e0 ac 2b 89 be b9 36 af 3c fe f9 d8 be 04 49 01 be
       -0.26791131 0.021388398 -0.4237823 -0.1262551
0002f0 c4 24 15 be 79 61 29 be 92 ff 99 3d 5f 4a 09 bf
       -0.14564806 -0.16541089 0.07519449 -0.53629106
000300 8b 91 05 bf 4c 74 14 be 95 eb f7 3d 5c 99 7d be
       -0.52175206 -0.14497489 0.121054806 -0.24765533
000310 0b f5 79 be 8e 56 c7 be 6e de c1 3d ea 22 18 bf
       -0.24409883 -0.38933223 0.09466253 -0.59428275
000320 63 5e 28 be e7 69 ec be 5b 6c 27 bf ee bc af be
       -0.16442256 -0.46174547 -0.6539971 -0.3432383
000330 9a 18 16 3e 78 f3 ba be 1b 87 62 be c8 ac 34 bd
       0.14657822 -0.36513877 -0.22121851 -0.04411009
000340 35 c1 85 bd cc b1 3c 3e 64 55 4d bd 41 0e d4 bd
       -0.06530992 0.18427199 -0.050130263 -0.10354281
000350 8e 30 d4 3d 36 ed 3a be f9 68 65 be c3 ec 6c be
       0.103608236 -0.18254551 -0.22403325 -0.23137192
000360 7a e0 37 be 24 b7 55 bd e5 de 84 be 15 7b cd bc
       -0.17956725 -0.05217661 -0.25951305 -0.025083104
000370 a7 0b 0e bd 2d a4 8d bd 70 7f 99 be 7c e1 9b be
       -0.03467908 -0.0691608 -0.2998004 -0.30445468
000380 65 30 35 bd 8c 43 ae be d4 35 9a be 52 3e b5 be
       -0.044235606 -0.3403591 -0.30119193 -0.3539911
000390 04 25 61 be 73 9e 3b be 75 eb f0 3d 25 1f be be
       -0.21986777 -0.18322162 0.1176366 -0.37133136
0003a0 87 94 b9 be 9e c5 bb bd 0e 8d ae be 48 3c 9e be
       -0.3624613 -0.09168552 -0.3409199 -0.30905366
0003b0 a7 3d 85 be 0c 20 0b bf 28 e2 1f 3e a6 e3 0d bd
       -0.260236 -0.54345775 0.15613616 -0.03464093
0003c0 f3 6b 02 bf d4 77 ca be 08 4a 61 be 96 6f 38 be
       -0.5094597 -0.39544547 -0.22000897 -0.18011317
0003d0 b2 90 b1 be f2 40 7a be 9d 92 01 3b 54 5b b7 3e
       -0.34680706 -0.24438837 0.0019771226 0.35811865
0003e0 5f 64 03 be 65 40 f1 be 94 4f 54 be 5c 47 f4 be
       -0.12831257 -0.47119442 -0.20733482 -0.47710693
0003f0 e9 58 3e be ec fa 94 bd 7d 47 3a bd 74 bd 35 3e
       -0.18588604 -0.07274422 -0.045478333 0.17748052

fc2.weight f4 [128, 256]
000000 29 94 67 3e 37 1b f6 bd 23 d0 08 bf a0 b7 64 bc
       0.22615112 -0.120169096 -0.5344259 -0.013959795
000010 03 40 58 3d 35 d8 9c 3e e0 44 e3 ba 98 1d 93 be
       0.05279542 0.30633703 -0.0017339252 -0.28733516
000020 b0 c8 95 3d f0 4c 45 be 97 b1 bb 3c d4 cc 95 bc
       0.07313669 -0.1926763 0.02291183 -0.018286146
000030 97 4d a3 be 6c 72 f0 bd 99 dc a3 3b 52 02 9b be
       -0.31895134 -0.11740574 0.0050006625 -0.30275208
000040 df fa 71 3e 79 2c 95 3d b1 f1 55 3e ea a6 77 bd
       0.23630856 0.07283873 0.20892979 -0.060461916
000050 d2 06 44 3d cf 1a ae 3e 69 bc a2 be 78 63 6c bd
       0.047858067 0.34004828 -0.3178437 -0.05771205
000060 76 b7 3d bd 4e 16 22 bd c0 fa 89 3e 54 ef 0c 3e
       -0.04631754 -0.039572053 0.2694912 0.13763171
000070 98 6f a3 bd 52 43 4a 3e d9 59 81 3d 6a 34 aa bb
       -0.07980269 0.19752243 0.06315965 -0.0051942365
000080 df e9 57 be e8 a2 dc 3d ca 2d 33 be b1 35 8a 3d
       -0.21085308 0.107732594 -0.17497936 0.06748522
000090 a3 37 80 3e e3 53 e1 bc 54 b6 68 bd d3 38 4a 3e
       0.25042447 -0.02750582 -0.056814507 0.19748239
0000a0 ca 7c e1 3e 0e be c2 3c 63 db ec bd 2e 06 8d 3d
       0.4404052 0.023772266 -0.11565282 0.06885944
0000b0 4e 87 1f be 93 ce 9a 3e 36 b0 96 bc 29 b4 90 3d
       -0.15578958 0.3023573 -0.01839457 0.07065613
0000c0 53 e0 b1 3d 5a 15 30 bc ec 91 00 3e 06 e9 ac 3e
       0.086853646 -0.010747278 0.12555665 0.33771533
0000d0 33 4d 63 3e 3e 28 47 3e ba fd a2 3e 84 4d ab 3e
       0.22197418 0.19448945 0.31834203 0.33457577
0000e0 fb 04 ca bc af 29 87 bd f7 f3 95 bd 09 a3 a3 3e
       -0.024660578 -0.065997474 -0.07321923 0.31960323
0000f0 18 96 97 3d e8 3e 4d 3e af b5 b0 3e ef 98 cb bd
       0.07401675 0.20043528 0.34513614 -0.09941279
000100 a0 71 1f 3e 75 78 a5 bd 53 43 63 be 2f d1 16 be
       0.15570688 -0.08079616 -0.22193651 -0.14728235
000110 93 89 93 3e dd c0 1f 3d 50 55 a8 3e 2d 56 02 be
       0.28815898 0.039002288 0.32877588 -0.12728186
000120 f4 32 9d 3c 02 ce 06 3e 91 b2 0a bc 4f d4 21 be
       0.019189335 0.13164523 -0.008465425 -0.15803646
000130 cd 02 3b 3e a8 0f 75 be 21 1c 9b 3c a8 ae 42 3e
       0.18262787 -0.23931754 0.018934311 0.19011939
000140 e2 f3 62 3e 6b dd 9e 3d db dd e5 bb e5 42 cf bd
       0.22163346 0.07757076 -0.0070149726 -0.10120181
000150 5d 54 e1 3d a6 f0 d8 bd df 04 2c 3e 0a 96 09 3e
       0.11002419 -0.10592775 0.16798733 0.13436142
000160 7c 15 17 3e 8d 1b 99 bd 60 50 71 3e 7d 82 11 3e
       0.1475429 -0.07475958 0.23565817 0.14209934
000170 ab bd 25 bc 8d 2d 8a be 0f 9d 5c bd 3d cd b2 3e
       -0.010116021 -0.26987877 -0.05386072 0.3492221
000180 c8 fb 32 3e e7 ca 69 3e e1 31 1a 3e f8 68 b9 3d
       0.1747886 0.22831307 0.1505809 0.09053224
000190 95 7d 64 bd 79 c9 23 be db d5 b3 bd 6a 3d 14 3d
       -0.055783827 -0.15994824 -0.08781024 0.03619138
0001a0 4d 68 82 3e 57 99 19 bd 9b 85 e1 3d d1 66 ba ba
       0.254702 -0.037499752 0.11011811 -0.0014221316
0001b0 8c e7 6f 3c a0 13 c2 3c e9 9b f9 3c bd c3 db 3e
       0.014642607 0.023690999 0.030469852 0.42922774
0001c0 56 fb de bd cb e3 14 3d d4 e1 85 be 1a 06 0e be
       -0.10887782 0.036350053 -0.26148856 -0.13869515
0001d0 e3 9d 8b be 0f 84 ae 3e b7 7d 69 be ab eb d8 3d
       -0.27268896 0.34085128 -0.22801863 0.10591825
0001e0 fb 35 9b 3d f3 d3 7e 3e 1d 1d 20 3e 48 f2 92 3c
       0.07578655 0.2488554 0.15636106 0.017937794
0001f0 73 ed 56 be 2c 64 00 3e 4b 04 6d be 70 28 71 3e
       -0.20989017 0.12538213 -0.23146169 0.23550582
000200 41 11 04 3e cb db 94 3e fb 1b f4 bc 6d 10 5c bd
       0.12897207 0.2907394 -0.029798498 -0.053726602
000210 cb c0 df 3d c0 32 92 3e a6 f1 b2 bd eb 53 19 be
       0.10925444 0.28554344 -0.08737497 -0.14973418
000220 ed 09 1b 3e a7 3f 4f 3e ea 66 33 3c c6 22 d9 bc
       0.15140505 0.20239125 0.01094983 -0.02650584
000230 b9 a5 49 3e 69 1c 3f be 20 bc 1c bd f2 90 25 bd
       0.19692124 -0.18663181 -0.038265347 -0.040421434
000240 be a8 69 3e 3b 6b 8a 3e 7b e2 97 3d 6f bc a4 bd
       0.22818276 0.27034935 0.074162446 -0.08043753
000250 09 4c 86 bd f4 a1 14 3e 6f b4 8a bb ac 6d c0 3c
       -0.06557471 0.14514905 -0.004232935 0.023489796
000260 8f 0f a1 bd 98 dc 52 3e ab a7 b5 3c 7b 41 f4 3d
       -0.07864296 0.20591962 0.022174677 0.11926552
000270 c3 83 07 3c b2 e5 18 3c c6 76 53 3e 23 df 37 bd
       0.008271161 0.009332107 0.20650777 -0.044890534
000280 db 35 e5 bd 69 0d 50 3e 6e 84 e7 3d f9 fa 14 3e
       -0.11191913 0.20317616 0.11304556 0.14548863
000290 e4 7c fd 3d e1 a8 aa 3e 66 21 87 3e ca b9 ad bc
       0.123773366 0.3333197 0.26392668 -0.021206755
0002a0 64 a5 ec 3c 6c 23 d5 3d 3b 38 33 3c bf 00 fd bd
       0.028887458 0.10407147 0.010938699 -0.12353658
0002b0 f0 34 06 be fa 5f 64 3d 57 f8 a5 bd 58 27 a6 3d
       -0.13106132 0.055755593 -0.08104008 0.08112973
0002c0 26 49 99 3e 08 12 3b be 0c de 06 be ec 9a 46 3d
       0.2993862 -0.18268597 -0.13170642 0.04848759
0002d0 ca 58 ba 3e 14 a1 19 3e 1e ee c3 3e 08 ba 3d be
       0.36395866 0.15002853 0.38267606 -0.18527997
0002e0 94 68 7f be 4b b6 f4 3c 3d 81 1a 3d d4 5c 07 bd
       -0.24942237 0.02987208 0.037720907 -0.033047512
0002f0 1d 20 e2 3d a7 8d a2 3e 1a e3 c2 3d c1 ba 6a 3e
       0.11041281 0.31748697 0.095159724 0.22922803
000300 9e 89 c6 bc 82 02 f5 3c 42 a1 06 3d 13 f6 58 be
       -0.024235543 0.029908422 0.03286863 -0.2118762
000310 e8 6b 33 bd 3e 0f 0c bd 84 d4 55 be 8e f9 7b be
       -0.04380408 -0.034194224 -0.2088185 -0.24606916
000320 f7 db bc be ad 45 71 3e 48 e3 d0 bd f5 fa 8f 3d
       -0.3688657 0.23561735 -0.101996005 0.07030288
000330 40 19 3f bc 99 54 44 3e ea 03 4d 3e 4e 38 ae 3d
       -0.011663735 0.19172896 0.20021024 0.08506833
000340 65 1a 89 3e 23 85 05 be 50 2e b7 3d 63 f3 a2 3d
       0.2677795 -0.13039069 0.0894438 0.079565786
000350 8f 28 7f 3d c3 7d 7a 3d b2 16 7a 3e 37 d8 3a be
       0.06229454 0.061155092 0.2442272 -0.18246542
000360 c6 55 37 3e ae 15 e5 3d 4a 8d b9 bc fc 6a 11 be
       0.17903814 0.11185776 -0.02265038 -0.14200968
000370 59 4a 80 be 60 17 06 be a4 d0 a0 bd 72 85 cd bd
       -0.25056723 -0.13094854 -0.07852295 -0.10035218
000380 50 19 1b 3e b9 0d cc 3d 30 78 b6 3c 25 7d 8c 3d
       0.15146375 0.09963555 0.022274107 0.06859807
000390 7d 9a 6d 3d b2 e7 58 3e b3 c8 59 3e 49 7e 81 3e
       0.05800866 0.21182135 0.21267967 0.2529166
0003a0 26 56 5b 3e 50 40 ec 3d 78 f1 20 3e 6f aa 5d be
       0.21419582 0.11535704 0.15717113 -0.21647047
0003b0 91 7d 71 3e ba fa ab bd f3 ae 95 3e bf 3a e1 3d
       0.23583056 -0.08397432 0.29235038 0.10997533
0003c0 78 22 85 3e 0d 59 e1 3d d9 e5 66 3e 93 1f 02 bc
       0.2600286 0.11003313 0.22548617 -0.007942098
0003d0 f3 03 d4 3e d5 5a 09 3e 86 f1 bd 3d 9d 2d 80 be
       0.41409263 0.13413556 0.092745826 -0.250348
0003e0 4e 33 d2 3d bb 60 d9 be 63 71 5f bb ee 78 9f 3c
       0.10263692 -0.42456612 -0.0034094683 0.019466843
0003f0 aa fc 71 3d f4 38 81 bc 6b 57 d4 bd b0 b2 0b be
       0.05907885 -0.015774228 -0.10368236 -0.13642383

fc2.bias f4 [128]
000000 fd 7e c9 bd b8 e4 bc bd 9c fa ac 3c bc 53 8f be
       -0.09838674 -0.09223312 0.021115594 -0.27993572
000010 d7 1f 5f bd b2 3f 3e bd c4 96 a2 bd 3f 2f c6 be
       -0.054473724 -0.046447463 -0.079389125 -0.3870792
000020 a9 4f 69 bd 82 88 7c be 43 4f 2b be f0 cd 1a bd
       -0.056960735 -0.24661449 -0.16729455 -0.037794054
000030 aa 15 7e be ee 63 59 bd ee e6 ee bc 8b d5 1a be
       -0.24812952 -0.053073816 -0.02916285 -0.15120523
000040 bd ab 51 be 2e b6 66 be 0a 05 00 3b 81 92 bc bd
       -0.20475669 -0.22530434 0.0019534254 -0.09207631
000050 ba 3d 8f be 5c 2c 8b bd f6 af 86 bd bf f7 fd bd
       -0.2797678 -0.0679557 -0.06576531 -0.124007694
000060 a6 98 08 bd 34 2b 6e bd 2e 48 44 be e3 a6 30 be
       -0.033348702 -0.05814667 -0.1916816 -0.17251162
000070 84 35 10 bd 9b da 23 be 0e eb 51 be 91 e8 31 be
       -0.035207286 -0.1600136 -0.20499822 -0.17373873
000080 be c5 a1 bd e2 27 a8 bd 38 cb e1 3c 95 34 8b be
       -0.078990445 -0.08210732 0.027562723 -0.27188554
000090 46 c9 2e be 5d b2 56 be ff 9c 05 be 5b d5 29 be
       -0.17068967 -0.20966478 -0.1304817 -0.16585295
0000a0 58 2c ca bc 0a 84 94 be 16 f0 de bd 2f 24 37 be
       -0.024679348 -0.29006988 -0.108856365 -0.17884897
0000b0 e4 57 06 be ac 01 36 be e8 e5 3c be cd 19 2c bd
       -0.13119465 -0.17774075 -0.18447077 -0.042016793
0000c0 14 6a 15 be d9 cd 89 3c 05 f5 38 be 71 35 8c bc
       -0.14591247 0.016821789 -0.18062218 -0.017115327
0000d0 87 c5 1f be 3f 6b 46 be f9 d6 8f be fe 42 9c be
       -0.15602694 -0.19376849 -0.280937 -0.3051986
0000e0 bc 98 32 be c2 fe 65 be fe 10 86 bd 18 f4 77 bd
       -0.17441076 -0.22460464 -0.0654621 -0.06053552
0000f0 5e 47 6f 3b 6f 41 32 be 10 c8 6b bc 91 bb 8c be
       0.0036511044 -0.17407773 -0.01439096 -0.27486852
000100 50 3f 2e be 9d ef 40 be be 73 7c be 89 88 f1 bd
       -0.1701634 -0.18841405 -0.24653527 -0.1179362
000110 ce 32 94 be e4 4e c3 be 7e 5d cf bd 5f d3 5a bd
       -0.2894501 -0.38146126 -0.10125254 -0.053424235
000120 37 56 b2 bd e6 c7 59 3d c2 7c 1b bd bd 70 c3 bd
       -0.087078504 0.053169154 -0.037960775 -0.095429875
000130 54 c1 a2 be 10 ab 25 3c 2c f3 2e be 56 66 2d 3c
       -0.31788123 0.010111585 -0.1708495 0.010583481
000140 71 cd 83 be c1 62 49 be 9d 02 cf bd 2b 84 6e be
       -0.25742677 -0.19666578 -0.1010792 -0.23292606
000150 16 44 53 be 51 0f 00 be 54 99 f2 bd f5 86 fe bd
       -0.20631441 -0.12505843 -0.11845651 -0.12428085
000160 92 b7 a6 bd e3 be 85 bd ab 48 2a be ae 3e 8a be
       -0.08140482 -0.065305494 -0.16629283 -0.27000946
000170 4d 98 31 be a2 85 e9 bd bf f2 09 be 94 2d c5 be
       -0.17343254 -0.114024416 -0.13471507 -0.38511336
000180 0c c1 16 be 73 8e 09 be 25 4c 0f bc a3 65 b4 bc
       -0.14722079 -0.13433246 -0.008746182 -0.02202112
000190 56 44 c9 bd 4c f4 07 be e7 69 1a be 00 cc 5c be
       -0.09827487 -0.13276786 -0.15079461 -0.21562195
0001a0 44 1e 58 be f0 e0 52 be 77 83 0e bd 64 a5 00 bd
       -0.21105295 -0.2059362 -0.034793343 -0.03140773
0001b0 57 c7 5c bd dd 5d bc bd 91 ed 97 be 6d e5 cc bd
       -0.053901043 -0.091975905 -0.29673436 -0.10004697
0001c0 7b d0 0e be 14 e9 4e be 79 a9 fe bd 45 7f 71 3c
       -0.13946716 -0.202061 -0.12434668 0.014739816
0001d0 36 20 25 3c bb a2 2c bd e4 e0 18 be af dd b2 bd
       0.0100784805 -0.04214738 -0.14929539 -0.08733689
0001e0 ee b0 34 bd 5f 34 a0 bd 0d a0 08 be 63 7e 4c be
       -0.044114046 -0.07822489 -0.13342305 -0.19970088
0001f0 16 21 d4 3d 62 58 86 be b8 d1 cc be 71 da f0 bd
       0.10357873 -0.26239306 -0.40003753 -0.117604144

fc3.weight f4 [128, 128]
000000 23 10 dc bd 10 fb 60 be 01 2f ef 3d e1 73 5e 3e
       -0.10745265 -0.21970773 0.11678887 0.21723892
000010 e8 16 a5 bd 20 14 88 3d d1 c8 9d bd 0d 02 0e 3d
       -0.0806101 0.066444635 -0.07704318 0.034669925
000020 ad f4 45 bd 34 d5 f9 bc 96 bd b3 bd f9 66 07 be
       -0.048329044 -0.030497171 -0.08776395 -0.13222875
000030 69 eb 51 bc 6d 1e 86 be 63 2b 0d bf 01 e8 63 3e
       -0.012812474 -0.26195088 -0.5514433 0.22256471
000040 c4 49 6a 3d 4b a0 b4 3c 70 d1 29 be f8 3e b8 bd
       0.057199255 0.02204909 -0.165838 -0.08996385
000050 12 e4 9d 3e de b4 40 3c 3e fd a5 bd ac ba 2f 3e
       0.30838066 0.011761872 -0.08104943 0.17161053
000060 45 e2 c2 3d 44 80 76 3e 0c 0e 5e bd 07 ce 8e be
       0.09515814 0.24072367 -0.054212615 -0.2789156
000070 47 23 db be 36 60 33 3e 2d e3 32 3e 77 e7 10 be
       -0.42800352 0.1751717 0.17469473 -0.14150797
000080 23 5d f2 bd 35 3e d6 bc 67 d1 2a be 85 e7 7a be
       -0.11834171 -0.02615271 -0.16681443 -0.2450238
000090 81 ef 95 3b 3a a8 f5 bd f1 7b 2e 3e aa a2 d9 3e
       0.00457567 -0.11994977 0.17039467 0.42506915
0000a0 9d ff 95 3d fa b1 07 bd 71 fd d2 3c 97 20 06 be
       0.07324145 -0.033128716 0.025755616 -0.1309837
0000b0 8a 19 23 be 7c 1b 5d 3d f3 f6 37 3e b7 5c de 3c
       -0.15927711 0.05398129 0.17965297 0.02714382
0000c0 ab ba a1 be 06 fd 2a bd c7 60 6f be e5 03 12 be
       -0.3158773 -0.04174521 -0.23376761 -0.14259298
0000d0 3e b3 5b bd f1 3b da 3d b1 fa 27 3e cf 4d fc 3d
       -0.053637736 0.10655964 0.16404225 0.12319528
0000e0 b4 0f 96 bc a0 4a 3b 3e d8 d6 28 3d a8 bb 24 bd
       -0.018318035 0.18290186 0.041220516 -0.040218025
0000f0 2a f3 31 be 52 41 f1 3c 71 d3 6a bd 79 91 3f be
       -0.17377916 0.029450092 -0.057330552 -0.18707837
000100 53 ea 0a be ee aa c4 bd 95 00 0d 3d 4b e1 28 3d
       -0.1356595 -0.09602915 0.034424383 0.04123048
000110 90 60 23 3e 45 11 46 be c3 33 f5 3d e7 50 51 be
       0.15954804 -0.19342525 0.119727634 -0.20441018
000120 19 85 e7 3c 30 04 1e 3e 5d a7 ad bd d5 04 10 3e
       0.028261708 0.15431285 -0.08479188 0.14064343
000130 39 ef 4d 3e 08 6f 70 bd a6 74 4f bc 4f 04 8b be
       0.20110787 -0.058699638 -0.0126620885 -0.27151725
000140 26 59 a0 3d 86 a6 57 3d a6 13 74 be bc 09 e0 be
       0.07829504 0.052649044 -0.2383562 -0.43757427
000150 7b a2 65 3e fb 10 23 be 35 83 f1 bc 65 f3 c4 3d
       0.22425263 -0.15924446 -0.02948151 0.09616736
000160 65 9e e2 bd 94 8e d4 3d 1d 26 b4 be 60 94 eb bc
       -0.110653676 0.10378757 -0.35185328 -0.028757274
000170 57 1e 4d 3d 4d c6 eb 3d cf a0 9c 3e 54 13 a9 bc
       0.050077762 0.11512432 0.30591437 -0.0206391
000180 96 a9 0b be a7 0c 5e be f1 69 4d bd b5 15 cf 3c
       -0.1363891 -0.21684514 -0.05014986 0.025278905
000190 ec be 36 3e fd ab 2f bd f9 f8 82 bd f8 d0 90 bd
       0.17846268 -0.04288863 -0.06395144 -0.070711076
0001a0 a6 9e 89 3d 1b 64 9a 3e da 47 af bc 5f e5 92 3d
       0.06719713 0.301545 -0.021396566 0.07172655
0001b0 6c a3 3e be 74 2c 6f 3d 5a d2 a9 3d e1 2e a9 bd
       -0.18617028 0.058392003 0.082920745 -0.082608946
0001c0 a4 2f cc 3d 9f 35 43 be 7e 0a c6 bd d3 96 86 bd
       0.09970024 -0.19063424 -0.0966997 -0.06571736
0001d0 3f c6 02 3e 9c 2b 31 bd 4f 80 46 3e 31 1b e0 bd
       0.12770937 -0.04325448 0.19384883 -0.10942686
0001e0 f6 51 23 3e fa b1 d2 3d 21 b0 e7 3c 0a 81 bd 3d
       0.15949234 0.102878526 0.028282227 0.09253128
0001f0 8d ae 96 bc ed 62 23 3e 26 ab 8a bd 10 9e f4 bd
       -0.01839378 0.15955706 -0.06770925 -0.119442105
000200 e0 48 df b9 c4 cb 0b 3d 13 fa 36 3d 0e 70 9e 3d
       -0.0004258817 0.034129873 0.044672083 0.077362165
000210 43 ed 4f bd 70 17 6d bd 80 15 c9 bc 55 65 cf bb
       -0.05076338 -0.05788368 -0.024546385 -0.0063292184
000220 1e b7 61 3d 6c 61 93 bd d8 3c b0 3b 24 c6 eb bb
       0.055106275 -0.07196316 0.005378347 -0.007195251
000230 2f 1d 42 bd b6 8b 62 3c 30 c5 4e 3d b5 59 81 3b
       -0.047391113 0.013827255 0.05048102 0.0039474615
000240 8c ff 6b 3d 82 2b 48 bd e0 90 77 bd de 13 f7 3c
       0.057616755 -0.048869617 -0.060440898 0.03016084
000250 d0 cf 0c 3d 63 61 b4 bc 39 b8 ad 3c 1a c2 99 3c
       0.034377873 -0.022019094 0.021206008 0.018769313
000260 98 b9 ec bc d0 fe c5 bd fd 4f fd bc d4 06 47 bd
       -0.028897092 -0.09667742 -0.03092193 -0.048590496
000270 25 30 a5 3c 14 20 84 bb eb 7c 36 3c 87 1f 1a 3d
       0.020164559 -0.0040321443 0.011138181 0.037627723
000280 6c ec 61 3d 20 18 2d 3d a0 86 8e 3c 5a 43 18 bc
       0.05515711 0.042259336 0.017398179 -0.009293402
000290 62 3e a3 3c 7f 14 2a bc 2c ee 14 3c 73 92 93 3d
       0.019927207 -0.010380863 0.009089988 0.07205667
0002a0 3e 3e a1 bd 12 24 bd bc 6e 70 3a bc 52 81 9b 3d
       -0.078732 -0.023088489 -0.011379344 0.07593025
0002b0 94 d9 8a bd 4c 56 41 bd 95 58 7a 3a a3 2b 55 3c
       -0.06779781 -0.04720144 0.0009549943 0.013010892
0002c0 e2 9f ec bb 92 d9 6e bd 11 7a 0b bd 76 fe 4b 3b
       -0.007221208 -0.05831296 -0.03405196 0.0031127012
0002d0 3f a7 95 3b 99 40 ae bb 27 4d 9c bb 53 94 45 3d
       0.0045670564 -0.0053177592 -0.0047699395 0.048237156
0002e0 24 4a 5c bd 46 75 8d 3c 32 1c 63 bd 0f 2c 2b bb
       -0.053781644 0.017267834 -0.05544681 -0.002611879
0002f0 9b 8b 65 bc 3a aa c4 bc f5 96 d8 3b 86 55 64 bd
       -0.014010335 -0.024006952 0.0066097924 -0.055745624
000300 d4 99 51 bd 43 3b 71 3d 09 43 0a bb 7c 7c a8 bc
       -0.051172093 0.058894407 -0.0021097085 -0.020567171
000310 fc 31 a3 bb d7 b7 cb 3c 6a f3 5f bd 37 e6 2e bc
       -0.004980324 0.024867935 -0.054675497 -0.010675005
000320 35 b6 b3 3b 54 54 26 bd bf cb 50 bd a7 50 0c 3c
       0.0054843673 -0.040607765 -0.050975557 0.008564151
000330 f9 32 da 3b 5b 94 ec 3b e2 a1 ad 3d 10 4e 84 3c
       0.0066589084 0.007219834 0.08478142 0.016150504
000340 60 4b 2e 3d ca 2f 3a 3d 8c 92 b1 bd fb 65 e8 3b
       0.042552352 0.04545573 -0.0867053 0.007092235
000350 1f 94 92 3b 40 e1 5c 3d 3a d5 8f bd fc 86 36 bc
       0.004473224 0.053925753 -0.070230916 -0.011140581
000360 17 35 be bc c9 92 9a bd b6 58 9e bd 83 52 10 bd
       -0.023218675 -0.07547528 -0.07731764 -0.03523494
000370 4e a1 47 bd d4 ca 28 bc 8f c7 ed bc 34 44 b5 bc
       -0.048737817 -0.010302264 -0.029025821 -0.022127248
000380 ab c6 81 3d 85 8b 63 bc e5 23 b2 3c 52 1d 92 bb
       0.06336721 -0.0138882445 0.021745631 -0.0044590617
000390 69 9f 19 3c 18 e0 33 3d 06 8f ae bc fc ed e2 3c
       0.009376385 0.043914884 -0.021308433 0.02770137
0003a0 3b 11 13 bc 72 0d a3 bc 1e 21 57 bc 1b d6 a9 3c
       -0.008976276 -0.019903872 -0.013130454 0.020731976
0003b0 ff 0c 8e bd 90 d7 05 bd 1b 42 52 bd f0 cc c0 bc
       -0.069360726 -0.03267628 -0.051332574 -0.023535222
0003c0 c7 8b c9 3c 2c 77 d7 bc 09 99 08 3d 05 62 b2 bc
       0.024602784 -0.026301943 0.03334907 -0.021775255
0003d0 6e 51 8c bd a3 12 36 bc 6e 37 39 bd 85 cf 16 38
       -0.06851469 -0.011112842 -0.045218877 3.5956054e-05
0003e0 48 88 fe 3c 8b c6 89 bd 8a 86 05 3d 61 f2 12 3d
       0.031070843 -0.06727322 0.03259901 0.03587568
0003f0 0c 60 15 bd f2 a7 3d 3d 55 d3 23 3d 1e 18 a9 3b
       -0.03646855 0.046302743 0.039996464 0.0051603457

fc3.bias f4 [128]
000000 11 cb af bd af f6 28 be fa 2b 50 3c 9d 6a f0 bc
       -0.08583654 -0.16500352 0.012705797 -0.029347712
000010 36 32 eb 3d da 23 b5 3d cc 71 72 3d b1 2c 57 bd
       0.11484186 0.08844729 0.059190556 -0.052532855
000020 be e1 72 be 60 a5 42 bd d0 37 2a 3e e7 a7 6a 3e
       -0.23718926 -0.047520995 0.16622853 0.22915612
000030 8f 9c c6 bd 1f a2 c6 3c ca 3b 21 3e 7e 4f af bd
       -0.0969783 0.024247227 0.15745464 -0.08560084
000040 1a 3a 15 bd 03 16 33 3e ea b1 f3 bc 2a b9 b0 bd
       -0.036432363 0.17488866 -0.029747922 -0.08629067
000050 91 6b e8 bc 34 f0 34 be 9a 8c 2e be a3 b4 08 be
       -0.028371604 -0.17669755 -0.17045823 -0.13350157
000060 a0 30 fc 3d 39 38 7d 3c e0 b3 c5 bd 39 8c 03 3d
       0.12313962 0.015455299 -0.09653449 0.03211615
000070 bf e4 15 be 8b 4f 4d bd cb de 13 bd 36 96 a4 bd
       -0.14638041 -0.050124686 -0.036101144 -0.08036463
000080 3a 69 13 bd 00 61 28 be 34 bf 94 bd d3 47 d9 3d
       -0.035989024 -0.16443253 -0.072630316 0.106094025
000090 09 86 ed bd 31 f5 06 bd 18 06 1f 3e dd 12 7c bd
       -0.11597831 -0.032948676 0.15529668 -0.061541427
0000a0 ae b9 b7 bb 42 fb a4 bd e9 a3 b0 bd 22 82 50 be
       -0.0056068515 -0.08055736 -0.086250134 -0.20362142
0000b0 07 34 02 3e b7 49 01 3e cc 02 e5 bd 0b de 8e bd
       0.1271516 0.12625776 -0.11182174 -0.06975945
0000c0 fd 76 6b bc f8 33 6a 3d 8b f4 e0 bc a5 7a 44 3e
       -0.014371631 0.057178468 -0.027460357 0.1918741
0000d0 a0 41 97 be ad 84 26 3e ce 2d 27 bd 1a f2 4f bc
       -0.29542255 0.1626155 -0.040815167 -0.012691999
0000e0 f7 87 8d 3e fe 55 8c bd e0 12 45 bd a9 8b 2f 3e
       0.27642795 -0.06852339 -0.048113704 0.1714312
0000f0 32 40 5a bd 70 3b 82 bd 47 28 77 bd de 12 d8 3d
       -0.053283878 -0.06358993 -0.060341146 0.10550474
000100 6e 14 88 bd a5 42 b3 bd 28 6b 41 3e e0 59 ce 3d
       -0.06644522 -0.08752946 0.18888533 0.10075736
000110 bb b0 b6 3c e8 00 5c 3e 5a 9b aa 3d ba 82 3d 3d
       0.022301069 0.2148472 0.08330412 0.04626725
000120 df df 22 be 95 ad 48 bc 05 64 9d bd 98 3a 7f 3d
       -0.15905713 -0.012248416 -0.07685093 0.06231174
000130 3c b5 30 bc 8c ba 5f 3c 22 6b c4 3d 5c c5 c1 bd
       -0.010785397 0.013655316 0.095907465 -0.094614714
000140 f7 6f 36 bc 05 3f 57 bd cb 8b c2 3d bb 1e 38 bd
       -0.011135093 -0.052550334 0.0949932 -0.04495118
000150 91 dd ae bd 33 48 c1 bc 4c 9f 81 bd 31 97 9a bd
       -0.08538354 -0.023593998 -0.063292116 -0.07548369
000160 06 58 37 3e 02 bf 95 bd 46 2a 01 bd 97 26 9b bd
       0.17904672 -0.073118225 -0.031534456 -0.0757572
000170 7b 4c 59 3c c1 55 17 be ac 6f 1e bd 1c 3d a7 bd
       0.013262863 -0.14778806 -0.038680717 -0.081659526
000180 b2 56 64 3d 6d 00 c6 bd 63 d6 ea 3d 57 e9 50 3d
       0.05574674 -0.0966805 0.11466672 0.05100378
000190 75 0b b6 bd cc 81 88 bd 69 be fa 3d 4e d0 8d bd
       -0.08888904 -0.06665382 0.12243349 -0.069244966
0001a0 a8 c8 04 bd 3a 3f 46 bd af 9a 81 bd 1a a7 2b 3e
       -0.032417923 -0.04840014 -0.06328332 0.16762963
0001b0 33 41 ff 3d a7 c2 22 bd dd 10 50 bd 89 08 5c 3e
       0.12463608 -0.039736416 -0.050797332 0.21487631
0001c0 cf 1c bd 3d c9 b4 39 bd 8a 75 40 3e bd 12 13 bd
       0.092340104 -0.045338426 0.18794838 -0.035906542
0001d0 b3 d0 15 3e b7 ef 98 bd a3 ba 4f bd 39 fa 38 3d
       0.14630394 -0.07467597 -0.0507151 0.045160506
0001e0 10 c9 9c 3d 15 e5 cf bd 86 53 af bd 40 19 05 3e
       0.07655537 -0.10151116 -0.08560853 0.12997913
0001f0 31 cc b7 3d ad cd a9 bd c0 92 3c be ab e0 7b bd
       0.08974493 -0.08291183 -0.18415356 -0.061493557

fc4.weight f4 [2, 128]
000000 a2 c0 74 bc 40 f3 c8 3c 5c ff a7 bf 26 da 13 be
       -0.014938505 0.024530053 -1.3124804 -0.14438686
000010 56 9f 4f 3f 75 78 cb 3e b6 d2 c0 3d ef 78 18 bd
       0.811025 0.3974034 0.0941519 -0.037224706
000020 65 be 33 bf fe 39 75 3d 0a bd 74 bd ce 18 88 bc
       -0.70212394 0.05986976 -0.059750594 -0.01661339
000030 45 e5 19 be d2 a1 31 bf b3 bf 2d 3e c2 bc a4 3e
       -0.15028866 -0.69387543 0.16967659 0.3217526
000040 0c 42 9d 3d b0 21 65 3e 2e 2c e6 bc eb a3 8d bd
       0.07678613 0.22376132 -0.028097238 -0.069160305
000050 7e 17 36 be 0d 0a a4 bf 08 73 85 3e 05 2d 52 bd
       -0.17782399 -1.2815567 0.26064324 -0.051312465
000060 83 f6 84 3f ca 04 73 be 49 15 58 3c b1 02 4c 3f
       1.038773 -0.23732296 0.0131886685 0.79691607
000070 37 09 c8 be 6f 22 5e bd 22 d2 ba be a9 f6 40 3e
       -0.3906953 -0.054232057 -0.36488444 0.18844093
000080 19 58 c6 bb 33 9d ee bc 00 83 c9 3a dc 37 2b 3d
       -0.0060529825 -0.029127693 0.0015374124 0.04180132
000090 5a 07 ea bc 3b 5d ce 3c cb e0 29 3e e1 64 49 3d
       -0.028567959 0.02519094 0.16589658 0.04916847
0000a0 67 a9 b8 be 93 de 04 3d e0 4d f8 bb 60 e2 c7 be
       -0.36066744 0.032438826 -0.007577643 -0.39039898
0000b0 3c 86 21 3d 27 29 af 3e 7e 2b 8c bd b5 99 0f 3b
       0.039434657 0.34211084 -0.06844233 0.0021911685
0000c0 e3 cd b0 3c 8a 89 c5 3b ff 9e d9 3c a4 b9 b0 3e
       0.02158255 0.006028359 0.026565073 0.34516633
0000d0 5f 97 7c 3e 2a 8e bc 3c c0 b9 be bb 3d 48 dc bd
       0.24667118 0.023017008 -0.005820483 -0.10755966
0000e0 3d 76 62 3e c5 c3 44 3f 20 9b 41 bc db 74 8f 3d
       0.22115417 0.7686122 -0.01181677 0.0700471
0000f0 04 a1 77 bc 50 5d 1a be a1 e6 ca bc b4 60 d1 3d
       -0.015114073 -0.15074658 -0.024768176 0.10223523
000100 1a db b0 bd 3b 9c 98 bd 03 11 4d 3c 1a a5 31 3d
       -0.0863554 -0.074516736 0.012516263 0.043370344
000110 4b df d5 3d e9 d0 02 bb f0 f3 cc 3e 88 e7 24 bf
       0.104429804 -0.0019960946 0.4002986 -0.6441579
000120 b7 ab 2b bd 79 46 6b 3f ad b9 df be 2d 93 a2 3f
       -0.041911807 0.9190441 -0.43696347 1.2701164
000130 66 b4 24 3f eb e1 0b bd 14 5e 36 3f db f9 2b bd
       0.64337766 -0.034151 0.712373 -0.041986328
000140 65 65 9e bd c8 6a 28 3c ad a0 20 3f dd 5b a5 3c
       -0.07734183 0.010279365 0.6274517 0.020185405
000150 2d 09 2c 3d e8 d5 d2 bc ab 7f 8e bd 4b 9c 47 bc
       0.04200094 -0.025736764 -0.069579445 -0.012183259
000160 3d 64 b0 3c b9 35 4b bd 22 6f 1c bf a2 dc 44 be
       0.021532172 -0.04961178 -0.61107075 -0.1922479
000170 01 25 e1 bd a6 7d f8 be 9e 1e a3 3f 74 b5 69 3d
       -0.10993386 -0.48533362 1.2743719 0.057057813
000180 b0 44 2b 3e da df ad 3d 2a dc a6 3d 62 10 28 bd
       0.16725421 0.08489962 0.08147462 -0.04103125
000190 68 1f 27 3d 83 6e c7 bc fc 7c 70 3f e3 f4 6c b8
       0.040801436 -0.024344688 0.9394071 -5.6494853e-05
0001a0 0c ba 7b bd 60 f1 c4 3e 02 98 75 3d ce 34 70 3e
       -0.061456725 0.38465405 0.05995942 0.23457643
0001b0 f5 60 57 3f 59 1d 6c bf 00 00 7b 3d a3 ca 4f bc
       0.8413232 -0.9223228 0.061279297 -0.01268259
0001c0 6b b0 95 3c a7 05 fa be ba d4 4c 3d 1c 9b 94 bc
       0.0182726 -0.48832437 0.05000756 -0.018140368
0001d0 2c 70 34 3d 2c ee 88 3c 01 1b 7f bd 72 db d0 3e
       0.044052288 0.016715132 -0.062281612 0.40792423
0001e0 fc ea e1 be 06 07 2d bd 44 21 89 bd e9 6e 46 3f
       -0.4412459 -0.042243026 -0.06695798 0.77512985
0001f0 e4 14 09 3f dd 5d 80 bd 04 2b f1 be f1 d8 87 bd
       0.535475 -0.06267903 -0.4710313 -0.06633175
000200 96 70 b3 be a6 10 19 3d e2 46 25 be 57 c1 f4 bd
       -0.35046834 0.037369393 -0.16140321 -0.11950939
000210 a0 f5 18 3e ac b0 49 bf d2 2b 14 bf 66 13 4e 3e
       0.14937449 -0.78785205 -0.57879364 0.20124587
000220 0c be 38 be 13 57 a4 3c e9 d9 6e bf 89 62 cf 3e
       -0.18041247 0.020061051 -0.93301255 0.40504864
000230 85 9f 41 bf 03 2f e9 38 18 4f 11 3f 16 19 5b be
       -0.7563403 0.000111190624 0.5676131 -0.21396288
000240 93 b6 1e bc ad 2b 3c 3f a4 91 8e bd 50 0c 9d 3e
       -0.009687084 0.73504144 -0.069613725 0.30673456
000250 6d af 63 3e 77 75 53 be 5b da f8 bd dc 94 64 3e
       0.22234888 -0.20650278 -0.12151023 0.2232241
000260 b8 d9 c5 3d 23 d4 eb bd 51 ba 63 bf db 70 d4 3e
       0.09660667 -0.11515071 -0.8895617 0.41492352
000270 4a 67 79 be ac 51 83 bd 16 94 74 be ae aa 30 bf
       -0.24355808 -0.06412062 -0.23884615 -0.69010437
000280 e6 fe 96 bd 7f 5b 08 bf 3c bb 86 3d 77 57 ec be
       -0.07372837 -0.5326461 0.06578681 -0.4616048
000290 11 72 c0 be 68 ea d0 bc 4b 30 6a bf bd cc 47 3f
       -0.37587026 -0.025502399 -0.9147994 0.7804678
0002a0 1f b3 05 3e 48 35 0b bd 00 54 42 3c 84 b5 f1 be
       0.1305661 -0.03398636 0.0118608475 -0.47208798
0002b0 d7 d2 1b 3f 81 b9 00 bf d2 4f ce bd e9 5e 06 bd
       0.6086859 -0.50283056 -0.10073818 -0.032805357
0002c0 1c ac 22 3f 09 aa 2e 3f d6 c5 3d 3d 5b 17 1c 3e
       0.6354387 0.68228203 0.04633125 0.15243284
0002d0 0d 36 3c be 7f 59 01 3f 1a 9e 66 3e 95 d3 a7 3d
       -0.18379994 0.50527185 0.22521248 0.08194653
0002e0 2e 42 91 3d bc 7a 36 3d bf fd 47 bc 76 c8 96 bf
       0.07092701 0.044550642 -0.012206494 -1.1779926
0002f0 35 40 25 3c a8 df 36 3f b7 0d 65 3d 8a 79 7c bf
       0.010086109 0.7143502 0.055921283 -0.98622954
000300 37 40 a0 3d 50 c3 ad bd 50 59 bc 3e a3 b1 3b 3f
       0.07824748 -0.084845185 0.3678689 0.7331793
000310 39 be fa be a6 5d cf 3e 24 f2 3b bf 64 f6 54 bd
       -0.48973253 0.40501136 -0.7341635 -0.05199279
000320 00 1e 74 3e 37 e6 b6 be 93 5a 7a be ac 70 0c 3f
       0.23839569 -0.35722515 -0.24448614 0.54859424
000330 f4 68 9e 3e 6b 6e 2f 3e 48 bf 12 3f d9 31 2a bf
       0.30939448 0.17131965 0.5732312 -0.6648231
000340 52 ed 90 3c 77 04 b1 3d 02 1c 5e bc e7 0b f9 3c
       0.017691288 0.0864343 -0.013556482 0.030401183
000350 1d d4 9d 3d 80 cb 9c 3c 5f df 96 bc f2 04 0c 3d
       0.07706473 0.019140005 -0.018417059 0.034184404
000360 bf 41 13 3f 0a 83 ac 3d dd 8e 67 be 14 d0 07 be
       0.57522196 0.08423431 -0.22613092 -0.1326297
000370 d7 36 e0 3e 19 e9 56 be 40 21 90 3e a4 90 95 3c
       0.4379184 -0.20987357 0.28150368 0.018257447
000380 2b 8c fc 3e 6c 27 25 bf 2f b5 47 bf b5 08 67 bf
       0.4932569 -0.6451328 -0.7801084 -0.9024766
000390 e0 2c 83 3b fa 0d bc bc d9 ce 00 3f ae ce 03 3c
       0.0040031523 -0.022955883 0.50315624 0.008044882
0003a0 de 14 59 be 08 55 9a 3b d1 ba 6e 3c 10 39 16 be
       -0.21199366 0.0047098435 0.014570908 -0.14670205
0003b0 5d 42 51 bf eb 34 29 be 29 de 47 bb 36 d9 be 3e
       -0.8174189 -0.16524093 -0.0030497408 0.37275094
0003c0 18 0b 19 3f 7b db c6 3e b8 64 71 bf d2 81 f8 bb
       0.5978255 0.38839325 -0.9429431 -0.007583835
0003d0 2b b7 c8 be 21 59 92 bd 1d c7 16 bd 3e a1 7e be
       -0.39202246 -0.07145906 -0.036810983 -0.24866197
0003e0 99 9b 09 3f 83 bd 5a bd d5 93 a5 bb ec 28 ab 3b
       0.5375305 -0.05340339 -0.0050530233 0.005223384
0003f0 18 eb 08 3e be a5 3e 3c 09 b1 67 be 4d 79 1c bd
       0.13370931 0.011636196 -0.22626127 -0.03820162

fc4.bias f4 [2]
000000 d6 7b b3 3c a5 82 c5 3d
       0.021909636 0.09644059

bn1.weight f4 [256]
000000 7f 18 c2 3e 6a a8 29 3f 74 59 60 3e 3c 40 b4 3e
       0.37909314 0.66272604 0.21909124 0.35205257
000010 2a 2b 2c 3f 41 7a 11 3f 5b e2 f8 3e 28 49 b9 3e
       0.67253363 0.5682717 0.48610196 0.36188626
000020 3d bc 2c 3f d9 b0 a1 3d 05 d8 30 3f 79 fa 0c 3f
       0.6747473 0.07895059 0.6907962 0.5506969
000030 8b 5f 11 3f 47 3f 20 3e 01 ef ce 3e a8 9b ba 3e
       0.5678641 0.15649138 0.4041672 0.3644688
000040 08 7b f5 3e 9d 12 1f 3f 8c b0 81 3f 0b 33 9a 3e
       0.47945428 0.62137777 1.0132003 0.30117068
000050 e7 95 90 3f d7 a9 18 3f cb ad 53 3f bb 83 45 3e
       1.1295747 0.59634155 0.8268706 0.19288532
000060 c9 91 f0 3e 33 62 5a 3f 70 c0 d5 3e 72 fa d6 3e
       0.46986225 0.8530609 0.4174838 0.4198795
000070 04 91 79 3f e5 d8 f7 3d ae 2b 67 3f e6 b6 67 3e
       0.974869 0.12101916 0.90301025 0.22628364
000080 3f 12 14 3f df 9c 5e 3f 34 11 e1 3e d9 34 5e be
       0.5784034 0.86958116 0.43958437 -0.21699847
000090 40 da 96 3e 9e 0f 68 3f 9d 1c 0d 3f e8 75 3f 3f
       0.29463387 0.9064883 0.55121785 0.74789286
0000a0 0b 04 80 3f 8c 5f cd 3e 8b 25 2e 3f 80 59 22 3e
       1.0001234 0.4011196 0.68026036 0.15854454
0000b0 0d 70 c7 3e cb ec 50 3e 82 14 ea 3e 81 68 fe 3e
       0.38952675 0.2040283 0.4571877 0.49689105
0000c0 a2 4e d6 3e c6 c6 a3 3f bd 70 e8 3e 9b eb 0e 3e
       0.41856867 1.2795036 0.45398512 0.13957064
0000d0 9e 51 54 3f f9 0f 82 3f 81 12 ca 3e 40 92 fb 3e
       0.8293704 1.0161124 0.39467242 0.49135017
0000e0 d0 f4 7f 3e be 76 62 3f 70 37 77 3e 08 f7 3d 3f
       0.24995732 0.88462436 0.24142241 0.74205065
0000f0 9d e3 c4 3e 96 73 01 3f c5 0d 4d 3f c7 d5 24 3f
       0.38454905 0.50566995 0.80099136 0.643887
000100 c3 0f 67 3e 0d 21 ab 3e e7 79 fd 3d 85 80 1a 3f
       0.22564606 0.33423653 0.12376767 0.60352355
000110 1b 59 7a 3f a4 20 98 3e 33 3b a8 3e c1 cc 8a 3e
       0.97792214 0.29712403 0.32857665 0.2710934
000120 c9 59 8e 3e b5 86 7a 3f 84 22 1e 3f 48 34 2a 3f
       0.27802876 0.97861797 0.61771417 0.66486025
000130 4b 44 5c 3f 40 78 b4 3e ae cd d3 3e 16 b0 0a 3e
       0.86041707 0.35247993 0.4136786 0.13543734
000140 78 ba 2b 3f 87 b4 b4 3e cc f7 bc 3e 40 11 42 3f
       0.67081404 0.3529398 0.36907804 0.7580757
000150 c4 92 37 3f a4 9f e1 3e c6 bd fa 3e bd 68 d4 3e
       0.7170832 0.4406711 0.4897291 0.4148616
000160 a0 ac 8a 3f d1 e1 88 3f 18 ea 89 3f 7e b7 09 3f
       1.0833931 1.0693914 1.0774565 0.5379561
000170 63 8a 64 3e a8 66 ea 3e a6 ab e3 3e 15 04 ea 3f
       0.22318415 0.45781446 0.44466895 1.8282496
000180 51 48 2c 3f 68 06 2b 3f 90 18 ad 3e a4 e8 e4 3e
       0.67297846 0.6680665 0.33807802 0.4470874
000190 87 33 f6 3e 1e 1c 86 3f d3 24 67 3f 8f 3a 23 3f
       0.48086187 1.0477331 0.90290564 0.6376123
0001a0 4a d9 a7 3e 41 76 7c 3e d8 33 84 3f 93 6f e2 3e
       0.32782966 0.24654485 1.0328321 0.4422575
0001b0 33 89 f4 3e f3 fc 12 3f e0 e5 1e 3f 46 29 12 3f
       0.47760925 0.5741722 0.6206951 0.5709423
0001c0 54 03 9c 3e 91 51 2f 3f ab 97 81 3f 7c 61 20 3f
       0.3047129 0.68483835 1.012441 0.6264875
0001d0 4d ec ac 3e cc 64 2b 3e 8c 06 83 3e 05 bb c1 3e
       0.33774033 0.1673767 0.25590932 0.37837997
0001e0 83 31 4f 3f 50 46 6c 3e 26 53 d9 3e db 10 b2 3e
       0.80934924 0.23073697 0.4244625 0.34778485
0001f0 24 aa b4 3e 25 58 51 3f 33 8a 61 3f ec c2 89 3f
       0.35286057 0.8177512 0.881015 1.076261
000200 9d 2d 18 3f 08 23 aa 3f 62 2e 56 3f 08 f4 5e 3f
       0.594446 1.3291941 0.83664525 0.8709111
000210 7b e0 a5 3e 61 d0 5a 3f 49 b8 9d 3e b4 55 24 3f
       0.32397828 0.8547421 0.3080466 0.6419327
000220 e8 76 1c 3f ec 7f 87 3d d6 ae 46 3f fa dc 67 3b
       0.61118937 0.06616196 0.7761053 0.0035379515
000230 95 e7 32 3f 68 97 30 3f 9b 16 81 3e e2 2c d6 3e
       0.69884616 0.6898103 0.2521256 0.41831118
000240 65 16 85 3f 6c fa 76 3f 4f cb cb 3e 3e 9b e5 3e
       1.0397459 0.96475863 0.3980355 0.44845003
000250 25 ff 05 3f 7b e6 0b 3f ae a6 bb 3e 13 93 db 3e
       0.52342445 0.5464856 0.36650604 0.42885646
000260 fc cd ea 3e 57 40 b7 3e 5b 22 3d 3f b6 83 21 3f
       0.4586028 0.35791275 0.7388055 0.630916
000270 88 63 62 3f dd c9 10 3d 15 05 a4 3f 71 b6 f9 3e
       0.8843312 0.03534876 1.2814051 0.48772004
000280 80 54 d2 3e 71 76 49 3f d0 b3 ed 3e 85 b0 6b 3f
       0.41080093 0.7869635 0.4642625 0.9206622
000290 47 d4 44 3f fb 7b 6f 3f 18 0a a9 3f f2 b2 5c 3f
       0.7688641 0.93548554 1.3206205 0.8621055
0002a0 f2 c2 24 3f fe 11 8b 3f df 0f 29 3e 86 67 71 3e
       0.6435996 1.0864866 0.1650996 0.23574647
0002b0 fe 50 2b 3e 68 b4 b5 3e 77 b5 10 3f 54 15 85 3f
       0.16730115 0.35489202 0.56526893 1.0397134
0002c0 43 79 1f 3f 2e 95 0d 3e 1f 62 45 3e 39 d9 3a 3f
       0.62294406 0.13826439 0.19275711 0.72987705
0002d0 a8 f0 58 3f 8a 6d 6f 3f ac 15 7d 3f bc e3 5c 3e
       0.8474221 0.9352652 0.98861194 0.21571249
0002e0 a3 5f 89 3e e3 6f 37 3f ec 54 ef 3e c7 b3 f4 3e
       0.26830778 0.716551 0.46744478 0.4779341
0002f0 82 f0 57 3f fa b4 9c 3f 9f fa 8a 3f 3a b6 a0 3e
       0.8435136 1.224273 1.0857733 0.31389028
000300 d4 d9 d3 3e 89 aa 57 3f 69 ac 60 3f df bb 3b 3e
       0.41377127 0.8424459 0.8776308 0.18333386
000310 d5 96 0e 3f 8f 41 6a 3f 53 6f 80 3e 84 91 43 3f
       0.556989 0.91506284 0.25084934 0.76393914
000320 27 56 b6 3e b7 33 fc 3e ba 21 38 3f de bc ac 3f
       0.35612604 0.49258205 0.7192646 1.3495138
000330 49 f2 cc 3e fd be 92 3f a3 e7 ba 3f 64 10 35 3f
       0.400286 1.1464535 1.460194 0.70728135
000340 7d 1f 67 3f 20 cf 1f 3f 09 31 76 3f fa d7 3b 3f
       0.9028242 0.6242542 0.9616857 0.7337643
000350 d8 6e 24 3f 94 5e 34 3f e4 7a 98 3f ec 36 03 3f
       0.64231634 0.70456815 1.1912503 0.5125568
000360 37 7c 5d 3f b8 fe 48 3f 76 4f d7 bc 10 90 70 3f
       0.8651766 0.7851367 -0.026283007 0.9396982
000370 c8 1b 35 3f 0d 4c 0b 3f 4e 8d 0c 3e aa 69 c7 3e
       0.70745516 0.5441292 0.13725778 0.38947803
000380 a9 72 ae 3e 74 27 72 3f 10 55 22 3f 77 5f db 3e
       0.34071854 0.9459145 0.63411045 0.4284627
000390 a0 18 12 3f 80 5d 09 3f 2f cc 1e 3e bd 75 03 3f
       0.57068825 0.53658295 0.15507577 0.5135153
0003a0 cf d7 1f 3f d8 2f 54 3f d1 5e d7 3e e0 e6 7a 3e
       0.6243867 0.82885504 0.42064527 0.24502134
0003b0 a7 9c af 3f 35 d7 f3 3e 40 62 d0 3e f3 0f 36 3f
       1.3719682 0.47625127 0.4069996 0.71118087
0003c0 32 91 12 3f 6b b8 e0 3e 54 5e 22 3f 5c 11 38 3f
       0.572528 0.438907 0.63425183 0.7190149
0003d0 89 51 86 3e 44 f2 f0 3e a6 a6 18 3f 41 96 8e 3e
       0.2623408 0.47059834 0.59629285 0.2784901
0003e0 82 cf 46 3f 8c 76 6b 3f c0 eb 47 3f 66 79 ca 3e
       0.7766038 0.91977763 0.780941 0.39545745
0003f0 9a da 05 3f 6b e2 fc 3e 6f f5 45 3e f3 fb 28 3f
       0.52286685 0.49391493 0.19331907 0.66009444
