pretrainedNetworks/actor_local1.pth (torch_old, 230166 bytes, 12 tensors)

fc1.weight f4 [256, 24]
0.071850546 -0.22629243 -0.0029236507 -0.38799596 0.09899311 -0.114237435 0.0329448 -0.37283543
0.14110479 -0.26155776 0.077249594 -0.004728199 0.2211091 -0.10409861 -0.027142076 -0.0030291118
0.020918284 -0.3231576 -0.049226668 -0.119727366 0.18577753 -0.15622821 -0.08872849 -0.19623484
0.18248087 0.29195422 0.0008314695 0.0697177 -0.13430381 -0.18837817 -0.036232974 0.037810028
0.13823809 0.30595273 0.0037384538 0.023794832 -0.1214878 -0.3453348 0.014134094 0.0040162704
0.23100229 0.22780402 0.048813548 -0.3422338 -0.17147087 -0.24250147 0.0069848066 -0.29502198
-0.10980389 -0.38828793 -0.22928199 0.046067346 0.0805247 0.083021596 -0.11624913 0.050478566
-0.0734515 -0.34243992 -0.11490282 0.123812735 -0.04295774 -0.11634048 -0.028731894 0.06828693
-0.13998374 -0.20526412 0.019026347 0.01735822 -0.04243242 -0.41445658 0.02053549 0.010399758
0.26630613 0.21645501 -0.02826698 0.1328509 -0.17923018 0.23521073 -0.009541224 0.060613714
0.32393736 0.3652817 -0.013387781 0.06487403 -0.14160934 0.012104714 -0.0039806436 0.055509266
0.1828907 0.21502653 -0.022750862 0.094822936 -0.34375086 0.13199057 -0.01103556 0.049303185
-0.107875004 0.08593236 -0.016676588 0.08229182 0.21665494 0.08034943 0.03324734 0.08132473
-0.09566373 0.17679532 -0.0469984 -0.014540321 0.048268296 -0.14911221 -0.03521883 -0.03156066
-0.12971513 0.16772503 -0.16050825 -0.018426776 -0.2540524 -0.5024135 -0.08412883 0.07631
-0.03234846 0.016983723 -8.865157e-05 -0.30895984 0.001916752 -0.5565508 -0.044323932 -0.21529989
-0.022122197 -0.050895657 -0.07635749 -0.10246421 0.058248576 -0.39831978 -0.06134118 -0.09840205
0.023447536 -0.223982 0.03456141 0.16414653 0.16285412 0.174467 0.078703396 0.12305027
-0.02471089 0.00015999631 0.018945599 -0.10069313 0.063328914 -0.26254177 -0.03522349 -0.12943874
0.012207012 -0.057226144 -0.00036711642 -0.095522255 0.06329497 -0.21096954 0.077843815 -0.1873146
-0.0485371 -0.08150415 0.0205856 -0.0043523526 0.3172764 -0.7373895 0.103033215 -0.07620227
0.06983561 -0.10098533 0.12563549 0.21226636 0.07115599 0.36652246 0.18368621 0.14777908
0.0050477665 -0.094838984 0.0072681084 -0.0106134 -0.008755398 0.3924846 0.07553805 0.03573232
0.13350858 -0.027140561 0.08548105 0.0034450474 -0.06317171 0.05379208 0.12862696 0.027770733
0.08358762 0.19279341 -0.039665148 0.019109184 0.012752652 -0.5685637 0.008351053 0.05895725
0.10854507 0.14934394 0.028904714 -0.16979223 0.010797397 -0.6507904 -0.023194287 -0.16257697
0.16804983 0.08849164 0.049026936 -0.062230717 -0.055811334 -0.5402552 -0.061256137 -0.052928053
0.035350833 -0.35019732 -0.001829342 0.078958444 -0.35762653 -0.19855157 0.06560604 0.031448696
0.11278439 -0.34700045 -0.025327116 0.09365094 -0.22448844 0.17453495 0.06007247 0.048717722
0.13717155 -0.31403655 -0.035870105 -0.16406384 -0.18485096 0.44292364 -0.07868393 -0.147004
0.03694805 0.3761755 0.018102486 0.17478806 -0.027517352 -0.22172213 -0.007289267 0.07883497
0.062419426 0.4002901 0.041338738 -0.054927237 -0.030026833 -0.46747375 -0.0089527955 -0.06739582
00000000: 6126 933d 34b9 67be b89a 3fbb 68a7 c6be
00000010: e6bc ca3d 51f5 e9bd 20f1 063d 49e4 bebe
00000020: c67d 103e e6ea 85be 0935 9e3d 02ef 9abb
00000030: 6d6a 623e a731 d5bd 0f59 debc 1084 46bb
00000040: d25c ab3c ea74 a5be e7a1 49bd 9f33 f5bd
00000050: 773c 3e3e 4afa 1fbe 48b7 b5bd c9f1 48be
00000060: 44dc 3a3e 067b 953e f9f6 593a 27c8 8e3d
00000070: f086 09be 35e6 40be 0769 14bd b0de 1a3d
00000080: 498e 0d3e d6a5 9c3e d900 753b 61ed c23c
00000090: 98ce f8bd b9cf b0be b092 673c eb9a 833b
000000a0: dd8b 6c3e 7545 693e b7f0 473d 4539 afbe
000000b0: 0f96 2fbe 4e52 78be cee0 e43b 1f0d 97be
000000c0: dde0 e0bd adcd c6be e6c8 6abe 1db1 3c3d
000000d0: 22ea a43d 3a07 aa3d 0614 eebd 9dc2 4e3d
000000e0: bd6d 96bd 4954 afbe 2b52 ebbd 8891 fd3d
000000f0: 75f4 2fbd eb43 eebd 265f ebbc 05da 8b3d
00000100: e657 0fbe c230 52be 24dd 9b3c d332 8e3c
00000110: 9ecd 2dbd a733 d4be 0b3a a83c bf63 2a3c
00000120: 4759 883e 62a6 5d3e 2790 e7bc 110a 083e
00000130: 1e88 37be 15db 703e cb52 1cbc 1646 783d
00000140: 1edb a53e 3406 bb3e 6c58 5bbc addc 843d
00000150: 0a02 11be da52 463c 0f70 82bb af5d 633d
00000160: b347 3b3e ea2f 5c3e 0460 babc 8732 c23d
00000170: 1d00 b0be 8928 073e 7ece 34bc 23f2 493d
00000180: 92ed dcbd 4efd af3d 579d 88bc 9d88 a83d
00000190: cbda 5d3e 3e8e a43d 5d2e 083d 948d a63d
000001a0: 58eb c3bd d509 353e 6581 40bd 873a 6ebc
000001b0: fab4 453d dfb0 18be 9f41 10bd c045 01bd
000001c0: 0bd4 04be 1cc0 2b3e 465c 24be c0f3 96bc
000001d0: 2813 82be 2c9e 00bf bc4b acbd 6b48 9c3d
000001e0: d27f 04bd 7321 8b3c 73ea b9b8 fc2f 9ebe
000001f0: 863b fb3a 1d7a 0ebf 038d 35bd 9377 5cbe
00000200: 9c39 b5bc f777 50bd 5161 9cbd c1d8 d1bd
00000210: 0f96 6e3d 92f0 cbbe e440 7bbd 0487 c9bd
00000220: 0c15 c03c 8a5b 65be 4490 0d3d 0716 283e
00000230: 3bc3 263e 7aa7 323e 3f2f a13d c801 fc3d
00000240: 7e6e cabc afc4 2739 cd33 9b3c 3338 cebd
00000250: 97b2 813d e06b 86be 8246 10bd 978b 04be
00000260: ebff 473c f665 6abd 8879 c0b9 2ca1 c3bd
00000270: cba0 813d 6608 58be 946c 9f3d 66cf 3fbe
00000280: d7ce 46bd a6eb a6bd 22a3 a83c 2e9e 8ebb
00000290: 0d72 a23e 8fc5 3cbf 1403 d33d f00f 9cbd
000002a0: f905 8f3d 66d1 cebd 97a6 003e 5a5c 593e
000002b0: 3bba 913d d5a8 bb3e 3d18 3c3e 6653 173e
000002c0: bc67 a53b f13a c2bd 5029 ee3b d3e3 2dbc
000002d0: cd72 0fbc bef3 c83e b1b3 9a3d 0e5c 123d
000002e0: 79b6 083e e255 debc b010 af3d 4ec6 613b
000002f0: 2b60 81bd 1655 5c3d c9b6 033e 737f e33c
00000300: fc2f ab3d a36b 453e ec77 22bd dd8a 9c3c
00000310: 80f0 503c 648d 11bf dbd2 083c 287d 713d
00000320: e14c de3d 9eed 183e 94c9 ec3c 04de 2dbe
00000330: 91e7 303c 339a 26bf f201 bebc 947a 26be
00000340: 4115 2c3e 1b3b b53d 78d0 483d a3e5 7ebd
00000350: 6d9a 64bd 2a4e 0abf b7e7 7abd 16cb 58bd
00000360: 09cc 103d 104d b3be 88c6 efba f7b4 a13d
00000370: d31a b7be 1a51 4bbe 765c 863d 59d0 003d
00000380: 81fb e63d 0baa b1be d07a cfbc 10cc bf3d
00000390: 4ce0 65be 4ab9 323e 8d0e 763d 3c8c 473d
000003a0: b376 0c3e 66c9 a0be 88ec 12bd 5a00 28be
000003b0: 9249 3dbe e3c6 e23e 0a25 a1bd 3788 16be
000003c0: d756 173d 139a c03e aa4b 943c a4fb 323e
000003d0: 126c e1bc 200b 63be ceda eebb 3b74 a13d
000003e0: 83ab 7f3d d3f2 cc3e cf52 293d 62fb 60bd
000003f0: d5fa f5bc b858 efbe bfae 12bc d206 8abd

fc1.bias f4 [256]
-0.31246656 -0.16154549 0.06441328 -0.16558972 0.077330224 -0.21475801 -0.30294397 0.017517343
-0.2161431 -0.21954644 -0.34052977 0.0023946392 -0.1967744 -0.32237068 0.12730834 -0.076075256
-0.034022443 -0.07627597 -0.40574372 -0.23803374 -0.20929097 -0.10752832 -0.006612529 -0.03474262
-0.20095722 0.004070088 0.008182524 -0.2210628 -0.11604626 0.0080203945 -0.19328627 -0.049805075
0.010878833 -0.015397785 0.080727324 -0.16402872 -0.22950636 -0.23718794 0.18933257 -0.1669804
-0.17191157 -0.35074195 0.13621344 -0.005004249 -0.23375861 -0.4575647 -0.24638931 -0.0601759
0.020457296 -0.16597904 0.13775223 -0.3622172 -0.16917802 -0.03606923 -0.10116617 -0.26144984
-0.33983144 -0.1957319 -0.16477515 -0.064625405 -0.34378663 -0.03934251 0.18552183 -0.31313342
-0.092912935 -0.21874286 -0.08344138 -0.14058468 -0.2613384 -0.027190143 -0.07656143 0.23584765
-0.09529384 0.027386138 -0.10922078 0.13190855 -0.33889994 -0.17928773 -0.11169031 0.19029494
-0.1167937 -0.42004254 -0.07329269 -0.54800546 0.10587417 0.11009591 -0.19615364 0.052187063
-0.32302773 -0.2657918 0.20596142 -0.35807753 0.03060305 -0.15022494 -0.18944678 0.022230571
-0.22241285 0.01812378 -0.31000292 -0.112082556 -0.20259221 0.10930397 -0.11527605 -0.025736345
0.010506429 -0.2652556 0.07736171 0.2686481 -0.026040396 -0.40068766 -0.1980855 -0.3331476
-0.33176503 -0.28228232 -0.38692328 -0.053488575 -0.2947429 -0.10573561 -0.34975228 -0.08025661
0.08462813 -0.013121578 0.11175654 -0.22337355 -0.04381489 0.33860546 -0.10130748 0.17834625
-0.013972391 0.14220583 0.030258117 -0.08592038 -0.14701714 -0.25745353 -0.27521202 -0.12084467
0.1527862 -0.22750518 -0.2839824 -0.1642421 -0.13018596 0.31552526 -0.07699676 0.1934191
-0.3268069 -0.036390644 -0.10512445 -0.072746865 -0.4015254 0.14473951 0.17722082 -0.2718432
-0.07566937 -0.24213238 0.04712834 -0.17957231 -0.3964894 0.18313982 -0.3536469 -0.21326992
-0.23900029 -0.3789207 0.061261456 0.047861945 0.16606696 0.16747175 -0.15086226 0.31961745
-0.24980271 0.007080416 -0.3394898 0.018675447 -0.30028668 0.16374874 -0.06190809 -0.17656955
-0.047690157 -0.048283838 0.27967852 0.08212323 -0.068580955 -0.11550582 0.08917378 -0.22257106
-0.5022586 -0.38515317 -0.31760094 0.15214445 -0.00916394 0.1795622 0.25503942 -0.14913593
-0.17644846 -0.09619856 0.100821756 -0.08656576 -0.30042917 -0.1503213 -0.04733748 -0.24875923
-0.093330875 -0.18736947 -0.16712287 -0.09435514 -0.12757261 -0.1300194 -0.35161805 -0.1387376
-0.34507883 -0.26033732 0.04902638 -0.12020881 0.11387325 -0.17467614 0.11148599 -0.33610997
0.11805206 0.1456656 -0.20023508 0.26845375 -0.27807543 -0.17290047 0.11433571 -0.38000026
-0.09777158 -0.3203395 -0.38842988 0.031025887 -0.3067352 -0.11594056 0.06809598 -0.068162516
-0.21441065 0.23084779 -0.18755846 -0.13291743 0.22751302 -0.28187102 -0.1091862 -0.1702733
-0.042315904 -0.39118218 -0.0069277794 -0.101866394 0.07101185 0.0062366724 -0.09309051 0.194728
0.044315737 -0.062037062 0.104976825 -0.18734552 -0.2079624 -0.05061288 -0.10236755 -0.047396388
00000000: 9efb 9fbe 2e6c 25be 1ceb 833d 5a90 29be
00000010: 4f5f 9e3d 86e9 5bbe 791b 9bbe 8880 8f3c
00000020: 9e54 5dbe c8d0 60be eb59 aebe 61ef 1c3b
00000030: 3a7f 49be c50d a5be 1e5d 023e 58cd 9bbd
00000040: 1e5b 0bbd 9336 9cbd a4bd cfbe 1ebf 73be
00000050: 5f50 56be cf37 dcbd eaad d8bb 474e 0ebd
00000060: bbc7 4dbe 5f5e 853b fe0f 063c 495e 62be
00000070: a9a9 edbd f967 033c d6ec 45be 6800 4cbd
00000080: 223d 323c fe46 7cbc 5e54 a53d 25f7 27be
00000090: b703 6bbe 65e1 72be 66e0 413e e9fc 2abe
000000a0: 9609 30be 7394 b3be 897b 0b3e affa a3bb
000000b0: 6b5e 6fbe ec45 eabe 7b4d 7cbe 017b 76bd
000000c0: 0f96 a73c 69f6 29be ec0e 0d3e 8874 b9be
000000d0: 013d 2dbe 54bd 13bd 3530 cfbd c1dc 85be
000000e0: 63fe adbe f16d 48be d1ba 28be 535a 84bd
000000f0: cd04 b0be 9d25 21bd 6ff9 3d3e 0653 a0be
00000100: 2349 bebd 21fe 5fbe 50e3 aabd 6ef5 0fbe
00000110: 26ce 85be ddbd debc 3dcc 9cbd 0c82 713e
00000120: 6b29 c3bd e558 e03c 25af dfbd 0913 073e
00000130: 4b84 adbe 3497 37be e4bd e4bd addc 423e
00000140: 8931 efbd d10f d7be 7a1a 96bd 164a 0cbf
00000150: 8fd4 d83d f779 e13d 80dc 48be 1ac2 553d
00000160: e463 a5be dd15 88be 8de7 523e f055 b7be
00000170: 3fb3 fa3c 91d4 19be 56fe 41be e31c b63c
00000180: 32c0 63be 5278 943c b4b8 9ebe 8a8b e5bd
00000190: 5574 4fbe c3da df3d da15 ecbd 07d5 d2bc
000001a0: 2823 2c3c 95cf 87be d16f 9e3d 3e8c 893e
000001b0: ab52 d5bc ef26 cdbe edd6 4abe 5292 aabe
000001c0: 1bdd a9be 4f87 90be cf1a c6be d616 5bbd
000001d0: 8be8 96be e98b d8bd bb12 b3be 945d a4bd
000001e0: 8351 ad3d e3fb 56bc 9de0 e43d 09bc 64be
000001f0: 3e77 33bd b25d ad3e 4c7a cfbd 66a0 363e
00000200: 75ec 64bc 689e 113e dfdf f73c 06f7 afbd
00000210: a98b 16be f3d0 83be 97e8 8cbe 697d f7bd
00000220: fc73 1c3e 1ef7 68be 2466 91be 152f 28be
00000230: 784f 05be 878c a13e 7ab0 9dbd a80f 463e
00000240: 3c53 a7be 5b0e 15bd 7d4b d7bd 4ffc 94bd
00000250: bd94 cdbe 9836 143e 6079 353e 082f 8bbe
00000260: 8bf8 9abd 8df1 77be a509 413d cee1 37be
00000270: a900 cbbe 0189 3b3e 3511 b5be 6e63 5abe
00000280: 7ebc 74be e501 c2be 4bed 7a3d e30a 443d
00000290: 750d 2a3e b77d 2b3e a37b 1abe e6a4 a33e
000002a0: 48cc 7fbe d602 e83b 9bd1 adbe 40fd 983c
000002b0: 2dbf 99be c0ad 273e 5693 7dbd a6ce 34be
000002c0: c156 43bd 46c5 45bd 0632 8f3e 3930 a83d
000002d0: 2c74 8cbd 518e ecbd bea0 b63d abe9 63be
000002e0: 0594 00bf cc32 c5be 979c a2be c1cb 1b3e
000002f0: 5a24 16bc 27df 373e 8794 823e 17b7 18be
00000300: e8ae 34be c003 c5bd a37b ce3d 6449 b1bd
00000310: dad1 99be d4ed 19be f2e4 41bd bdba 7ebe
00000320: 4224 bfbd c8dd 3fbe 4222 2bbe 453d c1bd
00000330: 65a2 02be ce23 05be 4807 b4be 3b11 0ebe
00000340: 2cae b0be ef4a 85be e3cf 483d 0930 f6bd
00000350: 6136 e93d 4dde 32be c452 e43d 9b16 acbe
00000360: 47c5 f13d 5d29 153e 6d0a 4dbe c572 893e
00000370: e75f 8ebe d20c 31be d728 ea3d 658f c2be
00000380: 773c c8bd 8a03 a4be 48e0 c6be 002a fe3c
00000390: 650c 9dbe 3f72 edbd e875 8b3d ca98 8bbd
000003a0: 778e 5bbe 5d63 6c3e 530f 40be 821b 08be
000003b0: 2cf9 683e 6651 90be 049d dfbd 205c 2ebe
000003c0: 7153 2dbd 0849 c8be 6d02 e3bb 549f d0bd
000003d0: a96e 913d 005d cc3b 3da6 bebd c766 473e
000003e0: 6b84 353d 931a 7ebd 17fe d63d 81d7 3fbe
000003f0: 18f4 54be 744f 4fbd 14a6 d1bd b722 42bd

fc2.weight f4 [128, 256]
-0.019663468 -0.17714399 -0.050016366 -0.023929795 0.024349822 -0.07409701 0.14969425 0.021055993
0.25180694 0.022893632 0.08799859 -0.28801528 0.07344777 0.0032220376 0.1015485 -0.034593455
0.015278869 0.12773806 -0.053802907 0.13172926 -0.12911569 -0.018626928 0.117011614 0.19206062
-0.014653823 -0.4332228 -0.0322865 -0.19523561 -0.13548592 -0.10296537 -0.05701242 -0.16914803
-0.14516239 -0.48576272 0.009839232 -0.10733877 -0.08017467 -0.02693946 -0.21758598 -0.047938753
-0.059578 0.070529655 -0.10869367 0.07015682 0.11169806 -0.15284276 -0.060835283 0.3284145
-0.031505402 -0.068755426 -0.29365996 -0.19546497 0.115790494 -0.20208588 -0.16696163 -0.30646917
0.017866956 0.034342293 0.1258653 0.0035295952 -0.2997178 -0.01497122 0.14440951 -0.014948463
-0.12804717 0.0072472384 0.030708415 -0.08821722 -0.02639888 -0.14063804 0.16539474 -0.056566164
0.25352076 0.07351707 0.06763494 -0.094288684 -0.19352171 0.122341655 -0.24464655 0.013347953
-0.11464598 -0.16252542 -0.016083017 -0.06018265 0.1691078 -0.4026298 -0.08903742 0.053050376
-0.025713352 -0.052552372 0.01713973 -0.41382614 0.029523896 -0.15046409 -0.26550952 -0.030332798
-0.04577822 0.09955093 0.11745847 -0.11164065 0.014586291 -0.20901324 -0.08185092 -0.10194189
-0.18083717 -0.059217982 -0.0316003 0.021819387 0.012463468 0.09635785 0.15591556 -0.023637
-0.018812614 -0.19206062 -0.06063646 0.1571115 -0.019638326 -0.029293774 0.1499625 -0.18907437
-0.16943498 0.20280169 -0.004811108 0.028172089 -0.14770319 0.060470708 -0.017095694 0.22061934
-0.05261809 -0.013548054 -0.028205091 -0.07082598 -0.0009819401 -0.24703176 -0.020627974 -0.2459063
0.06769606 0.13471456 -0.055358823 0.16727701 -0.15561543 -0.16348153 -0.10917424 -0.15805013
-0.36181414 -0.10626477 -0.056651466 0.13068476 -0.28100008 -0.06948759 0.072711214 0.107013606
-0.0017695244 -0.022544526 0.13126744 -0.046592206 0.015127206 -0.04477407 0.03661484 -0.095532775
0.082420625 -0.10249332 0.1891907 -0.15963048 -0.19875363 -0.054743223 -0.127759 0.009875597
-0.077046946 -0.10955685 0.04886854 -0.015820084 0.041796118 -0.26608625 -0.14090766 -0.27152866
-0.03568248 0.0078788325 -0.103582345 -0.20818661 -0.085396305 -0.1521049 -0.22588265 0.10220763
0.16012025 -0.008392491 -0.017263023 -0.027987458 -0.08829444 -0.00742111 -0.15577105 0.017138489
-0.023181098 -0.023220558 -0.087536074 -0.10605928 -0.043557607 -0.048059512 -0.09232097 -0.0035258853
0.13097866 -0.018179536 0.03657125 -0.066929966 -0.0694659 -0.018696243 -0.26906893 0.21190521
-0.06526826 -0.086705536 -0.18819267 -0.29034486 0.11022991 -0.10090078 -0.051045977 -0.41484
0.14245895 0.116511956 -0.03234788 -0.048558384 -0.041260432 -0.011320493 -0.086680606 -0.12152337
0.119290344 0.05406657 -0.0579976 -0.0062228865 -0.22612578 -0.09666486 -0.001590266 -0.1054164
0.05482732 -0.048094064 -0.23107375 -0.025061496 -0.03380713 -0.010656227 0.07519272 0.012038248
0.087174036 -0.13610278 0.031892914 0.010664975 0.18619587 0.056658313 -0.0889481 -0.03923553
0.0341155 -0.2138234 -0.063753486 0.2600386 -0.09047279 -0.076668695 0.022208357 -0.10671799
00000000: 4815 a1bc 3c65 35be f6dd 4cbd 6b08 c4bc
00000010: 4779 c73c 2cc0 97bd 7349 193e 9e7d ac3c
00000020: d7ec 803e 6d8b bb3c 9b38 b43d bd76 93be
00000030: c96b 963d d228 533b a9f8 cf3d deb1 0dbd
00000040: 3954 7a3c c4cd 023e 7060 5cbd 09e4 063e
00000050: e736 04be 8097 98bc c9a3 ef3d 8aab 443e
00000060: 9716 70bc 61cf ddbe d93e 04bd d8eb 47be
00000070: d2bc 0abe 82df d2bd db85 69bd 2435 2dbe
00000080: 73a5 14be e4b5 f8be bb34 213c 6ed4 dbbd
00000090: 9e32 a4bd 24b0 dcbc dcce 5ebe 6d5b 44bd
000000a0: 1008 74bd da71 903d c99a debd 61ae 8f3d
000000b0: f4c1 e43d d082 1cbe 6b2e 79bd f225 a83e
000000c0: cf0b 01bd a5cf 8cbd 995a 96be f827 48be
000000d0: 9123 ed3d 9aef 4ebe fdf7 2abe 87e9 9cbe
000000e0: b95d 923c 81aa 0c3d d5e2 003e c850 673b
000000f0: 9d74 99be d949 75bc 16e0 133e 66ea 74bc
00000100: cc1e 03be 3e7a ed3b 3790 fb3c 3bab b4bd
00000110: 7742 d8bc 6b03 10be 3d5d 293e ecb1 67bd
00000120: 79cd 813e 1e90 963d 3084 8a3d 6d1a c1bd
00000130: 8e2a 46be 438e fa3d a084 7abe 5fb1 5a3c
00000140: 83cb eabd 106d 26be 88c0 83bc 1582 76bd
00000150: 982a 2d3e 7e25 cebe 4059 b6bd 5a4b 593d
00000160: cfa4 d2bc 2841 57bd 9e68 8c3c 05e1 d3be
00000170: 19dc f13c 4213 1abe ddf0 87be 7d7c f8bc
00000180: f181 3bbd 5ce1 cb3d 118e f03d daa3 e4bd
00000190: 57fb 6e3c 9107 56be 75a1 a7bd e9c6 d0bd
000001a0: 612d 39be 8e8e 72bd 516f 01bd 92be b23c
000001b0: 9333 4c3c 4457 c53d 54a8 1f3e 62a2 c1bc
000001c0: e91c 9abc 8aab 44be f05d 78bd d6e1 203e
000001d0: 8ee0 a0bc 7ff9 efbc c58f 193e b69c 41be
000001e0: 5d80 2dbe 3fab 4f3e 80a6 9dbb 27c9 e63c
000001f0: 813f 17be 22b0 773d 450c 8cbc 09ea 613e
00000200: 1186 57bd a8f8 5dbc 5d0e e7bc 360d 91bd
00000210: 71b4 80ba e5f5 7cbe fffb a8bc dcce 7bbe
00000220: 3ba4 8a3d 9df2 093e efbf 62bd aa4a 2b3e
00000230: a759 1fbe b467 27be be96 dfbd e5d7 21be
00000240: b43f b9be 58a1 d9bd 5e0b 68bd 3ad2 053e
00000250: 3edf 8fbe 824f 8ebd 9ee9 943d f329 db3d
00000260: 63ef e7ba 4caf b8bc f96a 063e 78d7 3ebd
00000270: 1ad8 773c 0465 37bd 71f9 153d b0a6 c3bd
00000280: 25cc a83d 05e8 d1bd 35bb 413e 2c76 23be
00000290: 1286 4bbe 6e3a 60bd 41d3 02be 42cd 213c
000002a0: caca 9dbd 575f e0bd 612a 483d 1f99 81bc
000002b0: 6832 2b3d 753c 88be 194a 10be ce05 8bbe
000002c0: cb27 12bd 3816 013c fb22 d4bd df2e 55be
000002d0: 42e4 aebd 63c1 1bbe c84d 67be 3c52 d13d
000002e0: 90f6 233e a980 09bc 2f6b 8dbc f445 e5bc
000002f0: b7d3 b4bd c82c f3bb 7282 1fbe 0466 8c3c
00000300: 49e6 bdbc 0a39 bebc 1d46 b3bd 9c35 d9bd
00000310: 7669 32bd 0dda 44bd c712 bdbd 8a12 67bb
00000320: 451f 063e 40ed 94bc bccb 153d 9412 89bd
00000330: 2344 8ebd dd28 99bc 67c3 89be aefd 583e
00000340: 5eab 85bd ac92 b1bd 94b5 40be 15a8 94be
00000350: 38c0 e13d 11a5 cebd 9615 51bd e965 d4be
00000360: c2e0 113e d29d ee3d 367f 04bd 28e5 46bd
00000370: b300 29bd 9779 39bc 9a85 b1bd 3fe1 f8bd
00000380: 7f4e f43d e874 5d3d e48e 6dbd 5be9 cbbb
00000390: 848d 67be 3af8 c5bd 7970 d0ba 8ee4 d7bd
000003a0: 9d92 603d 48fe 44bd 999e 6cbe c44d cdbc
000003b0: 5879 0abd 7597 2ebc a4fe 993d 123c 453c
000003c0: 4d88 b23d 875e 0bbe 25a2 023d 26bc 2e3c
000003d0: 21aa 3e3e 8c12 683d 6c2a b6bd 6fb5 20bd
000003e0: b2bc 0b3d 85f4 5abe 3091 82bd c823 853e
000003f0: cc49 b9bd 7a04 9dbd 4dee b53c f68e dabd

fc2.bias f4 [128]
0.041534893 -0.2941617 0.029105539 -0.09343755 -0.0431977 -0.19924492 -0.17368439 -0.2106337
-0.18300548 -0.24428828 -0.018481508 -0.122711875 -0.1488822 -0.07292675 -0.124874465 -0.022893498
-0.012177976 -0.1527317 0.035173893 -0.027843015 -0.107601695 -0.049802955 -0.116756946 -0.17010431
-0.075860396 0.06237207 -0.08386042 -0.030256609 -0.1393983 -0.08193306 -0.09858187 -0.058418434
-0.15950929 -0.08786043 0.0023299567 -0.040205568 -0.10201942 -0.069324926 -0.11128252 -0.030651402
-0.055036128 -0.044905033 -0.1693549 -0.09159849 -0.0990247 0.008069154 -0.10029248 -0.00013037762
-0.1310286 -0.03120392 -0.055166256 -0.072900705 0.02729798 0.050119426 -0.22039162 -0.2772567
-0.025617985 -0.022026083 -0.0746122 -0.028184233 -0.080050625 -0.16211402 -0.14226402 -0.21434163
-0.10259153 -0.066865236 -0.16191818 -0.2142655 -0.055451557 -0.23444916 -0.07260736 -0.13280506
-0.026993614 -0.03371909 -0.028364887 -0.047727335 -0.02563741 -0.13575877 -0.039323416 -0.21984772
-0.17353891 -0.01428692 0.056946807 -0.098136224 -0.055705283 0.013848256 0.011943228 -0.13466379
-0.1361996 -0.18875824 -0.36432165 -0.116305664 -0.16847003 -0.0604171 -0.07207577 -0.1418908
-0.33242708 -0.17914186 -0.0070862127 -0.10450011 -0.1828484 -0.057076707 -0.0032366747 -0.23399182
-0.17478506 -0.16866295 -0.2936777 0.008908962 -0.042496726 -0.026834277 -0.07331394 -0.1341873
-0.02397466 -0.13574886 -0.046255257 -0.18505608 -0.03638593 -0.056918506 -0.1432557 -0.033202842
0.09143317 -0.06631944 -0.16073589 -0.08551753 -0.17054191 -0.10906131 -0.051020715 -0.17296597
00000000: 7e20 2a3d 5d9c 96be bd6e ee3c 305c bfbd
00000010: 12f0 30bd dc06 4cbe 52da 31be 5cb0 57be
00000020: ca65 3bbe b526 7abe 8866 97bc 5d50 fbbd
00000030: 9374 18be 9f5a 95bd 2fbe ffbd 258b bbbc
00000040: 2286 47bc b365 1cbe 8012 103d 0917 e4bc
00000050: 475e dcbd 2ffe 4bbd 441e efbd d32f 2ebe
00000060: b25c 9bbd db79 7f3d 03bf abbd b5dc f7bc
00000070: 6ebe 0ebe 85cc a7bd 4be5 c9bd 2b48 6fbd
00000080: 6756 23be 2bf0 b3bd 30b2 183b 98ae 24bd
00000090: 8fef d0bd 3afa 8dbd 17e8 e3bd a618 fbbc
000000a0: 906d 61bd 57ee 37bd 5f6b 2dbe fd97 bbbd
000000b0: 76cd cabd 7c34 043c 2566 cdbd fab5 08b9
000000c0: 5c2c 06be 5d9f ffbc 03f6 61bd f74c 95bd
000000d0: 03a0 df3c 074a 4d3d 57ae 61be 97f4 8dbe
000000e0: cfdc d1bc 0b70 b4bc 48ce 98bd 9fe2 e6bc
000000f0: 95f1 a3bd 3801 26be a9ad 11be 5f7c 5bbe
00000100: 821b d2bd a4f0 88bd e1cd 25be 6a68 5bbe
00000110: 2c21 63bd 7113 70be 2bb3 94bd 0dfe 07be
00000120: b621 ddbc 071d 0abd 7b5d e8bc bd7d 43bd
00000130: 8c05 d2bc 5904 0bbe 9711 21bd c31f 61be
00000140: 2fb4 31be b013 6abc 0e41 693d a5fb c8bd
00000150: 392b 64bd cce3 623c 87ad 433c 4ee5 09be
00000160: e877 0bbe d749 41be 5e88 babe aa31 eebd
00000170: 6883 2cbe ec77 77bd 769c 93bd d24b 11be
00000180: e233 aabe f770 37be 7633 e8bb 2704 d6bd
00000190: 9c3c 3bbe 44c9 69bd 641e 54bb 8d9b 6fbe
000001a0: dbfa 32be fbb5 2cbe ec5c 96be e5f6 113c
000001b0: 0c11 2ebd 8fd3 dbbc 9e25 96bd 6568 09be
000001c0: 8266 c4bc c001 0bbe 2776 3dbd 577f 3dbe
000001d0: 6a09 15bd 6123 69bd 9fb1 12be b4ff 07bd
000001e0: 5041 bb3d 7dd2 87bd f397 24be d123 afbd
000001f0: 8aa2 2ebe 895b dfbd 19fb 50bd fe1d 31be

fc3.weight f4 [128, 128]
0.059052154 -0.04614995 0.094644874 0.13764004 -0.07945256 0.104242824 0.14579691 -0.16731957
0.2631265 0.17301807 0.0029659614 0.2106092 -0.032400772 -0.18858491 0.27944466 -0.028411057
-0.27489465 0.16929395 0.21990655 -0.2694558 -0.1750909 0.2930664 0.14380464 0.3878298
-0.18039097 0.095584296 0.36177862 -0.22073965 0.10878183 -0.031073116 -0.106103815 -0.34168997
0.16280802 -0.32344952 0.005307385 -0.051885024 0.05061998 0.17929102 -0.015052504 -0.063887
0.0999293 -0.07391473 -0.21474329 0.075782545 0.14860839 0.04223982 0.13283178 0.35236284
-0.12796904 -0.40155566 -0.11905343 0.09422932 0.26811194 -0.29800478 0.1803657 0.15266337
0.065368704 0.07262866 0.077427864 0.029993335 0.12021825 -0.59909266 0.02450448 -0.09077796
0.23907594 0.014527041 0.03579591 -0.08198829 0.013719504 0.25688815 -0.08686838 0.0767481
-0.06879772 -0.01626934 0.19521548 0.13286902 0.119877085 0.20238036 -0.40021414 0.13493553
0.3426813 0.09656717 -0.11708672 -0.2737926 -0.108949356 0.09394466 -0.24187839 -0.15412615
-0.06915854 0.13959064 -0.1582123 0.3258622 -0.020496946 0.14499822 0.18131125 0.16896766
-0.23215917 0.07037054 -0.27341446 0.028682034 0.18725961 0.09019374 -0.2657135 -0.17335711
0.115658976 0.25566083 -0.035920713 -0.025265418 0.13226974 -0.21057825 -0.033861056 -0.27423763
0.011986842 0.05128647 0.38790601 0.0039447774 0.1072747 0.13879003 0.13816126 -0.19925237
0.0015319472 -0.22721285 0.047021504 -0.024765125 0.20969127 -0.22888994 0.12594116 0.037054185
0.00088568614 -0.0009993907 -0.0014094 0.0028518415 -0.005863681 -0.003511963 0.00020586001 -0.0010339189
-0.0022414085 -0.007441305 -0.0020313396 -0.00022490439 -0.0039282963 -0.0017170461 -0.0010243123 -0.00050723145
0.00035903516 -0.0027270431 -0.0028487511 -0.0014082429 -0.0024915526 0.00045901476 0.0016509042 -0.0018733266
-0.0052540572 0.0009364062 -0.0058347564 -0.0029654459 -0.0013504461 -0.0014375623 -0.0044119977 -0.0041042925
-0.003681366 -0.00026665628 0.0016962779 -0.0007357886 0.0004913246 -0.0037726285 -0.0012743232 -0.0024390891
-0.0029314046 -0.003873087 -0.0016074632 -0.00028726482 -0.0011873016 -0.00387788 -0.0008780588 -0.0035948425
-0.002734352 -0.0019602606 -0.005430963 -0.00069227506 -0.004151584 -0.002475446 -0.0032578213 -0.006800981
-0.00546876 -0.00024324562 -0.00110051 -0.0020144668 -0.00083964877 -0.005767924 -0.0067307292 -0.00247829
-0.0015148162 -0.0018135337 0.0008688383 -0.002527573 -0.002895055 -0.003531049 -0.0033461708 -0.002863341
0.0024406556 -0.002180243 -0.0019367499 -0.00083751115 0.0023395545 -0.0005196768 0.0018365365 -0.0001573877
-0.0028453039 -0.00030936743 -0.00040099947 -0.0036857494 -0.00044380012 -0.0009101873 0.00024168786 0.002104973
0.0028389576 -0.0006013841 -0.006095565 0.0016093017 -0.006198332 -0.00102945 -0.004226352 -0.0039804694
-0.0028648127 -0.0047376156 -0.0015820292 -0.0021460773 0.0010396144 -0.001630049 -0.004804264 -0.0027965708
-0.0030176684 -0.002832025 -0.0039781984 -0.006213602 -0.0029534565 -0.0023278121 -0.0052064005 -0.0015468769
0.0010089187 -0.0061274515 -0.0007979936 -0.0029478578 -0.008604176 -0.0013727468 -0.0020300532 -0.0017708327
0.0011226252 -0.002785445 -0.003873647 -0.000896333 -0.0002015615 0.0010293466 -0.00031817262 -0.002049777
00000000: ace0 713d bb07 3dbd 2cd5 c13d 83f1 0c3e
00000010: 06b8 a2bd 437d d53d c94b 153e d255 2bbe
00000020: 84b8 863e a62b 313e 9360 423b f0a9 573e
00000030: acb6 04bd 671c 41be 5f13 8f3e 4ebe e8bc
00000040: febe 8cbe 655b 2d3e 2f2f 613e 1cf6 89be
00000050: 074b 33be cd0c 963e 8641 133e a191 c63e
00000060: 69b8 38be b3c1 c33d 0c3b b93e 9309 62be
00000070: 02c9 de3d 0c8d febc f54c d9bd fdf1 aebe
00000080: 25b7 263e 2d9b a5be 93e9 ad3b 6485 54bd
00000090: e556 4f3d 1198 373e c79e 76bc 30d7 82bd
000000a0: bca7 cc3d 9b60 97bd aae5 5bbe e133 9b3d
000000b0: cc2c 183e a903 2d3d 0e05 083e e768 b43e
000000c0: 510a 03be b498 cdbe 49d2 f3bd 4dfb c03d
000000d0: f845 893e 1594 98be c9b1 383e c953 1c3e
000000e0: 07e0 853d 56be 943d 8092 9e3d 95b4 f53c
000000f0: fc34 f63d 235e 19bf 9fbd c83c cce9 b9bd
00000100: 53d0 743e d402 6e3c bb9e 123d 7ae9 a7bd
00000110: c5c7 603c d886 833e 0de8 b1bd 1c2e 9d3d
00000120: d2e5 8cbd 4747 85bc 91e6 473e d10e 083e
00000130: 1e82 f53d cc3c 4f3e dee8 ccbe 8a2c 0a3e
00000140: ec73 af3e 02c5 c53d 2acb efbd 8b2e 8cbe
00000150: d720 dfbd 0f66 c03d f8ae 77be 3fd3 1dbe
00000160: fea2 8dbd d9f0 0e3e 6802 22be 69d7 a63e
00000170: 36e9 a7bc 6a7a 143e a8a9 393e dc05 2d3e
00000180: 22bb 6dbe 6e1e 903d fbfc 8bbe 96f6 ea3c
00000190: fcc0 3f3e 7fb7 b83d 9a0b 88be 8784 31be
000001a0: 9dde ec3d fae5 823e 9921 13bd 6cf9 cebc
000001b0: b871 073e d3a1 57be e4b1 0abd e068 8cbe
000001c0: 7664 443c c311 523d 9e9b c63e 3143 813b
000001d0: d7b2 db3d f91e 0e3e 257a 0d3e d008 4cbe
000001e0: 9ecb c83a 7caa 68be 9f99 403d 3be0 cabc
000001f0: 4fb9 563e 2062 6abe b8f6 003e 21c6 173d
00000200: 642d 683a fdfd 82ba 9ebb b8ba f6e5 3a3b
00000210: 1f24 c0bb f628 66bb 20dc 5739 9084 87ba
00000220: 98e4 12bb 31d6 f3bb 3920 05bb 50d4 6bb9
00000230: f0b8 80bb 820e e1ba 3842 86ba baf7 04ba
00000240: e23c bc39 31b8 32bb 1db2 3abb ca94 b8ba
00000250: 5149 23bb eba7 f039 2763 d83a 698a f5ba
00000260: 3a2a acbb 2879 753a 7c31 bfbb ed57 42bb
00000270: 7401 b1ba 966c bcba 8592 90bb 4d7d 86bb
00000280: 1343 71bb 00ce 8bb9 a455 de3a f0e1 40ba
00000290: 3ccc 003a 343e 77bb 3107 a7ba 20d9 1fbb
000002a0: cf1c 40bb 9ed3 7dbb 84b1 d2ba 089c 96b9
000002b0: 3b9f 9bba 0824 7ebb 872d 66ba 7397 6bbb
000002c0: d032 33bb b777 00bb 38f6 b1bb cb79 35ba
000002d0: 030a 88bb 183b 22bb 2c81 55bb c3da debb
000002e0: 4933 b3bb c00f 7fb9 fd3e 90ba 2505 04bb
000002f0: e01b 5cba da00 bdbb 738d dcbb cf6a 22bb
00000300: cc8c c6ba 18b4 edba c0c2 633a a3a5 25bb
00000310: f7ba 3dbb 2c69 67bb 6e4b 5bbb e4a6 3bbb
00000320: 68f3 1f3b 68e2 0ebb 8bda fdba 6c8c 5bba
00000330: 3653 193b eb3a 08ba f0b7 f03a 7008 25b9
00000340: 4778 3abb 9832 a2b9 3d3d d2b9 9d8c 71bb
00000350: d8ad e8b9 a399 6eba 976d 7d39 96f3 093b
00000360: ce0d 3a3b 34a6 1dba 4ebd c7bb 34ef d23a
00000370: 611b cbbb 9cee 86ba 367d 8abb 996e 82bb
00000380: 95bf 3bbb 003e 9bbb 175c cfba 34a5 0cbb
00000390: ac43 883a 5ea7 d5ba 166d 9dbb ac46 37bb
000003a0: 13c4 45bb 7f99 39bb 8c5b 82bb 799b cbbb
000003b0: c78e 41bb 358e 18bb 749a aabb 93c0 caba
000003c0: b23d 843a cac8 c8bb 7230 51ba d930 41bb
000003d0: 88f8 0cbc bded b3ba a40a 05bb 491b e8ba
000003e0: 0d25 933a 038c 36bb 03dd 7dbb e4f7 6aba
000003f0: 415a 53b9 24eb 863a 68d0 a6b9 8d55 06bb

fc3.bias f4 [128]
-0.05318839 -0.08645948 0.02141687 -0.06538397 -0.1499272 0.11473264 0.10236538 0.030008787
-0.0027836973 0.03576513 -0.01812653 0.18145345 -0.03908986 0.0554739 0.0986685 -0.017080268
0.003923827 0.12919155 -0.035140898 0.08115977 0.04270369 0.019550947 -0.09300353 0.041086767
0.1605854 -0.042506997 -0.016123082 -0.064972445 -0.084325865 -0.044325385 -0.03355575 0.009956516
-0.029275415 -0.14193614 -0.07268849 0.030629355 -0.1705967 0.065712705 0.025929624 0.06770156
0.21555008 -0.06731285 -0.086250134 -0.014229313 0.2070472 0.16708116 -0.004289361 -0.33684325
-0.03656004 0.090716496 -0.028285528 0.111704 -0.00847958 0.2242277 0.100611195 0.09367639
0.03212937 -0.046559747 -0.07789046 0.070833035 -0.048726115 0.12376281 -0.058924284 0.06754326
-0.0670248 -0.092365175 0.23426412 0.18850797 -0.047073577 0.25900525 0.054429695 0.072842576
-0.020428129 0.08251998 -0.017951494 0.1967729 -0.08199929 0.23297566 0.15472235 0.04007352
-0.011164303 -0.05432749 0.072120965 -0.042442217 -0.21117213 -0.028413294 -0.0562724 -0.05525395
0.179757 -0.070423946 0.031204138 0.017477715 0.12091455 -0.0588584 0.13156281 -0.081337355
0.14264935 -0.091768175 -0.03544491 0.109483495 -0.2992554 -0.06915695 0.14385474 -0.073396094
0.008841219 -0.08512783 -0.06326754 0.111253 0.105089515 0.03691497 0.10488109 0.13085216
0.22070253 -0.07679641 0.12084277 -0.035110872 0.00042779025 -0.07526308 -0.065566406 0.09179693
0.11889606 -0.08889033 -0.08475625 0.15565735 0.10730048 -0.082193285 -0.022183534 -0.05949786
00000000: 12dc 59bd ab11 b1bd 6f72 af3c 08e8 85bd
00000010: 8486 19be f2f8 ea3d f1a4 d13d fdd4 f53c
00000020: b16e 36bb 757e 123d 177e 94bc efce 393e
00000030: b01c 20bd 9a38 633d b612 ca3d ebeb 8bbc
00000040: 7293 803b ca4a 043e e7ef 0fbd 1837 a63d
00000050: 10ea 2e3d 4f29 a03c a278 bebd 994a 283d
00000060: 8070 243e d11b 2ebd 8e14 84bc 4610 85bd
00000070: 0ab3 acbd 898e 35bd c171 09bd a820 233c
00000080: ffd2 efbc b557 11be b4dd 94bd 6aea fa3c
00000090: e7b0 2ebe 6294 863d 5d6a d43c 1ea7 8a3d
000000a0: 29b9 5c3e 52db 89bd e9a3 b0bd 1022 69bc
000000b0: 2e04 543e 5317 2b3e c58d 8cbb b876 acbe
000000c0: fbbf 15bd 92c9 b93d 0db7 e7bc 11c5 e43d
000000d0: f0ed 0abc f29b 653e 3e0d ce3d 68d9 bf3d
000000e0: 169a 033d 6fb5 3ebd 0985 9fbd e910 913d
000000f0: 0995 47bd 5b77 fd3d 975a 71bd 1f54 8a3d
00000100: 4c44 89bd f429 bdbd efe2 6f3e 3c08 413e
00000110: 39d0 40bd 569c 843e acf1 5e3d 7d2e 953d
00000120: e458 a7bc 3c00 a93d 030f 93bc d67e 493e
00000130: 3eef a7bd 2c91 6e3e 896f 1e3e 2224 243d
00000140: 7bea 36bc 8186 5ebd 28b4 933d e4d7 2dbd
00000150: 823d 58be ffc2 e8bc e37d 66bd f751 62bd
00000160: 3812 383e 6e3a 90bd d29f ff3c 6d2d 8f3c
00000170: 0ca2 f73d 8115 71bd 67b8 063e 3394 a6bd
00000180: ac12 123e f4f0 bbbd af2e 11bd e238 e03d
00000190: 0138 99be 29a2 8dbd a84e 133e b150 96bd
000001a0: c3da 103c 8057 aebd 6992 81bd 9dd8 e33d
000001b0: 2c39 d73d 2734 173d e6cb d63d 1cfe 053e
000001c0: d8ff 613e 7047 9dbd 6a7c f73d 6bd0 0fbd
000001d0: 0949 e039 8823 9abd ae47 86bd 0700 bc3d
000001e0: c77f f33d 220c b6bd af94 adbd a464 1f3e
000001f0: 5bc0 db3d f454 a8bd 3eba b5bc 07b4 73bd

fc4.weight f4 [2, 128]
0.0722198 -0.082008034 -0.05761076 -0.0069621834 0.69746405 0.49050373 0.71411115 -0.08830592
-0.018805102 0.21653612 0.6960708 -0.098595195 0.069330834 -0.04885044 0.09311917 0.056948207
0.82239145 0.07554019 -0.022502108 -0.077591054 -0.031059196 -0.14258048 0.033118322 -0.07892771
0.06740434 -0.04049301 -0.20790125 0.071062475 -0.044770308 -0.058966458 -0.05173125 0.085222885
-0.04467919 0.016828964 0.0015050238 0.59328103 -0.031403117 0.5351317 0.11054557 -0.27923602
-0.90578103 0.03479648 -0.007577643 -0.07182728 -0.49828666 0.10659877 -0.2716456 0.20231414
-0.009072431 -0.25930923 0.023847293 0.13347934 -0.054428045 -0.018267382 -0.28397155 -0.047375385
0.7115821 0.39480573 0.0037850093 0.4540804 0.009417253 -0.24324863 -0.025208548 0.33455595
-0.08636806 -0.07016637 0.12049774 -0.3041135 0.6716594 0.041453775 0.4519762 -0.06747016
-0.8644302 0.53068995 -0.07998971 0.3303772 0.029038638 -0.49283275 0.0691585 0.0039047124
-0.0773778 0.0110655455 0.14056021 0.02003643 0.22087152 -0.022546267 -0.081768975 -0.030072238
0.029100632 -0.049611535 -0.0732244 0.54582894 -0.29049492 -0.05553171 0.40192676 0.057072796
-0.6432799 -0.00997492 0.68624866 0.47197476 0.26730996 -0.016964205 0.11560213 0.051390767
-0.2394241 0.05142863 0.05995942 0.8394355 0.66623867 -0.05006776 0.1668834 0.050730504
-0.19347057 0.08585613 0.05070172 -0.019153211 0.46324793 0.016527992 -0.05332706 0.68809575
-0.33766353 -0.057364482 -0.0667673 0.08315345 0.084126025 -0.063618205 -0.032454893 -0.5758874
-0.8202081 0.044212185 0.03406068 -0.05884359 0.35572913 -0.53334606 0.13235912 0.2033622
-0.3038789 0.35006282 -0.4772239 0.7732454 -0.38628903 0.07927821 0.24825686 -0.046407603
0.023446983 0.14706822 -0.07024833 0.1811222 0.102068715 0.038094554 -0.06763442 0.13083526
0.09011697 -0.1756082 -0.8300941 0.047492594 -0.14175937 -0.075837746 -0.15042761 -0.5677965
-0.06507447 -0.32847676 0.06579802 -0.38475066 -0.31827676 0.15778124 -0.59412533 0.27745703
0.17389694 -0.036444463 0.0118608475 -0.15704055 0.15566057 -0.6259243 -0.18360488 -0.53723264
0.06652247 0.14908105 0.046215456 0.04882466 -0.070421435 0.555063 0.24146056 0.09714479
0.1604222 0.09412123 -0.018046806 -0.4806992 0.025324577 0.21406336 0.05589389 -0.37339562
0.07832289 -0.085387275 0.5347483 0.13734044 -0.34115916 0.34751984 -0.54785556 0.041478842
0.13625115 -0.04385814 -0.18514588 0.25426078 0.060845852 0.2650253 0.12991777 -0.9655241
0.0176004 0.08329099 0.10910649 0.029616762 0.2221005 0.01915722 -0.013572221 0.049854428
0.34288558 0.08458924 -0.1417032 0.17754494 0.33054993 -0.25364998 0.29309902 0.01825694
0.035320643 -0.27465835 -0.30714232 -0.45055225 -0.56293297 -0.03487522 0.094655894 -0.001965098
-0.18338364 -0.047132235 0.014512389 -0.13395812 -0.04330481 0.057460126 0.7929534 0.689037
0.33432123 0.035633918 -0.5787956 -0.011705097 -0.3219303 -0.07164466 -0.013770418 -0.036298998
0.3238996 -0.06156362 -0.009500466 0.091712736 0.0813976 0.0108753545 -0.27652103 -0.055940557
00000000: f9e7 933d d4f3 a7bd 43f9 6bbd 0723 e4bb
00000010: 018d 323f 4e23 fb3e fdcf 363f bcd9 b4bd
00000020: 280d 9abc a5bb 5d3e b231 323f 47ec c9bd
00000030: 53fd 8d3d 6617 48bd 43b5 be3d 8642 693d
00000040: 3f88 523f d1b4 9a3d 5756 b8bc 0fe8 9ebd
00000050: db6f febc 9e00 12be 14a7 073d daa4 a1bd
00000060: 490b 8a3d 00dc 25bd 11e4 54be 3489 913d
00000070: 1261 37bd d086 71bd 26e4 53bd 5689 ae3d
00000080: 8701 37bd e5dc 893c 3844 c53a 44e1 173f
00000090: 8ea0 00bd 64fe 083f b765 e23d 06f8 8ebe
000000a0: 44e1 67bf c186 0e3d e04d f8bb 2e1a 93bd
000000b0: 6e1f ffbe 7550 da3d 2215 8bbe 702b 4f3e
000000c0: 89a4 14bc 2ec4 84be 665b c33c cfae 083e
000000d0: f1ef 5ebd 7aa5 95bc b864 91be b10c 42bd
000000e0: 3f2a 363f fa23 ca3e eb0d 783b 3a7d e83e
000000f0: d24a 1a3c 2b16 79be 2882 cebc eb4a ab3e
00000100: bde1 b0bd 63b3 8fbd 85c7 f63d c4b4 9bbe
00000110: dff1 2b3f 6fcb 293d 6d69 e73e cc2d 8abd
00000120: 4c4b 5dbf 4cdb 073f a5d1 a3bd 3327 a93e
00000130: 70e2 ed3c 9354 fcbe f9a2 8d3d 34e6 7f3b
00000140: 4178 9ebd 434c 353c 04ef 0f3e 7023 a43c
00000150: 252c 623e f3b2 b8bc 7e76 a7bd 0e5a f6bc
00000160: 7364 ee3c 7735 4bbd adf6 95bd 72bb 0b3f
00000170: c0bb 94be 3875 63bd 58c9 cd3e 2ac5 693d
00000180: fead 24bf d96d 23bc fead 2f3f ada6 f13e
00000190: dadc 883e 84f8 8abc cfc0 ec3d 207f 523d
000001a0: 972b 75be d4a6 523d 0298 753d 3fe5 563f
000001b0: 9e8e 2a3f da13 4dbd 7be3 2a3e caca 4f3d
000001c0: 261d 46be 57d5 af3d 9bac 4f3d 32e7 9cbc
000001d0: d52e ed3e b665 873c 7a6d 5abd 0b27 303f
000001e0: 3ce2 acbe 05f7 6abd 4bbd 88bd 5b4c aa3d
000001f0: 444a ac3d 434a 82bd 6cef 04bd 5b6d 13bf
00000200: 28f9 51bf d617 353d 3683 0b3d fa05 71bd
00000210: 2122 b63e 5e89 08bf 2689 073e 2e3e 503e
00000220: 0496 9bbe 6f3b b33e b156 f4be 69f3 453f
00000230: adc7 c5be 9d5c a23d 0c37 7e3e e615 3ebd
00000240: e313 c03c 0d99 163e 5bde 8fbd 1978 393e
00000250: 6709 d13d 0909 1c3d ea83 8abd aef9 053e
00000260: 3f8f b83d a3d2 33be 0c81 54bf 9887 423d
00000270: 5e29 11be d250 9bbd b209 1abe 1d5b 11bf
00000280: c445 85bd 1b2e a8be 1dc1 863d 0afe c4be
00000290: 2cf5 a2be 6891 213e 9918 18bf d90e 8e3e
000002a0: 0a12 323e ca46 15bd 0054 423c 3dcf 20be
000002b0: 7c65 1f3e 933c 20bf eb02 3cbe 1488 09bf
000002c0: ef3c 883d b4a8 183e 6b4c 3d3d 5efc 473d
000002d0: 1d39 90bd 9c18 0e3f 7041 773e d9f3 c63d
000002e0: b845 243e a2c2 c03d e5d6 93bc 351e f6be
000002f0: 7d75 cf3c 6d33 5b3e fef0 643d b62d bfbe
00000300: c067 a03d 86df aebd 44e5 083f f9a2 0c3e
00000310: 6aac aebe 1fee b13e 4340 0cbf b8e5 293d
00000320: 6c85 0b3e 98a4 33bd e296 3dbe 782e 823e
00000330: 8039 793d 65b1 873e 2a09 053e 962c 77bf
00000340: b72e 903c 7794 aa3d 3973 df3d da9e f23c
00000350: 506e 633e 9aef 9c3c 055e 5ebc 2834 4c3d
00000360: b38e af3e 203d ad3d a51a 11be 57ce 353e
00000370: d73d a93e 69de 81be 1311 963e 948f 953c
00000380: 61ac 103d 05a0 8cbe c241 9dbe c9ae e6be
00000390: 601c 10bf 52d9 0ebd f3da c13d e0c8 00bb
000003a0: ecc8 3bbe bb0d 41bd 5fc5 6d3c 512c 09be
000003b0: 6260 31bd 4f5b 6b3d fefe 4a3f bb64 303f
000003c0: 272c ab3e dff4 113d f32b 14bf bcc6 3fbc
000003d0: 0cd4 a4be 6fba 92bd 529d 61bc 42ae 14bd
000003e0: 2bd6 a53e 222a 7cbd d8a7 1bbc e3d3 bb3d
000003f0: c9b3 a63d 8b2e 323c 2a94 8dbe ed21 65bd

fc4.bias f4 [2]
-0.029406268 0.0911949
00000000: 6ae5 f0bc 64c4 ba3d

bn1.weight f4 [256]
0.21047918 1.0490241 0.11299601 0.6107622 0.61579216 0.54218966 0.49505147 0.046107724
0.56539893 0.29868096 0.5531289 0.64873743 0.86458963 0.17547219 0.8350063 0.46090263
0.41065383 0.7714439 0.99676466 0.56012076 1.0420502 0.12704709 0.8042316 0.32179037
0.3426942 0.9053461 0.25929072 0.27002743 0.77515525 0.12038723 0.89602745 -0.008715509
1.0976453 0.97005147 0.7287235 0.24090016 0.17737485 0.8130414 0.37519717 1.017332
0.7887134 0.17006283 0.5778699 0.25222266 0.7406058 0.37057668 0.19963428 0.981036
0.4034372 0.5413002 0.4086688 0.13161233 0.7742769 0.80651444 0.743818 0.19115245
0.7207343 0.64623266 0.35474622 0.39880705 0.42148623 0.7019562 0.6375303 0.56322604
0.33053726 0.5949522 0.26536778 0.4972558 0.87511283 0.23528162 0.3759378 0.86950004
-0.19662024 0.99035853 0.98186034 0.35708514 0.79638654 0.33776823 0.57965696 0.23990658
0.4182656 0.8474137 0.52065015 0.7099442 0.57024425 0.6860811 0.61679876 0.84610915
0.89541626 0.92111325 0.65460795 0.7438372 0.15852366 0.5363613 0.58161974 0.9257335
0.85494506 0.65926635 0.35357994 0.4252619 0.36380953 0.7514479 0.78982335 0.5951698
0.3256932 0.366845 0.7347218 0.41148344 0.26459548 0.4073246 0.70629996 0.68584496
0.49012402 0.80979115 0.779903 0.327795 0.17556526 0.32781804 0.22516806 0.5191762
0.80044264 0.31884074 0.020404026 0.30036458 1.0134038 0.831505 0.92983097 0.63213664
0.34035754 0.6939593 0.54324573 0.5172803 0.36405855 0.45477864 0.7868188 0.5989636
0.48731515 0.32460576 0.7012423 0.21322504 0.37922028 0.6085628 0.041942704 0.2689492
0.5245249 0.97224134 0.34245226 0.15433775 0.55790335 0.61678475 0.29924786 0.33151358
0.19673495 0.41200402 0.9895679 0.45020315 0.86173254 0.3467092 0.7429307 0.45903802
0.29984412 1.2568092 0.49079162 1.0252686 0.82919806 0.95514894 1.145405 0.7217199
0.6372395 0.7025745 0.3561119 0.32942718 0.33991376 1.000012 0.837337 0.8455768
0.47654703 0.40440837 0.2361956 0.83992565 0.21130528 0.64904886 0.622466 0.4089049
-0.17196012 0.65492356 0.52881753 0.62624043 0.6256535 1.3131632 0.40166193 0.3996986
0.20959449 0.8083481 0.9445323 0.19640292 0.3471522 0.92865235 0.43047613 0.420203
0.44526297 0.22173883 1.1244348 0.74206483 0.8327006 0.3751496 0.80650336 1.315358
0.9861495 0.8826294 0.78707296 0.5264621 0.84894013 0.60789436 0.9220512 0.5452456
0.95263374 0.38623813 0.06205063 0.62981904 0.8828879 0.6055513 0.5854989 0.28327045
0.30278653 1.160838 -0.31170684 0.1997076 0.5031213 0.47374195 -0.065419525 1.2134638
0.83323455 0.62779146 0.08258468 0.2717321 0.898999 0.20148346 0.20610224 0.8118688
0.20107068 0.10245249 0.7248605 1.095295 0.70613366 0.72045183 0.46591997 -0.0020343885
0.57317126 0.5922321 0.7948736 0.50157785 0.83332384 0.47235686 0.3228688 0.73489153
00000000: db87 573e 6c46 863f 746a e73d e95a 1c3f
00000010: 8ea4 1d3f f1cc 0a3f 6377 fd3e 74db 3c3d
00000020: fcbd 103f b6ec 983e db99 0d3f a813 263f
00000030: bf55 5d3f fbae 333e f9c2 553f 6efb eb3e
00000040: 3841 d23e 597d 453f f82b 7f3f 1364 0f3f
00000050: e761 853f a218 023e 1fe2 4d3f b5c1 a43e
00000060: 9d75 af3e c3c4 673f c1c1 843e 0941 8a3e
00000070: 9370 463f 948d f63d 0e62 653f 7fcb 0ebc
00000080: a47f 8c3f 4b55 783f a08d 3a3f 88ae 763e
00000090: c1a1 353e 7b23 503f d819 c03e ef37 823f
000000a0: 1fe9 493f f324 2e3e 48ef 133f 5423 813e
000000b0: 5798 3d3f 3abc bd3e ee6c 4c3e 2d25 7b3f
000000c0: 528f ce3e a692 0a3f 093d d13e 62c5 063e
000000d0: 0337 463f bb77 4e3f db6a 3e3f 78bd 433e
000000e0: 0b82 383f 816f 253f 4ca1 b53e 7030 cc3e
000000f0: 0bcd d73e 67b3 333f 3035 233f 952f 103f
00000100: 2e3c a93e ca4e 183f 49de 873e 5098 fe3e
00000110: 6507 603f aaed 703e eb7a c03e 8e97 5e3f
00000120: d156 49be 2388 7d3f 335b 7b3f ddd3 b63e
00000130: fddf 4b3f f5ef ac3e 6664 143f 12aa 753e
00000140: e926 d63e 1bf0 583f 5449 053f e7be 353f
00000150: 87fb 113f 03a3 2f3f 86e6 1d3f 9c9a 583f
00000160: 003a 653f 14ce 6b3f 6394 273f 1d6c 3e3f
00000170: 0754 223e f94e 093f 08e5 143f dffc 6c3f
00000180: aedd 5a3f aec5 283f 6e08 b53e eebb d93e
00000190: 3e45 ba3e e45e 403f dd31 4a3f 0c5d 183f
000001a0: 42c1 a63e 1cd3 bb3e ba16 3c3f f5ad d23e
000001b0: 0f79 873e da8c d03e 13d0 343f 8993 2f3f
000001c0: 89f1 fa3e 794e 4f3f b9a7 473f bfd4 a73e
000001d0: 61c7 333e c4d7 a73e 7592 663e bbe8 043f
000001e0: cfe9 4c3f 183f a33e 5826 a73c 63c9 993e
000001f0: 37b7 813f 83dd 543f 6709 6e3f b5d3 213f
00000200: 5843 ae3e 51a7 313f 2712 0b3f 7b6c 043f
00000210: e265 ba3e bfd8 e83e f56c 493f ae55 193f
00000220: 5f81 f93e ba32 a63e 9e84 333f aa57 5a3e
00000230: 2929 c23e c6ca 1b3f 1dcc 2b3d b6b3 893e
00000240: 4447 063f cfe4 783f e755 af3e b70a 1e3e
00000250: c1d2 0e3f 9be5 1d3f 0437 993e 26bc a93e
00000260: e374 493e 31f2 d23e 5254 7d3f 0781 e63e
00000270: 819a 5c3f de83 b13e b530 3e3f 0807 eb3e
00000280: 2b85 993e 20df a03f 0a49 fb3e 003c 833f
00000290: 5346 543f a484 743f a29c 923f a3c2 383f
000002a0: 2122 233f ecdb 333f 4d54 b63e aeaa a83e
000002b0: 2d09 ae3e 6500 803f b85b 563f b977 583f
000002c0: f9fd f33e 9d0e cf3e 42dd 713e 5e05 573f
000002d0: 6960 583e 1128 263f ef59 1f3f fc5b d13e
000002e0: 5016 30be 12a9 273f 9660 073f 4b51 203f
000002f0: d42a 203f bb15 a83f a2a6 cd3e 4ba5 cc3e
00000300: f09f 563e e7ef 4e3f decc 713f d91d 493e
00000310: efbd b13e 29bc 6d3f 5e67 dc3e d924 d73e
00000320: 82f9 e33e 810f 633e 7bed 8f3f f6f7 3d3f
00000330: de2b 553f 9c13 c03e 0177 4e3f a75d a83f
00000340: 4b74 7c3f 00f4 613f 9d7d 493f 38c6 063f
00000350: 2454 593f f79e 1b3f 8c0b 6c3f 3795 0b3f
00000360: cedf 733f 01c1 c53e cd28 7e3d d23b 213f
00000370: f104 623f 6905 1b3f 42e3 153f d308 913e
00000380: d606 9b3e 5796 943f 0a98 9fbe 2680 4c3e
00000390: 8fcc 003f 4e8e f23e acfa 85bd c852 9b3f
000003a0: dc4e 553f f1b6 203f 2822 a93d 7820 8b3e
000003b0: cc24 663f ae51 4e3e 770c 533e a2d6 4f3f
000003c0: 79e5 4d3e 9cd2 d13d 7590 393f a032 8c3f
000003d0: 2dc5 343f 886f 383f 108d ee3e 6053 05bb
000003e0: 5abb 123f 869c 173f d67c 4b3f 6867 003f
000003f0: b654 553f c2d8 f13e 0f4f a53e da21 3c3f

bn1.bias f4 [256]
0.005184582 0.14728846 0.050760932 0.14252004 0.029419504 0.033625726 -0.056973353 0.05287275
0.0073159263 0.027912691 -0.13684767 0.025438434 0.022639258 0.30897626 -0.10321604 -0.16009746
-0.16938922 0.0012072056 -0.12456037 -0.07995871 0.009870864 0.29079768 0.054775957 0.16966037
0.1259588 0.12395873 -0.14670274 0.27169868 -0.036109462 -0.08018943 0.20749703 -0.0049205404
0.14828855 0.04082553 0.08912507 -0.17681551 -0.103071034 -0.016418185 -0.026540736 -0.0035853495
-0.10774022 -0.06495807 -0.028334098 0.22980471 -0.13015075 -0.2626083 -0.05814913 0.08570192
0.22456275 0.22011699 0.053123664 0.16963422 -0.07145285 -0.122262456 0.09726847 0.12567228
-0.09100845 0.10852225 0.034337044 0.056944434 0.05640596 0.095735125 -0.059820097 0.109368786
0.040928718 0.27870247 -0.04790984 -0.027344048 0.33231443 -0.16414171 -0.1259766 0.042068377
-0.079462394 0.066437 -0.09445769 -0.18296483 -0.09556463 -0.09215859 -0.0038595172 -0.32606605
0.22991362 -0.028279753 -0.08135508 -0.00309564 -0.050002668 0.16908778 0.16366068 0.11990702
-0.036678124 0.053769942 0.06803552 0.3179307 0.29216766 0.19382864 -0.020075396 0.075970314
-0.079205856 0.056566443 0.040229935 0.056021612 0.030483698 -0.13095398 0.039745674 -0.06423651
0.17675346 0.20622478 0.1533698 0.15257287 0.27590665 0.17393 0.010486067 0.017010035
-0.073308766 0.08822171 -0.10769507 -0.02502341 0.25215283 -0.0789647 0.09809798 -0.08552882
0.30505067 -0.12674953 0.012514553 -0.0680293 -0.05430759 0.16817017 0.043820515 -0.07024695
-0.042534012 0.09567145 0.25199145 0.0718063 -0.13502571 0.004284631 0.12973286 0.030800106
-0.0069459663 -0.13843879 -0.039590523 -0.0261863 0.014756572 0.082516365 0.054783102 -0.27341533
0.09197967 -0.02119599 -0.005097904 -0.24639647 0.3344763 0.002064374 -0.11097715 -0.059321847
0.061381813 -0.010132688 0.1347446 0.20180355 -0.08572504 -0.12756856 0.0553556 0.14823239
-0.08213781 -0.104787625 0.07247299 0.106327154 0.00030409274 0.0037804695 0.13853252 0.19363563
0.12371283 -0.028748835 0.06918701 0.24427323 -0.06344072 0.13122086 0.0652258 0.1384224
0.036967047 -0.12923424 0.03222581 0.05384292 0.23486212 0.08122525 0.036887307 0.20227282
0.19825354 0.1277354 0.08586916 0.030767681 -0.042869873 -0.050666586 0.10002987 -0.13850889
0.07598768 -0.02498256 0.30838713 0.23268597 -0.073235996 -0.09933073 -0.035316303 0.124375135
0.012219511 0.0747667 0.20686668 0.21736155 0.075109296 0.25511745 0.17750093 -0.008425872
0.3207263 0.16884908 0.1344763 0.015431131 -0.04585699 0.1449475 0.15929696 0.06750968
-0.2766266 -0.021085318 0.08139683 -0.06570685 0.013950959 0.17924277 0.17933324 0.17978753
0.10910876 -0.021473771 -0.2382884 0.15524988 0.19320583 0.11262223 -0.25982958 0.12290346
0.0011859571 0.014649888 -0.11609323 0.2734461 -0.10908993 -0.1422825 0.028242804 0.032182448
0.036178336 0.21853721 -0.0341094 -0.056839064 0.25432768 -0.09154861 -0.045923945 -0.0052375873
0.074458264 0.01916897 0.03390685 0.00765822 -0.003937389 -0.1870756 0.2895331 0.0025525417
00000000: 6de3 a93b c9d2 163e b2ea 4f3d c6f0 113e
00000010: 2c01 f13c 21bb 093d e45c 69bd 1991 583d
00000020: 70ba ef3b 28a9 e43c cc21 0cbe 4364 d03c
00000030: f775 b93c 2332 9e3e ee62 d3bd 97f0 23be
00000040: 5e74 2dbe 193b 9e3a 8219 ffbd 64c1 a3bd
00000050: 68b9 213c 6fe3 943e c15c 603d 73bb 2d3e
00000060: 58fb 003e 13de fd3d 3e39 16be 171c 8b3e
00000070: 84e7 13bd 5b3a a4bd 1a7a 543e 7c3c a1bb
00000080: f4d8 173e ac38 273d 3487 b63d 200f 35be
00000090: e816 d3bd 6e7f 86bc f56b d9bc 2ff8 6abb
000000a0: e8a6 dcbd bd08 85bd e91c e8bc ed51 6b3e
000000b0: 3d46 05be 9874 86be c82d 6ebd 7d84 af3d
000000c0: c7f3 653e 5966 613e 3398 593d 98b4 2d3e
000000d0: df55 92bd bd64 fabd b134 c73d 3cb0 003e
000000e0: a362 babd ea40 de3d 00a5 0c3d 913e 693d
000000f0: f009 673d c710 c43d eb05 75bd befc df3d
00000100: dfa4 273d 17b2 8e3e 1c3d 44bd a000 e0bc
00000110: 1e25 aa3e c414 28be 0300 01be e44f 2c3d
00000120: 2ebd a2bd 1f10 883d 0973 c1bd 225b 3bbe
00000130: 64b7 c3bd a5bd bcbd f4ef 7cbb 21f2 a6be
00000140: 7a6e 6b3e f1aa e7bc 7e9d a6bd 39e0 4abb
00000150: 99cf 4cbd 5925 2d3e aa96 273e d091 f53d
00000160: cd3b 16bd df3d 5c3d 3556 8b3d d0c7 a23e
00000170: 0097 953e 047b 463e 2875 a4bc 5396 9b3d
00000180: ae36 a2bd 37b2 673d 25c8 243d eb76 653d
00000190: f3b8 f93c cd18 06be 5ccc 223d 6e8e 83bd
000001a0: dcfe 343e 972c 533e f90c 1d3e 103c 1c3e
000001b0: a343 8d3e b51a 323e c1cd 2b3c a158 8b3c
000001c0: e822 96bd 95ad b43d 3c8f dcbd e5fd ccbc
000001d0: 2d1a 813e 3fb8 a1bd 98e7 c83d bc29 afbd
000001e0: 9a2f 9c3e a1ca 01be d709 4d3c f252 8bbd
000001f0: a371 5ebd cd34 2c3e 247d 333d a2dd 8fbd
00000200: 2538 2ebd 65ef c33d 0605 813e 2e0f 933d
00000210: 2e44 0abe 1766 8c3b b1d8 043e 8150 fc3c
00000220: fd9a e3bb e6c2 0dbe ac29 22bd a784 d6bc
00000230: 8dc5 713c 57fe a83d 3f64 603d 18fd 8bbe
00000240: d65f bc3d 36a3 adbc 510c a7bb 5b4f 7cbe
00000250: 7a40 ab3e 734a 073b fd47 e3bd 77fb 72bd
00000260: 7f6b 7b3d 9303 26bc 7dfa 093e 97a5 4e3e
00000270: 9c90 afbd 55a1 02be 8ebc 623d 3bca 173e
00000280: de37 a8bd e59a d6bd b86c 943d 0dc2 d93d
00000290: a36e 9f39 c1c1 773b 78db 0d3e 6b48 463e
000002a0: 275d fd3d ad82 ebbc ebb1 8d3d c322 7a3e
000002b0: 35ed 81bd c35e 063e 1b95 853d 9abe 0d3e
000002c0: c26a 173d fb55 04be 36ff 033d 658a 5c3d
000002d0: b27f 703e 6d59 a63d 2517 173d 9b20 4f3e
000002e0: fa02 4b3e 12cd 023e 2cdc af3d 810c fc3c
000002f0: 5298 2fbd c487 4fbd 76dc cc3d 46d5 0dbe
00000300: 6e9f 9b3d 3aa8 ccbc ebe4 9d3e 3b45 6e3e
00000310: c1fc 95bd e96d cbbd d4a7 10bd 64b8 fe3d
00000320: 5834 483c 491f 993d dcd4 533e 0794 5e3e
00000330: e7d2 993d c19e 823e cec2 353e ab0c 0abc
00000340: 3d36 a43e c6e6 2c3e 28b4 093e dbd2 7c3c
00000350: 8ad4 3bbd 1e6d 143e be1e 233e 8442 8a3d
00000360: 00a2 8dbe 1ebb acbc 62b3 a63d 5091 86bd
00000370: 9092 643c 6b8b 373e 22a3 373e 391a 383e
00000380: 6a74 df3d c3e9 afbc e001 74be d3f9 1e3e
00000390: c0d7 453e 7ca6 e63d 6208 85be cfb4 fb3d
000003a0: 1e72 9b3a 1506 703c 4ac2 edbd 2101 8c3e
000003b0: 8b6a dfbd 81b2 11be 745d e73c bed1 033d
000003c0: bc2f 143d 38c8 5f3e 4cb6 0bbd 14d0 68bd
000003d0: 3d37 823e d67d bbbd bf1a 3cbd 11a0 abbb
000003e0: 937d 983d 3e08 9d3c e9e1 0a3d cef1 fa3b
000003f0: 3605 81bb bf90 3fbe af3d 943e 8b48 273b
