pretrainedNetworks/actor_local1.pth (torch_old, 230166 bytes, 12 tensors)

fc1.weight f4 [256, 24]
00000000: 3696 a03d 9451 c8be d06d 31bd 345d 0abf
00000010: 8fb7 ba3d 7afb 51bc ca17 f4bb 9e7b 06bf
00000020: 0ed9 1b3e 5362 dfbe 06a3 863d 2f50 98bd
00000030: fc7a 5c3e 60d8 b7bd 8950 1ebd 5ed5 94bd
00000040: 8f18 ce3c 837e 01bf fb14 2fbc 717c 23be
00000050: b90d 4b3e effb 5dbe 0a91 4dbd 95d4 71be
00000060: ee5c 3b3e 835d ce3d cc3c 4abb 507c fd3d
00000070: 67d5 5fbe 056f 93be a974 24bd 4523 bc3d
00000080: b0e0 3a3e fd56 563e 7ef7 ebbb 5b55 e43d
00000090: 84b6 46be bd0d dcbe f65a 513b bfd3 bb3d
000000a0: 6a93 983e 6526 2b3e a2fb 383d 1a5e c1be
000000b0: 6891 59be 616b 5fbe fe6f 5a3b f431 a9be
000000c0: 5b32 85bd b843 babe e65e 98be 87f8 80bc
000000d0: 13bf 223e 688d da3d 66fe 3cbe baaa 39bc
000000e0: a04e 2dbd 77d7 a0be bedf 0cbe a784 153e
000000f0: a6ee c93b 095d 26be 4989 52bd 7751 b93d
00000100: 968e e4bd c41f 4abe d5d9 e6bb ec53 ea3b
00000110: 27b5 39bc 9205 14bf bd66 b5bb a903 4a39
00000120: 6f7a 9d3e 5d36 903e 0880 a8bc 7246 923d
00000130: 8c15 64be ce50 8c3e 0699 f1ba ad56 55ba
00000140: b235 be3e 8acc f73e 6453 f5bc 11aa 233e
00000150: 4318 3ebe 3748 d93c 0d43 a8bc 3913 1a3e
00000160: c1b1 5a3e 17ab a93e 8ae1 02bd df21 003e
00000170: 7886 c3be 1e9b 0a3e 64ca a5bc 490a a33d
00000180: a89c d0bd 1b13 093e 0a44 2a3c 1163 423e
00000190: 86df 433e 5cf1 443e ec0d 773d 8c65 413e
000001a0: 1daa aabd c9c2 3e3e 8744 a2b9 a1c7 a0bd
000001b0: c1a9 233d 0f69 fdbd 13ed 3b3c 81a3 c3bd
000001c0: f308 f3bd 5378 103e 2587 5dbe e4d4 5abd
000001d0: 21a1 63be 368c 24bf df50 0fbe a035 293d
000001e0: 6f10 033d 59e3 673d b211 18bc ee7d 97be
000001f0: 5dea c83c 00af 16bf 7f34 5bbd 7113 4fbe
00000200: cf31 823d 18df a43c dfa7 e0bd 5bac 09be
00000210: 621f 023e 37fa 00bf 04e7 c1bd 7283 05be
00000220: 3f2e fc3d c01a 2ebe e5ea 163d 4ce8 3f3e
00000230: 89b2 743e 4f9d ee3d 81dc a53d f4d2 153e
00000240: 8a2e 2a3c 902a 31bb 3ff8 7d3d 71ba b4bd
00000250: 379b 733d c4a4 bfbe 325f 003c 9899 efbd
00000260: 09fc 733d ab75 a9bd 83eb e63c 3aa5 ebbd
00000270: 713d 7f3d 104d a5be fae7 d93d 3ed1 53be
00000280: 21e5 ad3b 501e cbbd 2381 0bbc 5576 16bd
00000290: 4eba 9c3e 27fa 5cbf 2a6a 973d 9261 debd
000002a0: 43ab b33c 30fd b8be 7559 943d 9895 8e3e
000002b0: 70a4 053e cc9b c33e 559e 053e 0d22 5b3e
000002c0: 846f 83bc 849c acbe b098 483d c7c8 b83d
000002d0: 9b40 5fbb e39f de3e 231d f03d c4d9 0b3e
000002e0: eed7 0f3e f633 51be 9212 813d a8db f03d
000002f0: e7e6 c6bd 53b5 963d 566f d93d af56 113e
00000300: a232 1c3e b942 553e 91f8 2cbd 8422 15bd
00000310: fb28 9a3d 18bb 17bf 49a3 bd3b 0357 613b
00000320: 4dc1 343e 75ce 1c3e d44b be3b 33b2 60be
00000330: fe83 a23d 4ccf 3dbf dc9b 3dbd c34e 59be
00000340: 8b9d 7c3e cbd9 8f3d ed4b 193d 3c88 80bd
00000350: 5af1 793c 8e6a 37bf 5936 95bd 16f6 5abd
00000360: 80c6 223d 97c3 bbbe d8e2 223d 45c0 a23c
00000370: e93f 9bbe 23bf 80be 3b8d db3d e072 e2bc
00000380: 7ebe 033e 38e6 aebe 81bb b9bc 12cb 9b3d
00000390: ddb6 4dbe e24f 823e 3577 803d 1615 ff3c
000003a0: 0900 283e 5d1c 88be 344f 48bd 7b74 13be
000003b0: 6d6d 67be 0225 343f 07d6 bbbd 58fc 01be
000003c0: ae4c 0b3c 1ad4 b53e 8532 94bd 02b4 563e
000003d0: 35ef 58bd a5fe b5be 3133 c8bd 10e5 e83d
000003e0: 2924 2f3d 44ca d73e f666 32bd c2d7 8fbd
000003f0: ff36 eabc a8f0 1dbf 1733 c0bd b860 a9bd
0.078411505 -0.3912474 -0.043317616 -0.54048467 0.09117042 -0.012816304 -0.007449125 -0.52532375
0.15219519 -0.43629703 0.06574063 -0.07437169 0.2153129 -0.08976817 -0.038651023 -0.07267259
0.025158195 -0.50583667 -0.0106861545 -0.1596544 0.19829454 -0.21678136 -0.05018715 -0.2361625
0.18297169 0.1007643 -0.0030858992 0.12377226 -0.2185875 -0.2879564 -0.04015032 0.09186415
0.18249774 0.20931621 -0.007201134 0.11149093 -0.19405562 -0.4297923 0.0031945086 0.09171247
0.29799968 0.16713865 0.04516185 -0.37767106 -0.21246874 -0.21818306 0.0033330913 -0.33045924
-0.06503745 -0.3637979 -0.29759902 -0.015743507 0.15893202 0.10671502 -0.1845642 -0.011332208
-0.04231131 -0.31414387 -0.13757226 0.14601384 0.0061624823 -0.16246428 -0.051400457 0.09048741
-0.111600086 -0.1973868 -0.0070450106 0.0071511175 -0.011334694 -0.57821 -0.005535929 0.00019265585
0.30757472 0.28166476 -0.020568863 0.071423426 -0.22273844 0.274054 -0.0018432445 -0.0008138221
0.3715034 0.48398238 -0.02994699 0.15982844 -0.18563943 0.026523693 -0.020539785 0.15046395
0.2135687 0.33138344 -0.031953372 0.12512921 -0.3818853 0.13535735 -0.020238109 0.07960946
-0.1018613 0.13386194 0.010392198 0.18983103 0.19128236 0.19232696 0.06031601 0.18886393
-0.08333228 0.18628992 -0.00030950105 -0.07850576 0.03995681 -0.12373554 0.011470097 -0.0955267
-0.11866941 0.141084 -0.21633585 -0.053425685 -0.22229435 -0.64276445 -0.13995694 0.041310906
0.031998094 0.0566133 -0.009281563 -0.29588264 0.024525816 -0.5886078 -0.05351686 -0.2022226
0.063571565 0.02012591 -0.10969519 -0.13444655 0.12707284 -0.503818 -0.09467891 -0.13038424
0.12313508 -0.17002392 0.036845107 0.18740958 0.23896231 0.11651098 0.080986984 0.14631253
0.010387072 -0.0027033426 0.062004324 -0.088246234 0.059474196 -0.37430394 0.007835196 -0.116992176
0.05956653 -0.082743965 0.028188473 -0.11506124 0.062314454 -0.32285357 0.10639949 -0.20685288
0.0053068553 -0.09917891 -0.008514675 -0.036733944 0.3061089 -0.863192 0.07393296 -0.10858454
0.02193225 -0.36130667 0.07243625 0.27848506 0.13051009 0.382048 0.1304868 0.21399708
-0.016044386 -0.33713162 0.04897374 0.0902267 -0.0034065607 0.4348136 0.117243074 0.1365729
0.14047214 -0.20429978 0.0630237 0.11760646 -0.0971201 0.073588036 0.10616939 0.14193223
0.1525369 0.20826234 -0.04222924 -0.03640987 0.07527348 -0.5926986 0.0057872874 0.0034384138
0.17651863 0.15313132 0.0058073793 -0.21942978 0.07935332 -0.74144435 -0.046291217 -0.21221451
0.24669473 0.070239626 0.037425924 -0.06275985 0.015255297 -0.71646965 -0.072857566 -0.053457342
0.039740086 -0.3667266 0.039767116 0.019867072 -0.30322197 -0.25145826 0.10720297 -0.027642667
0.12865636 -0.34160018 -0.022672417 0.07607092 -0.20089288 0.2545157 0.06272737 0.031137984
0.16406263 -0.2658414 -0.04890366 -0.14399903 -0.22600336 0.7036897 -0.09171682 -0.12693918
0.008502169 0.35513383 -0.07236198 0.20967105 -0.0529625 -0.3554584 -0.09775389 0.11371815
0.042759094 0.42146504 -0.043555222 -0.070235744 -0.028590677 -0.6169534 -0.093847446 -0.08270401

fc1.bias f4 [256]
00000000: 8c06 dbbe 6f45 41be f600 f3ba e9be 28be
00000010: e3c2 7e3d 97ef a0be 3e1c b2be e7db d8bd
00000020: 4ca2 8fbe c9cc 17be d9bf c4be 6ea0 4d3c
00000030: 42f6 a1be 0aa2 a3be 9c7a ea3d 962a 1abe
00000040: bf09 31bd b9c6 97bd 3f92 6abe a91a 66be
00000050: 22b4 6abe 79e5 49be f8e7 393d c270 76bd
00000060: 1535 6cbe 6f18 053d 21b4 59bb 8efc a4be
00000070: 6df2 e7bd 7419 7dbd 4906 9ebd 8c32 b3bd
00000080: 7e89 2bbd eaf4 d3bc ef2c a03d 592b 6bbe
00000090: c37f 4ebe 25df bbbe 5789 f23d e9fc 2abe
000000a0: b03f 39be 730e a9be f68e 853d 5558 5bbd
000000b0: ee92 06be 51bb 28bf f57e bcbe d029 c8bd
000000c0: 8cdb 2b3a 6abd 3ebe cb6a 563e 33fe d7be
000000d0: c490 2ebe f229 64be 093c 0abe 4142 8fbe
000000e0: 3e55 85be 3179 34be 122b 51be 807e a7be
000000f0: 16ac d9be eb65 893c a535 693e d0e7 a4be
00000100: 32de 7bbe 63f8 32be 6492 43be 5873 80be
00000110: ef51 8fbe acc3 15bd 2302 3cbe 5b1e 5d3e
00000120: 3b2c c0bd a04a e03d 4f0e 57bd d94d a03e
00000130: 2709 9ebe bb6d 1bbe acab 75bd 72eb 9dbd
00000140: 1d8e 69bd 7b1c e0be 957c a0bd ea75 38bf
00000150: 93be 7d3d e645 0a3e f179 46be f674 063f
00000160: 02d6 a7be 0bee 9ebe e234 313e 290d e4be
00000170: d36b 733b 6320 f0bd 42e8 acbe c85b 14bd
00000180: 060d b0be 375c c63c c6a1 cdbe c393 11be
00000190: 4ae7 97be fb70 bc3d e326 e7bd 6590 fcbc
000001a0: c8cd 0abe 9b9d a1be d854 94bc 9bcb 843e
000001b0: 3fcf 34be 1819 ccbe 7328 68be 9023 d5be
000001c0: d910 a0be 790d e4be 625b b2be 0af0 b1bc
000001d0: 8360 92be 9003 4abe 4d8d 89be 213c d4bd
000001e0: 0eb4 0f3e d809 f6bc fd57 c73d 60c0 9dbe
000001f0: 62d6 97bd 5e15 4f3f 5a04 603d 44f5 233e
00000200: 6fd8 f6bd 76aa fa3d 2b0e a9bc ff99 0abe
00000210: b448 f7bd 6e65 97be 77ed 37be 8f69 5bbe
00000220: 0841 583e 978e 18bd 5915 83be 9209 86be
00000230: dd3f 0cbe 67a3 2c3e 985e 06be 6b3f 403e
00000240: 6297 97be 6969 173d db20 1bbe b5fc 6abe
00000250: 038c c0be 840b f33d 0ec1 d13d 68c8 a0be
00000260: 4ee1 d8bd 5f00 95be d9e7 cc3d d524 febd
00000270: 4289 e8be 18f3 7c3e 9dee e0be c4bc 83be
00000280: 51bb e0be ec6a d6be eeb7 9a3d b576 65bd
00000290: 6be6 663e 40ff c73d 8532 8bbe 6df2 433e
000002a0: 0ca5 5cbe c9e9 4b3e c675 cdbe 72c0 03bd
000002b0: b466 99be 628c 613e 2e9a 0abe c792 4cbe
000002c0: c1f9 f7bc 8b79 0ebe b2f9 a13e a676 ae3d
000002d0: 39fb 21be cb15 debd 0d8a 4f3e 4ef3 55be
000002e0: d416 1fbf cc32 c5be 3ba7 bebe 74f5 823d
000002f0: f697 10bd 7463 073e caa1 3e3e 9d20 2ebe
00000300: 8bae 1fbe 21a6 76bd 37dd cf3d bbe3 5fbd
00000310: a532 92be bd01 37be d43c 7cbd a3ab 38be
00000320: c837 1bbe 7c85 28be f98f 3fbe d561 26be
00000330: 8728 29be d4ed 05be 5483 a0be 2549 52be
00000340: ba36 fbbe 25e9 98be 55d4 f9bc cf34 02be
00000350: 7ee1 013e f8c0 babd 383e 153e 603c d4be
00000360: ee5a a23d 5f74 2d3e c7b4 92be 14d4 793e
00000370: d15e b1be fa66 35be 7bc2 2d3d 3a13 b4be
00000380: 21ec ccbd 854d 9cbe e3c1 b3be 6156 15be
00000390: cc67 c3be ab23 32be 3605 e53d 372c 293e
000003a0: 778e 5bbe cf08 793e 64d5 4abe dc67 01be
000003b0: 10b3 333f 5c74 b2be 5368 febd 5828 00be
000003c0: 1ab7 bebd bef0 88be 7f34 fbbd 3180 1ebe
000003d0: a236 3f3d d857 dcbd 3201 5abe 5948 433e
000003e0: ea34 02be f776 05bd a153 833d 646f 5fbe
000003f0: 4b09 9bbe 744f 4fbd 8d48 16be 5202 38bd
-0.42778432 -0.18874143 -0.0018539715 -0.16479076 0.062197577 -0.31432793 -0.34787172 -0.10588818
-0.2805351 -0.14824213 -0.38427618 0.012550456 -0.31633192 -0.31959563 0.11449167 -0.15055308
-0.043222185 -0.0741095 -0.22907351 -0.22471108 -0.22920278 -0.19716443 0.04538724 -0.060166128
-0.23067124 0.032494005 -0.0033218937 -0.32223934 -0.11325536 -0.061791852 -0.077160425 -0.087498754
-0.04187917 -0.02587362 0.078210704 -0.22965755 -0.20165925 -0.36693683 0.11842602 -0.1669804
-0.18090701 -0.33018836 0.06521408 -0.053551037 -0.13141987 -0.6591082 -0.3681561 -0.097736
0.00065558474 -0.18626943 0.20939176 -0.42186126 -0.17047411 -0.22281626 -0.13499464 -0.27980235
-0.26041597 -0.17624356 -0.20426586 -0.327137 -0.42514104 0.016772231 0.2277437 -0.3220811
-0.2459648 -0.17477565 -0.19098812 -0.25088 -0.27992198 -0.03656356 -0.1836019 0.21593611
-0.09383436 0.109517336 -0.05250388 0.31309393 -0.30866358 -0.15178578 -0.059978172 -0.07710923
-0.057020295 -0.4377173 -0.07836262 -0.7205492 0.061949324 0.13503227 -0.19382454 0.5252222
-0.32780463 -0.31040987 0.1730533 -0.4454129 0.0037143126 -0.11724927 -0.3377095 -0.036220342
-0.34384936 0.024213893 -0.40162486 -0.14216523 -0.29668647 0.09201237 -0.11286714 -0.030830571
-0.13555062 -0.31565556 -0.018106863 0.2593659 -0.17657183 -0.39862895 -0.2267168 -0.41628695
-0.31262854 -0.4454153 -0.34835345 -0.021720905 -0.28589258 -0.19727921 -0.26865616 -0.10363031
0.14033529 -0.03003399 0.09733579 -0.30810833 -0.07413937 0.8089198 0.05469165 0.1601153
-0.12053 0.12239544 -0.020636639 -0.13535307 -0.12074414 -0.29569572 -0.1796168 -0.21426986
0.21118557 -0.03724536 -0.25602224 -0.26179177 -0.13696237 0.16859208 -0.13122022 0.18774192
-0.29607683 0.03696576 -0.15149252 -0.22947963 -0.3760682 0.11867431 0.102419004 -0.31402898
-0.105898485 -0.29101846 0.10005159 -0.12409369 -0.4541722 0.24702108 -0.43932047 -0.25729954
-0.4389291 -0.4187845 0.07554613 -0.05602141 0.22548835 0.09765482 -0.2718698 0.19135447
-0.21547335 0.199134 -0.40128917 -0.032165952 -0.2996117 0.22026208 -0.13535377 -0.19977866
-0.03027046 -0.13913552 0.31635815 0.08518724 -0.1581849 -0.108440004 0.20267506 -0.20893595
-0.6214421 -0.38515317 -0.37236962 0.06394473 -0.03530117 0.13221532 0.18616405 -0.17004628
-0.15593927 -0.060217027 0.10149615 -0.05466054 -0.28554264 -0.17871757 -0.061581448 -0.18034224
-0.15157998 -0.1645717 -0.18707265 -0.16248257 -0.16519366 -0.13079005 -0.31350195 -0.20535715
-0.4906519 -0.29865375 -0.030496756 -0.12715457 0.12683675 -0.09118837 0.14574516 -0.41452312
0.079275 0.16938923 -0.28653547 0.24397308 -0.34642652 -0.17715064 0.0424218 -0.3517092
-0.100059755 -0.30527893 -0.3510886 -0.14583732 -0.38165128 -0.17396419 0.111826345 0.16520773
-0.21441065 0.24319766 -0.19807965 -0.12637275 0.701951 -0.348544 -0.12422242 -0.1251539
-0.093122676 -0.26746172 -0.12265872 -0.15478589 0.04668296 -0.10758942 -0.21289518 0.19070567
-0.12715498 -0.032584157 0.06412435 -0.21819836 -0.30280527 -0.05061288 -0.14676113 -0.044924088

fc2.weight f4 [128, 256]
00000000: cb48 043c 7677 a2be a569 0dbe b7e8 d8bd
00000010: 2fcd 8a3d 4eab bfbc c007 283e 225a 98bc
00000020: bb44 6c3e 3f53 5e3d 2355 313d 11c2 51be
00000030: 35b3 543d 68a0 babc a8ee bb3d e2af 55bd
00000040: 414e 103d db3f 063e fb98 623d 127a 0e3e
00000050: efdd e9bd e660 07bd c486 753d 7029 a93d
00000060: 12f1 88bd cf42 0dbf 5382 a7bd 0a6f a8be
00000070: 5f6e c7bd 4694 78bd 6787 dfbe 7adb 0dbe
00000080: 9312 66be 86ef 15bf f668 6dbc eebb 36be
00000090: 16d4 a6bd 4cfb 123d e355 4cbe 8d8c ea3b
000000a0: 331e 5bbd 7c7c 49bc fede ebbd 1cb0 aa3c
000000b0: f76a e73d f010 07be 3880 cfbd 06e5 9b3e
000000c0: b10d 59bd 46f0 35be 3c15 46be 1faf 67be
000000d0: ca4f bd3d 1ce8 28be ecad d5bd 2f7c d4be
000000e0: 963e 4a3b 5515 cfbc 765f 153d 3747 8f3d
000000f0: a15a e6be e49f e63c ce2e a13d bd10 173b
00000100: bfd4 eebd 9bb8 0cbd 574d 603d f468 1abe
00000110: d992 0d3c f515 09be 8237 103e 8b67 2e3b
00000120: edd5 903e e340 373d 31e9 983d 536d 34bb
00000130: c3fb 70be c9f2 6b3d 16c4 4ebe 938a aa3c
00000140: 23a7 41be 52d2 0ebe e611 ce3c 5ff5 1ebd
00000150: 3652 c33d 27c3 22bf c624 d2bc 0b11 6a3c
00000160: 400f 88bd 3e5d 28bd 903d a3bd b83f bdbe
00000170: 3a09 c3bc eea0 b5be 9004 99be 3544 773d
00000180: 2da5 2fbd a224 e03c 93b2 403e 0821 5ebe
00000190: 898a 71bd e563 55be 31fb efbd dcfd c4bd
000001a0: b7c5 8cbe 4c1e cfbd 4c4b fbbd add6 d4bc
000001b0: 1fd6 533d 97ff fe3c 04da b33d 14da 9e3d
000001c0: 06f8 2abe cc43 4ebe 772f f9bd 6cb5 173e
000001d0: 2704 80bd a709 27bb bd37 2c3e 743f 30be
000001e0: 90af 50be 19b3 623e 0b39 8c3d 6aa6 a23c
000001f0: 462d 41bd 4e64 293d 2329 19be 7c7c 2f3e
00000200: 6825 6fbd f5f5 493d 4233 d9bb 8261 18bd
00000210: 6fb4 a2bc fbb0 99be 11d8 5dbe 37c9 35be
00000220: be8c 973d 4724 223e 2d19 423c 033b 773d
00000230: f7d4 febd a501 48be 0ca1 cfbd d90b 14be
00000240: 428c e5be e7f4 8fbd 7cdf 69be c8d0 ec3d
00000250: c1f4 acbe ef47 22be bd2b fc3d d2bd 583e
00000260: d5c1 ca3c e12e 71be d9dd 303d 7bf9 cebd
00000270: 2164 23bc b0d4 d0bc 02ea 343c 1090 efbd
00000280: b049 4c3e dcdf c1bd 8bb2 063e 0260 2dbe
00000290: f800 4bbe 83f3 65bd 3b92 14be 8289 05bd
000002a0: 5ca6 c1bc 3d1d fbbc f6c8 2c3c 8ec0 29be
000002b0: 02c5 173e 92a9 23be c4c6 1cbd 46c9 94be
000002c0: c9f2 88bc 02d6 a23b 6111 27be 45bd d9be
000002d0: f8a2 f5bd 7d04 22be cb46 39be d6c3 9e3d
000002e0: 7e8d 6b3e dfbd 02bd d539 0d3e f547 753d
000002f0: 53fb 2abe fcab 6abd d13c 67be e008 a13d
00000300: bb85 58bd 5436 82bd 3206 b4bd d391 1ebe
00000310: 94dc 24bd 17cf 40bd f6af cdbd 289a 12bc
00000320: e6e1 ef3d eade 25be 8ef2 24bd 0731 913c
00000330: 7787 02be 89e7 eb3d ecac 50be 3fe0 083e
00000340: e7fb 033d a8f8 9fbd 6b5f eebd f990 8ebe
00000350: a63c 71bc 8d61 e1bd 0efe d0bd c8e3 04bf
00000360: c861 5b3e 74ca 7a3d 0d48 053c c73e eabd
00000370: a1f1 273d 6fb9 91bd 8a95 8abd 28d8 d6bd
00000380: 7d16 823e 3734 e9bc 3662 743d e585 b7bc
00000390: 78ac 25be 4bdd 0dbe 9013 3d3c 4148 02be
000003a0: c351 863d eda0 c8bd f896 5dbe a72d b7bd
000003b0: 1a3d a3bc e25f 4a3b ac05 363d 3dde 023e
000003c0: 83af 1f3e c9dd 1fbe 9a0c 073d eab3 863d
000003d0: 520b 5f3e 0bf0 bbbb ad80 17be e302 76bc
000003e0: 4401 8a3d c4f3 c1bd 1eb3 00bd 9d8f 523e
000003f0: 628a b9bd fb88 6abd b2a6 5cbd 4a14 d0bc
0.008073996 -0.31731766 -0.13809831 -0.10591262 0.06777417 -0.023397114 0.16409206 -0.018597666
0.23073094 0.05427861 0.043294083 -0.20484187 0.051928718 -0.022781566 0.091763794 -0.052169688
0.03523088 0.13110296 0.055321675 0.13913754 -0.114192836 -0.033051394 0.059942976 0.08259857
-0.066866055 -0.55180067 -0.08179154 -0.32897216 -0.097378485 -0.06068828 -0.4365799 -0.13853255
-0.22468023 -0.5856861 -0.014490357 -0.17845127 -0.08145921 0.035884187 -0.19954638 0.0071578682
-0.053495597 -0.012297746 -0.11517142 0.020835929 0.11299699 -0.13190055 -0.10131878 0.3044817
-0.052991573 -0.17767438 -0.19344038 -0.22625397 0.09243734 -0.16494793 -0.104335636 -0.41500995
0.0030860058 -0.025278727 0.03646799 0.06996005 -0.4499102 0.028152414 0.078702554 0.0023050748
-0.11661672 -0.03435574 0.054761257 -0.15079099 0.008640968 -0.13387282 0.14083675 0.002661201
0.28288212 0.044739615 0.07466353 -0.0027530983 -0.2353354 0.057604585 -0.20191988 0.02081803
-0.18911414 -0.13947418 0.025155019 -0.038808223 0.09537165 -0.6357903 -0.0256523 0.01428629
-0.06643534 -0.041104548 -0.079707265 -0.36962676 -0.02380811 -0.35474342 -0.29886293 0.06036778
-0.042882133 0.027361218 0.1881812 -0.21692288 -0.058970008 -0.20838888 -0.11717833 -0.09618732
-0.27494594 -0.101132005 -0.12270221 -0.025981272 0.051717874 0.031127734 0.087818176 0.07756439
-0.16696176 -0.2014305 -0.12167256 0.148153 -0.06250792 -0.002548793 0.16818137 -0.17211705
-0.20379472 0.22138633 0.068468176 0.019854743 -0.047162317 0.041355424 -0.14957099 0.17137331
-0.058385283 0.04930683 -0.006628425 -0.037202366 -0.019861428 -0.30017838 -0.21664454 -0.17752539
0.07399891 0.15834151 0.011846823 0.060359012 -0.124429636 -0.19531877 -0.10138139 -0.14457645
-0.4483357 -0.07029133 -0.22839159 0.11563259 -0.33780482 -0.15847753 0.1231303 0.2116616
0.02475063 -0.23553039 0.04318032 -0.101061784 -0.009972603 -0.025492042 0.01104212 -0.116973996
0.19949985 -0.09466526 0.13154046 -0.16931155 -0.19824588 -0.056140434 -0.14508907 -0.03260184
-0.023638897 -0.03065359 0.01054596 -0.1657736 0.14821246 -0.15982655 -0.038275495 -0.2905981
-0.016717331 0.0049693594 -0.16315223 -0.42527214 -0.119939744 -0.15822025 -0.18093412 0.077521965
0.23003194 -0.031919356 0.13791592 0.059883077 -0.16697435 -0.057292923 -0.22581793 0.07863021
-0.05286191 -0.063580185 -0.08790244 -0.15485315 -0.040249422 -0.047072496 -0.100433275 -0.0089478865
0.117130086 -0.16198316 -0.04027038 0.017723573 -0.12746988 0.11518771 -0.20378464 0.13366793
0.032222655 -0.07811099 -0.11639293 -0.2784498 -0.014723932 -0.110049345 -0.10204707 -0.51910067
0.2142402 0.06122823 0.008134854 -0.11437755 0.04100192 -0.07115447 -0.067668036 -0.10490447
0.25407782 -0.02846728 0.059663974 -0.022402713 -0.16179073 -0.13853948 0.011540309 -0.12722875
0.065585636 -0.09796319 -0.21639621 -0.08944254 -0.019926596 0.0030879905 0.044439003 0.1278009
0.15594296 -0.15611948 0.032971002 0.06577285 0.21781662 -0.0057354025 -0.1479518 -0.015015337
0.06738523 -0.09470323 -0.03142082 0.20562597 -0.090595976 -0.05725954 -0.05386991 -0.0254003

fc2.bias f4 [128]
00000000: 5a04 c13c 6235 cabe cae3 1bbd dbc3 e5bd
00000010: 9615 dabd 74e3 57be de99 45be 680c 4ebe
00000020: 8245 87be 5a9b 89be 9227 e7bc a2e7 05be
00000030: 98f7 13be 37f3 84bd 1864 01be aa7f 8bbd
00000040: 7f98 93bd f063 2dbe 6e96 b5bb 8b73 58bd
00000050: 5396 c3bd 5a88 34bd cb37 14be 3798 18be
00000060: f690 a8bd d007 b83c 17c2 91bd b371 b6bd
00000070: b5bb 12be d2b0 f3bd 508b f9bd 6878 c3bd
00000080: bb4b 4cbe 0c0a d6bd 6c63 e43c b3e6 aabd
00000090: 0d81 07be 0310 d2bd d81f 28be 07ec 58bd
000000a0: f56f c1bd 72df f8bd c891 27be 49cd 10be
000000b0: dc1a dabd 4f56 ddbc 5040 e4bd f09b 87bd
000000c0: eca2 2fbe be2e 8ebc 9a30 1bbe 173d 92bd
000000d0: 4f29 5fba 687b 3dbc 8486 5ebe 405a 9fbe
000000e0: c15e 26bd cd2f 99bd 9794 d8bd 7aca c5bd
000000f0: ea9a 22be 21e9 27be 19a9 43be 7f97 75be
00000100: 56a8 c3bd 2da6 02be 79cd 32be ce7b 57be
00000110: c4c6 0cbe becc 9ebe 3e4f aabd 4282 45be
00000120: a706 ccbd 106d 89bd c211 c2bd 636c 20be
00000130: 2027 34bd 3b1c 10be e2ff 01be f8b0 8cbe
00000140: f4fd 25be 2552 cb3c 793c c93c 4efa 31be
00000150: 5ec7 b6bd 250c edbc d9a3 9cbd 3c16 febd
00000160: 3437 2dbe a872 49be ef56 c7be 7c62 12be
00000170: e6f8 f5bd d83e dbbd 25ce e4bd adad 1cbe
00000180: 28b8 a0be 3f92 5bbe 8af8 21bc df32 e0bd
00000190: 13fc 3fbe f206 b7bd a983 2abd 4b81 93be
000001a0: d241 1fbe d5f9 0cbe 349e 9ebe 1380 4cbc
000001b0: 72b3 b7bc f89f 67bd b31d c9bd d288 83be
000001c0: 616d 2dbd 4d35 1cbe d12a 3bbd 7e49 61be
000001d0: 7294 0bbd 5a26 7bbd f8c5 1abe 22e3 c7bd
000001e0: 7945 8e3d 8a22 33bd 0db8 61be 6f36 2fbe
000001f0: 123b 4bbe 56cb e6bd 7928 acbd 3401 52be
0.023561645 -0.39493853 -0.038059033 -0.11218997 -0.106486484 -0.2108286 -0.19296977 -0.2012192
-0.26420218 -0.26876336 -0.02821711 -0.13076642 -0.14449918 -0.06491702 -0.12635839 -0.06811459
-0.07206821 -0.16932654 -0.0055416143 -0.052844565 -0.095501564 -0.044075347 -0.14474408 -0.14901815
-0.08230774 0.022464663 -0.07117098 -0.08908405 -0.14329417 -0.1189896 -0.12184775 -0.0954445
-0.19950764 -0.10451135 0.02787944 -0.08344784 -0.13232823 -0.1025696 -0.16418397 -0.05295947
-0.09445182 -0.12151994 -0.16364205 -0.1414081 -0.10649654 -0.027018694 -0.11145079 -0.066215396
-0.17151994 -0.017356273 -0.15155259 -0.07140558 -0.00085129304 -0.011565067 -0.21731001 -0.31123543
-0.040617708 -0.074798204 -0.10575216 -0.0965776 -0.15879408 -0.16397525 -0.19107474 -0.23983572
-0.09553592 -0.12758704 -0.17461194 -0.21043321 -0.13747698 -0.3101558 -0.083158955 -0.1928797
-0.09962206 -0.06710255 -0.09476043 -0.15666346 -0.043982625 -0.14073269 -0.12695268 -0.27478766
-0.16210157 0.024819443 0.024564968 -0.1738064 -0.08924745 -0.028936455 -0.07648439 -0.124065846
-0.1691559 -0.19672644 -0.38933513 -0.14295381 -0.12010364 -0.10705346 -0.111721314 -0.15300627
-0.313905 -0.21442507 -0.0098859165 -0.10947203 -0.18748502 -0.089368716 -0.041629467 -0.2880958
-0.15552452 -0.13767178 -0.30980074 -0.012481707 -0.022424433 -0.056549042 -0.09820118 -0.25690323
-0.04234064 -0.15254708 -0.04569513 -0.22000691 -0.034077115 -0.06131587 -0.15114582 -0.09760119
0.069468446 -0.04373411 -0.22042866 -0.17110609 -0.19846752 -0.11269252 -0.08406157 -0.20508271

fc3.weight f4 [128, 128]
00000000: b96c c13d 9fde b4bd 0cc6 a63d 05b3 6c3e
00000010: d8ae a7bd 8a96 fa3b 54a3 c83c c8a0 27be
00000020: ecd2 803e 825c 563e 5b32 3dbd 2005 873e
00000030: 75b2 8abc c0d9 27be 38fd 703e 6d97 21bd
00000040: 2048 76be 1c98 f63c 969e 3d3e b801 cabe
00000050: 6da5 02be 75f7 873e 44ec 843d d9b0 973e
00000060: 7b4a 61be 6862 343c aa5b 003f 4338 53be
00000070: 9357 213e c47e c3bd 57ce 0ebe beb4 a6be
00000080: f455 133e 6364 adbe d6da 743d cd00 0ebd
00000090: d6c9 983c 1049 1ebb 5c57 893d 4f9c 9fbd
000000a0: f41c 263e ec2a cd3d 6645 31be df85 0e3e
000000b0: 7c2e a03d e008 763d 0492 673e 971b bb3e
000000c0: 44e0 57be 0b65 a4be b6d7 3abe 6d80 c83d
000000d0: 5180 5d3e 862b d7be 3976 a23d a0fd 033e
000000e0: d97f c33d 66ce 003d cd5e 023d 7208 e4bc
000000f0: 0eba e73d 6a0b fabe 24e6 1dbc 6e29 e5bd
00000100: 301c 893e 2786 e5bd 3556 7e3d 8475 eebc
00000110: e008 8a3d c87b 8d3e 7491 0dbe 8070 283e
00000120: 87ba f5bd c0bb 0d3d 7e23 893e 9756 133e
00000130: 5aa4 903d b9cf d43e bf19 f4be f334 ce3d
00000140: 1527 1d3f 1c15 c23d daa4 69be c35c 7dbe
00000150: 78d3 4ebd 6c6f 7c3d 8e0c 64be fca3 85ba
00000160: 37cc 80be fab4 d43d 6477 90be da3f 853e
00000170: 9c8d ec3d b2fd 263e 71c2 a83e 5afe 463e
00000180: f911 fabe 294e a93c 2a6f 93be 3aaf 223e
00000190: 8d69 933d 2dc8 b43d 2310 92be 136c 02be
000001a0: a257 923d 97fb 943d fcb1 e5bd d6ac 003d
000001b0: 7df6 933e a981 29be 476f 21bd 99c9 b8be
000001c0: 6710 da3d 30ea ae3d 6d41 e43e 4c5f 16be
000001d0: 2545 11bd 3ab3 0f3d e99e 823d a68b 33bc
000001e0: 69fd de3c f4fd 47be 1c31 783d c3d8 5f3c
000001f0: 2203 3b3e 1d15 51be 0b47 0f3b 5c2c 8dbc
00000200: 642d 683a fdfd 82ba 9ebb b8ba f6e5 3a3b
00000210: 1f24 c0bb f628 66bb 20dc 5739 9084 87ba
00000220: 98e4 12bb 31d6 f3bb 3920 05bb 50d4 6bb9
00000230: f0b8 80bb 820e e1ba 3842 86ba baf7 04ba
00000240: e23c bc39 31b8 32bb 1db2 3abb ca94 b8ba
00000250: 5149 23bb eba7 f039 2763 d83a 698a f5ba
00000260: 3a2a acbb 2879 753a 7c31 bfbb ed57 42bb
00000270: 7401 b1ba 966c bcba 8592 90bb 4d7d 86bb
00000280: 1343 71bb 00ce 8bb9 a455 de3a f0e1 40ba
00000290: 3ccc 003a 343e 77bb 3107 a7ba 20d9 1fbb
000002a0: cf1c 40bb 9ed3 7dbb 84b1 d2ba 089c 96b9
000002b0: 3b9f 9bba 0824 7ebb 872d 66ba 7397 6bbb
000002c0: d032 33bb b777 00bb 38f6 b1bb cb79 35ba
000002d0: 030a 88bb 183b 22bb 2c81 55bb c3da debb
000002e0: 4933 b3bb c00f 7fb9 fd3e 90ba 2505 04bb
000002f0: e01b 5cba da00 bdbb 738d dcbb cf6a 22bb
00000300: cc8c c6ba 18b4 edba c0c2 633a a3a5 25bb
00000310: f7ba 3dbb 2c69 67bb 6e4b 5bbb e4a6 3bbb
00000320: 68f3 1f3b 68e2 0ebb 8bda fdba 6c8c 5bba
00000330: 3653 193b eb3a 08ba f0b7 f03a 7008 25b9
00000340: 4778 3abb 9832 a2b9 3d3d d2b9 9d8c 71bb
00000350: d8ad e8b9 a399 6eba 976d 7d39 96f3 093b
00000360: ce0d 3a3b 34a6 1dba 4ebd c7bb 34ef d23a
00000370: 611b cbbb 9cee 86ba 367d 8abb 996e 82bb
00000380: 95bf 3bbb 003e 9bbb 175c cfba 34a5 0cbb
00000390: ac43 883a 5ea7 d5ba 166d 9dbb ac46 37bb
000003a0: 13c4 45bb 7f99 39bb 8c5b 82bb 799b cbbb
000003b0: c78e 41bb 358e 18bb 749a aabb 93c0 caba
000003c0: b23d 843a cac8 c8bb 7230 51ba d930 41bb
000003d0: 88f8 0cbc bded b3ba a40a 05bb 491b e8ba
000003e0: 0d25 933a 038c 36bb 03dd 7dbb e4f7 6aba
000003f0: 415a 53b9 24eb 863a 68d0 a6b9 8d55 06bb
0.09444565 -0.08831524 0.08143243 0.23115166 -0.08187646 0.00764734 0.024491943 -0.16369927
0.2516092 0.20933726 -0.0461906 0.26371098 -0.016930798 -0.16391659 0.23534095 -0.03945105
-0.24050951 0.030101828 0.18517527 -0.39454436 -0.12758417 0.26555982 0.064903766 0.29627112
-0.22001068 0.01100979 0.5013987 -0.20626931 0.15756063 -0.09545663 -0.139459 -0.3255977
0.14388257 -0.3386565 0.05977901 -0.034668732 0.01865093 -0.0024152435 0.067061156 -0.077934854
0.16221982 0.10017952 -0.1731163 0.13918255 0.07821366 0.060067058 0.22614294 0.36544487
-0.21081644 -0.3210834 -0.1824635 0.0979012 0.2163098 -0.42025393 0.079327054 0.12889719
0.095458694 0.031446837 0.03182869 -0.027836058 0.11314784 -0.48836833 -0.009637389 -0.11189543
0.26779318 -0.11207228 0.062093932 -0.02910877 0.06739974 0.276335 -0.13825017 0.16449165
-0.11998468 0.03460288 0.2678489 0.143885 0.070625976 0.4156473 -0.47675893 0.10068693
0.6138776 0.094766825 -0.22816792 -0.24742417 -0.05049464 0.061629698 -0.22270414 -0.0010195966
-0.25155804 0.10386081 -0.28216088 0.26025277 0.11550447 0.16307715 0.32960847 0.19432965
-0.48841837 0.020667152 -0.2879575 0.15887156 0.071978666 0.08827243 -0.28527936 -0.1273654
0.07145621 0.072745495 -0.112155885 0.03141483 0.28898993 -0.16553368 -0.039412763 -0.36091307
0.1064766 0.085407615 0.44581166 -0.1468479 -0.035466332 0.035083033 0.06377966 -0.010958588
0.027220445 -0.19530469 0.06059371 0.01366252 0.18262914 -0.2041821 0.0021862413 -0.017233066
0.00088568614 -0.0009993907 -0.0014094 0.0028518415 -0.005863681 -0.003511963 0.00020586001 -0.0010339189
-0.0022414085 -0.007441305 -0.0020313396 -0.00022490439 -0.0039282963 -0.0017170461 -0.0010243123 -0.00050723145
0.00035903516 -0.0027270431 -0.0028487511 -0.0014082429 -0.0024915526 0.00045901476 0.0016509042 -0.0018733266
-0.0052540572 0.0009364062 -0.0058347564 -0.0029654459 -0.0013504461 -0.0014375623 -0.0044119977 -0.0041042925
-0.003681366 -0.00026665628 0.0016962779 -0.0007357886 0.0004913246 -0.0037726285 -0.0012743232 -0.0024390891
-0.0029314046 -0.003873087 -0.0016074632 -0.00028726482 -0.0011873016 -0.00387788 -0.0008780588 -0.0035948425
-0.002734352 -0.0019602606 -0.005430963 -0.00069227506 -0.004151584 -0.002475446 -0.0032578213 -0.006800981
-0.00546876 -0.00024324562 -0.00110051 -0.0020144668 -0.00083964877 -0.005767924 -0.0067307292 -0.00247829
-0.0015148162 -0.0018135337 0.0008688383 -0.002527573 -0.002895055 -0.003531049 -0.0033461708 -0.002863341
0.0024406556 -0.002180243 -0.0019367499 -0.00083751115 0.0023395545 -0.0005196768 0.0018365365 -0.0001573877
-0.0028453039 -0.00030936743 -0.00040099947 -0.0036857494 -0.00044380012 -0.0009101873 0.00024168786 0.002104973
0.0028389576 -0.0006013841 -0.006095565 0.0016093017 -0.006198332 -0.00102945 -0.004226352 -0.0039804694
-0.0028648127 -0.0047376156 -0.0015820292 -0.0021460773 0.0010396144 -0.001630049 -0.004804264 -0.0027965708
-0.0030176684 -0.002832025 -0.0039781984 -0.006213602 -0.0029534565 -0.0023278121 -0.0052064005 -0.0015468769
0.0010089187 -0.0061274515 -0.0007979936 -0.0029478578 -0.008604176 -0.0013727468 -0.0020300532 -0.0017708327
0.0011226252 -0.002785445 -0.003873647 -0.000896333 -0.0002015615 0.0010293466 -0.00031817262 -0.002049777

fc3.bias f4 [128]
00000000: 13a7 fdbd ab11 b1bd 2d34 973c 1e37 e7bd
00000010: 4ccb 5fbe 7ba2 e13d 7bc2 633d 90b5 14bc
00000020: 24b5 013e 01a1 88bd 2462 a3bd 303f c33d
00000030: 5935 2abc a51b 1c3d 3c58 a83d ebeb 8bbc
00000040: 076a 4cbd 2813 e53d e7ef 0fbd 62e4 b03c
00000050: 3688 33bc 20f6 873d a278 bebd 7576 963c
00000060: 0453 3c3d fa02 333d 567e 843b 4610 85bd
00000070: bf34 9c3c 898e 35bd ed51 453d 5f19 e7bd
00000080: ffd2 efbc f3ab 31be b4dd 94bd 0323 6cbd
00000090: c687 5bbc 0fbe 3cbb 8a26 a7bd 6419 253d
000000a0: f130 923e 52db 89bd e9a3 b0bd f0a4 493d
000000b0: 3158 3f3e d882 543e b6d2 8e3d 718d a3be
000000c0: fbbf 15bd 6da6 ff3d 0db7 e7bc ed2a b03c
000000d0: 1764 0dbc 8bc9 703e 1910 b03d 7fe5 8cbb
000000e0: 329b dbbc fc4f 36bd 0985 9fbd 9892 ec3d
000000f0: 0995 47bd 4e2c 0e3e 975a 71bd d257 de3d
00000100: 4c44 89bd f429 bdbd 4769 4f3e d19a 3a3e
00000110: 2c06 ffbd f6a0 213e f245 1a3e 2bfc 6f3d
00000120: b574 d43b ff10 b13a 3f43 873d f52d 343e
00000130: 3eef a7bd 1cc3 8c3e 89dd 123e c3e9 403d
00000140: ff60 60bc 8186 5ebd 3942 38bb e4d7 2dbd
00000150: 05e8 acbe 1181 e8bc 8faa 66bd f751 62bd
00000160: 4aaf 4b3e c598 93bd 1d1d 533d c925 ad3c
00000170: c473 063e 59a3 833d 5803 a73d 909e abbd
00000180: 1472 273e c9dc 6d3d 4931 7dbd 88f7 c33d
00000190: 3feb 73be 29a2 8dbd 0c8c 353d b150 96bd
000001a0: c3bb b03d 980b 13be 6992 81bd 297a 223e
000001b0: 9238 a53d bfa4 033d 3591 9d3d 537d 423d
000001c0: 6c13 543e 7047 9dbd 5d8c 6d3e 6bd0 0fbd
000001d0: 07e6 85bc 8823 9abd ae47 86bd 5172 113d
000001e0: 7dcb f53d 220c b6bd af94 adbd 36ce 843d
000001f0: 954b d13b f454 a8bd b15a dd3d 95d8 08bd
-0.123853825 -0.08645948 0.018457497 -0.1128981 -0.21854895 0.11017319 0.055605393 -0.009076491
0.12666756 -0.06671334 -0.07977703 0.095335364 -0.010388696 0.0381123 0.08219954 -0.017080268
-0.049905803 0.111852944 -0.035140898 0.021593276 -0.010957768 0.066387415 -0.09300353 0.018367032
0.045977607 0.04370401 0.0040433807 -0.064972445 0.01906812 -0.044325385 0.048173834 -0.11284136
-0.029275415 -0.1735075 -0.07268849 -0.057650577 -0.01339907 -0.0028799807 -0.081616476 0.040307418
0.28552964 -0.06731285 -0.086250134 0.049229562 0.18685986 0.20753038 0.06973784 -0.3194385
-0.03656004 0.12482915 -0.028285528 0.021504844 -0.00862982 0.23514383 0.085968204 -0.004299819
-0.026807401 -0.044509873 -0.07789046 0.11551398 -0.048726115 0.13884088 -0.058924284 0.10856594
-0.0670248 -0.092365175 0.20255004 0.1822312 -0.12452349 0.15784058 0.15065745 0.058590095
0.006483639 0.0013509094 0.06604623 0.17595656 -0.08199929 0.27492607 0.14342321 0.047097933
-0.013695001 -0.05432749 -0.0028115644 -0.042442217 -0.33770767 -0.028381856 -0.056315 -0.05525395
0.19891086 -0.07206873 0.051541436 0.021136181 0.13130099 0.064276405 0.08154935 -0.08379853
0.16352111 0.058071885 -0.06181458 0.09568697 -0.23820208 -0.06915695 0.044323012 -0.073396094
0.08629563 -0.14359891 -0.06326754 0.15866913 0.080674306 0.032139536 0.07693712 0.0474828
0.20710534 -0.07679641 0.23198076 -0.035110872 -0.016345037 -0.07526308 -0.065566406 0.03550941
0.12001703 -0.08889033 -0.08475625 0.06484644 0.006387184 -0.082193285 0.10808314 -0.033409674

fc4.weight f4 [2, 128]
00000000: 827e c43d d4f3 a7bd 3420 3bbd 1985 bdbd
00000010: 217a 793f ea5c 513f 4dc7 7b3f 7bb2 ebbc
00000020: 2d9e a5bc eb6e 2a3e bce8 413f 7b97 10be
00000030: 90e3 8d3b 92e1 6abc 1cd5 0c3e 8642 693d
00000040: 315e 4e3f acfc 843d 5756 b8bc fc59 9f3a
00000050: 2d51 f536 5c5f 0cbe 14a7 073d fdfe 863c
00000060: 2031 943c 7890 72bc c328 dabe 3489 913d
00000070: 26ea 0ebd d086 71bd 645c 26bd 3d36 413e
00000080: 8701 37bd 955f 943c 3844 c53a 3fd7 2a3f
00000090: 4637 9cbb 4c06 fc3e 18cb d23d 65b6 87be
000000a0: 455b 95bf c186 0e3d e04d f8bb 5240 09bd
000000b0: afc0 48bf 3952 df3d 8bd4 7cbe bca7 203e
000000c0: 89a4 14bc 6271 eebe 665b c33c f72d ba3d
000000d0: f1ef 5ebd 58a3 173c cc0a aabe 8117 793d
000000e0: 6f64 a23f 721f 003f eb0d 783b 1ef5 5a3f
000000f0: d24a 1a3c ee4d 4dbe 2882 cebc fcbf e13e
00000100: bde1 b0bd 63b3 8fbd 4703 0b3d 4bba c4be
00000110: 78fc 413f 0792 903c fcff 403f f0c9 7abd
00000120: b9e3 6ebf 985b 563f 4d11 8ebd 00b0 8c3e
00000130: 70e2 ed3c 16b5 05bf 4223 4e3c fbc8 88bc
00000140: 196b 9ebd 434c 353c a8b3 bf3d 7023 a43c
00000150: 3632 033f e0b2 b8bc 5076 a7bd 0e5a f6bc
00000160: b6de 113d 3c1e 4bbd e5d5 8ebd 949b 893f
00000170: 164a e5be 744b 91bd a31a 133f 2ac5 693d
00000180: 9c5c 35bf e438 5e3c e73c 6a3f 318a 573f
00000190: bddf 713e 84f8 8abc c524 d53c 207f 523d
000001a0: a976 57be 9965 d13c 0298 753d dac0 8a3f
000001b0: 3937 6c3f d066 b7bd 9138 8b3e 9751 173d
000001c0: ceb7 bcbe 57d5 af3d 3f30 113c 32e7 9cbc
000001d0: 04a9 e83e b665 873c 7a6d 5abd 955e 433f
000001e0: e153 95be 05f7 6abd 4bbd 88bd bde2 4b3c
000001f0: 021f 9c3c 434a 82bd d015 8a3c 25cf 44bf
00000200: 2124 41bf d617 353d 40ab ab3d d70a a4be
00000210: 1c92 013f 78e1 0ebf 0f8b 543e 3bd7 673e
00000220: 3abe b8be b598 003f 195b 31bf 01db 493f
00000230: 3615 44be eda2 253e b3cd ec3e e615 3ebd
00000240: cabd a13e a4ad 973e 5bde 8fbd ba58 5f3e
00000250: 26e8 a13e 4047 c33d ea83 8abd 8b65 263e
00000260: 0111 c83d 871a 28be 96a7 54bf 9887 423d
00000270: 6e23 29be d250 9bbd 7495 49be 9801 32bf
00000280: c445 85bd 885c 14bf 1dc1 863d eb64 30be
00000290: bf4d b2be e1ed cb3e c0a8 35bf b0e4 953e
000002a0: 3df7 ea3d ca46 15bd 0054 423c af68 c3bd
000002b0: d85f b4bd bd5d 4dbf 48f3 2dbe eb14 f6be
000002c0: ef3c 883d 02ba ee3e 6b4c 3d3d 1eee 783d
000002d0: a838 90bd 4b67 343f 3f8c d53d de71 e93d
000002e0: 5712 a43e 0186 a83e e5d6 93bc b80b 1bbf
000002f0: 7d75 cf3c 52a3 cd3e fef0 643d 8511 c0be
00000300: c067 a03d 86df aebd d521 1c3f 7868 2a3c
00000310: ca52 f8bd a1f7 603e 76a2 c5be 8a98 5f3d
00000320: 2b06 063e 0be5 6e3d 3d9e 78be e904 9d3e
00000330: 8039 793d bde8 5c3e 63c7 633e 3a28 97bf
00000340: c12e 903c 7794 aa3d 515d 193e da9e f23c
00000350: 7502 a43e fc28 9d3c 055e 5ebc 2834 4c3d
00000360: 5d32 a43e 203d ad3d 8179 0bbe 86d3 8e3e
00000370: c825 433f 9303 98be 6dad ca3e 9ff3 933c
00000380: 005d 95be 5a44 8fbe 3d53 36be 4386 fabe
00000390: d5f0 12bf 52d9 0ebd 7989 0f3e e0c8 00bb
000003a0: 4930 29be 4417 abbd 5fc5 6d3c 568f b33d
000003b0: 5ccc 7a3e 6eb4 113e 11ba 6f3f db5d 4e3f
000003c0: 8971 8b3e dff4 113d bbc0 39bf bcc6 3fbc
000003d0: 195f e8be 6fba 92bd 529d 61bc 6703 b23e
000003e0: 4521 a13e 222a 7cbd d8a7 1bbc 3762 ca3d
000003f0: 4af3 f13d 8b2e 323c 1b35 aabe aa2d 253b
0.09594442 -0.082008034 -0.04568501 -0.09253902 0.9745198 0.817824 0.98350984 -0.02877163
-0.020217026 0.16643874 0.7574575 -0.14120285 0.004330106 -0.014336007 0.1375317 0.056948207
0.80612475 0.06493506 -0.022502108 0.0012157555 7.311019e-06 -0.13708252 0.033118322 0.01647901
0.01808983 -0.014804952 -0.42609224 0.071062475 -0.03489127 -0.058966458 -0.040615454 0.18868347
-0.04467919 0.018111983 0.0015050238 0.6673469 -0.0047673313 0.49223554 0.10292643 -0.26506343
-1.1668478 0.03479648 -0.007577643 -0.033508606 -0.7841901 0.109043546 -0.24690454 0.15688986
-0.009072431 -0.4657088 0.023847293 0.09090798 -0.054428045 0.009255253 -0.33211362 0.06081343
1.26869 0.5004798 0.0037850093 0.8553027 0.009417253 -0.20049259 -0.025208548 0.44091785
-0.08636806 -0.07016637 0.033938672 -0.3842338 0.7577586 0.017647756 0.753906 -0.06122774
-0.9331623 0.8373351 -0.069368936 0.27478027 0.029038638 -0.5222944 0.012581648 -0.016697397
-0.07735271 0.0110655455 0.093604386 0.02003643 0.5124849 -0.022546232 -0.08176863 -0.030072238
0.035612784 -0.04958938 -0.06974391 1.0750604 -0.44783086 -0.0709447 0.5746252 0.057072796
-0.70844436 0.0135633685 0.9149918 0.8419524 0.23620506 -0.016964205 0.02601851 0.051390767
-0.21041359 0.02556114 0.05995942 1.0840104 0.92271763 -0.08955157 0.27191594 0.036943045
-0.36858982 0.08585613 0.0088616 -0.019153211 0.4544145 0.016527992 -0.05332706 0.76316196
-0.29165557 -0.057364482 -0.0667673 0.012444195 0.019057754 -0.063618205 0.016856104 -0.7687858
-0.75445753 0.044212185 0.08382273 -0.3203952 0.5061357 -0.5581279 0.20756172 0.22640698
-0.3608263 0.5023301 -0.6927963 0.788498 -0.19148716 0.16175433 0.46250686 -0.046407603
0.3159011 0.29624665 -0.07024833 0.2181119 0.31622428 0.09535074 -0.06763442 0.16249673
0.09768868 -0.1641637 -0.83068216 0.047492594 -0.16517422 -0.075837746 -0.19685918 -0.6953368
-0.06507447 -0.5795369 0.06579802 -0.17225997 -0.3482494 0.39829925 -0.7096062 0.29276037
0.11472938 -0.036444463 0.0118608475 -0.09541451 -0.08807343 -0.8022116 -0.16987336 -0.48062834
0.06652247 0.46626288 0.046215456 0.06077396 -0.07042056 0.7047011 0.104271404 0.113986716
0.32045242 0.32914737 -0.018046806 -0.60564756 0.025324577 0.40163666 0.05589389 -0.37513366
0.07832289 -0.085387275 0.60989124 0.010400884 -0.12125166 0.21969463 -0.3860051 0.054588832
0.1308829 0.0583239 -0.24279113 0.3066781 0.060845852 0.21573158 0.22244029 -1.1809151
0.017600419 0.08329099 0.14977004 0.029616762 0.32033125 0.019184582 -0.013572221 0.049854428
0.32069674 0.08458924 -0.13620569 0.27895755 0.76229525 -0.29690227 0.39585438 0.018060504
-0.29172516 -0.27981836 -0.1780519 -0.4893056 -0.5739873 -0.03487522 0.14017285 -0.001965098
-0.16522326 -0.08354047 0.014512389 0.087675735 0.2449202 0.14228985 0.9364329 0.8061196
0.27235058 0.035633918 -0.7255971 -0.011705097 -0.45385054 -0.07164466 -0.013770418 0.3476822
0.31470695 -0.06156362 -0.009500466 0.09882014 0.11813982 0.0108753545 -0.3324364 0.002520422

fc4.bias f4 [2]
00000000: 9b0e aabd 7b6f abbc
-0.08303567 -0.020927181

bn1.weight f4 [256]
00000000: 171e 973e f4fe 8d3f cef3 303e 5ea9 1f3f
00000010: a0fc 193f b1d9 e83e 140f b03e a9b2 383c
00000020: b275 ea3e 3421 9e3e b759 033f c503 053f
00000030: 35e5 6d3f c738 253e ebb3 473f d8bf 043f
00000040: a0b8 ce3e 42db 433f 9a10 743f 6998 153f
00000050: 6d41 923f 6352 e53d 4149 4e3f d2cf a23e
00000060: 267d 8d3e 2ede 753f c52e 993e 0965 f93e
00000070: 3cde 2d3f b9b3 993d b514 5b3f effb 453c
00000080: 5917 953f 91c4 853f 97a0 383f 08b5 903e
00000090: c433 5b3e ab30 533f ed9f d43e ef37 823f
000000a0: 84e2 303f 1e50 7d3e 4081 073f d02b c33e
000000b0: b7cd 453f 296e ca3e 08dd 303e e81c 723f
000000c0: e690 bd3e 0de6 ff3e 09d4 b53e 8446 b43d
000000d0: 2163 583f c4bc 533f 1ce7 803f fbfc 9f3e
000000e0: fe77 543f 74ff 273f fa8e 993e 9ac2 353f
000000f0: 8934 db3e cba4 4d3f 1fdd 053f 817b 243f
00000100: 0131 e73e 8a4b 233f c669 fb3d fd7d ef3e
00000110: 9584 4e3f 04de 063e 2f25 513e 2519 513f
00000120: aefb 8dbe 81a3 6d3f 9d2d 7c3f b7f3 933e
00000130: 7a08 633f e1e5 db3e 7018 033f 6f86 793e
00000140: 6921 c63e 770a 733f 55f3 dd3e 8c66 5f3f
00000150: febe 053f 485a 483f 607e 493f 071e 833f
00000160: 019b 703f e3bc 823f bcbf e93e 1d3c 713f
00000170: d125 043e 0e56 0e3f 60ef d13e 1392 9a3f
00000180: 2f49 463f b5fe 0d3f 3f54 b43e ec9a ca3e
00000190: 456d da3e 163a 243f 4695 373f 5d1a 083f
000001a0: 9a51 8e3e 8a7e ce3e 63a0 2b3f 3476 a33e
000001b0: 7f44 bb3e 4181 ff3e ba5c 0f3f 5f9d 393f
000001c0: ff2c 233f b6f4 673f d042 353f 7cc9 9a3e
000001d0: d9a1 583e 692c a03e 6cc8 a33e b74f df3e
000001e0: fe77 4f3f acd0 033f 8cd0 873d ec45 c23e
000001f0: 32e6 5f3f 383e 6b3f ab16 533f 41b4 273f
00000200: 8a3e bc3e bbe7 343f 9775 de3e 8ef4 ff3e
00000210: 00db b83e 88db b83e 0245 3c3f 04ab 0c3f
00000220: 3ce6 d03e e985 823e 6a58 2d3f 2ccc f83d
00000230: a63d d13e b173 053f 2283 203e a15c 8f3e
00000240: f85f fe3e ac18 673f ee8b e83e 8d40 473e
00000250: 5a75 2a3f 2d6f 013f 8265 b93e 2dce aa3e
00000260: fb02 443e 9b88 c63e d6b7 5d3f 2d19 dc3e
00000270: 65e4 293f fced 8a3e 3d56 413f 8584 0e3f
00000280: f3b5 7c3e 480f 913f d6b1 103f 07d0 853f
00000290: 43f9 433f a11d 843f 2f7e 903f afe0 243f
000002a0: 85e2 463f 7f2a 103f c319 cc3e 120b bd3e
000002b0: f2d2 ac3e 7046 883f f308 603f b202 573f
000002c0: 21c1 013f cd39 943e b32f 563e 3752 693f
000002d0: 9809 193e 141c 2e3f 8248 053f c67c c33e
000002e0: e8f7 abbe 12a9 273f 4668 093f 8137 f33e
000002f0: e130 433f b5b5 a83f d8bb d33e 0cdf b23e
00000300: 3434 b33e a4f9 263f d84c 553f 5880 a43e
00000310: edd9 223e c3b7 623f ee0e cc3e e26e 8d3e
00000320: d948 cf3e 48c0 8b3e 71aa 963f f4ac 3d3f
00000330: 4a88 693f ec88 ef3e 3fb5 2e3f 8a96 ac3f
00000340: d277 813f 9751 873f 14c1 253f a2a5 243f
00000350: 087f 1f3f fcc5 0f3f 7d92 6a3f 6bc9 e63e
00000360: b29b 653f 64e5 d63e c77a cd3d 086b f83e
00000370: 61b1 753f 4a54 153f 74d6 3d3f 5353 963e
00000380: 6a38 873e 29b9 943f d6c4 b9be 1ebb 253e
00000390: bb1f 093f d7a1 003f fc54 ecbd 9d77 ba3f
000003a0: dc4e 553f 08ba 143f 0332 babb 96bb a13e
000003b0: efb7 5b3f d366 703e a792 4d3e d07b 583f
000003c0: ce64 343e 798f cc3d b3ba 2a3f f51b 9a3f
000003d0: bce3 733f 29a3 1c3f e313 023f f5f8 19bc
000003e0: 8552 253f a117 373f 5c34 4e3f 9815 0d3f
000003f0: ff39 4d3f c2d8 f13e 3464 9f3e 3603 553f
0.29515144 1.109343 0.17280504 0.6236781 0.601511 0.45478585 0.34386504 0.011273065
0.4579292 0.30884707 0.5130877 0.51958877 0.9292787 0.1613494 0.7800891 0.5185523
0.40375233 0.76506436 0.9533783 0.58435684 1.1426216 0.11197355 0.80580527 0.3179918
0.27634543 0.96042144 0.29918495 0.48709896 0.6791723 0.075049825 0.8557847 0.012083991
1.164775 1.0450612 0.7212004 0.28263116 0.21406466 0.82496136 0.41528264 1.017332
0.69095635 0.24737594 0.52931595 0.38119364 0.7726702 0.3953717 0.17271817 0.9457536
0.3702461 0.49980202 0.35513332 0.08802512 0.8452626 0.8270991 1.0070529 0.31247696
0.82995594 0.65624166 0.29991895 0.71000063 0.4281352 0.8032958 0.5229053 0.6425095
0.45154575 0.6378714 0.12276034 0.4677581 0.80671054 0.1317063 0.2042434 0.8167899
-0.2773108 0.9282761 0.985071 0.28896877 0.8868481 0.4294882 0.51209164 0.24367689
0.38697365 0.94937843 0.4334971 0.8726585 0.52244556 0.7826276 0.7870846 1.0243539
0.9398652 1.0213894 0.45654094 0.9423235 0.12905051 0.5560006 0.4100294 1.2075828
0.7745542 0.5546678 0.35220525 0.3957132 0.4266149 0.6415113 0.7171215 0.5316523
0.27796632 0.40330917 0.67041606 0.3192612 0.36575696 0.499033 0.56000865 0.72505754
0.63740534 0.90607774 0.7080507 0.30231845 0.2115549 0.31283882 0.31988847 0.43615505
0.8104247 0.51490283 0.06631574 0.3794397 0.87460625 0.91891813 0.82456464 0.6550942
0.36766464 0.7066609 0.4344909 0.49991268 0.36104584 0.3610499 0.735428 0.5494845
0.40800655 0.2549279 0.67713034 0.12148318 0.40867347 0.52129656 0.15675023 0.28000358
0.49682593 0.9027202 0.45419258 0.19458218 0.66585314 0.50560266 0.36210257 0.33360425
0.19141762 0.38776097 0.86608636 0.42987958 0.6636413 0.27134693 0.75522214 0.5567096
0.24678783 1.1332788 0.56521356 1.045411 0.7655222 1.0321542 1.1288508 0.6440534
0.7768939 0.56314844 0.39863405 0.36922508 0.33754689 1.0646496 0.87513655 0.8398849
0.50685316 0.28950348 0.20916633 0.91141075 0.14945066 0.68011594 0.52063763 0.38181132
-0.33587575 0.65492356 0.53674734 0.47503284 0.7624646 1.3180453 0.4135425 0.34935796
0.35000765 0.6522467 0.8332038 0.3212917 0.15903445 0.8856165 0.3985514 0.2762366
0.40485266 0.27295136 1.1770765 0.7409203 0.91223586 0.4678415 0.6824531 1.3483441
1.0114691 1.0571774 0.6474774 0.64315236 0.6230321 0.56161475 0.91629773 0.45075545
0.896907 0.41971886 0.100331835 0.48519158 0.95973784 0.5833174 0.74155354 0.29360446
0.26410228 1.1619006 -0.36282986 0.16184661 0.5356404 0.5024695 -0.11539647 1.4567753
0.83323455 0.5809636 -0.0056822314 0.3158843 0.85827535 0.23476724 0.20075475 0.8456392
0.17616579 0.09988303 0.6669113 1.2039782 0.9526937 0.6118646 0.50811595 -0.009397735
0.6457904 0.7152043 0.80548644 0.55111074 0.8016662 0.47235686 0.31131136 0.83208025

bn1.bias f4 [256]
00000000: 2c32 673c ed3b 3c3e c299 7f3d 9833 2d3e
00000010: 9c5f 2f3d b3a3 463d ac98 adbd 27fa af3c
00000020: 139f 9d3c 4c8e 1e3d fcd6 1cbe a3c8 473d
00000030: aea5 ca3c d016 b33e d85a 05be 7ace 12be
00000040: 058f 52be 343c 013d f51d 26be a8ee e2bd
00000050: 866d 1e3d 1739 9f3e 93f9 523d a90d 253e
00000060: 517f 093e a29e 1a3e 76d4 0cbe 2395 963e
00000070: 356d 243d bfbc a3bd e1f0 933e d860 0abb
00000080: d074 2e3e c939 7c3d 9759 143e 2c37 27be
00000090: 2802 09be 40fd e6bc aad4 06bd 4185 5c3b
000000a0: 21cc b2bd ad9e c7bd 89e1 4ebc 2d94 813e
000000b0: 2904 0fbe 9550 8ebe 31c7 57bd 51e7 ed3d
000000c0: 4c53 753e 2a71 413e a91b 873d eeb0 2d3e
000000d0: a72a 99bd 906c a9bd 4ee0 163e 8b0c f83d
000000e0: 3338 76bd e2f0 163e 26b6 803d 0dee 953d
000000f0: d162 bb3d a316 363e ef56 35bd bc84 1a3e
00000100: be3b 823d ef27 983e b5fb 87bc e2f3 cabb
00000110: 9db7 b53e d85c 42be 5388 1abe 45d2 1d3d
00000120: 4762 0fbe 1081 c03d dc40 f0bd ee93 40be
00000130: accf d2bd 93b9 cbbd 428d 953c b075 abbe
00000140: 4449 783e 3159 9ebc 0a35 87bd 8aad 7f3b
00000150: cdb5 2bbd dc65 623e 0227 5e3e e741 2d3e
00000160: 4772 4d3c 3a08 db3d 69dd 993d 2071 b03e
00000170: 3452 9f3e d02a 613e 3117 2bbd 8fc5 dc3d
00000180: 37a1 7cbd 15ef ab3d b81f 593d dbbc c83c
00000190: 4ff6 273d f5aa eebd e5fd 483d d6e5 153c
000001a0: 6165 4e3e 01a5 8b3e f52a 493e 8d0e 303e
000001b0: c3cc 973e c522 643e 1d0a 3abc 14e6 423d
000001c0: f0f6 56bd f912 b93d f660 dbbd b39f 4dbd
000001d0: aafb 853e 4b73 99bd 8bc7 163e 494a c8bd
000001e0: eb83 ca3e f5aa 16be 340d 3e3c 5af8 8bbd
000001f0: b1e5 93bd 1eaf 4f3e e30b 8f3d 67e6 afbd
00000200: 7677 e0bc a3fe 1e3e d414 823e ba0c ea3d
00000210: 1207 07be 9c96 b8bb c114 293e 5f18 ea3c
00000220: da0e 883b f551 3dbe b54e a63a 0329 2abc
00000230: bc24 0c3d 16e8 a03d a3db 6f3d aa61 99be
00000240: ba25 d23d 5ee3 f4bc d617 bb3c 291b 8ebe
00000250: 5b52 c73e b5da 3cbc 4255 bfbd 45df 87bd
00000260: ecc5 983c 49ca da3c 21c9 0c3e 9774 883e
00000270: 967c 38bd cb7e 20be 0e6b c13d 51e5 5a3e
00000280: 6535 71bd 8d8e f1bd c50c c73d b380 2d3e
00000290: 26e1 1d3d 2730 903c 122b 533e 3ad3 773e
000002a0: b7f5 423e a789 45bd d2e2 ad3d f642 7e3e
000002b0: a6e8 92bd 7411 473e 0288 aa3d e06b 373e
000002c0: 6d5b e63d e0e5 1bbe 4c68 7f3c 0bf0 db3d
000002d0: 8314 733e 1b58 c63d 566c cb3d 549b 7a3e
000002e0: 5c8d 843e 42f1 373d 0e8f 8c3d e476 0a3d
000002f0: 3d99 95bc 11fc f4bc d0f9 033e f52b 3dbe
00000300: 4fb6 323d bb40 95bc 293b a53e e0f2 813e
00000310: 4c3e 84bd 5e7f bfbd 310f 9abc a584 173e
00000320: 2492 8c3c b6f8 be3d 6f51 793e 47da 7c3e
00000330: 2fde 153e c24e 9e3e 0c6a 533e 166b 843b
00000340: 382a c73e da70 403e 9c69 183e 367c 423d
00000350: 27be 8fbd 5752 623e 7d08 383e 0916 933d
00000360: 2822 b7be 84e7 a73b 4875 9a3d bba8 e6bd
00000370: 53f4 0c3d f544 2b3e 6600 6a3e a2ce 4a3e
00000380: 77f2 063e c18a 0b3c 1ba7 84be 0e05 213e
00000390: 4352 3f3e 82ac eb3d 9376 95be 914a 3c3e
000003a0: 38b3 063a fa41 393d 63e5 8cbd 3c4b b03e
000003b0: ff98 a6bd 1b8f 0dbe 55a1 0f3d 558b 143d
000003c0: 5563 843d d378 753e 0121 8e3c bb32 9abd
000003d0: 2f9f 933e 6348 a1bd d5a3 07bd 410b cabb
000003e0: 79c5 9c3d 0dc7 8f3b 5f95 663d 9609 c9bc
000003f0: b0b8 5c3d e5a4 75be 51ba a33e 98a7 0a3d
0.014111083 0.18382235 0.062402494 0.16914213 0.04281579 0.04849596 -0.084763855 0.021481587
0.019240892 0.038709924 -0.15316385 0.048775326 0.024737205 0.34978342 -0.13022935 -0.14336577
-0.2056237 0.031551555 -0.16222365 -0.11080676 0.03867867 0.31098244 0.051507544 0.16118492
0.13427474 0.15099576 -0.13752922 0.29410657 0.04014321 -0.07994985 0.28894714 -0.0021114852
0.17036748 0.061578546 0.14487301 -0.1632964 -0.13379729 -0.02819693 -0.032917656 0.0033648761
-0.08730341 -0.09747062 -0.012627014 0.25308362 -0.1396643 -0.27795854 -0.052680198 0.11616386
0.23957556 0.18890825 0.06597073 0.16962025 -0.074788384 -0.0827266 0.14734003 0.121117674
-0.06011219 0.14740327 0.06284742 0.07320795 0.09149707 0.17782073 -0.04427236 0.15089697
0.06359051 0.29717967 -0.016599515 -0.006193624 0.35491648 -0.1898073 -0.15091066 0.038530607
-0.14002334 0.09399617 -0.11731121 -0.1880643 -0.102935165 -0.09947505 0.018255834 -0.33488226
0.24246699 -0.01932964 -0.06601913 0.003901335 -0.041921426 0.22109169 0.21694568 0.16919671
0.012539453 0.106949285 0.07512934 0.34461308 0.31117404 0.21988988 -0.041770164 0.10779869
-0.061677184 0.08395211 0.053008765 0.024504116 0.041006383 -0.11653701 0.049070258 0.009149035
0.2015586 0.27274325 0.19645293 0.1719305 0.29648408 0.22278889 -0.01135495 0.0475827
-0.05248159 0.09036822 -0.10711853 -0.05020113 0.26168567 -0.074926935 0.14724557 -0.09779794
0.3955377 -0.14713652 0.011599828 -0.06834479 -0.072215445 0.20281646 0.06984689 -0.08588868
-0.027400713 0.15526824 0.25406516 0.11428209 -0.13186291 -0.0056331884 0.16511823 0.028576074
0.004152161 -0.18488295 0.0012688251 -0.0103857545 0.03421472 0.07856767 0.05855907 -0.29957324
0.10261102 -0.029893573 0.022838514 -0.27755097 0.3893002 -0.011526753 -0.093424335 -0.06634382
0.018649064 0.026707785 0.137486 0.2665145 -0.04504069 -0.15673368 0.09444247 0.2137654
-0.05888881 -0.117947675 0.097192325 0.16943626 0.038544796 0.017601086 0.20621899 0.2420167
0.19039045 -0.04822698 0.08490528 0.24830231 -0.071732804 0.19440252 0.08326723 0.17912245
0.11247907 -0.15224409 0.015588831 0.10739144 0.23738293 0.096847735 0.09932773 0.24473315
0.258891 0.044907816 0.06863223 0.03380479 -0.018261546 -0.02990535 0.12888265 -0.184738
0.043630894 -0.018219342 0.32271698 0.2538061 -0.06457195 -0.09350465 -0.018806072 0.14796694
0.017159529 0.093247816 0.2434747 0.24692641 0.14635538 0.30919462 0.20645922 0.004041086
0.38899398 0.1879305 0.14884037 0.047481738 -0.070186906 0.22101723 0.17971988 0.07181937
-0.35768247 0.0051240344 0.07541901 -0.112626515 0.034412693 0.16725524 0.22851714 0.19805387
0.1317843 0.008516968 -0.2590874 0.15724584 0.18683724 0.11507513 -0.29192027 0.1838782
0.00051384 0.045228936 -0.068796895 0.344324 -0.081346504 -0.13824122 0.035065968 0.03626569
0.064642586 0.23971872 0.017349722 -0.07529207 0.28832385 -0.07875135 -0.033115227 -0.0061658924
0.076548524 0.0043877424 0.056294795 -0.024540704 0.05388707 -0.23988684 0.31978086 0.033851236
