pretrainedNetworks/actor_target2.pth (torch_old, 230166 bytes, 12 tensors)

fc1.weight f4 [256, 24]
000000 b7 95 1a 3e c6 66 d7 bd 1d 3d 7f bd 3f a8 93 3d
       0.15096174 -0.10517649 -0.06231414 0.07209825
000010 87 ee 06 bd fe 40 ca be fa a3 d8 bc ea b4 b2 3d
       -0.03294232 -0.3950271 -0.026445378 0.08725913
000020 ea 4b 90 3e 25 c5 01 bd 9a c0 50 3c e6 99 73 3d
       0.28182918 -0.031682152 0.012741232 0.05947294
000030 ab ab 4b bd 23 9c 11 bf 56 b4 bb bd a6 8f 7a 3d
       -0.049724262 -0.5687887 -0.09165256 0.06117215
000040 23 cb 3d 3e e8 17 98 bb 08 04 ed bc d0 14 08 3d
       0.18534522 -0.0046415217 -0.028932586 0.033222973
000050 cb bf 1d be 92 84 11 bf ac 27 8c bd 98 4b 31 bd
       -0.15405194 -0.5684291 -0.06843504 -0.043284982
000060 b1 75 60 3d 37 dd 27 3e 96 4c 22 bd d4 23 48 bd
       0.05479974 0.1639298 -0.03962382 -0.048862293
000070 34 a8 02 bd d1 6a 5c 3e ec 0e 9d bd 52 6b a5 bd
       -0.031898692 0.21525122 -0.07668862 -0.0807711
000080 dd 7d 8a 3d 66 bd 66 3e 43 c1 60 bc 38 84 40 bd
       0.06762288 0.22533187 -0.013717952 -0.047001094
000090 d0 1c 23 be 91 25 38 be c2 b3 59 bb f2 c3 88 bd
       -0.1592896 -0.1798308 -0.0033218716 -0.066779986
0000a0 b0 52 6f 3e 4d 8a 5c 3e 6f 86 19 3e d5 08 80 bc
       0.23371387 0.21537133 0.14992689 -0.015629211
0000b0 eb dd a2 be fe 22 2c bf 40 62 dd 3d de 5b 01 3d
       -0.31809935 -0.67240894 0.10809755 0.031581752
0000c0 45 34 05 3d ad 8e 4d 3d 8d 18 0c be ac 6d 98 3d
       0.03252055 0.050184894 -0.1368124 0.07442793
0000d0 2b e2 b9 be 55 bb a3 be 7e c7 c2 bc 91 76 a1 3d
       -0.36305365 -0.3197886 -0.023776766 0.07883943
0000e0 87 05 84 3d 5a e1 0f 3e 4d 47 0e be 31 72 55 bd
       0.06446367 0.14050809 -0.13894387 -0.052110855
0000f0 f2 c2 8d be a2 24 9b be 0d 27 58 bd 58 71 dc bd
       -0.27687794 -0.30301386 -0.052771617 -0.10763806
000100 49 86 c4 bc 2a 5d ba 3d 97 37 b1 bd 91 4a 0e 3d
       -0.023989813 0.09099801 -0.08653181 0.03473908
000110 fa 04 4a be 18 04 2f be 57 20 ae bd 0e 93 e3 3c
       -0.19728461 -0.17091405 -0.08502262 0.027780082
000120 fe 95 a2 3e f6 a8 3d be 0a 1e ed bd c9 04 91 3d
       0.3175506 -0.18521485 -0.11577995 0.07080991
000130 c5 11 96 be 06 87 4b be 36 c4 c6 bd 4c 18 bb ba
       -0.29310432 -0.19875726 -0.09705393 -0.0014274209
000140 40 e1 22 3e ef 40 a1 be 2e d0 e5 3c ee 6c aa 3c
       0.15906239 -0.31494853 0.02805337 0.020803895
000150 3f a1 00 bd 58 19 6c be 80 70 19 3d ab 6c 3b 3c
       -0.031403776 -0.23056543 0.037460804 0.011439483
000160 cc 66 23 3d b6 f1 b7 be a2 52 7e bd 2d dc f6 3e
       0.039892957 -0.35926598 -0.062090524 0.48214856
000170 f0 a3 08 3e b4 d6 85 bd a6 56 4e bd 99 8d df 3e
       0.13343787 -0.06535092 -0.050375603 0.43662718
000180 22 01 e5 3d 14 87 9d bc 7b 18 e6 bc 3c 30 6c 3d
       0.11181857 -0.01922945 -0.028087845 0.057663187
000190 60 8d ba be 6b 2d a2 be f5 e3 b2 3c 13 3a 68 3d
       -0.36435986 -0.31675276 0.021837214 0.05669601
0001a0 d7 98 9d 3e 88 3a 35 3d 33 51 0c 3c 01 f3 aa bd
       0.3078067 0.044245273 0.008564281 -0.083471306
0001b0 88 50 81 be 68 df 9e be db a8 a6 3c 95 ce cd bd
       -0.25256753 -0.3102982 0.020344188 -0.10049168
0001c0 b5 8a 85 3e 03 92 58 bc 32 0c f0 bc c1 9a 84 bd
       0.26082388 -0.013218406 -0.02930269 -0.064748295
0001d0 c7 c8 bf be 75 07 d4 be 79 d2 40 3d 4a ac f5 3c
       -0.37457868 -0.4141194 0.047075722 0.02998938
0001e0 73 42 00 bd be 05 99 be 94 ff 15 3c 88 7c 39 bd
       -0.03131337 -0.29887193 0.009155173 -0.045284778
0001f0 ca 44 c0 3d 23 04 fd be 5a b1 0f bd 06 27 46 3d
       0.093881205 -0.4941722 -0.035081245 0.04837706
000200 a5 1c 51 bd 8c 93 a9 be 36 6d 45 bc c3 ad c7 3c
       -0.05105271 -0.33120382 -0.012049964 0.024374848
000210 6e ed 35 3e 30 9f 09 bf 15 68 42 3b a4 f4 e8 3c
       0.17766353 -0.53758526 0.0029664089 0.028436966
000220 c8 16 03 bd 73 49 9c be 67 a0 a1 bd ae 83 8c 3e
       -0.032004148 -0.30524787 -0.078919224 0.27444214
000230 b5 db 46 3e 5e 72 12 bf 33 71 0e bd 41 f2 6e 3e
       0.19419749 -0.5720576 -0.034775924 0.233346
000240 65 b0 86 bd 0a f6 30 3e 2b 16 3c 3c 38 ba a0 3b
       -0.06576613 0.17281356 0.011479895 0.0049050115
000250 92 a1 cb 3d 5a e0 50 bf 0b dc 2e bd 69 4d c3 bc
       0.099429265 -0.81592333 -0.042690318 -0.023840623
000260 3a 6f 74 3d 8f 89 58 3e b2 1d 38 bc 36 78 61 bd
       0.059676386 0.21146224 -0.011237549 -0.055046283
000270 d3 8d 83 3d b0 a0 44 bf 9a 29 89 3d 1b 5d 16 be
       0.06423535 -0.7680769 0.06697388 -0.14683954
000280 f3 0a 7d 3d 44 b3 8a 3d ff 44 1d 3c c1 7f 51 be
       0.06177802 0.067724735 0.0095989695 -0.2045889
000290 e2 04 f1 3d 5c 9e 35 bd e9 82 bc 3d c0 89 8d be
       0.117685094 -0.044340476 0.09204657 -0.27644157
0002a0 fb 99 6a 3e 53 fc 40 bd 4a 72 3e be 3d e7 78 be
       0.22910301 -0.047115635 -0.18598285 -0.2430696
0002b0 64 78 b0 3d 5e 67 d6 be 2c 00 03 be 08 78 9d be
       0.08616713 -0.41875738 -0.12793034 -0.3075564
0002c0 f4 a4 11 3e ae 7b c2 bd 55 bb e0 bd 33 b1 2a be
       0.14223081 -0.09496246 -0.10973231 -0.16669159
0002d0 3a 9f 18 3d b2 95 8f be d2 d2 29 bd 26 78 f6 bd
       0.037261225 -0.28043896 -0.04146082 -0.12034635
0002e0 ef 55 36 3e 77 06 65 bd d3 e2 92 bd 1f a9 d9 3c
       0.17806219 -0.05591437 -0.071721695 0.026569901
0002f0 68 ca 73 bd 73 d4 b4 bd 6d 15 ea bc 01 77 50 3d
       -0.0595192 -0.08829584 -0.02857467 0.05089474
000300 21 87 b7 be 94 ea ba bc 26 77 9f bd 52 af 0b be
       -0.35845283 -0.022816934 -0.07786398 -0.13641098
000310 0d 8c 49 3e c0 31 5b be f7 81 f4 bc 12 c2 c5 bd
       0.19682331 -0.21405697 -0.029847128 -0.096561566
000320 e1 57 63 be 11 f0 34 3c 5c e1 5b bc b3 1c 47 be
       -0.22201492 0.011043564 -0.013420429 -0.19444542
000330 eb 07 40 3d 56 fb dc bd e6 2f 86 bd 1f b9 3f be
       0.04688255 -0.10790126 -0.06552105 -0.18722962
000340 35 94 71 be 77 f8 19 be f9 7f 0b bc ae 5b 4f be
       -0.23591693 -0.15036188 -0.008514398 -0.20249817
000350 00 13 a3 bd f6 f1 c3 3e 43 4c f3 bd 25 d5 45 be
       -0.07962608 0.3827054 -0.1187978 -0.1931959
000360 b0 de e1 3d 16 67 79 be 73 81 19 bc 78 e0 3c be
       0.110288024 -0.2435573 -0.009369242 -0.18445003
000370 b6 da 9f 3d 02 1e 66 be 01 d7 6d 3d a4 86 6d be
       0.07805388 -0.22472385 0.05806637 -0.23195893
000380 17 60 f9 3d 1f 80 a5 be b2 17 84 bd 99 a7 94 bc
       0.12176531 -0.3232431 -0.06449832 -0.018146323
000390 a8 51 b9 3d d1 0d 97 be d4 3c ab 3c 5a 30 81 bd
       0.09048778 -0.2950273 0.020903029 -0.063080505
0003a0 a8 55 ec 3d ac 05 6d be 2e 6c 01 be 00 98 55 3e
       0.11539775 -0.23146695 -0.12638924 0.20858765
0003b0 ab 69 10 3d 2a ad 20 bf 03 44 2d be 10 10 67 3e
       0.035257023 -0.6276423 -0.16920476 0.22564721
0003c0 c3 fa 55 3e b4 ba ac 3e de 56 84 3c cd d6 81 be
       0.20896439 0.33736193 0.016154703 -0.25359192
0003d0 29 c6 61 3d 9d 92 5c be da 59 17 bc e3 f7 b2 be
       0.05512062 -0.21540304 -0.009237731 -0.34954748
0003e0 ef 06 1c 3e c7 3f 72 3e 10 3b 64 bc a6 ee f6 be
       0.1523702 0.23657142 -0.013930097 -0.4822895
0003f0 9e e8 d1 bd 43 d9 0c be ef 86 83 bd 01 51 fd be
       -0.10249446 -0.13754754 -0.06422221 -0.49475864

fc1.bias f4 [256]
000000 b1 e3 e6 be a1 63 8b be 60 06 6a 3b 77 6e 92 be
       -0.4509559 -0.27224448 0.0035709366 -0.28599903
000010 8c db b0 bd e4 ab 89 be 41 d7 8e be fa d4 ef be
       -0.08635625 -0.26888955 -0.278986 -0.46842176
000020 ce b0 c2 3c 5c be 97 be 3a 25 35 be f9 3e 1d bd
       0.023765948 -0.2963742 -0.17689982 -0.038390134
000030 98 a3 b8 bc 2c 66 7e be 3d 85 62 be 1c ff c1 be
       -0.022538945 -0.24843663 -0.22121139 -0.37889946
000040 12 44 8a be 47 57 43 be c0 e4 8f 3d 80 a3 a9 be
       -0.2700506 -0.19076262 0.070260525 -0.33132553
000050 65 3a be be a6 7a 5c be fe c3 d5 3d e9 c1 0a 3e
       -0.37153926 -0.21531162 0.10437773 0.13550533
000060 a7 a0 9f bd c2 02 82 3b e6 c4 b0 bd 91 8b d5 bd
       -0.07794314 0.003967614 -0.086313054 -0.10427011
000070 05 b6 89 3d f0 08 90 be db 1d 33 3c 77 fc e3 bd
       0.067241706 -0.2813182 0.010932411 -0.11132138
000080 ff 91 27 be db e1 79 be f1 01 76 bd 92 ed dc be
       -0.16364287 -0.24402563 -0.060060445 -0.43150002
000090 64 85 e7 bd 66 4f 8d 3d 1d 2d 87 be af 38 da be
       -0.11304739 0.0689991 -0.26401606 -0.4262137
0000a0 65 8f a2 3e 57 54 4b be 20 f3 17 3e e7 c0 65 be
       0.31750026 -0.19856392 0.14838839 -0.22436868
0000b0 ac d3 6e 3c 8a 88 17 be d3 11 05 bf 4d 74 9a be
       0.014576834 -0.1479818 -0.5198032 -0.30166855
0000c0 2d ab 5f bd 55 d6 db bd da ef cf 3d ff be d1 be
       -0.054606605 -0.1073424 0.1015317 -0.4096603
0000d0 cd 49 4d be 69 2a 9e 3c c2 1f 04 bd 97 40 1b bc
       -0.20047684 0.019307332 -0.03225685 -0.009475849
0000e0 6d 3c 5c be dc 9f 2a be de 36 16 be 08 fa b7 3d
       -0.21507426 -0.16662544 -0.14669368 0.089832366
0000f0 39 e0 4f 3e 99 a0 ce 3c 67 30 3e 3e 13 dd 9a be
       0.20300378 0.025223063 0.18573152 -0.3024679
000100 8b 6f 00 be cb b3 53 be 18 83 48 3e e5 fc 91 be
       -0.1254255 -0.20674054 0.19581258 -0.28513256
000110 09 8c 31 3d 8d fa fe 3c da c6 9c be 95 5a 73 3e
       0.04334644 0.031125331 -0.30620462 0.23765023
000120 6f c0 e9 bd de d7 e4 bd 44 88 8b be a7 b3 0e 3d
       -0.11413657 -0.11173986 -0.272524 0.0348393
000130 99 82 92 be 7c 62 d2 be f6 7a 68 be 8b 1a 90 3d
       -0.28615263 -0.41090763 -0.22703156 0.07036313
000140 26 5c 9c be db 9e ad be fe bd c2 be 01 58 13 bf
       -0.30539054 -0.3391026 -0.38035578 -0.5755616
000150 94 5d c9 bd 5d df d4 3e 94 c0 e3 be 9e 63 34 3e
       -0.09832302 0.41576663 -0.44482863 0.17616126
000160 17 e1 8b bd 8d ef fc bd 4a 51 44 be 18 e7 fa bd
       -0.06830042 -0.12350378 -0.19171634 -0.12251109
000170 10 e7 25 be 09 3b 4c bd 30 07 72 bd 6e d9 49 3e
       -0.16201425 -0.049860988 -0.059088886 0.19711849
000180 f2 24 03 3c 20 62 c7 be 49 b5 a2 be 04 ac 8f be
       0.008004414 -0.3894205 -0.31778935 -0.28060925
000190 9a 6a 16 be c2 eb de 3d f9 d6 a3 be 4b 1b a9 3d
       -0.14689103 0.10884811 -0.3199995 0.08257159
0001a0 bc 79 e5 bd ce b3 d6 bd 7f d8 1b bd c5 5b 67 be
       -0.112048596 -0.10483514 -0.038048264 -0.22593601
0001b0 02 f4 b5 bc c6 78 66 be 23 35 f4 bd 52 be 2b be
       -0.022211079 -0.22507009 -0.119241975 -0.1677182
0001c0 a8 92 24 3d 8f 89 b5 bd 08 98 08 bf ae b1 26 be
       0.040178925 -0.08864128 -0.5335698 -0.16278717
0001d0 75 90 24 be a6 46 9f 3d d3 88 44 bd 63 42 04 bc
       -0.16070731 0.07777147 -0.04798205 -0.008072468
0001e0 b8 fc c5 be 08 73 ab be 9a 60 7b bd ac 27 dc bd
       -0.38669372 -0.334862 -0.061371423 -0.10749754
0001f0 1d 3b 63 bd cf a8 06 be ff c5 d2 bc 57 b6 01 3e
       -0.055476297 -0.13150333 -0.025729178 0.12667213
000200 af a6 16 3e 31 8c 8a be f2 04 21 bd b2 8f d3 be
       0.14712022 -0.27060083 -0.039311357 -0.41320568
000210 c9 8c d1 be fe f3 ab be 1d 86 97 be d1 aa 50 be
       -0.40927723 -0.3358459 -0.29594508 -0.20377661
000220 5b 79 88 3e 07 7e 29 bd eb 89 33 be f7 0a 9f 3e
       0.26655087 -0.041379955 -0.1753308 0.31063053
000230 e6 8b c0 3d dd e3 84 be 19 98 82 bd 91 1c a5 bd
       0.094016835 -0.25955096 -0.063766666 -0.08062089
000240 92 a8 b9 be d9 ce 1d 3d 0e 5b 60 be 37 7d 99 be
       -0.3626142 0.038527343 -0.21909735 -0.29978344
000250 81 20 9b be 25 a7 bb bd 9f 09 0f 3d 5f d8 f4 bd
       -0.30298236 -0.0916274 0.034921285 -0.11955332
000260 19 b1 a8 be 09 78 56 bd 81 4d 46 be 7c a9 a9 be
       -0.32947615 -0.05236057 -0.19365503 -0.3313712
000270 9c 6e c5 be 55 f2 9c 3e c1 52 24 3c ac c7 75 be
       -0.3856095 0.30653635 0.010029496 -0.2400195
000280 13 f0 c0 be a6 60 54 be da a9 e7 bd a3 e4 81 be
       -0.37683162 -0.20739993 -0.113116935 -0.25369748
000290 c7 9a e5 bc 13 b9 b2 3d 46 15 5c be 10 7a c5 3d
       -0.028027905 0.08726706 -0.2149249 0.09642422
0002a0 25 75 ae be 10 27 35 be 79 c8 06 bb 89 8f 88 bc
       -0.3407375 -0.17690682 -0.0020566268 -0.016670005
0002b0 44 f4 b2 be e1 4a 97 be ca d9 fc 3d e5 d2 2b be
       -0.34951985 -0.29549316 0.123462275 -0.16779669
0002c0 34 4f cc bd e2 ca 43 be 1f c5 77 be df 7f 35 3d
       -0.09976044 -0.19120362 -0.2419629 0.0443114
0002d0 1c cd 06 3e c6 32 a0 be 2b 09 22 be 37 d4 22 bc
       0.1316418 -0.31288737 -0.1582381 -0.009938291
0002e0 0a c0 84 be 7c 43 ce 3c 48 e4 d9 be 41 aa 09 be
       -0.25927764 0.025178663 -0.42556977 -0.13443853
0002f0 e0 f6 17 be 0a bf 12 be 52 43 94 3d a9 c3 0a bf
       -0.14840269 -0.14330688 0.07239403 -0.54204804
000300 43 ec ff be 6d 33 17 be 55 70 ed 3d 07 20 76 be
       -0.4998494 -0.14765711 0.11593691 -0.24035655
000310 df ae 83 be f4 69 ca be 88 02 d7 3d 74 2a 19 bf
       -0.25719354 -0.3953396 0.1049853 -0.59830403
000320 0a 6a 21 be 88 b9 e8 be 66 71 26 bf 0d d2 af be
       -0.15763107 -0.4545405 -0.6501678 -0.34339944
000330 3d df 12 3e d3 8f b9 be 3b b4 64 be bb c8 25 bd
       0.14342971 -0.36242542 -0.22334377 -0.040474635
000340 1b c5 88 bd 61 78 3e 3e c0 7d 3c bd 4e c3 d9 bd
       -0.0667822 0.18600608 -0.046018362 -0.106329545
000350 dc 1d d1 3d ec 96 3b be 2c b6 5d be 31 d7 73 be
       0.10210773 -0.18319291 -0.21651524 -0.23812558
000360 d0 bb 2c be d1 e5 48 bd e4 e8 87 be d1 a4 1a bd
       -0.1686852 -0.049047295 -0.2654487 -0.037754837
000370 2e 31 e3 bc 31 b1 8a bd 99 71 a3 be d3 2d 9b be
       -0.027733412 -0.06772078 -0.31922606 -0.303084
000380 be 2b 2e bd 4b 63 b3 be 4e 41 98 be 35 59 b2 be
       -0.042522185 -0.35036692 -0.29737324 -0.34833685
000390 c2 19 68 be ea 82 2a be f7 bb 02 3e 8c 4b bf be
       -0.22666076 -0.16651502 0.12767015 -0.37362325
0003a0 3a c2 b1 be 7a d4 b7 bd 17 de ae be dd d8 98 be
       -0.34718496 -0.089760736 -0.34153816 -0.29852954
0003b0 c5 2a 82 be 89 1f 0a bf c4 e5 12 3e 63 f3 d2 bc
       -0.25423256 -0.5395437 0.14345461 -0.025750821
0003c0 6c 61 fd be 5b f4 be be 6b 61 65 be d0 07 31 be
       -0.4948839 -0.37295803 -0.22400443 -0.17288136
0003d0 ec f9 b2 be 58 6a 68 be a1 bf 9a bc e9 e5 b2 3e
       -0.349563 -0.22696817 -0.018890204 0.34941033
0003e0 60 1c 02 be 32 a5 ea be 00 94 4d be 7d 62 fb be
       -0.12706137 -0.4582916 -0.20075989 -0.49098578
0003f0 5c 4e 44 be a9 fa a3 bd 62 04 31 bd 8f 5f 3b 3e
       -0.19170517 -0.08006794 -0.04321707 0.18298171

fc2.weight f4 [128, 256]
000000 0d ed 6f 3e 32 6f ff bd cb 7e 07 bf 04 da a8 bc
       0.23430271 -0.12472381 -0.52927846 -0.02061177
000010 91 a0 4f 3d a1 51 9c 3e 69 89 22 3a 49 64 8a be
       0.050690237 0.30531028 0.0006200285 -0.27029637
000020 31 9d 8b 3d 76 ee 34 be 09 17 eb 3c eb 92 81 bc
       0.06817091 -0.1766909 0.028697507 -0.015817126
000030 e8 99 a4 be 61 24 e6 bd ed bf b0 3b 86 80 a0 be
       -0.3214867 -0.112374075 0.005393973 -0.31348056
000040 97 35 75 3e d9 11 9a 3d 34 98 58 3e ed ae 56 bd
       0.23946224 0.075229354 0.21151811 -0.052412916
000050 20 9e 3b 3d ed 94 b0 3e 81 81 9f be 7a 54 5c bd
       0.045805097 0.3448862 -0.3115349 -0.0537915
000060 e3 88 41 bd fc 3d 13 bd 29 2a 83 3e 6f d2 0b 3e
       -0.047249686 -0.035947785 0.25618103 0.13654493
000070 c3 98 9e bd 7d 4e 46 3e bc ca 86 3d 44 da 81 bc
       -0.07743981 0.19365878 0.06581637 -0.015851147
000080 be 87 62 be 5e 6d e6 3d 0f 44 2f be 16 14 82 3d
       -0.22122094 0.11251329 -0.17115806 0.06351487
000090 85 e2 83 3e 4e a5 f4 bc 10 9f 64 bd 80 ee 51 3e
       0.25758758 -0.02986398 -0.055815756 0.20501137
0000a0 60 e4 df 3e 98 b6 a2 3c a1 05 f1 bd 6a 30 ac 3d
       0.43728924 0.019862458 -0.11768652 0.08407672
0000b0 4e 31 12 be 3b 61 95 3e 8f 07 fd bc 0f 81 97 3d
       -0.14276621 0.29175743 -0.030887393 0.07397663
0000c0 45 d4 90 3d bd 9c 58 bc 71 e9 0d 3e 19 2e b1 3e
       0.07071737 -0.013220963 0.13858582 0.34605482
0000d0 8e d1 66 3e 53 52 54 3e a4 c9 a4 3e d1 38 a8 3e
       0.22540876 0.20734529 0.3218509 0.32855847
0000e0 aa 1e 8c bc 9e 16 6b bd de e9 9b bd 54 8e a5 3e
       -0.017104466 -0.057394616 -0.07612966 0.3233515
0000f0 34 75 8e 3d 37 81 55 3e 0b 06 b0 3e 22 dd d2 bd
       0.069559485 0.20850073 0.3437961 -0.10296084
000100 a6 34 21 3e c8 9c 94 bd dc 5d 5d be fd 5b 21 be
       0.1574274 -0.07256466 -0.21617836 -0.15757747
000110 07 8b 93 3e ce d3 42 3d ba cf a1 3e 8b 8b f6 bd
       0.28817007 0.047565274 0.31603795 -0.120383345
000120 76 18 6c 3b 10 19 05 3e 6e e7 61 bb 12 30 2c be
       0.0036025322 0.12997842 -0.0034470218 -0.16815212
000130 95 80 40 3e f5 e3 62 be 0c c3 6f 3b 56 74 3a 3e
       0.1879905 -0.22157271 0.0036584763 0.18208441
000140 9a 94 63 3e 1f eb 97 3d 22 4f d0 3b 7a 64 b4 bd
       0.22224656 0.07417893 0.0063570896 -0.08808227
000150 a0 81 dc 3d 2b 9f cc bd 22 f6 22 3e d3 fb 03 3e
       0.107669115 -0.099912964 0.15914205 0.12889032
000160 e0 0d 1a 3e b6 99 94 bd f5 72 6e 3e 16 9e 12 3e
       0.15044355 -0.072558805 0.2328604 0.14318117
000170 79 5a 2d 3b 9a c0 84 be ce e1 49 bd ed a4 b4 3e
       0.002645163 -0.25928193 -0.04928761 0.35282078
000180 0c aa 35 3e 7a 5c 5f 3e 83 4a 1e 3e 4a fc c4 3d
       0.17740649 0.21812621 0.15458111 0.09618433
000190 2a 4c 5a bd 0b ea 21 be b2 f0 9b bd 52 5b f1 3c
       -0.053295292 -0.15811937 -0.07614268 0.02946249
0001a0 0e 97 83 3e b0 06 19 bd 62 fc df 3d ac 49 4c ba
       0.25701183 -0.037359893 0.1093681 -0.00077929604
0001b0 91 f9 89 3c 87 6e ba 3c c5 03 c7 3c c2 e5 dc 3e
       0.016842635 0.022757782 0.02429379 0.4314404
0001c0 25 92 d7 bd 2f c1 32 3d e6 cf 83 be 01 78 0d be
       -0.10525922 0.043641265 -0.2574455 -0.13815309
0001d0 87 74 8e be 17 51 ac 3e c1 b6 65 be e4 03 c5 3d
       -0.27823278 0.33655617 -0.22432996 0.09619883
0001e0 c0 cb 8c 3d 38 49 80 3e ec a5 2a 3e c8 c3 e3 3c
       0.068748 0.2505586 0.16664857 0.027803317
0001f0 f5 df 53 be 64 05 ea 3d 07 90 64 be 8a e3 75 3e
       -0.20690902 0.114268094 -0.22320567 0.2401258
000200 a3 92 0a 3e 71 9a 95 3e 64 c0 fd bc 6e 22 87 bd
       0.135325 0.29219392 -0.030975528 -0.06598364
000210 e7 76 e5 3d 87 93 92 3e d7 79 ad bd b2 51 10 be
       0.112043194 0.2862818 -0.08470505 -0.14093664
000220 14 30 16 3e d1 5d 48 3e e1 84 76 3c 6a 0d c3 bc
       0.14666778 0.19567038 0.015046329 -0.023810107
000230 eb f9 46 3e 81 26 38 be 3d c6 ea bc 7e 48 17 bd
       0.19431274 -0.17983438 -0.02865898 -0.03693437
000240 82 13 75 3e 70 d7 8b 3e 3a 58 8e 3d 71 b4 a5 bd
       0.23933223 0.27312803 0.06950422 -0.08091057
000250 c7 18 73 bd 97 c6 13 3e 95 7e 0d bc 62 e2 85 3c
       -0.0593498 0.14431225 -0.008636137 0.0163433
000260 16 72 8f bd 38 19 57 3e 9e c1 21 3d d0 92 f6 3d
       -0.07004182 0.21005714 0.03949129 0.12039721
000270 91 61 16 3c a9 98 96 3b 41 6c 59 3e a6 55 51 bd
       0.009178535 0.004595835 0.21232702 -0.05110707
000280 84 31 dc bd 5a a6 50 3e 66 aa d9 3d 88 33 19 3e
       -0.10751632 0.20375958 0.10628204 0.14961064
000290 35 d4 f7 3d f6 c2 aa 3e b4 de 89 3e 67 d3 ae bc
       0.12101022 0.33351868 0.26927722 -0.021341039
0002a0 bd d3 1c 3d ca 4c d4 3d fa 0c 4b 3c c5 c7 f8 bd
       0.038287867 0.10366209 0.012393231 -0.12147478
0002b0 77 48 12 be 1d db 61 3d 91 fc 94 bd af 86 99 3d
       -0.14285456 0.055140603 -0.07274736 0.07496392
0002c0 b4 45 99 3e 91 50 33 be 54 78 09 be 2a fe 2a 3d
       0.29935992 -0.17511202 -0.13424808 0.041746296
0002d0 27 2e b8 3e af 9f 10 3e 9b f3 c3 3e 09 e7 35 be
       0.3597271 0.14123414 0.38271794 -0.17763914
0002e0 43 f8 7a be 01 97 fd 3c 6b 46 15 3d 8f b5 05 bd
       -0.24508767 0.030955793 0.03644411 -0.03264385
0002f0 08 0f e2 3d e3 e5 a1 3e da 43 be 3d 5d 71 72 3e
       0.11038023 0.31620702 0.092902854 0.23676057
000300 c9 65 0f bd 92 8d eb 3c 3c 14 07 3d 99 78 48 be
       -0.03500918 0.02875403 0.03297828 -0.19577254
000310 79 21 27 bd 45 e2 ed bc 41 73 53 be a7 fc 69 be
       -0.040803406 -0.029038558 -0.20649435 -0.22850285
000320 31 93 bd be 1b 7e 63 3e 4a a6 c8 bd 01 db 89 3d
       -0.3702636 0.22216074 -0.09797342 0.06731225
000330 aa 92 eb bb 80 4b 47 3e 44 69 58 3e 64 35 8f 3d
       -0.0071891146 0.19462395 0.21133906 0.06992605
000340 8f 67 8a 3e 34 df 01 be 44 8d 87 3d dd c4 a6 3d
       0.27032134 -0.12682801 0.06618741 0.081430174
000350 e2 4e 7e 3d ff 3c 87 3d ec 74 74 3e 90 8c 2f be
       0.062086947 0.06603431 0.23872727 -0.17143464
000360 50 0d 3b 3e 0d bc ef 3d 8b 77 1c bd fb fe 0b be
       0.18266797 0.1170579 -0.038199943 -0.13671486
000370 ec f1 81 be 73 45 fb bd 17 9b aa bd 8c 2b c9 bd
       -0.25379884 -0.12269106 -0.08330362 -0.09822759
000380 d4 61 1e 3e 88 9f bc 3d 0a 2e a4 3c f9 b2 8f 3d
       0.15467006 0.09210116 0.020041484 0.07016558
000390 cd b7 57 3d 5e cc 60 3e bb 46 51 3e 49 36 84 3e
       0.05266552 0.2195296 0.20437138 0.25822666
0003a0 19 62 5d 3e 7a 02 fd 3d 47 41 24 3e 94 0e 61 be
       0.21619453 0.12353988 0.16040526 -0.21978217
0003b0 cf b1 75 3e b0 69 ae bd 98 1f 95 3e e4 b2 d8 3d
       0.2399361 -0.08516252 0.29125667 0.10580996
0003c0 40 fd 82 3e a2 91 f1 3d d8 2c 6b 3e 91 b9 21 bc
       0.2558384 0.117953554 0.22966325 -0.009870903
0003d0 4b 7a d1 3e 6b eb 04 3e f7 a1 ad 3d 5a 41 74 be
       0.40913615 0.1298043 0.08478158 -0.23853055
0003e0 61 b1 d5 3d c1 50 cf be 78 cd 15 bc 60 7e 0f 3d
       0.10434223 -0.40491298 -0.009143226 0.03503263
0003f0 2a 27 5a 3d 4a e2 2e bb 23 ab c9 bd 70 23 08 be
       0.053260006 -0.0026685172 -0.09847095 -0.13294768

fc2.bias f4 [128]
000000 98 95 bc bd a2 35 b4 bd 60 32 b7 3c 89 0b 88 be
       -0.0920822 -0.08799292 0.022362888 -0.265713
000010 82 ae 82 bd 97 11 4c bd 8a c5 95 bd 3e 72 c8 be
       -0.06380941 -0.049821462 -0.07313068 -0.3914966
000020 1b ed 86 bd c4 86 7f be 74 18 24 be 93 d1 ed bc
       -0.06588193 -0.24953753 -0.16024953 -0.029030597
000030 c7 13 7f be 34 fd 53 bd 13 d2 f8 bc 26 85 1a be
       -0.24909888 -0.051755145 -0.030373609 -0.15089855
000040 15 0d 50 be fb 2b 66 be ee dd ae 3a 9f 4c cc bd
       -0.2031749 -0.22477715 0.0013341287 -0.09975552
000050 77 3b 90 be 3f fc 6c bd 23 f3 6f bd 92 91 03 be
       -0.28170368 -0.057857748 -0.058581483 -0.128485
000060 d8 62 00 bd d7 86 73 bd c8 ca 40 be 01 ec 30 be
       -0.031344265 -0.059454765 -0.18827355 -0.17277528
000070 72 57 17 bd dd e1 20 be d0 3c 4b be f9 b9 38 be
       -0.03694863 -0.1571116 -0.19847417 -0.18039693
000080 4e a3 a3 bd 9c 8b ae bd ca 34 e9 3c 0a a5 85 be
       -0.07990132 -0.08522722 0.028467555 -0.26102477
000090 f7 0a 32 be ea f5 52 be 02 f8 0b be 65 8a 2a be
       -0.17386995 -0.20601621 -0.13668826 -0.16654356
0000a0 d8 6f 88 bc 5d 67 95 be 84 e7 da bd 00 ed 34 be
       -0.016654894 -0.29180422 -0.10688689 -0.17668533
0000b0 6c 95 0a be cf 2c 44 be e8 1f 3b be 9f cd 20 bd
       -0.13533562 -0.19157718 -0.1827389 -0.039258596
0000c0 b4 98 13 be c3 58 06 3c de 06 3e be 75 3a 83 bc
       -0.1441372 0.008199873 -0.18557307 -0.016019085
0000d0 41 92 1a be dd 42 47 be 04 4b 90 be 54 67 97 be
       -0.15094854 -0.194591 -0.28182232 -0.2957102
0000e0 43 4e 32 be 69 2b 67 be 50 b4 90 bd 96 a4 84 bd
       -0.17412667 -0.22575153 -0.07065642 -0.06476705
0000f0 08 0c 4e 3c 0f a8 36 be 2a f7 87 bc da dc 91 be
       0.012576111 -0.17837547 -0.01659735 -0.2848881
000100 e2 21 2f be 57 8c 3e be 8f 3a 7b be 1c df eb bd
       -0.17102769 -0.18608223 -0.24534057 -0.11517164
000110 85 b8 90 be 09 80 c2 be 7e ff d4 bd 63 a3 38 bd
       -0.28265777 -0.37988308 -0.10400294 -0.045077693
000120 8e ce aa bd 76 34 75 3d 52 57 0d bd 87 20 ca bd
       -0.083401784 0.059864484 -0.034507103 -0.09869485
000130 29 f7 9f be b3 ae 75 3c 6d d6 2e be 7a 8c e6 3b
       -0.31243256 0.014995265 -0.17073984 0.007035789
000140 be aa 83 be 46 d5 4f be 08 cd cd bd 9a c5 71 be
       -0.25716203 -0.20296201 -0.10048872 -0.23610535
000150 ed cf 4b be 81 b1 0c be 8e a5 fd bd 20 8e f6 bd
       -0.19903536 -0.13739587 -0.12385093 -0.12038827
000160 cc f6 b7 bd 1f cd 86 bd c5 2e 2c be ec b6 86 be
       -0.0898262 -0.065820925 -0.16814716 -0.26311433
000170 90 24 2f be cf 37 e1 bd 3f 75 fe bd 5d c7 c2 be
       -0.17103791 -0.10996973 -0.12424707 -0.38042727
000180 4f 30 15 be 3c 65 09 be 54 b6 22 bc 59 bb 79 bc
       -0.1456921 -0.13417524 -0.009931166 -0.015242421
000190 12 e6 cd bd 7d ce 07 be ac a3 21 be f5 35 60 be
       -0.10053648 -0.13262363 -0.15785092 -0.21895583
0001a0 a6 b5 59 be bc 3f 54 be 84 19 15 bd e1 f7 0f bd
       -0.212607 -0.20727438 -0.036401287 -0.035148505
0001b0 c7 a9 4d bd d8 8c bc bd 90 c1 96 be 24 1a ca bd
       -0.05021074 -0.09206551 -0.2944455 -0.09868267
0001c0 0c 98 16 be c5 ef 4d be f9 2a 01 be 7b 41 7d 3c
       -0.14706439 -0.20110996 -0.12614049 0.015457506
0001d0 09 92 32 3c 3e 43 4d bd cd 25 19 be de 3d ad bd
       0.010899075 -0.050112955 -0.14955826 -0.08459066
0001e0 4f 2c 21 bd 1d 03 a4 bd 39 42 08 be b3 31 44 be
       -0.039348897 -0.08008406 -0.13306512 -0.19159584
0001f0 b6 94 d0 3d fa 7d 80 be 14 89 cb be 96 de fa bd
       0.10184614 -0.25096112 -0.3975302 -0.12249486

fc3.weight f4 [128, 128]
000000 f0 e9 b9 bd ca b2 5f be 4c 5d 06 3e 61 21 5f 3e
       -0.09077823 -0.21845546 0.13121527 0.21790077
000010 00 b2 8f bd 83 e8 a3 3d 48 7d 75 bd fe 61 f7 3c
       -0.07016373 0.080033325 -0.05993393 0.030198094
000020 a4 35 7f bd ea ea 05 bd a9 36 b6 bd 1c d3 e9 bd
       -0.062307015 -0.032694735 -0.08897144 -0.11417219
000030 c1 dc cf ba 98 b8 89 be 5b 75 08 bf c2 52 66 3e
       -0.0015858636 -0.26898646 -0.5330407 0.22492507
000040 f5 b0 59 3d c5 aa 0c 3d d2 cf 1b be e4 2d c3 bd
       0.053147275 0.034342546 -0.15215996 -0.09530237
000050 f2 01 9c 3e 00 d8 8f 3c 08 3f 9b bd 16 47 44 3e
       0.30470234 0.017559052 -0.07580382 0.19167742
000060 d7 d8 cd 3d 8c d0 77 3e cb 59 5c bd 42 66 8c be
       0.100511245 0.24200648 -0.05379657 -0.27421767
000070 4f c8 cf be 93 30 3e 3e 5e 6c 3f 3e f9 4a fd bd
       -0.4058251 0.18573217 0.18693683 -0.123678155
000080 3c 56 f0 bd 50 5b 4d bc 81 fc 2e be 4f 41 7d be
       -0.11735198 -0.012533978 -0.1708851 -0.24731945
000090 ce c5 96 3c 7a 98 cc bd 38 33 32 3e d7 c9 dc 3e
       0.018404868 -0.0999002 0.17402351 0.43122742
0000a0 b9 de 96 3d 58 99 f2 bc d7 81 0f 3d 3e f0 04 be
       0.073667 -0.029614136 0.035035934 -0.1298227
0000b0 c9 6c 1f be 7f f6 41 3d 04 14 38 3e 9f 05 00 3d
       -0.15568842 0.047354218 0.17976385 0.03125536
0000c0 3f bc 99 be cd 27 1f bd 8c 4b 61 be 16 bd 02 be
       -0.30026433 -0.038856316 -0.22001475 -0.12767443
0000d0 ef 88 1f bd 05 55 c5 3d 60 a2 28 3e 17 17 0e 3e
       -0.03894895 0.09635357 0.16468191 0.13875996
0000e0 5e 98 c0 bb 93 89 3b 3e d6 3c 59 3d 83 1e 1a bd
       -0.0058775386 0.18314199 0.053036533 -0.037626754
0000f0 2a 60 21 be 66 89 0e 3d 05 1d 59 bd c9 a1 47 be
       -0.1575934 0.034799002 -0.05300619 -0.1949531
000100 d6 a5 09 be 63 9d ba bd dc 8b 1c 3d ca 4f 50 3d
       -0.13442168 -0.091120504 0.038219318 0.050857343
000110 b3 f6 1c 3e cb 5b 43 be 13 6a 03 3e 07 07 4f be
       0.15328483 -0.19077985 0.12833433 -0.20217524
000120 69 4b 20 3d 64 a0 23 3e ac 8d ae bd a1 ed 15 3e
       0.039134417 0.15979153 -0.085231155 0.1464143
000130 88 20 3b 3e 44 49 32 bd 49 5a c7 3b fc 61 80 be
       0.18274128 -0.043526903 0.006083761 -0.25074756
000140 32 b8 b4 3d 00 3b 36 3d 30 49 7a be c5 f9 df be
       0.08824195 0.04448986 -0.24441981 -0.43745247
000150 c9 bc 70 3e 51 d5 22 be 3e 1f b3 bc 5a 41 e6 3d
       0.23509516 -0.15901686 -0.021865483 0.112429336
000160 76 78 df bd f4 4e c1 3d cf 4e b1 be 20 91 dd bc
       -0.10911648 0.09438887 -0.3463044 -0.02704674
000170 a7 63 5a 3d 68 4a 05 3e 47 19 a2 3e 1a eb 3a bc
       0.053317692 0.13016665 0.3165991 -0.011408592
000180 84 4d 02 be ce a9 5a be c3 3d 45 bd 45 2c da 3c
       -0.12724882 -0.21353838 -0.048154604 0.026632437
000190 16 fb 41 3e 48 df 0d bd 9d a0 84 bd 97 47 90 bd
       0.18943438 -0.034636766 -0.06475947 -0.07044905
0001a0 c2 92 8b 3d 83 5a 95 3e 23 7d 12 bc f5 4e 82 3d
       0.06815101 0.29170617 -0.008940968 0.06362716
0001b0 6c 01 27 be bc 70 93 3d 42 99 bc 3d a3 21 a6 bd
       -0.16309136 0.07199237 0.09208919 -0.081118844
0001c0 bf 98 d9 3d e8 3d 30 be c7 f6 a5 bd 16 ba 84 bd
       0.10624837 -0.17211115 -0.0810371 -0.064808056
0001d0 b4 38 10 3e 22 c6 fa bc 20 ad 52 3e 54 7f f3 bd
       0.1408413 -0.030612055 0.20573854 -0.1188952
0001e0 76 6f 2c 3e fe dc ae 3d ff d5 27 3d 40 24 be 3d
       0.16839394 0.08538245 0.040975567 0.09284258
0001f0 a2 02 f9 ba 1f 60 2f 3e 12 37 67 bd 23 7b d5 bd
       -0.0018997977 0.17126511 -0.056449004 -0.10423877
000200 18 f1 a2 bb 72 ee d5 3c cd 98 32 3d 8c 5e 98 3d
       -0.0049725883 0.026114676 0.043602753 0.074399084
000210 77 04 23 bd 79 8e 1d bd a0 b5 02 bc e1 26 ec bb
       -0.03979918 -0.03846595 -0.007977873 -0.007206783
000220 f2 2c 17 3d ce f8 82 bd 38 cf 58 bb cf 12 82 bb
       0.036908098 -0.06395112 -0.0033082496 -0.0039695273
000230 f2 5c 4e bd ea 40 aa 3c f5 63 26 3d e3 1f 84 3c
       -0.05038161 0.020782907 0.04062267 0.016128486
000240 66 f8 43 3d cf 8c 36 bd 12 92 6f bd e7 b7 d0 3c
       0.047844313 -0.04456788 -0.058488913 0.025478316
000250 1a 87 07 3d 51 36 c3 bb a4 db 36 3c 8f 1f 7e 3c
       0.033087827 -0.0059574028 0.011160765 0.015510454
000260 20 ce 10 bd 36 9b 93 bd dc 70 ff bc 99 d3 1b bd
       -0.035352826 -0.072073385 -0.031181745 -0.038043592
000270 24 63 79 3c 6f c1 9a bc 8a fa 55 ba 55 22 fa 3c
       0.015221391 -0.018891064 -0.00081626384 0.030533949
000280 3d 03 f4 3c a0 bc 10 3d 84 75 8f 3c d3 97 8e bb
       0.0297867 0.035336137 0.01751209 -0.004351595
000290 ed 50 1d 3c f0 fb 80 bc 19 cb 96 bb 53 12 30 3d
       0.009601814 -0.015745133 -0.004601848 0.042986225
0002a0 11 df 52 bd b1 b1 f5 bc 94 ba 3c bc 74 6a 8d 3d
       -0.051482264 -0.029991956 -0.011519093 0.0690507
0002b0 f8 48 72 bd 21 73 41 bd 1c e8 81 b8 41 81 bc 3b
       -0.05915162 -0.047228936 -6.194433e-05 0.005752713
0002c0 ec 43 17 3b 26 89 a1 bd 34 34 96 bc d8 c6 5c bb
       0.0023081256 -0.07887487 -0.01833544 -0.0033687856
0002d0 3a 74 34 3b fd 52 f9 39 b3 a3 42 3b 01 40 36 3c
       0.0027535097 0.00047554812 0.0029699623 0.011123658
0002e0 df 7d 48 bd d8 43 dd 3c 76 d6 52 bd 9a 25 44 3c
       -0.048948165 0.02700989 -0.051474057 0.011971856
0002f0 fd b1 c4 bc 07 5a 02 bd b1 4f 61 3c 0b 10 16 bd
       -0.024010653 -0.031824138 0.01375191 -0.036636394
000300 0d b2 47 bd 83 90 d1 3c 59 bf 51 3b 5b 96 cc bc
       -0.048753787 0.025581604 0.0032004921 -0.024974039
000310 88 ae 00 bc d6 c9 9a 3c a1 e0 01 bd 3b 3c 3b bc
       -0.0078541115 0.018895071 -0.031708363 -0.011427934
000320 19 ae 0a bc 48 e7 15 bd 31 92 15 bd 63 e7 a3 bb
       -0.00846436 -0.03659752 -0.036516372 -0.0050019487
000330 bc 06 31 bb 2f 33 27 3c 6f 75 6a 3d a9 2b 55 3c
       -0.002701207 0.010205074 0.0572409 0.013010898
000340 8e fe 08 3d 74 e1 2c 3d fe c2 bb bd 61 73 d3 bb
       0.033445887 0.042207196 -0.09168051 -0.006452963
000350 e5 9b d2 bb 43 85 1e 3d fb 15 8c bd 93 46 ca bb
       -0.0064272755 0.038701307 -0.0684013 -0.006172964
000360 ae af 97 bc 3d 78 96 bd 13 7d 76 bd d5 e7 23 bd
       -0.018516388 -0.073471524 -0.060177874 -0.040016014
000370 26 63 0d bd 3e 4b 8c 3b b7 81 06 bd 4c 98 90 bc
       -0.034518383 0.0042814305 -0.03283855 -0.017650746
000380 28 10 39 3d fa d5 b5 bc 2e 2b 65 3b de 05 a4 3b
       0.045181423 -0.022196759 0.0034968364 0.0050055822
000390 89 a0 79 3a 1d 66 27 3d 64 bb b8 bc c3 55 04 3d
       0.0009522518 0.040868867 -0.022550292 0.03230835
0003a0 fb 6c c7 bc 72 c9 cc bc 93 15 7d bc 14 8d 8e 3c
       -0.024343958 -0.0249984 -0.015447038 0.017401256
0003b0 67 3d 1c bd c0 22 d0 bc df 4a 49 bd 0f c7 da bc
       -0.038144495 -0.025407195 -0.04914367 -0.026706247
0003c0 41 19 b0 3b af a1 24 bd 32 17 af 3c 44 48 aa bc
       0.0053741043 -0.040193256 0.021373365 -0.020786412
0003d0 46 11 8b bd ad b4 93 bc c5 47 29 bd 4d 3d 21 bc
       -0.06790404 -0.018030489 -0.04132821 -0.009841275
0003e0 38 d1 d4 3b d6 00 43 bd 62 2b c4 3b 50 f1 00 3d
       0.0064946674 -0.04760822 0.005986617 0.031480134
0003f0 3d ee 40 bd fd 0b 20 3d e0 f1 d1 3c 81 5b 97 bc
       -0.0471022 0.039073933 0.02562803 -0.01847625

fc3.bias f4 [128]
000000 5e 53 91 bd fe 5f 1f be 15 a8 ef 3b 7e a6 f5 bc
       -0.07095979 -0.15563962 0.007313738 -0.029986616
000010 d6 a5 f8 3d 66 8d bf 3d 94 81 74 3d c1 6b 6f bd
       0.12141006 0.093531415 0.059693888 -0.05845237
000020 12 51 6c be d1 a2 42 bd b1 28 28 3e c1 bc 6b 3e
       -0.23077801 -0.047518555 0.16421773 0.23021223
000030 73 4e bb bd 71 ff a7 3c 09 b6 27 3e 9f 0b ac bd
       -0.091458224 0.020507546 0.16378035 -0.08400654
000040 aa 39 15 bd 0f 4e 31 3e 92 b1 f3 bc ab 59 b5 bd
       -0.036431946 0.17314933 -0.029747758 -0.088549934
000050 10 77 ce bc 28 2f 37 be 37 34 29 be 3d 7d 0c be
       -0.025203258 -0.17889082 -0.16523825 -0.1371965
000060 b4 ea e8 3d 34 90 9c 3c 75 cc c1 bd 6d 41 03 3d
       0.11372891 0.01911173 -0.09462825 0.032044817
000070 75 2f 12 be 52 4d 4d bd 8f 73 ce bc 62 1b 9f bd
       -0.14275916 -0.050122567 -0.025201587 -0.07768895
000080 d1 68 13 bd a7 2d 27 be aa bc 94 bd d7 96 d2 3d
       -0.035988633 -0.16326009 -0.07262547 0.10282677
000090 4b 66 f0 bd 46 f5 06 bd 3f 15 1b 3e 4c 49 58 bd
       -0.11738261 -0.032948755 0.15144823 -0.052804276
0000a0 c4 ee 28 bc f8 f8 a4 bd e9 a3 b0 bd 21 78 53 be
       -0.010310832 -0.080552995 -0.086250134 -0.20651294
0000b0 03 0a ff 3d b8 e7 f9 3d 3f fc d3 bd bd dc 8e bd
       0.124530815 0.122024 -0.103508465 -0.06975696
0000c0 a0 04 b6 3a ef 0d 6f 3d a2 f4 e0 bc ad 38 40 3e
       0.0013886876 0.058362897 -0.0274604 0.1877162
0000d0 48 b5 95 be 10 19 23 3e d9 bb 18 bd 4b c1 20 bc
       -0.2923987 0.1592753 -0.03728852 -0.00981171
0000e0 62 f9 8e 3e d0 bb 93 bd eb 0f 45 bd d3 6e 36 3e
       0.2792464 -0.07213557 -0.048110884 0.17815714
0000f0 dd 3d 5a bd 1f eb 79 bd 4d 28 77 bd 5a 95 e6 3d
       -0.053281654 -0.061015245 -0.06034117 0.11258955
000100 6f 12 88 bd 44 41 b3 bd cc 60 48 3e 78 c5 e3 3d
       -0.06644141 -0.08752683 0.19568175 0.111216486
000110 e4 65 c8 3c db 0d 63 3e cc 6f ac 3d ba 56 4a 3d
       0.024462648 0.22173254 0.08419761 0.049399115
000120 73 ee 20 be 8b 8a 4a bc e1 45 9d bd 5c 26 85 3d
       -0.15715961 -0.012362133 -0.07679344 0.06501457
000130 9a c6 d1 bb 48 09 78 3c 47 73 d6 3d 3c 51 ca bd
       -0.006401849 0.015138932 0.10471206 -0.098787755
000140 c6 6d 36 bc 52 3c 57 bd 6a 48 c7 3d 78 1b 38 bd
       -0.01113457 -0.05254776 0.09730609 -0.04494807
000150 40 dc ae bd 28 47 c1 bc 12 9e 81 bd c7 94 9a bd
       -0.08538103 -0.0235935 -0.06328978 -0.07547908
000160 da 6b 3a 3e 7b be 95 bd ca 50 06 bd f8 8d ac bd
       0.18205205 -0.07311722 -0.03279189 -0.08425516
000170 ec 63 38 3c 96 1b 15 be c9 66 07 bd 1a 3b a7 bd
       0.011254292 -0.14561304 -0.033057008 -0.081655696
000180 35 09 8d 3d c8 8c d6 bd 1f 1f c5 3d 10 c6 7b 3d
       0.06886522 -0.10476071 0.096250765 0.061468184
000190 36 08 b6 bd d0 7f 88 bd 3a fe fc 3d 34 cf 8d bd
       -0.08888285 -0.06665003 0.12353177 -0.069242865
0001a0 c6 2a eb bc fb 48 44 bd 2a 9a 81 bd dd ed 2c 3e
       -0.02870692 -0.047921162 -0.063282326 0.16887613
0001b0 11 cc f5 3d 8c ba 0f bd c1 4a 17 bd b6 cf 68 3e
       0.12001813 -0.035090014 -0.036936525 0.22735485
0001c0 45 58 d5 3d 39 c3 51 bd 3a fb 3c 3e e1 12 13 bd
       0.10417227 -0.05121157 0.1845521 -0.035906676
0001d0 d8 c6 0e 3e e6 ee 98 bd 6c ba 4f bd 91 52 35 3d
       0.1394304 -0.07467441 -0.050714895 0.044268195
0001e0 17 41 9f 3d 64 e5 cf bd 70 51 af bd e1 7e 01 3e
       0.07776087 -0.10151175 -0.08560455 0.12646057
0001f0 d0 cc b8 3d 5c cb a9 bd 26 5b 42 be 59 df 7b bd
       0.0902344 -0.08290741 -0.18980083 -0.061492298

fc4.weight f4 [2, 128]
000000 a5 97 b4 bc 8d f2 48 3c 2e 2f a7 bf db 50 16 be
       -0.022044966 0.01226486 -1.3061273 -0.14679281
000010 6f d2 4e 3f 80 1f c8 3e 07 e2 c2 3d 5a 58 0d bd
       0.80789846 0.39086533 0.095157675 -0.034508087
000020 72 8a 35 bf 1a 3c 75 3d 81 e0 7c bd e8 f2 9f bc
       -0.70914376 0.05987177 -0.06173754 -0.019525006
000030 18 20 1b be b2 45 2c bf e9 fa 38 3e e0 5e a5 3e
       -0.15148962 -0.67293847 0.18064465 0.32298946
000040 48 44 9d 3d bd d3 6e 3e 97 2c e6 bc 10 a4 86 bd
       0.07679039 0.23322959 -0.028097434 -0.06574261
000050 6a 44 29 be 60 43 a4 bf 76 15 88 3e 30 46 47 bd
       -0.16530004 -1.2833061 0.26578873 -0.04865092
000060 07 be 83 3f a6 0d 6f be 32 87 5d 3c 90 6c 4c 3f
       1.0292367 -0.2334505 0.013521003 0.79853153
000070 a7 22 c2 be df 25 5e bd 69 32 b7 be a1 80 3b 3e
       -0.37917063 -0.054235335 -0.35780647 0.18310787
000080 f3 5b c6 bb 35 f2 8c bc 00 83 c9 3a d7 11 18 3d
       -0.0060534417 -0.017205337 0.0015374124 0.03712639
000090 a5 9c ed bc c2 5e ce 3c 1c d9 2c 3e cb c0 61 3d
       -0.029005358 0.025191668 0.16879696 0.055115502
0000a0 68 0e ba be 04 e2 04 3d e0 4d f8 bb a2 3b c5 be
       -0.36339116 0.032442108 -0.007577643 -0.3852206
0000b0 d5 85 26 3d 9e 8e ae 3e 32 3e 94 bd 25 9c 0f 3b
       0.040654976 0.34093183 -0.07238425 0.0021913138
0000c0 c1 c2 80 3c d8 e3 1c 3c b4 9d d9 3c cf 03 b4 3e
       0.015717866 0.009575807 0.026564457 0.35159156
0000d0 50 85 7b 3e 5c 60 b9 3c 3e 10 04 bc 84 f3 d6 bd
       0.24562573 0.022628956 -0.008060513 -0.10495666
0000e0 2c 33 6a 3e 03 e6 41 3f 30 99 41 bc 53 c7 90 3d
       0.22871083 0.75741595 -0.011816308 0.07069268
0000f0 4c a5 77 bc 33 df 1f be 07 e8 ca bc b5 3c d8 3d
       -0.015115093 -0.15612487 -0.024768842 0.10558454
000100 f9 db b0 bd 3b 9c 98 bd 55 3e 6d 3c bc c6 49 3d
       -0.086357065 -0.074516736 0.014480193 0.049261793
000110 3d 1f d4 3d b7 58 13 bb 99 dd c9 3e 86 73 25 bf
       0.10357521 -0.0022483298 0.39426878 -0.646294
000120 b5 45 26 bd 1e 56 6a 3f ea 5d d9 be 3f a2 a1 3f
       -0.04059382 0.91537654 -0.42454463 1.2627639
000130 7d fe 24 3f 19 a8 01 bd 6d 4e 31 3f 9d 25 41 bd
       0.6445082 -0.03165445 0.69260293 -0.04715501
000140 41 69 9e bd ca 6b 28 3c 51 45 20 3f 87 5e a5 3c
       -0.07734919 0.010279605 0.6260577 0.020186676
000150 7d 0d 2c 3d e8 d5 d2 bc e4 82 8e bd 2c a0 47 bc
       0.04200505 -0.025736764 -0.06958559 -0.012184184
000160 c7 d2 c3 3c 28 36 4b bd f2 42 1e bf be a7 3e be
       0.023904217 -0.049612194 -0.618209 -0.18618676
000170 c1 04 d8 bd 3c 0a f9 be e3 77 9f 3f d9 b6 69 3d
       -0.10547782 -0.4864062 1.2458462 0.057059143
000180 bc 4f 25 3e 0f b0 97 3d 54 10 ab 3d a0 e9 4e bd
       0.16143698 0.074066274 0.08352724 -0.05051577
000190 a9 23 27 3d 65 6d c7 bc 78 12 6d 3f 42 4a c9 36
       0.040805493 -0.024344156 0.92606306 5.9989115e-06
0001a0 b6 6c 88 bd 83 3e c6 3e 02 98 75 3d da f4 6e 3e
       -0.0666136 0.38719568 0.05995942 0.23335591
0001b0 32 cc 56 3f 93 a0 6a bf a7 61 a5 3d dd b7 a8 bb
       0.8390533 -0.91651267 0.08075266 -0.0051488713
0001c0 57 44 59 3c 74 c0 f4 be 61 d6 3a 3d 69 9d 94 bc
       0.013260922 -0.4780308 0.045614604 -0.018141465
0001d0 72 93 32 3d 2c ee 88 3c 63 1f 7f bd d9 34 cb 3e
       0.043597646 0.016715132 -0.062285792 0.39688757
0001e0 97 b1 df be 66 0b 2d bd f8 1f 89 bd 97 ad 45 3f
       -0.43690178 -0.0422472 -0.06695551 0.77218
0001f0 6b 18 08 3f a8 61 80 bd 54 b8 ed be be db 87 bd
       0.5316226 -0.062686265 -0.46429694 -0.06633709
000200 ba 80 b5 be dd e8 07 3d 93 ee 18 be 5c df 06 be
       -0.35449773 0.03318106 -0.14934759 -0.13171142
000210 eb 92 0f 3e 39 4c 4a bf 23 56 12 bf a4 fa 49 3e
       0.14020889 -0.79022557 -0.57162684 0.19724518
000220 0a a2 2a be ce 58 a4 3c 06 b9 6f bf e2 46 d1 3e
       -0.16663375 0.020061877 -0.936417 0.40874392
000230 41 8a 3f bf 7f 89 6a 3c 6b 83 10 3f 96 24 58 be
       -0.74820334 0.014315008 0.5645053 -0.21107706
000240 61 b7 1e bc 85 3c 3a 3f 84 92 8e bd 0c 9d 96 3e
       -0.009687276 0.72748595 -0.069615394 0.29416692
000250 0f 0f 63 3e e1 10 50 be 5b 8b 06 be ea 1c 5d 3e
       0.22173713 -0.20318939 -0.13139097 0.21593061
000260 6a a1 d9 3d 96 69 fa bd 7a d5 5e bf ca 05 d8 3e
       0.106264904 -0.1222717 -0.8704449 0.42191917
000270 2d d1 81 be 92 53 83 bd a5 68 73 be 65 0b 30 bf
       -0.253549 -0.06412424 -0.23770387 -0.68767387
000280 b3 02 97 bd a6 e4 05 bf 95 be 86 3d 32 ae e8 be
       -0.07373562 -0.52302015 0.065793194 -0.454454
000290 88 d4 b9 be 1c eb d0 bc 50 9d 65 bf a8 d7 48 3f
       -0.3629496 -0.025502734 -0.89693165 0.78454065
0002a0 44 2f 0b 3e 21 37 0b bd 00 54 42 3c b7 cd f4 be
       0.13592249 -0.033988122 0.0118608475 -0.47813198
0002b0 91 ca 1a 3f 86 9a fe be 8a 82 d3 bd d5 60 06 bd
       0.6046534 -0.49727267 -0.10327633 -0.03280719
0002c0 d1 c0 22 3f 99 b1 2a 3f 9c c8 3d 3d cd 4a 1c 3e
       0.63575464 0.6667724 0.046333894 0.15262909
0002d0 0e ee 39 be 58 1a fd 3e b7 a4 62 3e 3f ac a6 3d
       -0.18157217 0.4943416 0.22133146 0.08138322
0002e0 ac ed b4 3d a2 9c 0e 3d d4 01 48 bc 9a eb 98 bf
       0.08834395 0.034817345 -0.012207467 -1.19469
0002f0 48 3f 25 3c 97 3f 34 3f 4e 0e 65 3d 73 4c 79 bf
       0.010085888 0.7040953 0.055921845 -0.9738228
000300 eb 41 a0 3d e6 c6 ad bd c3 39 b9 3e 9d bb 38 3f
       0.07825073 -0.084852025 0.3617688 0.72161275
000310 15 a3 f2 be 93 da d4 3e 55 bf 39 bf 61 cb 7d bd
       -0.47390047 0.4157301 -0.72557575 -0.061961535
000320 c5 e9 69 3e 5e 8f b9 be 50 e2 7d be 44 30 09 3f
       0.22843082 -0.36242193 -0.24793363 0.5358927
000330 b4 2d a2 3e 8f 53 27 3e a6 89 16 3f bd 56 26 bf
       0.31675494 0.16340469 0.58803785 -0.649761
000340 fe ef 90 3c 77 04 b1 3d 30 f2 7b 3c 96 10 f9 3c
       0.017692562 0.0864343 0.015377566 0.030403417
000350 d1 d4 9d 3d 18 cf 9c 3c 8c df 96 bc 2a 06 0c 3d
       0.07706607 0.019141719 -0.018417142 0.034185566
000360 13 c7 10 3f 95 86 ac 3d 73 99 65 be 6b 02 0b be
       0.56553763 0.08424107 -0.22421817 -0.13575141
000370 3e d6 e0 3e df 0c 59 be a6 16 86 3e 9b 8f 95 3c
       0.43913454 -0.21196316 0.26189154 0.018256953
000380 d6 3e fa 3e d1 85 24 bf c8 2b 43 bf 59 94 67 bf
       0.48876065 -0.6426669 -0.7623868 -0.90460736
000390 e0 2c 83 3b 32 0f bc bc a5 10 fe 3e d0 ca 03 3c
       0.0040031523 -0.022956464 0.49622074 0.00804396
0003a0 24 da 59 be 46 0d ce ba 05 bc 6e 3c 2f 47 1f be
       -0.2127462 -0.0015720509 0.014571195 -0.15554498
0003b0 22 e8 52 bf 86 b0 27 be 7f 1a 89 3c da 50 c1 3e
       -0.82385457 -0.16375932 0.016736267 0.37756997
0003c0 fa e2 17 3f 20 c5 c1 3e 1f 30 70 bf f5 83 f8 bb
       0.59330714 0.37845707 -0.93823427 -0.00758409
0003d0 a7 1d c9 be 47 5b 92 bd 1d c7 16 bd 16 e7 80 be
       -0.39280435 -0.07146316 -0.036810983 -0.25176305
0003e0 70 1d 0a 3f c4 be 5a bd 37 95 a5 bb b6 28 f5 3c
       0.5395117 -0.053404585 -0.005053188 0.029926639
0003f0 71 d5 0e 3e 5d a3 3e 3c 06 7d 60 be 29 79 1c bd
       0.13948609 0.0116356285 -0.21922693 -0.038201485

fc4.bias f4 [2]
000000 e3 2e d7 3c 3b 4e c2 3d
       0.026267475 0.094875775

bn1.weight f4 [256]
000000 f0 e0 c6 3e 85 17 30 3f 2c 81 60 3e 78 c2 b1 3e
       0.3884349 0.6878589 0.21924275 0.3471868
000010 a3 69 28 3f 6c c7 11 3f eb e3 fa 3e ee 99 b9 3e
       0.6578619 0.5694492 0.49002013 0.36250252
000020 81 47 2d 3f 88 ab a7 3d 51 3e 31 3f b7 a1 0b 3f
       0.6768723 0.08187014 0.6923571 0.5454363
000030 d2 c4 11 3f a5 91 15 3e 01 4b d1 3e 67 b9 b8 3e
       0.5694095 0.1460634 0.40877536 0.3607895
000040 0f d3 f5 3e ba 2e 1f 3f 60 b9 81 3f 98 3c 99 3e
       0.48012587 0.62180674 1.0134697 0.29929042
000050 c2 5d 90 3f 1d 03 18 3f 6c 0e 52 3f a5 b0 43 3e
       1.1278613 0.5937975 0.82053256 0.19110353
000060 83 9a ed 3e 6e 01 5b 3f 1f 62 d6 3e 53 ee da 3e
       0.46406946 0.85549057 0.41871735 0.42759952
000070 f1 0a 7a 3f ac 5a f7 3d 8e c7 65 3f c9 5e 61 3e
       0.97672945 0.12077841 0.8975762 0.22008814
000080 e8 b4 16 3f 0e ce 5e 3f be 58 df 3e ea 16 67 be
       0.5886979 0.87033165 0.43622392 -0.22567335
000090 0d 23 97 3e 73 09 69 3f c4 85 0c 3f 17 db 40 3f
       0.2951893 0.91030043 0.5489161 0.75334305
0000a0 31 76 7e 3f fe 5c cf 3e c0 c8 2f 3f f2 ab 28 3e
       0.99399096 0.40500635 0.68665695 0.16471842
0000b0 ec 82 c9 3e 73 2d 59 3e 61 3e ed 3e 26 0d 00 3f
       0.39357698 0.21208744 0.46336654 0.5002006
0000c0 d2 d5 d5 3e 22 0f a4 3f ef 40 e9 3e 33 c2 0c 3e
       0.41764694 1.2817118 0.45557353 0.13745956
0000d0 7a 1c 54 3f d2 98 82 3f 09 74 d1 3e 90 d7 f9 3e
       0.8285595 1.0202887 0.4090884 0.48797274
0000e0 f1 dc 7b 3e 5a e3 63 3f b2 f7 75 3e 63 a2 3f 3f
       0.24596001 0.89018786 0.2402027 0.7485716
0000f0 49 15 c6 3e a1 02 03 3f 38 20 4e 3f 2c bc 23 3f
       0.38688114 0.51175886 0.8051791 0.63959
000100 b0 77 71 3e d2 60 aa 3e 6b 60 02 3e e7 de 1a 3f
       0.23580813 0.33276993 0.12732093 0.6049637
000110 11 a8 78 3f af aa 96 3e 6e 6c aa 3e b4 c5 8e 3e
       0.9713145 0.29427096 0.3328585 0.2788521
000120 2e 1c 8c 3e f6 37 7a 3f 85 16 1d 3f 7a ec 29 3f
       0.2736525 0.9774164 0.6136249 0.6637646
000130 3a 26 5b 3f e2 57 b1 3e b1 f7 d2 3e 6b d7 19 3e
       0.85605204 0.34637362 0.412046 0.15023582
000140 f3 91 2a 3f cd 8e b3 3e 72 8c c2 3e 60 5e 40 3f
       0.6662895 0.35069886 0.37997776 0.75144005
000150 7f bf 37 3f de 40 e2 3e 17 d1 fd 3e c6 da d5 3e
       0.71776575 0.44190115 0.49573585 0.41768473
000160 4c ac 8a 3f e7 a5 88 3f 0f 9e 8a 3f 15 fb 09 3f
       1.0833831 1.0675629 1.0829486 0.53898746
000170 fc 41 74 3e dd 81 e6 3e 32 43 e3 3e 66 ef e8 3f
       0.23853296 0.45020953 0.44387203 1.8198059
000180 b0 8b 2c 3f 87 ff 2c 3f e7 01 ad 3e 92 33 e4 3e
       0.67400646 0.67577404 0.33790514 0.44570595
000190 72 98 fa 3e f2 55 85 3f 63 b4 66 3f c4 26 24 3f
       0.48944432 1.0416853 0.90119 0.6412165
0001a0 85 e8 a6 3e fc 92 78 3e 63 ac 82 3f 6a 6c e3 3e
       0.32599273 0.2427482 1.0208858 0.4441865
0001b0 d8 e0 ef 3e c2 0e 13 3f 65 1b 23 3f fb 6a 10 3f
       0.4685123 0.57444394 0.63713676 0.5641324
0001c0 d2 37 9e 3e 62 c8 31 3f 24 7e 81 3f fe 32 21 3f
       0.30901963 0.69446385 1.011662 0.6296843
0001d0 13 46 af 3e 6e ea 33 3e e5 8a 7d 3e d6 f4 c7 3e
       0.3423315 0.17569897 0.24760015 0.39053982
0001e0 d9 44 48 3f b9 d8 68 3e 66 9f d0 3e a4 55 ae 3e
       0.78230053 0.22738923 0.4074661 0.34049714
0001f0 dd 2e b2 3e 70 38 50 3f 45 68 62 3f 7a 32 8a 3f
       0.3480138 0.81336117 0.8844035 1.0796654
000200 e5 13 1b 3f f3 b1 a9 3f 4b 11 58 3f 7a bc 60 3f
       0.6057723 1.3257431 0.84401387 0.8778759
000210 7e 06 a9 3e e9 86 59 3f 0b 6a 9e 3e 6e 9b 23 3f
       0.33012766 0.8497148 0.3094028 0.6390904
000220 d8 f4 1d 3f b0 08 98 3d 2d af 48 3f d3 4b 2c 3c
       0.61701727 0.07423532 0.783923 0.010516125
000230 c8 6c 32 3f fb 88 34 3f 0e ef 7c 3e ab f5 d8 3e
       0.69697237 0.70521516 0.24700567 0.4237493
000240 6d a4 85 3f f7 82 75 3f 05 00 c8 3e 33 60 e3 3e
       1.0440804 0.9590296 0.39062515 0.44409332
000250 62 99 04 3f 91 1a 0c 3f a3 e3 ba 3e 73 f6 de 3e
       0.51796544 0.5472804 0.36501798 0.435474
000260 d1 f9 e7 3e 18 88 b5 3e 34 57 3d 3f f1 9a 22 3f
       0.45307782 0.35455394 0.73961186 0.6351767
000270 79 6e 61 3f 55 7f 38 3d a0 fe a2 3f 34 0d fa 3e
       0.8805919 0.04504331 1.2733955 0.48838198
000280 af f3 d1 3e 52 d0 49 3f d9 09 ee 3e 71 78 6d 3f
       0.41006228 0.78833497 0.46491888 0.92761904
000290 2c 3b 45 3f b6 81 6d 3f 0e 10 a9 3f 8b 38 60 3f
       0.77043414 0.9277605 1.3208025 0.8758628
0002a0 55 c9 24 3f 85 97 8a 3f 81 33 27 3e ef 6b 74 3e
       0.6436971 1.082749 0.16328241 0.23869298
0002b0 f2 54 2b 3e 0e ce b5 3e f4 56 11 3f b4 18 85 3f
       0.16731623 0.3550877 0.56773305 1.0398164
0002c0 8d 5a 20 3f 93 ff 13 3e a9 ef 3a 3e bb ce 3c 3f
       0.6263817 0.14452963 0.18255486 0.73752946
0002d0 b6 40 57 3f e6 9a 6f 3f 5e 80 7c 3f 26 c5 5d 3e
       0.84083116 0.9359573 0.9863337 0.21657237
0002e0 6d 7d 89 3e 59 1b 37 3f da e6 e9 3e ca d4 f3 3e
       0.26853505 0.71526104 0.45683938 0.47623283
0002f0 72 13 58 3f f3 9e 9b 3f 73 78 88 3f 88 9b a3 3e
       0.8440467 1.2157882 1.0661758 0.31954598
000300 d4 c0 d6 3e 55 7b 58 3f 24 2d 61 3f db 15 41 3e
       0.4194399 0.8456319 0.87959504 0.18855993
000310 43 51 0b 3f d2 99 6b 3f 7c b7 81 3e d5 7f 3d 3f
       0.5442087 0.92031586 0.253353 0.7402318
000320 87 5d b3 3e fb 22 f5 3e fe ed 38 3f 55 89 a9 3f
       0.35032293 0.4787825 0.7223815 1.3245035
000330 7f 4e d0 3e 48 c8 8f 3f 35 0a b8 3f 19 90 35 3f
       0.40684888 1.1232996 1.4378115 0.70923
000340 e6 1a 67 3f a5 e5 1e 3f b0 7e 77 3f 56 d3 3b 3f
       0.9027542 0.6206916 0.96677685 0.7336935
000350 f8 9b 21 3f a9 a8 33 3f 18 52 98 3f 9b ab 00 3f
       0.63128614 0.7017923 1.1900053 0.5026185
000360 fd 68 60 3f 88 d6 49 3f d5 2b b2 bc db 3e 70 3f
       0.876602 0.78842974 -0.021749416 0.9384591
000370 6e 76 35 3f 27 29 0b 3f 6e 9c 12 3e 9e 2f c3 3e
       0.70883834 0.5435967 0.14317486 0.38122267
000380 60 0d ad 3e 10 a0 73 3f 08 21 23 3f 02 19 dc 3e
       0.33799267 0.9516611 0.63722277 0.4298783
000390 11 fb 12 3f 3e f8 0d 3f 28 18 1a 3e cd 36 02 3f
       0.57414347 0.5545691 0.15048277 0.5086487
0003a0 0f 4b 20 3f 2f ea 55 3f 04 ce d4 3e 1d 44 7d 3e
       0.6261453 0.8356046 0.41563427 0.24733014
0003b0 c6 20 ae 3f 17 12 f6 3e 26 dc ca 3e 7b 30 36 3f
       1.3603752 0.48060676 0.39621085 0.71167725
0003c0 18 95 0f 3f b4 95 e1 3e cf a4 24 3f 11 7b 3b 3f
       0.56086874 0.44059527 0.6431398 0.7323466
0003d0 5b 68 85 3e 7f 31 ee 3e 13 f8 16 3f 0e e9 8b 3e
       0.2605618 0.46522138 0.5897228 0.27326244
0003e0 b7 b4 47 3f 76 16 6a 3f 37 2f 46 3f 1f eb ca 3e
       0.78010124 0.9144052 0.77415794 0.39632508
0003f0 5a bc 05 3f b7 16 fd 3e fd e2 45 3e 6d 22 2a 3f
       0.52240527 0.49431393 0.1932487 0.6645878
