pretrainedNetworks/actor_target1.pth (torch_old, 230166 bytes, 12 tensors)

fc1.weight f4 [256, 24]
0.067969754 -0.22954087 -0.018337717 -0.38034108 0.089341596 -0.11669519 0.017531183 -0.36518
0.13692817 -0.2697798 0.067005485 -0.018122846 0.21356547 -0.101805314 -0.037387416 -0.016423747
0.018699953 -0.32937065 -0.05462785 -0.1225421 0.1798377 -0.15610804 -0.094130255 -0.19905046
0.18647642 0.2877088 0.0010373595 0.07183195 -0.122740895 -0.18934736 -0.03602754 0.039923817
0.13813058 0.29971716 0.0033432478 0.015115053 -0.10968437 -0.3435982 0.01373904 -0.0046637505
0.23062116 0.22190374 0.04976122 -0.3382161 -0.15799204 -0.24622168 0.007931974 -0.29100445
-0.1007603 -0.38599116 -0.24787655 0.03220961 0.06459905 0.073579825 -0.13484196 0.036620848
-0.06329542 -0.3454764 -0.103412904 0.104911804 -0.056318246 -0.12134637 -0.017240793 0.049385283
-0.12940736 -0.21265857 0.016986197 0.005105596 -0.053648576 -0.4122905 0.018495299 -0.0018529454
0.26405773 0.18883443 -0.030492257 0.1390217 -0.17683303 0.23536308 -0.0117662465 0.06678363
0.32174122 0.33872825 -0.015895117 0.07268506 -0.13721408 0.012726427 -0.0064878697 0.06332018
0.18334973 0.20188408 -0.019743448 0.10368597 -0.33695254 0.1290224 -0.008027957 0.05816585
-0.11393181 0.091815546 -0.017293394 0.08768999 0.21750925 0.07941174 0.03263119 0.086722955
-0.100990124 0.1832189 -0.039092857 -0.023193702 0.05164688 -0.14725582 -0.027313164 -0.04021425
-0.1351169 0.17165236 -0.15280318 -0.024561139 -0.24925984 -0.4953799 -0.07642296 0.07017701
-0.02915491 0.012918626 0.007615767 -0.30844927 -0.006977987 -0.5610217 -0.036620054 -0.21478893
-0.02070887 -0.057395294 -0.07866974 -0.1083966 0.043221597 -0.397384 -0.06365342 -0.104334615
0.019182352 -0.2313005 0.027812412 0.1591664 0.14720187 0.17736353 0.071954966 0.118069425
-0.023821553 -0.007885383 0.02242377 -0.09955901 0.064393654 -0.25412202 -0.031746 -0.12830475
0.012329118 -0.062190946 -0.002944129 -0.093238875 0.06571342 -0.20630012 0.07526767 -0.18503231
-0.04864097 -0.08393181 0.024197383 0.0065749353 0.3194434 -0.72283477 0.10664612 -0.06527587
0.06933708 -0.08746496 0.11394539 0.20819154 0.06736692 0.36298844 0.17199662 0.14370328
0.005202293 -0.084826484 0.012296395 -0.01614702 -0.01022351 0.38946268 0.08056717 0.030199328
0.13357487 -0.02189662 0.09754542 -0.00291152 -0.06514554 0.05475698 0.14069158 0.021414464
0.07960763 0.22648229 -0.030984962 0.02435358 0.01814189 -0.5449687 0.017031863 0.064202175
0.100035526 0.1810052 0.029669827 -0.17349342 0.016719978 -0.6201517 -0.02242984 -0.16627815
0.15566029 0.107113995 0.042700555 -0.06702977 -0.04937481 -0.5099331 -0.06758385 -0.057727065
0.04658196 -0.33845344 0.0008995043 0.08131417 -0.35572913 -0.20584756 0.068335794 0.033803757
0.120529994 -0.33481488 -0.02640373 0.091468945 -0.22183537 0.16109973 0.058997035 0.046535075
0.14418106 -0.30567822 -0.035595655 -0.16547394 -0.18159895 0.42550594 -0.07840993 -0.1484134
0.034142155 0.37787864 0.010757094 0.16904901 -0.027875276 -0.21887477 -0.014635004 0.07309458
0.06145917 0.39873484 0.055347044 -0.056028895 -0.031572733 -0.45954382 0.005054863 -0.068497635
00000000: ba33 8b3d c30c 6bbe fb38 96bc 11bc c2be
00000010: baf8 b63d e3fd eebd 8e9d 8f3c dff8 babe
00000020: e636 0c3e 9420 8abe 2c3a 893d 5d76 94bc
00000030: e8b0 5a3e 4e7f d0bd 8c23 19bd 188b 86bc
00000040: a530 993c 45a3 a8be 74c1 5fbd 5af7 fabd
00000050: 6027 383e c9da 1fbe 5dc7 c0bd e2d3 4bbe
00000060: adf3 3e3e 914e 933e 02f8 873a a11c 933d
00000070: 945f fbbd 46e4 41be 9d91 13bd 2887 233d
00000080: 1a72 0d3e 8774 993e 641a 5b3b 21a5 773c
00000090: 33a2 e0bd 1aec afbe b619 613c 60d2 98bb
000000a0: f427 6c3e bc3a 633e 6cd2 4b3d a92a adbe
000000b0: aac8 21be 8921 7cbe 1cf5 013c 89fe 94be
000000c0: 6b5b cebd a2a0 c5be 5ad3 7dbe 39ee 033d
000000d0: 824c 843d 05b1 963d 0314 0abe beff 153d
000000e0: 07a1 81bd 48e2 b0be 25ca d3bd 00dc d63d
000000f0: f6ad 66bd 7284 f8bd 903c 8dbc 3948 4a3d
00000100: 5d83 04be 2bc3 59be a326 8b3c d84c a73b
00000110: 9cbe 5bbd be17 d3be 7483 973c 88de f2ba
00000120: 9332 873e d05d 413e e6ca f9bc b45b 0e3e
00000130: b813 35be 0503 713e 37c7 40bc dbc5 883d
00000140: 44bb a43e ca6d ad3e 7a36 82bc e8db 943d
00000150: d981 0cbe 8182 503c 3298 d4bb 03ae 813d
00000160: 08c0 3b3e b3ba 4e3e 03bd a1bc 4f59 d43d
00000170: 0b85 acbe 731e 043e b187 03bc 503f 6e3d
00000180: 1555 e9bd ca09 bc3d e0aa 8dbc cf96 b33d
00000190: bfba 5e3e 9fa2 a23d 48a8 053d ce9b b13d
000001a0: e9d3 cebd bc9d 3b3e d51f 20bd b800 bebc
000001b0: ae8b 533d 3bca 16be dbbf dfbc b3b7 24bd
000001c0: 165c 0abe a3c5 2f3e 7078 1cbe 7134 c9bc
000001d0: f93d 7fbe 6fa2 fdbe a483 9cbd f7b8 8f3d
000001e0: 47d6 eebc a5a8 533c af8d f93b 10ed 9dbe
000001f0: 99a7 e4bb 1e9f 0fbf e9fe 15bd a1f1 5bbe
00000200: a6a5 a9bc 5417 6bbd 9a1d a1bd 09ff ddbd
00000210: 2109 313d ea75 cbbe b95c 82bd 63ad d5bd
00000220: 4f24 9d3c 0ada 6cbe dbd6 e33c 84fc 223e
00000230: 16bc 163e c99e 353e 205d 933d 62ce f13d
00000240: 6b25 c3bc b231 01bc 0eb2 b73c 98e5 cbbd
00000250: d2e0 833d 481c 82be 1808 02bd 5262 03be
00000260: 1200 4a3c efbb 7ebd 4af2 40bb 06f4 bebd
00000270: c294 863d 5740 53be f025 9a3d 1c79 3dbe
00000280: c13b 47bd 71e4 abbd 9739 c63c 8e72 d73b
00000290: 168e a33e b30b 39bf 4869 da3d 5baf 85bd
000002a0: 9900 8e3d d420 b3bd 335c e93d 2a30 553e
000002b0: abf7 893d 9fd9 b93e e21f 303e f426 133e
000002c0: ff77 aa3b 82b9 adbd d276 493c c146 84bc
000002d0: 8280 27bc a767 c73e 6700 a53d 9564 f73c
000002e0: dac7 083e 8a60 b3bc e5c5 c73d 33cf 3ebb
000002f0: 066b 85bd db48 603d 7411 103e 636d af3c
00000300: 5309 a33d f9ea 673e 2dd4 fdbc 2981 c73c
00000310: 4d9e 943c 1283 0bbf 6886 8b3c 6e7c 833d
00000320: 6ddf cc3d 6d59 393e 230e f33c 42a8 31be
00000330: 56f8 883c 43c2 1ebf c9be b7bc d244 2abe
00000340: 6965 1f3e 955e db3d c7e6 2e3d e746 89bd
00000350: 3e3d 4abd fa8a 02bf 6769 8abd 3773 6cbd
00000360: bacc 3e3d c549 adbe b6cc 6b3a 0b88 a63d
00000370: 2122 b6be b4c9 52be a3f3 8b3d cf75 0a3d
00000380: 6ed8 f63d db6c abbe a34c d8bc 1254 bb3d
00000390: d028 63be 54f7 243e e0a6 713d 909b 3e3d
000003a0: 33a4 133e db81 9cbe c0cc 11bd 0072 29be
000003b0: 13f5 39be eadb d93e 6395 a0bd aff9 17be
000003c0: a5d8 0b3d 4f79 c13e 863e 303c 2f1b 2d3e
000003d0: b15a e4bc b520 60be a8c7 6fbc 9cb2 953d
000003e0: 9cbc 7b3d f926 cc3e 95b3 623d 8e7e 65bd
000003f0: 6952 01bd 5449 ebbe 44a3 a53b 7d48 8cbd

fc1.bias f4 [256]
-0.31508553 -0.16076614 0.05706372 -0.17307551 0.083375804 -0.21239527 -0.30043772 0.01978477
-0.20520277 -0.2293396 -0.34239906 0.0040588668 -0.18836513 -0.32696915 0.13829015 -0.07547546
-0.023949297 -0.06927896 -0.4117935 -0.2457177 -0.20651709 -0.10874907 -0.0097911665 -0.0295563
-0.21624288 0.006770696 0.011862066 -0.20711932 -0.11798902 0.013600542 -0.17584564 -0.054519355
0.015297594 -0.013472691 0.082674034 -0.1771295 -0.23276438 -0.23464535 0.18501574 -0.16697712
-0.17130329 -0.35642233 0.145386 -0.0059955814 -0.23402722 -0.4564134 -0.24421906 -0.0668307
0.01388452 -0.15394498 0.1386547 -0.35517123 -0.16451687 -0.019806903 -0.099662945 -0.258251
-0.32959983 -0.1967791 -0.14932229 -0.054673832 -0.3402614 -0.040843163 0.17760651 -0.31528607
-0.08164221 -0.20796145 -0.0798254 -0.1372263 -0.26139632 -0.0378121 -0.07266461 0.23441094
-0.09305428 0.032277558 -0.11244171 0.12319203 -0.3417541 -0.18713228 -0.11409472 0.1935739
-0.1269125 -0.41484067 -0.08732177 -0.5456569 0.10886942 0.10264946 -0.19801287 0.029628936
-0.30228478 -0.26169473 0.20207803 -0.35080233 0.024861813 -0.16084853 -0.18223833 0.03420493
-0.20558578 0.010006679 -0.30506974 -0.10849288 -0.19274125 0.114830844 -0.12760304 -0.034239013
0.013168718 -0.26854813 0.08716871 0.2648627 -0.028719522 -0.39517573 -0.20523949 -0.33362365
-0.3205782 -0.2767437 -0.38201743 -0.056571398 -0.28227925 -0.11375457 -0.34530997 -0.076649494
0.08379496 -0.008947201 0.109736554 -0.2154539 -0.040954508 0.29807845 -0.0997938 0.17167193
-0.012517781 0.1443264 0.015575113 -0.09309605 -0.14963545 -0.25197145 -0.27641904 -0.11426194
0.14712326 -0.22466685 -0.28027055 -0.14404178 -0.12932417 0.31946412 -0.06698851 0.19156386
-0.3235288 -0.029031191 -0.09915951 -0.07296547 -0.39811715 0.13877162 0.17571157 -0.27078426
-0.07725473 -0.23183852 0.0678505 -0.15909459 -0.40074885 0.18668887 -0.33617064 -0.21574509
-0.24156779 -0.3903305 0.056301836 0.05207455 0.17187138 0.16692129 -0.14836536 0.3262928
-0.25603735 -0.006371957 -0.34596524 0.020809462 -0.29792538 0.15634619 -0.05631929 -0.18324798
-0.06315707 -0.051714547 0.28140682 0.0859976 -0.07255016 -0.11096203 0.096058734 -0.20165853
-0.485503 -0.3851553 -0.30750108 0.14745623 0.0001858226 0.18673408 0.24732399 -0.1451703
-0.18442619 -0.1020609 0.09833784 -0.09024994 -0.29249078 -0.14301935 -0.04049165 -0.25609022
-0.085661106 -0.1790911 -0.17091647 -0.10484722 -0.12636365 -0.1328545 -0.34179103 -0.13488305
-0.348703 -0.2521239 0.04871756 -0.10802014 0.1060828 -0.17382163 0.10400556 -0.34152058
0.12952676 0.13312708 -0.19718142 0.27285245 -0.28294888 -0.16936605 0.11430617 -0.40439212
-0.10564221 -0.3226553 -0.39616475 0.031829327 -0.30751115 -0.1010352 0.081778 -0.08697123
-0.21440813 0.24625498 -0.18280874 -0.12563317 0.20405766 -0.2800909 -0.08634511 -0.17599913
-0.05727859 -0.36907834 -0.009494029 -0.10362401 0.07762659 -0.005885763 -0.100370914 0.193463
0.047975536 -0.06978782 0.11553222 -0.19120881 -0.20396814 -0.050610583 -0.09552984 -0.0470574
00000000: e452 a1be e19f 24be a6bb 693d b53a 31be
00000010: efc0 aa3d 257e 59be f9d2 99be ac13 a23c
00000020: ad20 52be 00d8 6abe ee4e afbe 3e00 853b
00000030: cae2 40be 8068 a7be ef9b 0d3e e192 9abd
00000040: 5131 c4bc 21e2 8dbd 99d6 d2be 6c9d 7bbe
00000050: 3779 53be d5b7 debd 216b 20bc 0e20 f2bc
00000060: c66e 5dbe b7dc dd3b 1c59 423c 1617 54be
00000070: 3aa4 f1bd cfd4 5e3c e110 34be b04f 5fbd
00000080: c2a2 7a3c 90bc 5cbc 0151 a93d 7061 35be
00000090: c959 6ebe df46 70be c474 3d3e 0dfc 2abe
000000a0: 216a 2fbe fd7c b6be 11e0 143e 9576 c4bb
000000b0: d5a4 6fbe 04af e9be 9014 7abe 89de 88bd
000000c0: e67b 633c c1a3 1dbe 7ffb 0d3e 01d9 b5be
000000d0: 1c77 28be 1642 a2bc 161c ccbd 7a39 84be
000000e0: 4fc1 a8be 7680 49be f1e7 18be abf1 5fbd
000000f0: be36 aebe 294b 27bd 7bde 353e 2d6d a1be
00000100: 0834 a7bd d9f3 54be 807b a3bd 0d85 0cbe
00000110: bdd5 85be dce0 1abd 2fd1 94bd 6c09 703e
00000120: 3e93 bebd 7935 043d d747 e6bd 1a4c fc3d
00000130: 65fa aebe 9b9f 3fbe 7eaa e9bd 3d38 463e
00000140: 5af5 01be ff65 d4be c2d5 b2bd 2cb0 0bbf
00000150: eef6 de3d e139 d23d e3c3 4abe 62b8 f23c
00000160: 12c5 9abe dafc 85be 8bed 4e3e 5d9c b3be
00000170: 00ab cb3c 7ab5 24be af9c 3abe 781a 0c3d
00000180: 1485 52be 0ef3 233c 1a32 9cbe 8431 debd
00000190: f65d 45be 6f2c eb3d 5faa 02be 353e 0cbd
000001a0: 9bc1 573c 247f 89be 8285 b23d 159c 873e
000001b0: 3445 ebbc 7954 cabe 4d2a 52be b8d0 aabe
000001c0: d322 a4be 5ab1 8dbe ca97 c3be 69b7 67bd
000001d0: e886 90be 28f8 e8bd 78cc b0be 69fa 9cbd
000001e0: b19c ab3d 4897 12bc 8fbd e03d f29f 5cbe
000001f0: eabf 27bd bd9d 983e b160 ccbd c4ca 2f3e
00000200: 6117 4dbc 4dca 133e c22e 7f3c 24a9 bebd
00000210: 093a 19be 6702 81be cc86 8dbe 2a02 eabd
00000220: 7ba7 163e 110f 66be 9f7f 8fbe b07f 13be
00000230: 8e6d 04be cd90 a33e 4631 89bd 5129 443e
00000240: 91a5 a5be d2d2 edbc 2414 cbbd ec6e 95bd
00000250: 03d6 cbbe 261a 0e3e bced 333e 3ca4 8abe
00000260: ba37 9ebd 1467 6dbe 34f5 8a3d b1e9 22be
00000270: f42e cdbe 5e2b 3f3e 8f1e acbe 48ec 5cbe
00000280: 8c5d 77be 66d9 c7be c19c 663d 204c 553d
00000290: 0dff 2f3e 6aed 2a3e 17ed 17be da0f a73e
000002a0: 5417 83be d9cb d0bb 5b22 b1be 9b78 aa3c
000002b0: ad89 98be 3719 203e 0eaf 66bd 5ca5 3bbe
000002c0: 7e58 81bd a2d2 53bd 8e14 903e 821f b03d
000002d0: 2e95 94bd 1040 e3bd 71ba c43d 937f 4ebe
000002e0: d993 f8be 1333 c5be c870 9dbe c4fe 163e
000002f0: 60d9 4239 3837 3f3e 8042 7d3e 86a7 14be
00000300: 38da 3cbe 4e05 d1bd 5965 c93d f6d4 b8bd
00000310: 5ac1 95be aa73 12be 93da 25bd 421e 83be
00000320: 176f afbd a863 37be ba04 2fbe 24ba d6bd
00000330: 7965 01be 030b 08be 3cff aebe c81e 0abe
00000340: 3389 b2be 6216 81be 108c 473d aa39 ddbd
00000350: f041 d93d 4cfe 31be de00 d53d c9db aebe
00000360: aaa2 043e 7752 083e ede9 49be 51b3 8b3e
00000370: adde 90be 4b6e 2dbe 5a19 ea3d 7c0c cfbe
00000380: f15a d8bd 1333 a5be 1bd6 cabe 785f 023d
00000390: 1a72 9dbe 8beb cebd 397b a73d f91d b2bd
000003a0: ce8d 5bbe 442a 7c3e 3732 3bbe fba5 00be
000003b0: 7ef4 503e 1368 8fbe b4d5 b0bd 1e39 34be
000003c0: f49c 6abd d6f7 bcbe d88c 1bbc d338 d4bd
000003d0: b1fa 9e3d 5cdd c0bb 448f cdbd 2a1b 463e
000003e0: ff81 443d ebec 8ebd 289c ec3d 3ecc 43be
000003f0: 06dd 50be 0b4d 4fbd 26a5 c3bd 43bf 40bd

fc2.weight f4 [128, 256]
-0.024172071 -0.17845081 -0.043109696 -0.0287798 0.033211466 -0.08118671 0.13623007 0.016163215
0.23557507 0.030784613 0.096513316 -0.29187033 0.08190729 0.0020709187 0.10061908 -0.020044526
0.011962908 0.13424411 -0.060388085 0.12807365 -0.12421523 -0.021367157 0.11354787 0.18573739
-0.029300991 -0.42158598 -0.032896023 -0.1893243 -0.124261715 -0.10901493 -0.058488656 -0.16771442
-0.15738772 -0.47769368 0.003089405 -0.10817253 -0.085195765 -0.022174958 -0.21880361 -0.04588032
-0.061728038 0.07662374 -0.1093578 0.069600046 0.103701025 -0.15078577 -0.060442403 0.33058032
-0.029625863 -0.070714615 -0.29699248 -0.19966668 0.11885602 -0.20301844 -0.1765255 -0.30425695
0.010166431 0.037251003 0.13225791 0.009609992 -0.30264917 -0.014201467 0.14059258 -0.009092808
-0.123573996 -0.0004965788 0.035980143 -0.083133645 -0.023882598 -0.13532034 0.1571885 -0.05065148
0.23714024 0.07117395 0.06832945 -0.10127146 -0.20696996 0.099637546 -0.23272236 0.007372787
-0.103360094 -0.15517785 -0.008540786 -0.054510873 0.16609181 -0.38459045 -0.07921173 0.055633295
-0.024515852 -0.042176783 0.012935605 -0.40462163 0.031130765 -0.15552336 -0.26785257 -0.04295671
-0.047906835 0.103694566 0.11458094 -0.121188715 0.0069728117 -0.21710612 -0.068327285 -0.097387925
-0.19215423 -0.057925668 -0.01774705 0.012592877 0.00875298 0.103294075 0.15120077 -0.015121296
-0.020097615 -0.19165802 -0.061385684 0.14850931 -0.022361273 -0.023503432 0.14455017 -0.18658327
-0.16613759 0.19441502 -0.0063544097 0.02496311 -0.1531805 0.05967239 -0.011567234 0.22536999
-0.04556376 -0.012342749 -0.03318096 -0.063199036 -0.0019149346 -0.24433996 -0.019523477 -0.24297963
0.053097177 0.13179742 -0.050292518 0.17024204 -0.14994109 -0.16317467 -0.10776277 -0.1582103
-0.35191494 -0.10411437 -0.053456455 0.13478066 -0.26707935 -0.070580296 0.07755078 0.095491245
0.006830638 -0.025309518 0.12282474 -0.03607714 0.021520328 -0.055597953 0.039635483 -0.10082277
0.08880899 -0.10139415 0.18547489 -0.1639992 -0.20653988 -0.045110572 -0.11776326 0.0039074467
-0.06797256 -0.11696538 0.039577477 -0.026627947 0.053484105 -0.25479928 -0.14007765 -0.27415168
-0.02690571 0.0018693904 -0.101037286 -0.20541489 -0.08864928 -0.1499258 -0.23330277 0.10820949
0.15827708 -0.009560554 -0.0219327 -0.030430874 -0.08529019 0.0012092774 -0.16099541 0.009340733
-0.023812925 -0.024167277 -0.09242429 -0.09945593 -0.05507519 -0.038580555 -0.086823106 -0.007704919
0.13082811 -0.012783557 0.04752154 -0.06952959 -0.07508426 -0.016953997 -0.27448118 0.22068807
-0.050234713 -0.09653519 -0.18097995 -0.2974495 0.11296824 -0.103304975 -0.05415941 -0.4228021
0.13413808 0.1166307 -0.03531603 -0.04701872 -0.03567852 -0.003169545 -0.071135335 -0.11562576
0.11576532 0.065970875 -0.057712886 -0.0076181483 -0.22426586 -0.10496873 -0.0018008434 -0.10315756
0.052009776 -0.030738408 -0.22527748 -0.025686637 -0.03500041 -0.010549491 0.06301895 0.013930128
0.097497426 -0.13835818 0.031131072 0.0016635349 0.18567464 0.061495908 -0.0921726 -0.041545574
0.03962558 -0.21545264 -0.050663564 0.2662437 -0.08010526 -0.07526514 0.021762982 -0.10776659
00000000: 8204 c6bc cfbb 36be cb93 30bd 9dc3 ebbc
00000010: bf08 083d 3845 a6bd e57f 0b3e b868 843c
00000020: 973a 713e 0330 fc3c c6a8 c53d 0770 95be
00000030: 02bf a73d 40b8 073b 6011 ce3d 6b34 a4bc
00000040: 1300 443c 4a77 093e 7f59 77bd bd25 033e
00000050: 8e64 febd 2d0a afbc c98b e83d f131 3e3e
00000060: a208 f0bc 1eda d7be fbbd 06bd 3bde 41be
00000070: ed7c febd 3843 dfbd cd91 6fbd 54bd 2bbe
00000080: 3f2a 21be 4494 f4be 9d77 4a3b 8f89 ddbd
00000090: 1e7b aebd 42a8 b5bc 0e0e 60be 01ed 3bbd
000000a0: 8ad6 7cbd e8ec 9c3d fbf6 dfbd 788a 8e3d
000000b0: 3461 d43d 9667 1abe 7492 77bd d341 a93e
000000c0: f0b1 f2bc d3d2 90bd 660f 98be 6c75 4cbe
000000d0: c96a f33d 11e4 4fbe 1ac3 34be 91c7 9bbe
000000e0: 1a91 263c 8294 183d 9e6e 073e 3a73 1d3c
000000f0: d5f4 9abe 45ad 68bc 80f7 0f3e 00fa 14bc
00000100: 5d14 fdbd d72c 02ba ea5f 133d f941 aabd
00000110: 70a5 c3bc 6a91 0abe 06f6 203e ed77 4fbd
00000120: e4d4 723e a6c3 913d 50f0 8b3d 6967 cfbd
00000130: efef 53be c50e cc3d c54e 6ebe 6c97 f13b
00000140: 75ae d3bd f1e6 1ebe a7ee 0bbc cb46 5fbd
00000150: f913 2a3e 0ae9 c4be c239 a2bd bddf 633d
00000160: 78d5 c8bc 90c1 2cbd dcef 533c 912a cfbe
00000170: f205 ff3c 8441 1fbe f923 89be 60f3 2fbd
00000180: f539 44bd d15d d43d 69a9 ea3d ca31 f8bd
00000190: 2f7c e43b 1151 5ebe 2def 8bbd 5273 c7bd
000001a0: 14c4 44be 7743 6dbd 4362 91bc 5b52 4e3c
000001b0: a968 0f3c d88b d33d 60d4 1a3e 50bf 77bc
000001c0: c1a3 a4bc 0042 44be 8e6f 7bbd d312 183e
000001d0: fd2e b7bc 458a c0bc f604 143e af0f 3fbe
000001e0: f91f 2abe bb14 473e a738 d0bb 707f cc3c
000001f0: 59db 1cbe 096b 743d 7f84 3dbc 64c7 663e
00000200: 11a1 3abd 3e39 4abc c2e8 07bd 7f6e 81bd
00000210: 8bfe faba 4134 7abe b3ef 9fbc a7cf 78be
00000220: 6d7c 593d e7f5 063e 87ff 4dbd ee53 2e3e
00000230: 288a 19be 4317 27be bab2 dcbd e201 22be
00000240: 322e b4be ea39 d5bd 28f5 5abd f103 0a3e
00000250: a0be 88be 678c 90bd f1d2 9e3d ea90 c33d
00000260: 8bd3 df3b e855 cfbc 8a8b fb3d a0c5 13bd
00000270: 664b b03c aeba 63bd d158 223d 2b7c cebd
00000280: 7de1 b53d bca7 cfbd 21ed 3d3e 68ef 27be
00000290: 317f 53be ddc5 38bd dd2d f1bd 0a0a 803b
000002a0: 3335 8bbd 8c8b efbd fe1b 223d da22 dabc
000002b0: 2612 5b3d 0d75 82be 8470 0fbe 9c5d 8cbe
000002c0: 5d69 dcbc 5506 f53a a3ec cebd 4858 52be
000002d0: c18d b5bd 2686 19be ece6 6ebe f09c dd3d
000002e0: 6313 223e dfa3 1cbc 35ac b3bc 2b4a f9bc
000002f0: a0ac aebd 9e80 9e3a fbdb 24be e009 193c
00000300: 5313 c3bc 74fa c5bc f248 bdbd 8daf cbbd
00000310: 8696 61bd a506 1ebd 50d0 b1bd 8c79 fcbb
00000320: cef7 053e 2072 51bc f2a5 423d 8865 8ebd
00000330: c7c5 99bd 1ce3 8abc cc88 8cbe 0efc 613e
00000340: eac2 4dbd 3eb4 c5bd cf52 39be 4d4b 98be
00000350: e55b e73d 8f91 d3bd 42d6 5dbd 8479 d8be
00000360: 7e5b 093e 14dc ee3d 8ba7 10bd b496 40bd
00000370: a423 12bd 24b8 4fbb 67af 91bd 33cd ecbd
00000380: 5e16 ed3d bd1b 873d 5964 6cbd a9a1 f9bb
00000390: f3a5 65be d8f9 d6bd 470a ecba 4544 d3bd
000003a0: 3408 553d 1dcf fbbc 24af 66be c86c d2bc
000003b0: 975c 0fbd c6d7 2cbc 1410 813d 313b 643c
000003c0: bbac c73d c4ad 0dbe 9706 ff3c f80a da3a
000003d0: 7e21 3e3e 22e3 7b3d fdc4 bcbd b12b 2abd
000003e0: 6f4e 223d 9e9f 5cbe 9984 4fbd 1851 883e
000003f0: 3a0e a4bd 9c24 9abd 4848 b23c bbb4 dcbd

fc2.bias f4 [128]
0.039959203 -0.2803996 0.026272114 -0.095475316 -0.031476133 -0.2017253 -0.17062442 -0.20840427
-0.15953997 -0.24042585 -0.018179435 -0.12716517 -0.14473583 -0.075159594 -0.11201224 -0.02927223
-0.0151106985 -0.15439734 0.037400126 -0.026446924 -0.10418577 -0.054514185 -0.116028346 -0.16583477
-0.081276804 0.06406733 -0.08113635 -0.026916208 -0.140355 -0.0852769 -0.09294175 -0.058741793
-0.15579726 -0.08453609 -2.3488644e-06 -0.04796287 -0.09476144 -0.06800568 -0.10488027 -0.032379285
-0.055362184 -0.041188892 -0.17592941 -0.09417429 -0.09991391 0.016713718 -0.09786455 0.011534051
-0.12910515 -0.027835032 -0.049095154 -0.076047674 0.02386398 0.06137709 -0.21649994 -0.2701356
-0.026441282 -0.020944925 -0.07398694 -0.030030712 -0.06980221 -0.1591852 -0.12536407 -0.21434346
-0.10406538 -0.066946745 -0.15943196 -0.21235742 -0.04510489 -0.22708799 -0.0691969 -0.14259884
-0.02664839 -0.03897848 -0.03197656 -0.047413766 -0.027131177 -0.13553505 -0.03720286 -0.20585434
-0.16862553 -0.010001408 0.057745963 -0.09091724 -0.0552916 0.01328979 0.021643223 -0.13402398
-0.14027296 -0.18443464 -0.35698402 -0.11487451 -0.16888432 -0.050415806 -0.07239754 -0.14461501
-0.3281257 -0.1884094 -0.002258512 -0.107544295 -0.18356577 -0.054507 -0.009781214 -0.2273448
-0.17875238 -0.1740884 -0.2987657 0.01724569 -0.039626032 -0.022920705 -0.073520765 -0.13562867
-0.021253336 -0.13775097 -0.044983324 -0.18808052 -0.037791986 -0.05654486 -0.1412003 -0.018683225
0.096261874 -0.066108 -0.15446112 -0.08822 -0.17109294 -0.10914837 -0.055345677 -0.17276104
00000000: 43ac 233d 8990 8fbe 9e38 d73c 9088 c3bd
00000010: 1eed 00bd 1491 4ebe 2bb8 2ebe ee67 55be
00000020: 725e 23be 3232 76be 0aed 94bc 9637 02be
00000030: a135 14be 46ed 99bd ac66 e5bd 51cc efbc
00000040: dd92 77bc 561a 1ebe e030 193d 38a7 d8bc
00000050: 595f d5bd 444a 5fbd 45a0 edbd 97d0 29be
00000060: 7474 a6bd bb35 833d d12a a6bd 617f dcbc
00000070: 39b9 0fbe a8a5 aebd 3f58 bebd 3c9b 70bd
00000080: 5189 1fbe 4221 adbd 2fa1 1db6 b774 44bd
00000090: 4912 c2bd 9046 8bbd 78cb d6bd 24a0 04bd
000000a0: 75c3 62bd afb5 28bd d726 34be 73de c0bd
000000b0: aa9f ccbd 35eb 883c 366d c8bd 51f9 3c3c
000000c0: 2434 04be 4b06 e4bc 0018 49bd e2be 9bbd
000000d0: 657e c33c 8b66 7b3d 29b2 5dbe 374f 8abe
000000e0: 639b d8bc b194 abbc 7786 97bd f802 f6bc
000000f0: 76f4 8ebd 7201 23be 705f 00be da7c 5bbe
00000100: 3b20 d5bd 601b 89bd 2242 23be 3974 59be
00000110: e8bf 38bd c189 68be 1bb7 8dbd 6e05 12be
00000120: b94d dabc e6a7 1fbd daf9 02bd f034 42bd
00000130: 3442 debc b3c9 0abe 0762 18bd 7bcb 52be
00000140: 2cac 2cbe f2dc 23bc 0887 6c3d d132 babd
00000150: 7279 62bd 6bbd 593c 214d b13c 953d 09be
00000160: b7a3 0fbe 6fdc 3cbe 9cc6 b6be 5443 ebbd
00000170: 03f0 2cbe ce80 4ebd 2945 94bd f515 14be
00000180: 1700 a8be 65ee 40be 8b03 14bb 2f40 dcbd
00000190: aaf8 3bbe bb42 5fbd 6341 20bc 13cd 68be
000001a0: dd0a 37be 3b44 32be d1f7 98be d546 8d3c
000001b0: e84e 22bd 34c4 bbbc 0e92 96bd 3ee2 0abe
000001c0: 7a1b aebc 970e 0dbe 6f40 38bd 2e98 40be
000001d0: c5cb 1abd 959b 67bd d096 10be 900d 99bc
000001e0: f224 c53d a263 87bd 0e2b 1ebe b0ac b4bd
000001f0: fd32 2fbe 2e89 dfbd 26b2 62bd 45e8 30be

fc3.weight f4 [128, 128]
0.06580846 -0.04062981 0.09589233 0.14108665 -0.086816 0.09311843 0.15856683 -0.1683767
0.26243442 0.15826567 0.0055930098 0.17585346 -0.0434766 -0.19143939 0.28511167 -0.016520634
-0.26923347 0.17235787 0.21893 -0.2493823 -0.17664531 0.3052613 0.13921982 0.3951847
-0.17143609 0.08796132 0.34694088 -0.22034937 0.12097372 -0.033613503 -0.10809915 -0.3430331
0.16419125 -0.3180723 0.009261979 -0.04592641 0.05144139 0.17932922 -0.016278358 -0.06455136
0.10243323 -0.07588547 -0.22356254 0.08299056 0.15643553 0.040617235 0.13235013 0.35685226
-0.12609921 -0.40836108 -0.113754176 0.09583597 0.2774322 -0.2867591 0.17601551 0.1423403
0.07720694 0.08179026 0.07458461 0.027268788 0.11437892 -0.5953257 0.013501202 -0.10189197
0.24163885 0.024673691 0.04753018 -0.07986108 0.01983402 0.2515717 -0.0846841 0.060305845
-0.0666977 -0.022065338 0.19780424 0.13309497 0.12123609 0.18918023 -0.3938097 0.143817
0.3286413 0.09910977 -0.11209671 -0.26621562 -0.10930336 0.09568403 -0.25485137 -0.14805752
-0.055996392 0.15625954 -0.16612613 0.32057434 -0.02105862 0.14530124 0.17222796 0.16998686
-0.20544799 0.06528353 -0.28354275 0.043864705 0.1986909 0.08657573 -0.27262795 -0.17096916
0.11195825 0.2616102 -0.026296632 -0.032909345 0.14256564 -0.21402629 -0.032697115 -0.274873
0.016864019 0.045569383 0.3853854 -0.0118518155 0.104118794 0.12341642 0.13249525 -0.20014037
-0.0003875105 -0.21808442 0.048477724 -0.022854215 0.20912898 -0.22064155 0.1311251 0.03258596
0.0008857282 -0.0009993803 -0.0014094003 0.002851863 -0.00586345 -0.0035119464 0.00020586133 -0.0010338397
-0.002241373 -0.0074411305 -0.0020313573 -0.00022489547 -0.0039281365 -0.0017170461 -0.0010243123 -0.00050719903
0.000359044 -0.002727064 -0.0028486033 -0.0014082361 -0.0024915526 0.00045904607 0.0016508834 -0.0018733214
-0.0052538915 0.0009364062 -0.0058345785 -0.0029652528 -0.0013504461 -0.0014375731 -0.0044119647 -0.004104159
-0.0036812164 -0.00026665628 0.0016962779 -0.0007357834 0.0004913246 -0.0037724872 -0.0012743232 -0.0024390488
-0.0029312593 -0.0038730714 -0.0016074253 -0.00028724398 -0.0011873016 -0.003877728 -0.0008780448 -0.003594835
-0.002734352 -0.0019601102 -0.005430845 -0.0006922436 -0.004151191 -0.002475446 -0.003257692 -0.0068008383
-0.005468564 -0.00024324568 -0.00110051 -0.0020143604 -0.00083964877 -0.005767988 -0.0067305225 -0.002478165
-0.0015148162 -0.0018134831 0.0008688479 -0.0025276095 -0.002895055 -0.0035310388 -0.003346169 -0.0028632719
0.0024406787 -0.002180243 -0.0019367685 -0.00083751115 0.0023395545 -0.0005196556 0.0018365365 -0.00015738828
-0.0028451108 -0.00030936743 -0.00040100608 -0.0036856402 -0.00044380012 -0.00091017585 0.00024170314 0.002104973
0.0028389576 -0.0006013841 -0.006095352 0.0016093017 -0.0061982647 -0.00102945 -0.0042261635 -0.0039802915
-0.0028648127 -0.004737466 -0.0015820464 -0.0021460773 0.0010396144 -0.0016300102 -0.0048040566 -0.0027964485
-0.0030176404 -0.0028318393 -0.003977963 -0.0062136315 -0.0029533785 -0.0023277544 -0.005206393 -0.0015468886
0.0010090427 -0.006127483 -0.00079795 -0.0029477905 -0.008604134 -0.001372729 -0.0020300532 -0.0017708327
0.0011226656 -0.0027852727 -0.003873537 -0.000896333 -0.0002015539 0.0010293466 -0.00031817262 -0.002049751
00000000: 96c6 863d 726b 26bd 3363 c43d 0579 103e
00000010: 96cc b1bd e0b4 be3d 585f 223e f16a 2cbe
00000020: ce5d 863e 6510 223e 9145 b73b ee12 343e
00000030: 8514 32bd b008 44be 28fa 913e 4856 87bc
00000040: f8d8 89be 957e 303e 302f 603e 135e 7fbe
00000050: 82e2 34be 364b 9c3e a48f 0e3e a655 ca3e
00000060: f18c 2fbe 1125 b43d 3ca2 b13e 44a3 61be
00000070: 12c1 f73d 50ae 09bd 1663 ddbd 09a2 afbe
00000080: c021 283e 5fda a2be 8ebf 173c 551d 3cbd
00000090: 35b4 523d 14a2 373e 315a 85bc 8133 84bd
000000a0: 83c8 d13d d769 9bbd 94ed 64be f4f6 a93d
000000b0: a330 203e 425e 263d cb86 073e 57b5 b63e
000000c0: 2720 01be b414 d1be f3f7 e8bd a645 c43d
000000d0: 980b 8e3e 17d2 92be 693d 343e a8c1 113e
000000e0: ac1e 9e3d a781 a73d d1bf 983d cb62 df3c
000000f0: 7f3f ea3d 4467 18bf 2534 5d3c bdac d0bd
00000100: 2d70 773e 7b20 ca3c 02af 423d 358e a3bd
00000110: f47a a23c 02ce 803e db6e adbd 4303 773d
00000120: ce98 88bd 5ec2 b4bc 328d 4a3e 0c4a 083e
00000130: a14a f83d 76b8 413e 6da1 c9be c344 133e
00000140: ac43 a83e 10fa ca3d f692 e5bd 6a4d 88be
00000150: 71da dfbd fdf5 c33d e17b 82be 649c 17be
00000160: 795c 65bd 8002 203e f81c 2abe 5222 a43e
00000170: 2183 acbc d9c9 143e 875c 303e 0911 2e3e
00000180: f560 52be 5fb3 853d 842c 91be 7aab 333d
00000190: a175 4b3e 9e4e b13d e495 8bbe 8a12 2fbe
000001a0: 5e4a e53d c6f1 853e 096c d7bc f3cb 06bd
000001b0: bafc 113e b529 5bbe 69ed 05bd 27bc 8cbe
000001c0: 6926 8a3c f6a6 3a3d 3c51 c53e 1e2e 42bc
000001d0: 3c3c d53d bfc1 fc3d d6ac 073e 99f1 4cbe
000001e0: c72a cbb9 8651 5fbe 9490 463d c338 bbbc
000001f0: e825 563e dcef 61be a945 063e db78 053d
00000200: 3730 683a a3fd 82ba a0bb b8ba 52e6 3a3b
00000210: 2f22 c0bb af28 66bb 7bdc 5739 e781 87ba
00000220: 00e4 12bb bad4 f3bb 8520 05bb ebd1 6bb9
00000230: 99b7 80bb 820e e1ba 3842 86ba 8df5 04ba
00000240: 123e bc39 8bb8 32bb a2af 3abb 9094 b8ba
00000250: 5149 23bb 1fac f039 7462 d83a 3c8a f5ba
00000260: d628 acbb 2879 753a fe2f bfbb b054 42bb
00000270: 7401 b1ba f36c bcba 3e92 90bb 2e7c 86bb
00000280: 9040 71bb 00ce 8bb9 a455 de3a 97e1 40ba
00000290: 3ccc 003a d53b 77bb 3107 a7ba 73d8 1fbb
000002a0: 5f1a 40bb 5bd3 7dbb 3eb0 d2ba 3c99 96b9
000002b0: 3b9f 9bba 7b21 7ebb 972c 66ba 5397 6bbb
000002c0: d032 33bb 3175 00bb 3bf5 b1bb ae77 35ba
000002d0: b706 88bb 183b 22bb 017f 55bb 91d9 debb
000002e0: a431 b3bb c40f 7fb9 fd3e 90ba 5c03 04bb
000002f0: e01b 5cba 6401 bdbb b78b dcbb b668 22bb
00000300: cc8c c6ba 65b2 edba 65c3 633a 40a6 25bb
00000310: f7ba 3dbb 0069 67bb 664b 5bbb bba5 3bbb
00000320: cbf3 1f3b 68e2 0ebb 2bdb fdba 6c8c 5bba
00000330: 3653 193b 7f39 08ba f0b7 f03a 9808 25b9
00000340: 0a75 3abb 9832 a2b9 203e d2b9 c88a 71bb
00000350: d8ad e8b9 de98 6eba b171 7d39 96f3 093b
00000360: ce0d 3a3b 34a6 1dba 85bb c7bb 34ef d23a
00000370: d01a cbbb 9cee 86ba a17b 8abb 1b6d 82bb
00000380: 95bf 3bbb bf3c 9bbb ab5c cfba 34a5 0cbb
00000390: ac43 883a 11a6 d5ba 596b 9dbb 9f44 37bb
000003a0: 9bc3 45bb 6196 39bb 9259 82bb b89b cbbb
000003b0: 788d 41bb 3d8d 18bb 649a aabb f8c0 caba
000003c0: db41 843a 0ec9 c8bb 852d 51ba b82f 41bb
000003d0: 5bf8 0cbc 24ed b3ba a40a 05bb 491b e8ba
000003e0: 6826 933a 1f89 36bb 2bdb 7dbb e4f7 6aba
000003f0: 3758 53b9 24eb 863a 68d0 a6b9 1e55 06bb

fc3.bias f4 [128]
-0.048399437 -0.08645393 0.019288957 -0.059682827 -0.14812191 0.10513298 0.103067525 0.022011634
-0.0062845675 0.03885206 -0.0052396934 0.18781309 -0.035401702 0.054076526 0.0944893 -0.017079746
0.009637389 0.13085733 -0.035139255 0.07373908 0.043328848 0.017453011 -0.09300307 0.034079023
0.16654004 -0.04277781 -0.027796978 -0.06496618 -0.08678933 -0.04432594 -0.031194113 0.017776318
-0.02927464 -0.14276816 -0.07268508 0.03607348 -0.17004932 0.06314887 0.03166983 0.06149835
0.2093549 -0.06731314 -0.086250134 -0.016182471 0.2092984 0.1640945 -0.006198019 -0.33192083
-0.03655861 0.08736548 -0.028285563 0.11746603 -0.008478937 0.22586532 0.09838209 0.08890001
0.03228586 -0.04307851 -0.07788565 0.056855477 -0.048725564 0.12614036 -0.058921814 0.062364366
-0.06702256 -0.092362314 0.23903161 0.18947993 -0.06524309 0.26152402 0.035978723 0.0675232
-0.015286688 0.08890391 -0.013699584 0.20137061 -0.08199842 0.22911756 0.15837963 0.045730688
-0.011164374 -0.054324746 0.078526475 -0.042440917 -0.21009757 -0.028415427 -0.0562731 -0.053815316
0.18040204 -0.07042007 0.032944918 0.023577183 0.11931975 -0.06816457 0.12691659 -0.081337355
0.13433033 -0.10100018 -0.025459534 0.09090162 -0.29932168 -0.06915346 0.14791332 -0.07339289
0.0069547547 -0.08512771 -0.063267425 0.10869687 0.0928818 0.03377443 0.11274594 0.124450184
0.21920054 -0.0767904 0.11844285 -0.035109453 0.007494893 -0.075263016 -0.06556223 0.08187289
0.11654229 -0.0888903 -0.084755175 0.16087501 0.1115776 -0.082192145 -0.026353227 -0.06330241
00000000: 7d3e 46bd c20e b1bd e003 9e3c fb75 74bd
00000010: 45ad 17be f64f d73d 1115 d33d be51 b43c
00000020: c6ee cdbb 5623 1f3d bcb1 abbb 1352 403e
00000030: 6001 11bd 597f 5d3d 9b83 c13d d3ea 8bbc
00000040: 24e6 1d3c 77ff 053e 2eee 0fbd 8404 973d
00000050: 9779 313d 9ef9 8e3c 6578 bebd 7296 0b3d
00000060: 7989 2a3e c937 2fbd 7db6 e3bc fd0c 85bd
00000070: 9bbe b1bd 1e8f 35bd cc8a ffbc a49f 913c
00000080: 5fd1 efbc d131 12be eadb 94bd c9c1 133d
00000090: 6921 2ebe 3254 813d 39b8 013d b2e5 7b3d
000000a0: 2261 563e 79db 89bd e9a3 b0bd 1a91 84bc
000000b0: 5252 563e 6308 283e c018 cbbb 87f1 a9be
000000c0: 7bbe 15bd acec b23d 20b7 e7bc 0892 f03d
000000d0: 3deb 0abc 3d49 673e 8d7c c93d 3511 b63d
000000e0: 2e3e 043d 1773 30bd 8382 9fbd 4ae1 683d
000000f0: 7594 47bd f02a 013e 0058 71bd c771 7f3d
00000100: 2043 89bd 7428 bdbd b4c4 743e 0707 423e
00000110: 2b9e 85bd 7ae6 853e 6d5e 133d 9a49 8a3d
00000120: 0475 7abc 4113 b63d 3874 60bc 1934 4e3e
00000130: caee a7bd cb9d 6a3e 452e 223e 1a50 3b3d
00000140: c7ea 36bc a083 5ebd 7dd2 a03d 87d6 2dbd
00000150: d123 57be 78c7 e8bc 9f7e 66bd 736d 5cbd
00000160: 50bb 383e 6638 90bd 40f1 063d f024 c13c
00000170: ea5d f43d de99 8bbd 6cf6 013e 3394 a6bd
00000180: e48d 093e 2fd9 cebd 8390 d0bc a12a ba3d
00000190: b140 99be 54a0 8dbd 9776 173e 034f 96bd
000001a0: b6e4 e33b 7057 aebd 5a92 81bd 779c de3d
000001b0: d038 be3d 0f57 0a3d 58e7 e63d bddf fe3d
000001c0: 1b76 603e 4944 9dbd 2a92 f23d eece 0fbd
000001d0: b897 f53b 7f23 9abd 7e45 86bd f9ac a73d
000001e0: b9ad ee3d 1e0c b6bd 1f94 adbd 6bbc 243e
000001f0: cc82 e43d 5b54 a8bd b9e2 d7bc b2a4 81bd

fc4.weight f4 [2, 128]
0.078309156 -0.08201332 -0.0624733 0.005160202 0.68068695 0.4786914 0.70270455 -0.09156914
-0.022584142 0.21679203 0.7021457 -0.10205106 0.070403755 -0.05255608 0.0976293 0.056951106
0.81365997 0.079626866 -0.022503836 -0.08109374 -0.03430543 -0.14339897 0.033120118 -0.08277564
0.07370907 -0.04195979 -0.1919607 0.07106827 -0.040943537 -0.058966517 -0.05695763 0.08627051
-0.04467612 0.013428603 0.0015050948 0.5897087 -0.029315136 0.5254307 0.113536164 -0.28008965
-0.8923714 0.034800246 -0.007577643 -0.07323087 -0.48506677 0.113996886 -0.2720329 0.20626456
-0.009072595 -0.26010698 0.023848683 0.14254656 -0.054429054 -0.027719365 -0.28342462 -0.052002385
0.69313717 0.39197582 0.0037848274 0.44287002 0.00941719 -0.2459972 -0.025208548 0.3224836
-0.08636806 -0.070174195 0.10956287 -0.3057893 0.6515047 0.040373717 0.43279424 -0.0727182
-0.87033635 0.51715505 -0.08496881 0.33370695 0.029038638 -0.4827848 0.0748125 0.010201824
-0.077378996 0.011065652 0.14857933 0.020037662 0.21679196 -0.022546677 -0.081768975 -0.030072238
0.028454231 -0.04961219 -0.07524173 0.54995304 -0.28770307 -0.053213634 0.3865539 0.057072796
-0.6297533 -0.012432745 0.68693715 0.44772255 0.26133332 -0.016966121 0.12193576 0.0513929
-0.23730695 0.051430155 0.05995942 0.8262511 0.64821386 -0.05521844 0.16745391 0.045801654
-0.19489855 0.08585613 0.058911253 -0.019154757 0.46563727 0.016528394 -0.05333008 0.6739339
-0.34048584 -0.057368346 -0.066769235 0.090074256 0.09158613 -0.063625045 -0.034454156 -0.56093854
-0.8273103 0.044212185 0.03777421 -0.068191215 0.36514035 -0.53709364 0.12371285 0.20849408
-0.30134645 0.34857357 -0.47220835 0.7732661 -0.40245444 0.08319997 0.23217267 -0.0464084
0.025894249 0.14246212 -0.07025615 0.18571143 0.10729686 0.043017644 -0.06764096 0.13739987
0.08663613 -0.1731587 -0.8245795 0.047492646 -0.13646542 -0.07584416 -0.13951151 -0.54768217
-0.06507793 -0.30733123 0.06579802 -0.3870341 -0.31680936 0.15066396 -0.5726315 0.295541
0.18986644 -0.036444463 0.0118608475 -0.15950574 0.17117862 -0.6158253 -0.18450949 -0.5358461
0.06652336 0.18471399 0.046218406 0.044786006 -0.070427515 0.5511349 0.2644814 0.10284269
0.1528743 0.08631277 -0.018048331 -0.48259136 0.02532392 0.2247301 0.055896837 -0.3692234
0.078325234 -0.08538103 0.51871896 0.16117309 -0.32346815 0.3477559 -0.5268427 0.04572641
0.14695932 -0.047233004 -0.17327538 0.24835427 0.06084781 0.27327597 0.124409795 -0.95256376
0.01760129 0.08329483 0.1056792 0.02961737 0.23542814 0.019158483 -0.013572804 0.049921148
0.34678176 0.084591255 -0.12793155 0.17318757 0.34410357 -0.24528156 0.29906 0.018256953
0.0754759 -0.27771398 -0.31095484 -0.4388528 -0.5691368 -0.03487522 0.089404196 -0.001965098
-0.18623863 -0.04713484 0.014513452 -0.14523734 -0.068765916 0.06274946 0.79454684 0.6829184
0.34919798 0.035634723 -0.5690361 -0.011704547 -0.32743397 -0.071649425 -0.013771178 -0.064884916
0.33956558 -0.06156362 -0.009500466 0.0881363 0.07628394 0.010875659 -0.27883312 -0.06519849
00000000: 8d60 a03d 99f6 a7bd 01e4 7fbd e916 a93b
00000010: 8041 2e3f 0a17 f53e 72e4 333f 9a88 bbbd
00000020: 6102 b9bc bbfe 5d3e d2bf 333f 2500 d1bd
00000030: d82f 903d 0b45 57bd dff1 c73d 9045 693d
00000040: 054c 503f 6913 a33d f759 b8bc 7a14 a6bd
00000050: da83 0cbd 2ed7 12be f6a8 073d 4686 a9bd
00000060: c8f4 963d 07de 2bbd 5991 44be 3e8c 913d
00000070: 69b4 27bd e086 71bd 674c 69bd 98ae b03d
00000080: 4ffe 36bd a503 5c3c 9a46 c53a 26f7 163f
00000090: 4c26 f0bc a082 063f a685 e83d e967 8fbe
000000a0: 7472 64bf b48a 0e3d e04d f8bb 11fa 95bd
000000b0: ac5a f8be 3377 e93d e547 8bbe 0437 533e
000000c0: 39a5 14bc be2c 85be 505e c33c baf7 113e
000000d0: 00f1 5ebd b913 e3bc 081d 91be 7400 55bd
000000e0: 7071 313f 0eb1 c83e de0a 783b dcbf e23e
000000f0: 8f4a 1a3c b1e6 7bbe 2882 cebc 921c a53e
00000100: bde1 b0bd 7db7 8fbd 7f62 e03d 6a90 9cbe
00000110: 03c9 263f e95e 253d 3597 dd3e 48ed 94bd
00000120: 5dce 5ebf 4664 043f 2104 aebd a3db aa3e
00000130: 70e2 ed3c 922f f7be 4c37 993d 8d25 273c
00000140: e178 9ebd b54c 353c 2e25 183e 0626 a43c
00000150: b6fe 5d3e cfb3 b8bc 7e76 a7bd 0e5a f6bc
00000160: d918 e93c 2736 4bbd 5618 9abd b9c9 0c3f
00000170: d14d 93be 8af6 59bd 65ea c53e 2ac5 693d
00000180: 8337 21bf b6b2 4bbc 1ddb 2f3f e43b e53e
00000190: 7bcd 853e 89fc 8abc 75b9 f93d 5d81 523d
000001a0: 9800 73be 6da8 523d 0298 753d 3185 533f
000001b0: 58f1 253f bb2c 62bd 0a79 2b3e 849a 3b3d
000001c0: 7c93 47be 57d5 af3d ed4c 713d 70ea 9cbc
000001d0: 0268 ee3e 8e66 873c a470 5abd ef86 2c3f
000001e0: 2954 aebe 12fb 6abd 4fbe 88bd da78 b83d
000001f0: 8291 bb3d d94d 82bd cd1f 0dbd ab99 0fbf
00000200: 9cca 53bf d617 353d 21b9 1a3d d6a7 8bbd
00000210: adf3 ba3e f87e 09bf 2a5d fd3d 797f 553e
00000220: 154a 9abe 3c78 b23e 4bc5 f1be c4f4 453f
00000230: 820e cebe bf64 aa3d acbe 6d3e bc16 3ebd
00000240: 2d20 d43c 97e1 113e 75e2 8fbd 232b 3e3e
00000250: 75be db3d 4533 303d 5887 8abd 8db2 0c3e
00000260: 496e b13d 8450 31be a417 53bf a687 423d
00000270: 97bd 0bbe 2f54 9bbd 1bdc 0ebe e634 0cbf
00000280: 9447 85bd 855a 9dbe 1dc1 863d 5529 c6be
00000290: d634 a2be a747 1a3e fa97 12bf 2651 973e
000002a0: 596c 423e ca46 15bd 0054 423c 7955 23be
000002b0: 7349 2f3e baa6 1dbf 0ef0 3cbe 362d 09bf
000002c0: 663d 883d aa25 3d3e 834f 3d3d 8871 373d
000002d0: 4d3c 90bd 2d17 0d3f 1b6a 873e 309f d23d
000002e0: 158b 1c3e c0c4 b03d 18da 93bc 3716 f7be
000002f0: 1c74 cf3c a61f 663e 15f4 643d d90a bdbe
00000300: fb68 a03d 40dc aebd c4ca 043f 8f0a 253e
00000310: 9e9d a5be 100d b23e 2adf 06bf 9e4b 3b3d
00000320: 817c 163e 6577 41bd 1a6f 31be 9550 7e3e
00000330: 8e3b 793d d4ea 8b3e 90ca fe3d 38db 73bf
00000340: 9530 903c 7b96 aa3d 566e d83d 20a0 f23c
00000350: 1314 713e 40f2 9c3c 7760 5ebc 1e7a 4c3d
00000360: 618d b13e 2e3e ad3d 7d00 03be 1558 313e
00000370: 582e b03e 172b 7bbe 641e 993e 9b8f 953c
00000380: 1c93 9a3d 8730 8ebe 7935 9fbe 50b1 e0be
00000390: f3b2 11bf 52d9 0ebd 8c19 b73d e0c8 00bb
000003a0: 57b5 3ebe 7610 41bd d4c9 6d3c 19b9 14be
000003b0: 25d5 8cbd ca82 803d 6c67 4b3f bed3 2e3f
000003c0: 14ca b23e b7f5 113d 5aac 11bf 6ec4 3fbc
000003d0: 6da5 a7be efbc 92bd 82a0 61bc 62e2 84bd
000003e0: 8adb ad3e 222a 7cbd d8a7 1bbc ce80 b43d
000003f0: c13a 9c3d d22f 323c 37c3 8ebe c986 85bd

fc4.bias f4 [2]
-0.025709828 0.089177705
00000000: 6b9d d2bc cda2 b63d

bn1.weight f4 [256]
0.20904359 1.0361 0.10913637 0.59776276 0.62096804 0.52447605 0.49793348 0.056365993
0.5337437 0.29243475 0.5634735 0.65293324 0.8575837 0.16942422 0.8383773 0.46430203
0.41306034 0.76583236 0.9982407 0.55350256 1.0435724 0.12774539 0.8050497 0.3258739
0.3536759 0.9039597 0.2557125 0.25937286 0.78236663 0.12461533 0.89528483 -0.013124635
1.0961602 0.96091527 0.73231196 0.23723796 0.16043061 0.8215938 0.37291616 1.0174047
0.79839903 0.16403408 0.5853056 0.24492212 0.7354774 0.37333027 0.21294446 0.986051
0.40887272 0.55056787 0.41098514 0.12583458 0.7787149 0.80069363 0.7331932 0.19548014
0.7227895 0.653149 0.35254943 0.3870332 0.4259282 0.6980035 0.638025 0.5532966
0.32602924 0.6088947 0.26505536 0.5081114 0.8812045 0.2531595 0.3759206 0.873761
-0.17816544 0.98813534 0.9748843 0.36039516 0.81233466 0.33334258 0.57789195 0.23615675
0.41984126 0.8457203 0.52900183 0.70364267 0.562109 0.677366 0.6074341 0.8438333
0.8948819 0.9144671 0.66265595 0.7277571 0.15623683 0.53477556 0.5819014 0.92386127
0.8574414 0.6669669 0.34735236 0.4268789 0.36903504 0.7560935 0.79772353 0.59917235
0.32658836 0.3526409 0.73286366 0.4258297 0.26868704 0.39734137 0.7116964 0.67848194
0.47691602 0.80330443 0.80173975 0.32264292 0.17228583 0.3318934 0.21904366 0.5259661
0.7927243 0.31747812 0.019516068 0.31409952 1.0111778 0.8324324 0.9305939 0.63622004
0.3381856 0.6922507 0.54916245 0.52756697 0.3707148 0.45866817 0.78807676 0.60789764
0.49724963 0.31983596 0.7153048 0.21152802 0.39228994 0.629144 0.045057837 0.275091
0.52003103 0.9707354 0.34357074 0.17653245 0.55831885 0.61267346 0.29496738 0.33756438
0.20127447 0.41456282 0.98633426 0.44640097 0.85682327 0.35548136 0.73349255 0.46084386
0.31172043 1.2606592 0.49398428 1.0234026 0.8423326 0.9602892 1.1496878 0.7233664
0.6259017 0.70484835 0.35040385 0.32380956 0.33871672 0.98345125 0.84382045 0.84607416
0.47536886 0.4085906 0.23978661 0.8376053 0.20531072 0.65799534 0.6257405 0.4073016
-0.1620343 0.65497404 0.5353468 0.6403997 0.6186191 1.3117279 0.40837684 0.40349844
0.21915925 0.8213895 0.9538779 0.19206908 0.36798865 0.9288885 0.42529145 0.4215754
0.45562032 0.2184392 1.129914 0.7517498 0.8374536 0.3732269 0.8145108 1.314633
0.9891654 0.87239444 0.798307 0.5376067 0.8519753 0.6098176 0.9242386 0.54740286
0.9553281 0.38713533 0.062318176 0.633855 0.8838259 0.6074061 0.57418346 0.28674713
0.30078006 1.1606472 -0.31037378 0.20396131 0.51855266 0.47299808 -0.05786806 1.2026614
0.8332538 0.6279829 0.07522435 0.27072257 0.9088728 0.19583763 0.20830971 0.8139538
0.21031815 0.08447286 0.73210096 1.093805 0.69655114 0.7116461 0.4625508 -0.005611576
0.5776996 0.59900314 0.7951655 0.50287426 0.82880604 0.4723878 0.31401026 0.725757
00000000: 860f 563e ed9e 843f e482 df3d fb06 193f
00000010: c3f7 1e3f 1044 063f 23f1 fe3e 07e0 663d
00000020: 6da3 083f 02ba 953e cd3f 103f a226 273f
00000030: 9b8a 5b3f 8b7d 2d3e e59f 563f ffb8 ed3e
00000040: a57c d33e 970d 443f b48c 7f3f 58b2 0d3f
00000050: c893 853f b0cf 023e bd17 4e3f f2d8 a63e
00000060: 0215 b53e e769 673f c0ec 823e 85cc 843e
00000070: 2e49 483f 5236 ff3d 6331 653f b608 57bc
00000080: fa4e 8c3f 8bfe 753f cc78 3b3f 82ee 723e
00000090: ec47 243e f953 523f deee be3e 513a 823f
000000a0: e163 4c3f 8df8 273e 96d6 153f ddcc 7a3e
000000b0: 3f48 3c3f 2525 bf3e 1d0e 5a3e d76d 7c3f
000000c0: c457 d13e 04f2 0c3f a56c d23e c8da 003e
000000d0: dc59 473f 42fa 4c3f 8db2 3b3f f22b 483e
000000e0: bc08 393f c634 273f 5c81 b43e 3729 c63e
000000f0: 4313 da3e 5bb0 323f 9b55 233f d9a4 0d3f
00000100: 4eed a63e 86e0 1b3f 56b5 873e 9713 023f
00000110: 9e96 613f 1f9e 813e aa78 c03e cdae 5f3f
00000120: 0071 36be 70f6 7c3f 0492 793f b785 b83e
00000130: 2af5 4f3f e1ab aa3e baf0 133f 13d3 713e
00000140: 6ff5 d63e 2081 583f aa6c 073f ed21 343f
00000150: 60e6 0f3f dc67 2d3f cd80 1b3f 7605 583f
00000160: fb16 653f 841a 6a3f d2a3 293f 4a4e 3a3f
00000170: 8cfc 1f3e 0de7 083f 7df7 143f 2c82 6c3f
00000180: 4881 5b3f 58be 2a3f 2bd8 b13e df8f da3e
00000190: 29f2 bc3e 588f 413f 9c37 4c3f 5c63 193f
000001a0: 9736 a73e 598d b43e f49c 3b3f 5a06 da3e
000001b0: 5991 893e 5470 cb3e bc31 363f feb0 2d3f
000001c0: 562e f43e 5ca5 4d3f d13e 4d3f 7431 a53e
000001d0: b26b 303e efed a93e fb4c 603e b7a5 063f
000001e0: fbef 4a3f 7e8c a23e 29e0 9f3c a7d1 a03e
000001f0: 466e 813f 4a1a 553f 673b 6e3f 51df 223f
00000200: aa26 ad3e 5837 313f e995 0c3f a10e 073f
00000210: 55ce bd3e 8ed6 ea3e 66bf 493f 2e9f 1b3f
00000220: 8197 fe3e 8ac1 a33e 371e 373f cd9a 583e
00000230: 3ada c83e 950f 213f 918e 383d bad8 8c3e
00000240: c120 053f 1d82 783f 81e8 af3e ecc4 343e
00000250: fced 0e3f 2bd8 1c3f f705 973e 3dd5 ac3e
00000260: e51a 4e3e 9441 d43e 6780 7c3f ab8e e43e
00000270: c558 5b3f a701 b63e 2bc6 3b3f baf3 eb3e
00000280: d299 9f3e 485d a13f 82eb fc3e dbfe 823f
00000290: 1ca3 573f 83d5 753f f828 933f 8a2e 393f
000002a0: 183b 203f f170 343f 2268 b33e 5eca a53e
000002b0: 476c ad3e 76c3 7b3f 9e04 583f 5198 583f
000002c0: 8c63 f33e ca32 d13e 9f8a 753e 4d6d 563f
000002d0: f93c 523e 6272 283f 8830 203f d689 d03e
000002e0: 52ec 25be 61ac 273f 7d0c 093f 3cf1 233f
000002f0: d25d 1e3f b3e6 a73f c516 d13e 5997 ce3e
00000300: 486b 603e 9546 523f 5831 743f c2ad 443e
00000310: 0269 bc3e a3cb 6d3f cdbf d93e bbd8 d73e
00000320: 1147 e93e 87ae 5f3e 06a1 903f ad72 403f
00000330: 5c63 563f 9917 bf3e c883 503f e545 a83f
00000340: f239 7d3f 3e55 5f3f d95d 4c3f 98a0 093f
00000350: 0e1b 5a3f 021d 1c3f e79a 6c3f 9822 0c3f
00000360: 6290 743f 9a36 c63e 5841 7f3d 5244 223f
00000370: 6a42 623f f77e 1b3f b0fd 123f 85d0 923e
00000380: d8ff 993e 1690 943f 50e9 9ebe 3cdb 503e
00000390: debf 043f ce2c f23e 0f07 6dbd cff0 993f
000003a0: 1f50 553f 7dc3 203f 390f 9a3d 269c 8a3e
000003b0: e3ab 683f a989 483e 244f 553e 475f 503f
000003c0: a45d 573e 1b00 ad3d f86a 3b3f cd01 8c3f
000003d0: 2d51 323f 702e 363f 75d3 ec3e 50e1 b7bb
000003e0: 1fe4 133f 4558 193f f78f 4b3f 5ebc 003f
000003f0: a22c 543f d0dc f13e f4c5 a03e 36cb 393f

bn1.bias f4 [256]
-0.0011498802 0.14222498 0.046605464 0.14255512 0.030000953 0.0301562 -0.054272767 0.049749695
0.0103988275 0.0304267 -0.13447997 0.021812927 0.024047168 0.30418065 -0.09809636 -0.1588947
-0.16659835 -0.00034300474 -0.1279433 -0.08084161 0.0061923563 0.2910866 0.051677063 0.16382878
0.12312046 0.11795021 -0.14502594 0.26942688 -0.04005248 -0.082791336 0.20146784 -0.004411021
0.1468499 0.04257279 0.08023696 -0.17697272 -0.10555487 -0.013988993 -0.023275727 -0.0020731753
-0.109535255 -0.06348711 -0.03211195 0.22710097 -0.12795593 -0.26097518 -0.052585125 0.08534016
0.22584373 0.21735372 0.049275365 0.16931067 -0.07657614 -0.12452455 0.09548436 0.12842363
-0.09196445 0.10488379 0.034257997 0.058286052 0.057466596 0.08924865 -0.060868084 0.10780996
0.04208104 0.27983937 -0.0525578 -0.03176196 0.32621774 -0.15927185 -0.1206281 0.037923492
-0.07786795 0.06595667 -0.09538851 -0.18825833 -0.094542794 -0.09251116 -0.0065698847 -0.3275589
0.22474311 -0.030707356 -0.08810412 -0.0034191785 -0.047327492 0.16549256 0.162103 0.1185752
-0.03400128 0.05283926 0.06875692 0.31661186 0.28915808 0.19683595 -0.011297992 0.07681276
-0.071724385 0.054683816 0.04247205 0.055209763 0.026282158 -0.12846442 0.03255899 -0.066812456
0.17144841 0.2021039 0.149324 0.14799875 0.26764253 0.17214662 0.0045567774 0.01894667
-0.07617024 0.085873105 -0.112163745 -0.02412516 0.25053692 -0.079743505 0.09232467 -0.09161233
0.30648515 -0.11800764 0.009702993 -0.07328715 -0.049659442 0.1602931 0.042767316 -0.075207986
-0.041844826 0.08959671 0.24742572 0.06795373 -0.13690934 0.0023260836 0.12480036 0.027947053
-0.0081097 -0.13724238 -0.04149398 -0.026903475 0.020222465 0.078498974 0.052917495 -0.27007425
0.096765116 -0.025352528 -0.0061194794 -0.24210593 0.32890835 0.003492689 -0.111706786 -0.06422609
0.063962266 -0.0058893855 0.14109528 0.19679078 -0.08713613 -0.12220155 0.055273827 0.14116585
-0.08553986 -0.103273846 0.07835104 0.10168808 0.007051777 0.010872036 0.14033796 0.19004247
0.12373537 -0.029977761 0.06463625 0.24202439 -0.061526082 0.12906702 0.06944467 0.142918
0.0372021 -0.12619111 0.030475304 0.055148214 0.23322438 0.08023746 0.038427085 0.19869664
0.19508724 0.12802106 0.084716864 0.026967213 -0.046720717 -0.050086826 0.090772025 -0.13457207
0.07444812 -0.016295746 0.3074464 0.23336503 -0.077988185 -0.09965004 -0.037061855 0.12489174
0.014821602 0.07695305 0.20488606 0.21300492 0.067729115 0.2520726 0.17296469 -0.008139689
0.31929708 0.16694865 0.1322869 0.017807573 -0.042444702 0.14547364 0.15947084 0.07324611
-0.27659014 -0.018835953 0.07887328 -0.066018745 0.015563004 0.18032664 0.17731 0.17593277
0.10822582 -0.025538178 -0.23643114 0.15292536 0.19061194 0.10899892 -0.25684232 0.119399704
0.0013853057 0.012016607 -0.11854918 0.26682442 -0.11111604 -0.1503098 0.027705187 0.02624427
0.027813824 0.21944317 -0.03881095 -0.059374973 0.25541714 -0.09670443 -0.05472964 -0.0037838363
0.07526436 0.014499151 0.034348257 0.004282307 -0.0018214146 -0.18134515 0.28512457 0.0017649116
00000000: 94b7 96ba 6da3 113e 5fe5 3e3d f8f9 113e
00000010: 8fc4 f53c 230a f73c 1f4d 5ebd 56c6 4b3d
00000020: d85f 2a3c 6a41 f93c 1eb5 09be 06b1 b23c
00000030: 91fe c43c 91bd 9b3e bfe6 c8bd 4bb5 22be
00000040: c298 2abe 51d5 b3b9 9203 03be 4990 a5bd
00000050: 40e9 ca3b 4e09 953e 54ab 533d bbc2 273e
00000060: 9426 fc3d e18f f13d ae81 14be 52f2 893e
00000070: 120e 24bd 818e a9bd 964d 4e3e 538a 90bb
00000080: d25f 163e ce60 2e3d 4653 a43d 5638 35be
00000090: 272d d8bd 1732 65bc bdac bebc 1cde 07bb
000000a0: 0554 e0bd 8805 82bd d287 03bd 288d 683e
000000b0: e106 03be 8a9e 85be 8063 57bd d2c6 ae3d
000000c0: 9443 673e f991 5e3e f7d4 493d c75f 2d3e
000000d0: f4d3 9cbd ba06 ffbd 4e8d c33d 7c81 033e
000000e0: dc57 bcbd 50cd d63d 1d52 0c3d 5bbd 6e3d
000000f0: 1862 6b3d ffc7 b63d d050 79bd 78cb dc3d
00000100: 2b5d 2c3d 1b47 8f3e d946 57bd d418 02bd
00000110: 0306 a73e 2918 23be de0b f7bd aa55 1b3d
00000120: 3b79 9fbd 4a14 873d 0d5b c3bd cbc6 40be
00000130: a79f c1bd 7e76 bdbd 3048 d7bb cdb5 a7be
00000140: 0f23 663e fe8d fbbc ef6f b4bd 4c14 60bb
00000150: 79da 41bd e276 293e 54fe 253e 8ed7 f23d
00000160: ed44 0bbd fb6d 583d 6ed0 8c3d f31a a23e
00000170: 870c 943e 5d8f 493e 371b 39bc 0250 9d3d
00000180: 3ce4 92bd 23fc 5f3d 2cf7 2d3d a223 623d
00000190: ae4d d73c 2d8c 03be 935c 053d f8d4 88bd
000001a0: 2c90 2f3e 53f4 4e3e 64e8 183e fc8c 173e
000001b0: 7108 893e 3447 303e 0551 953b 0c36 9b3c
000001c0: 25ff 9bbd 3dde af3d 1bb6 e5bd 21a2 c5bc
000001d0: 6046 803e 9050 a3bd b714 bd3d 3f9f bbbd
000001e0: 9feb 9c3e fdad f1bd 4df9 1e3c 9317 96bd
000001f0: b367 4bbd e023 243e c82c 2f3d a506 9abd
00000200: 7b65 2bbd 7b7e b73d 2b5d 7d3e 532b 8b3d
00000210: f631 0cbe 3571 183b 5597 ff3d 38f1 e43c
00000220: 8cde 04bc 4489 0cbe 97f5 29bd ad64 dcbc
00000230: 95a9 a53c 12c4 a03d 04c0 583d 2c47 8abe
00000240: ca2c c63d 1bb0 cfbc ea85 c8bb 9eea 77be
00000250: ad66 a83e 99e5 643b 87c6 e4bd f888 83bd
00000260: a6fe 823d bffb c0bb 487b 103e 8683 493e
00000270: 6d74 b2bd ce44 fabd cf66 623d c88d 103e
00000280: 862f afbd 3d81 d3bd 8376 a03d d741 d03d
00000290: 9812 e73b a020 323c c1b4 0f3e 7e9a 423e
000002a0: f868 fd3d ec93 f5bc 0360 843d 3ed5 773e
000002b0: c602 7cbd 252a 043e 0239 8e3d 1959 123e
000002c0: 3b61 183d 3e38 01be 58a7 f93c 18e3 613d
000002d0: 5fd2 6e3e 8a53 a43d b865 1d3d 2277 4b3e
000002e0: f3c4 473e f417 033e 0980 ad3d 58ea dc3c
000002f0: 395e 3fbd d827 4dbd afe6 b93d 43cd 09be
00000300: 4278 983d a87e 85bc 9d69 9d3e 3ef7 6e3e
00000310: 45b8 9fbd 5215 ccbd 2cce 17bd 3ec7 ff3d
00000320: 4ed6 723c 9099 9d3d a7cd 513e f61d 5a3e
00000330: 90b5 8a3d a90f 813e a81d 313e 555c 05bc
00000340: e87a a33e 96f4 2a3e 3876 073e 30e1 913c
00000350: 7fda 2dbd 0bf7 143e 534c 233e 0e02 963d
00000360: 399d 8dbe db4d 9abc 5088 a13d d634 87bd
00000370: f8fb 7e3c 8ca7 383e c190 353e b827 343e
00000380: 80a5 dd3d 7135 d1bc 011b 72be 7798 1c3e
00000390: c72f 433e d33a df3d d680 83be d587 f43d
000003a0: 2593 b53a 4ee1 443c eac9 f2bd 369d 883e
000003b0: ce90 e3bd d0ea 19be fdf5 e23c 39fe d63c
000003c0: d1d9 e33c b6b5 603e 3bf8 1ebd 2c33 73bd
000003d0: 09c6 823e f90c c6bd 302c 60bd 3dfa 77bb
000003e0: 3324 9a3d d98d 6d3c c2b0 0c3d 9852 8c3b
000003f0: 88bc eeba 8bb2 39be d9fb 913e 9b54 e73a
