pretrainedNetworks/actor_target2.pth (torch_old, 230166 bytes, 12 tensors)

fc1.weight f4 [256, 24]
0	0x3dbf631a	0.09345074
1	0xbe10c329	-0.14136948
2	0xbca35803	-0.019939428
3	0x3c665f3b	0.014060791
4	0x3c8cf42e	0.017206278
5	0xbeb60f51	-0.3555856
6	0x3c827e73	0.015929436
7	0x3cef61d0	0.029221445
8	0x3e5d024c	0.21582907
9	0xbd451e02	-0.04812432
10	0x3d3f61d5	0.04672416
11	0x3d478be4	0.048717394
12	0x3bb9e03f	0.005672484
13	0xbf044b62	-0.51677525
14	0xbd6c36c5	-0.05766942
15	0x3d4e8169	0.050416384
16	0x3e1cbdf9	0.15306844
17	0xbd18caf3	-0.037302922
18	0xb70dab9b	-8.44421e-06
19	0x3dae8b9e	0.085227236
20	0xbdbe47e9	-0.092910595
21	0xbf0d4f95	-0.5519956
22	0xbd21d69f	-0.03951132
23	0x3c0edac4	0.00871915
24	0x3bd14e85	0.006387534
25	0x3e112e53	0.14177828
26	0xbc7bdddb	-0.015372719
27	0x3d9dadb0	0.07699144
28	0x3d703826	0.058647297
29	0x3e2828e1	0.16421844
30	0xbd56c8d3	-0.052437615
31	0x3d38a8c6	0.04508283
32	0xbc332b78	-0.010935657
33	0x3e68164b	0.22664754
34	0x3c829189	0.015938537
35	0xbbece72f	-0.0072297077
36	0xbd58a6b0	-0.05289334
37	0xbe4f4929	-0.20242752
38	0x3cd7bbc5	0.026334653
39	0xbcdd41e0	-0.02700895
40	0x3e27f2cb	0.16401212
41	0x3e83adf5	0.25718656
42	0x3e318acc	0.17338103
43	0x3d3b758d	0.045766402
44	0xbe3de96a	-0.18546072
45	0xbf10c4ab	-0.5655009
46	0x3e06b59e	0.13155219
47	0x3dbe6af0	0.092977405
48	0x3d2c9ce9	0.04214183
49	0xbdd2e0d0	-0.10296786
50	0xbe1493bb	-0.1450948
51	0x3d7d0363	0.061770808
52	0xbe6a90a7	-0.22906743
53	0xbe48670e	-0.19570562
54	0xbd0351e5	-0.032060523
55	0x3d878a7c	0.06618211
56	0x3cbf3f41	0.023345592
57	0xbd4381dc	-0.047731265
58	0xbe6c3ad0	-0.2306931
59	0x3d02c52a	0.03192631
60	0xbe17dd4f	-0.14830516
61	0xbdf28bc8	-0.118430674
62	0xbe13fd3c	-0.1445207
63	0xbcc15542	-0.023600224
64	0xbd7e5eb1	-0.062102024
65	0xbc9bb875	-0.019008854
66	0xbdf143d5	-0.11780516
67	0xbb7425fa	-0.003725408
68	0xbd2c09b3	-0.042001437
69	0xbdaa51e1	-0.083163984
70	0xbdee2ca3	-0.116296075
71	0xbc2f0d97	-0.010684392
72	0x3eb26944	0.34845936
73	0xbde7b6e6	-0.11314182
74	0xbdb4f793	-0.088362835
75	0x3c95c39f	0.018281756
76	0xbe895a87	-0.2682688
77	0xbe216664	-0.15761715
78	0xbd8e9de9	-0.06963713
79	0xbd5d0079	-0.05395553
80	0x3dd6c7a7	0.104872994
81	0xbea573e4	-0.3231498
82	0x3ac1990c	0.0014770343
83	0xbcaf8100	-0.021423817
84	0x3ce895a5	0.028391669
85	0xbddba24d	-0.10724316
86	0x3c325477	0.010884396
87	0xbcfc37cd	-0.030788327
88	0x3d313d24	0.0432712
89	0xbea30262	-0.31837755
90	0xbd16b163	-0.036790263
91	0x3ecd532c	0.40102518
92	0x3debca72	0.11513223
93	0xbdbff7bd	-0.09373424
94	0xbccd6a80	-0.025075197
95	0x3eb604ae	0.35550445
96	0x3dada4e8	0.08478719
97	0xbe0edf3b	-0.13952343
98	0xbc9d1ac0	-0.019177794
99	0x3c2833e4	0.010266278
100	0xbe655d2b	-0.22398822
101	0xbe4fd30a	-0.20295349
102	0x3cfbe1de	0.03074735
103	0x3c185b12	0.009299057
104	0x3e8a7b74	0.27047312
105	0xbdadccf1	-0.08486355
106	0x3d0de0ed	0.034638334
107	0xbdee6b15	-0.11641518
108	0xbde5f969	-0.11229212
109	0xbe67bb3a	-0.22630015
110	0x3d3e20d2	0.04641802
111	0xbe08a34c	-0.13343543
112	0x3e8f7846	0.2802145
113	0xbe054096	-0.13012919
114	0xbdb74264	-0.0894821
115	0xbe02a929	-0.12759842
116	0xbe7e1d45	-0.24815853
117	0xbeb09dee	-0.3449549
118	0xbc56af44	-0.01310331
119	0xbd06992d	-0.032860924
120	0xbcc0b12f	-0.023521988
121	0xbec501c3	-0.38477907
122	0x3cc53adb	0.024075916
123	0xbdbf9f30	-0.093565345
124	0x3e067b59	0.13132991
125	0xbe6eb7cb	-0.23312299
126	0xbca526fb	-0.020160189
127	0x38ca7c1d	9.6552285e-05
128	0xbcab5f7d	-0.020919556
129	0xbeb72f1d	-0.35778132
130	0x3ca4712d	0.020073498
131	0x3e04a583	0.12953763
132	0x3e48276c	0.19546288
133	0xbeb98251	-0.36232236
134	0x3d0fba4e	0.035089783
135	0x3e08ce6b	0.13359992
136	0x3c9b2d94	0.018942632
137	0xbeae6297	-0.34059593
138	0xbd509c95	-0.05093058
139	0x3e56d140	0.2097826
140	0x3e441514	0.19148666
141	0xbeed3352	-0.46328217
142	0xbbde6ab9	-0.0067876247
143	0x3e2cbbc4	0.16868502
144	0xbd2f0a15	-0.042734224
145	0x3e1d0115	0.15332444
146	0x3d3064db	0.043064933
147	0xbd9e5925	-0.07731847
148	0x3d154182	0.036439426
149	0xbf31af3a	-0.69408
150	0xbc35f164	-0.011104915
151	0xbdd93828	-0.10606414
152	0x3cf436b4	0.02981124
153	0x3e3862de	0.18006465
154	0xbc51cca9	-0.012805142
155	0xbd4a9340	-0.049456835
156	0xbc7102c4	-0.014710132
157	0xbf246432	-0.64215386
158	0x3d85f38c	0.065405935
159	0xbe10a3ec	-0.14125031
160	0xbc8734ae	-0.016504612
161	0x3d27cbec	0.04096596
162	0xbaf96465	-0.0019027112
163	0xbe4390b7	-0.19098173
164	0x3d292064	0.041290656
165	0xbd032b78	-0.032023877
166	0x3da4f4cc	0.08054504
167	0xbe869235	-0.26283422
168	0x3defd1c4	0.117099315
169	0x3db4040e	0.08789836
170	0xbe098813	-0.13430814
171	0xbe3d6cea	-0.18498579
172	0x3dde159a	0.10843964
173	0xbec1a566	-0.37821501
174	0xbd9c2bc4	-0.07625535
175	0xbe7f75eb	-0.24947326
176	0x3d0e67f1	0.034767095
177	0x3d6e2aa7	0.058146145
178	0xbe208fcb	-0.15679853
179	0xbe632bb3	-0.22184639
180	0x3d89d9c5	0.06730989
181	0xbe8e0253	-0.27736148
182	0xbdb54dc6	-0.08852725
183	0xbe33b656	-0.17550024
184	0x3dca051b	0.09864255
185	0xbc1784a3	-0.009247932
186	0xbd29eaaa	-0.04148356
187	0xbde1360d	-0.109966375
188	0xbce3c8e8	-0.02780576
189	0xbe05bd1c	-0.13060421
190	0x3ada116b	0.0016637271
191	0xbdaf64e9	-0.08564169
192	0xbe996734	-0.2996155
193	0x3e05decd	0.13073273
194	0xbda40be7	-0.08010083
195	0xbda44b3c	-0.08022162
196	0x3d93ab83	0.07210448
197	0xbeac3143	-0.33631334
198	0xbd036a95	-0.032084066
199	0xbd255d87	-0.040372398
200	0xbe6e2380	-0.2325573
201	0x3e05863b	0.13039486
202	0xbc07a1b5	-0.0082783
203	0xbe0b0164	-0.13574749
204	0xbc8d59da	-0.017254759
205	0xbe4007d7	-0.1875299
206	0xbd774f85	-0.06037857
207	0xbe039dd3	-0.12853174
208	0xbe631a94	-0.22178108
209	0xbc074473	-0.008256066
210	0x3c63494a	0.013872454
211	0xbde0de7f	-0.10979938
212	0xbe1beb6f	-0.1522653
213	0x3e80c58a	0.2515071
214	0xbdc572df	-0.096410505
215	0xbdcdd11d	-0.10049651
216	0xbcaf3451	-0.021387251
217	0xbe9f47cd	-0.31109467
218	0xbd02ec57	-0.031963672
219	0x3da48339	0.08032841
220	0x3df218e2	0.11821152
221	0xbd8ae06b	-0.067810856
222	0x3d114ae5	0.035471816
223	0x3d066d46	0.032819055
224	0xbba243ef	-0.004951946
225	0xbe8e4469	-0.27786568
226	0xbe10e6dc	-0.14150566
227	0x3dca3a12	0.09874357
228	0x3e0b2ace	0.13590547
229	0xbe103199	-0.1408142
230	0xbd65cd36	-0.056103908
231	0x3d5c670f	0.05380922
232	0xbc6af043	-0.014339509
233	0xbe2b5b42	-0.16734031
234	0xbe009dda	-0.12560216
235	0x3e4e8baf	0.20170473
236	0x3daab0e0	0.083345175
237	0xbed9fe10	-0.42576647
238	0xbe2c75a8	-0.16841757
239	0x3e6003cd	0.2187645
240	0x3e079c9a	0.13243333
241	0x3e927617	0.2860572
242	0x3cb773a8	0.022394016
243	0xbe60cadd	-0.21952386
244	0x3d993f86	0.07482819
245	0xbe358ea3	-0.17730193
246	0xbb448285	-0.0029985022
247	0xbea18668	-0.31547856
248	0x3de6c156	0.11267345
249	0x3e506c0f	0.20353721
250	0xbc419274	-0.011814702
251	0xbedef4d1	-0.43546155
252	0xbdce9f3e	-0.10088967
253	0xbe089b90	-0.13340592
254	0xbd7e63c3	-0.06210686
255	0xbee5571a	-0.44793016

fc1.bias f4 [256]
0	0xbec1c5a2	-0.37846094
1	0xbe8f66bc	-0.28008068
2	0x3d970a48	0.07375008
3	0xbe4865a3	-0.19570021
4	0xbdc6c74f	-0.09705984
5	0xbe6fa188	-0.23401463
6	0xbe736778	-0.23769939
7	0xbead9ffe	-0.33911127
8	0x3cae3257	0.021264238
9	0xbe23d3c2	-0.15998748
10	0xbe19ad38	-0.15007484
11	0x3c928580	0.017885923
12	0xbdf0c388	-0.117560446
13	0xbe939a84	-0.28828824
14	0xbe33dceb	-0.17564742
15	0xbeffaeb3	-0.49937972
16	0xbe61c170	-0.22046447
17	0xbe15cfd8	-0.14630067
18	0xbacf9c38	-0.0015839403
19	0xbe6bf18b	-0.2304136
20	0xbe62e8d0	-0.22159123
21	0xbdd03ac7	-0.10167461
22	0x3b8e881b	0.004349721
23	0x3e1a180e	0.15048239
24	0xbe40b378	-0.18818462
25	0x3e4a8d6d	0.19780512
26	0xbddcbc00	-0.10778046
27	0xbe0fca84	-0.14042097
28	0xbce218cc	-0.027599715
29	0xbe2df889	-0.1698934
30	0x3d00ab09	0.03141311
31	0xbdc8aa93	-0.097981595
32	0xbdc1f74d	-0.09470997
33	0xbe2cf618	-0.16890752
34	0x3bfe8eab	0.007768472
35	0xbe9fb505	-0.31192794
36	0xbe022a3d	-0.12711425
37	0x3da5118b	0.08059987
38	0xbe942033	-0.28930816
39	0xbec9e1a7	-0.39429972
40	0x3e96065e	0.29301733
41	0xbe0a4a65	-0.13504942
42	0x3e44f94e	0.19235727
43	0xbe258aae	-0.16166183
44	0xbd87f6a5	-0.066388406
45	0xbdfaf852	-0.122543946
46	0xbedd36e6	-0.43205947
47	0xbe75286a	-0.23941198
48	0xbcd9fe51	-0.026610525
49	0xbddb33fb	-0.10703274
50	0x3de3169d	0.110882975
51	0xbed3a4dc	-0.41336715
52	0xbe43843b	-0.1909341
53	0x3d0e4e2a	0.03474251
54	0xbe26fa84	-0.16306502
55	0x3d66ce1e	0.056348912
56	0xbe3c8e7b	-0.18413727
57	0xbe3f934d	-0.18708535
58	0xbe8cea42	-0.27522475
59	0x3e0736da	0.13204518
60	0x3d3889dc	0.045053348
61	0x3e17a8d4	0.14810497
62	0x3dacea85	0.084431686
63	0xbe732146	-0.23743162
64	0xbdc680ee	-0.0969256
65	0xbe9236ad	-0.2855734
66	0x3e73b2e4	0.2379871
67	0xbe8f5271	-0.27992585
68	0x3e276e6f	0.16350721
69	0x3d194091	0.03741509
70	0xbe6f62fc	-0.23377603
71	0x3e447a00	0.19187164
72	0xbe0b3c31	-0.1359718
73	0xbda1e1d2	-0.079044
74	0xbe4c8277	-0.19971643
75	0x3d805e0a	0.062679365
76	0xbe8d7fc3	-0.27636537
77	0xbeb5e1de	-0.35523885
78	0xbe02e409	-0.12782301
79	0x3ca578e7	0.020199252
80	0xbe58e0ac	-0.21179456
81	0xbe912585	-0.28348938
82	0xbea9629b	-0.33083043
83	0xbec4f202	-0.38465887
84	0xbd43cf10	-0.047804892
85	0x3ed8827b	0.4228705
86	0xbead8aaa	-0.33894855
87	0xbdb3163b	-0.087444745
88	0xbd3fdf61	-0.04684389
89	0xbe3af958	-0.1825918
90	0xbe410fbd	-0.1885366
91	0xbe498046	-0.19677839
92	0xbe4969c9	-0.1966926
93	0xbd9cc9c2	-0.0765567
94	0xbd178ee9	-0.037001524
95	0x3e943392	0.28945595
96	0x3d8158f4	0.063157946
97	0xbebf1373	-0.37319526
98	0xbeb4ec15	-0.35336366
99	0xbe530e05	-0.20610817
100	0xbe2a2e92	-0.16619328
101	0x3e3e5027	0.18585263
102	0xbe477ee4	-0.19481999
103	0x3e6c624f	0.23084377
104	0xbd029504	-0.031880394
105	0xbd851d51	-0.06499732
106	0xbd31be41	-0.04339433
107	0xbe3d4e48	-0.18486893
108	0xbdcf3111	-0.101167805
109	0xbe9c0cb6	-0.30478448
110	0xbe2644a7	-0.16237126
111	0xbe363084	-0.17791945
112	0x3dd62f4c	0.1045824
113	0xbd507e08	-0.050901443
114	0xbede0ff8	-0.43371558
115	0xbe2a4287	-0.1662694
116	0xbe430c6e	-0.1904771
117	0x3daa9cea	0.0833071
118	0xbdb6f9bd	-0.089343525
119	0x3d965256	0.07339923
120	0xbe874308	-0.26418328
121	0xbe8ce025	-0.2751476
122	0xbd917d6c	-0.071040004
123	0xbd903acf	-0.07042467
124	0xbda1e31f	-0.07904648
125	0xbdb39644	-0.08768895
126	0xbccfe2a3	-0.025376623
127	0x3e394f15	0.18096574
128	0x3e0925c6	0.13393316
129	0xbe555ce7	-0.2083622
130	0x3db6421a	0.088993266
131	0xbe8139f1	-0.25239518
132	0xbe88752a	-0.2665189
133	0xbe5c90bc	-0.21539587
134	0xbe337cf1	-0.1752813
135	0xbe587a30	-0.21140361
136	0x3e7377bb	0.23776142
137	0xbdc16d1c	-0.09444639
138	0xbe0e102d	-0.13873358
139	0x3e9b92f8	0.30385566
140	0x3df5788b	0.11985882
141	0xbe3dc636	-0.18532643
142	0xbdd10312	-0.10205664
143	0xbd4b5bbf	-0.049648043
144	0xbea478ef	-0.32123515
145	0x3e244fa3	0.16046004
146	0x3c28762d	0.010282082
147	0xbe506456	-0.20350775
148	0xbe726f57	-0.23675285
149	0xbcc71a91	-0.02430466
150	0x3d27d2e6	0.040972613
151	0xbe153114	-0.14569503
152	0xbe8270e5	-0.25476757
153	0xbdf49369	-0.11942179
154	0xbe2f9246	-0.17145643
155	0xbe307a0f	-0.17234062
156	0xbe9b31d5	-0.30311456
157	0x3eab757d	0.33488074
158	0xbe30f930	-0.17282557
159	0xbe2a6fc4	-0.16644198
160	0xbeb62c4d	-0.35580674
161	0xbe16571b	-0.14681666
162	0xbd2633cd	-0.040576745
163	0xbe312c25	-0.17301996
164	0x3de939bd	0.11387966
165	0x3c2260ac	0.009910744
166	0xbe36eadb	-0.17863028
167	0x3e11ca91	0.14237429
168	0xbea8734c	-0.32900465
169	0xbd987d1c	-0.07445738
170	0xbe5ab02e	-0.2135627
171	0xbdabd38b	-0.08389958
172	0xbe87d530	-0.26529837
173	0xbe46c56a	-0.19411245
174	0x3e0eca17	0.13944279
175	0xbe2bd2e5	-0.16779669
176	0xbdc38697	-0.09547155
177	0xbdeb17cf	-0.114791505
178	0xbe22ee29	-0.15911163
179	0x3d80806b	0.06274494
180	0x3db8acb7	0.09017318
181	0xbd2da0ba	-0.04238961
182	0xbd19ae01	-0.03751946
183	0xbd0e0c8e	-0.03467994
184	0xbe2397a9	-0.15975823
185	0x3d422f5f	0.047408458
186	0xbeb23db2	-0.34812695
187	0xbd8e4ade	-0.069478735
188	0xbe1550e7	-0.14581643
189	0x3d3e9eb6	0.046538077
190	0x3d7f6e50	0.06236106
191	0xbf12722e	-0.57205474
192	0xbea789c3	-0.3272229
193	0xbd7c7c10	-0.061641753
194	0x3e00e615	0.1258777
195	0xbe90a465	-0.28250423
196	0xbe898875	-0.2686192
197	0xbebfd907	-0.37470266
198	0x3da4fc67	0.080559544
199	0xbec5cf98	-0.38634944
200	0xbdea1e64	-0.11431578
201	0xbecb8f67	-0.39757845
202	0xbec94144	-0.39307606
203	0xbeabb1bf	-0.33534047
204	0x3d92b202	0.071628585
205	0xbe9c20ee	-0.30493873
206	0xbe2c6289	-0.16834463
207	0xbdde2208	-0.10846335
208	0xbcecd99d	-0.02891236
209	0x3dcd1d1e	0.10015319
210	0xbc68013e	-0.014160452
211	0xbde842c7	-0.11340862
212	0x3e4d736f	0.20063566
213	0xbe53ad05	-0.2067147
214	0xbe476c39	-0.19474877
215	0xbe6677f7	-0.225067
216	0xbe062787	-0.13101016
217	0xbd342303	-0.043978702
218	0xbe8f78ac	-0.28021753
219	0xbd1e8266	-0.038698576
220	0x3d6d465b	0.057928424
221	0xbdfa62b9	-0.12225861
222	0xbe46a4a3	-0.19398741
223	0xbe87a544	-0.26493275
224	0xbdb543b9	-0.08850808
225	0xbec01592	-0.37516457
226	0xbe680c86	-0.22661027
227	0xbe613bd7	-0.21995483
228	0xbe44572d	-0.1917388
229	0xbe3fbc6e	-0.18724224
230	0x3e1a61b2	0.1507633
231	0xbed00369	-0.40627602
232	0xbe6c6237	-0.23084341
233	0x3bbde1a4	0.0057947207
234	0xbec3edc9	-0.38267353
235	0xbe507460	-0.20356894
236	0xbdcdfe36	-0.100582525
237	0xbec84820	-0.39117527
238	0x3e3643a9	0.17799248
239	0xbd8216a4	-0.063519746
240	0xbe9bdfd5	-0.30444208
241	0xbe5a9f9e	-0.21349952
242	0xbe297dc5	-0.16551884
243	0xbdbce9e4	-0.092242986
244	0xbe880f0b	-0.26573977
245	0xbe749c77	-0.23887812
246	0xbdb516c4	-0.08842233
247	0x3eb4fc95	0.35348955
248	0xbd7a6029	-0.06112686
249	0xbe3f66c0	-0.1869154
250	0xbdc77f58	-0.09741086
251	0xbef89019	-0.48547438
252	0xbeae0afb	-0.33992752
253	0xbdad1342	-0.08450939
254	0x3d44ab8f	0.048015174
255	0x3e1e9eb0	0.15490222

fc2.weight f4 [128, 256]
0	0x3e449cb3	0.19200401
1	0xbe201270	-0.15632033
2	0xbedb2c1e	-0.42807096
3	0xbaf4bdb8	-0.0018672263
4	0x3be36095	0.0069390037
5	0x3e896aa4	0.26839173
6	0xbd6d78f2	-0.05797667
7	0xbe2adeba	-0.16686526
8	0x3ccec213	0.025239026
9	0xbe044df1	-0.12920357
10	0x3bb25fae	0.005443535
11	0xbdf10ace	-0.11769639
12	0xbe2c7829	-0.16842712
13	0xbdadc313	-0.08484473
14	0xbd088391	-0.033328597
15	0xbe8379e1	-0.25678924
16	0x3d399c56	0.04531511
17	0xbd2f1649	-0.042745862
18	0x3e1e5e13	0.15465574
19	0xbdcdd92f	-0.1005119
20	0x3d892dc2	0.06698181
21	0x3e70b6b9	0.23507203
22	0xbe7e1b0f	-0.2481501
23	0xbd099d6c	-0.033597395
24	0xbd6429d7	-0.055703964
25	0x3c62d2ba	0.013844186
26	0x3e26ef76	0.16302285
27	0x3e53c822	0.20681813
28	0xbd08a691	-0.033361975
29	0x3df07fae	0.11743103
30	0xbd33ac57	-0.043865528
31	0xbccc573f	-0.024943946
32	0xbe27bc6f	-0.16380475
33	0x3e0543ca	0.1301414
34	0xbd42b0d7	-0.04753193
35	0xba9c36fb	-0.0011918241
36	0x3e1d396b	0.15353934
37	0x3d84b875	0.06480495
38	0xbce45294	-0.027871408
39	0x3e734b07	0.2375909
40	0x3e37bdb7	0.17943464
41	0xbca348b5	-0.01993213
42	0xbbdda970	-0.0067645833
43	0x3dc4c17c	0.09607217
44	0xbe270b8f	-0.16313003
45	0x3e09269d	0.13393636
46	0xbe23cf67	-0.15997086
47	0x3e1132eb	0.1417958
48	0x3cafea0f	0.021473913
49	0x3e145586	0.1448575
50	0x3e100069	0.14062656
51	0x3eaaa3ad	0.33328
52	0x3e291ad6	0.16514143
53	0x3e4f58c2	0.20248702
54	0x3e7930f5	0.24335082
55	0x3e2e1150	0.16998792
56	0x3c54b0e7	0.01298163
57	0x3de15c99	0.1100399
58	0x3c8a420b	0.016877195
59	0x3e84e496	0.25955647
60	0x3bf81289	0.007570569
61	0x3e46cc7f	0.19413947
62	0x3e9fd700	0.3121872
63	0xbe35d82f	-0.17758249
64	0x3dd43e61	0.1036346
65	0xbdbb352b	-0.09141
66	0xbe3901c4	-0.1806708
67	0xbd70763c	-0.058706507
68	0x3e1c47fd	0.15261836
69	0x3d0e6a4e	0.03476935
70	0x3e7eb234	0.24872667
71	0xbdd2584d	-0.10270748
72	0xbda21efa	-0.079160646
73	0x3e0613f2	0.13093546
74	0x3d6eaf96	0.05827292
75	0xbda96077	-0.08270352
76	0x3e3cef58	0.18450677
77	0xbe55a410	-0.20863366
78	0xbda1844f	-0.07886564
79	0x3e10462e	0.14089271
80	0x3e483a4e	0.19553491
81	0xbdbd11f2	-0.092319384
82	0xbd3975a5	-0.04527821
83	0x3b7eee0a	0.0038899207
84	0x3ddea4b1	0.10871256
85	0xbe219923	-0.15781073
86	0x3dfbaf0f	0.12289249
87	0x3db044a8	0.08606845
88	0x3e500762	0.20315316
89	0xbbed40cd	-0.007240391
90	0x3e3cd90b	0.1844217
91	0x3dc16041	0.09442187
92	0xbd699213	-0.057024073
93	0xbe10a096	-0.14123759
94	0xbd108421	-0.035282258
95	0x3e6dac25	0.23210199
96	0x3e1f154c	0.15535468
97	0x3e808d63	0.2510787
98	0x3ddadf0a	0.106870726
99	0x3db1da51	0.08684219
100	0xbdd97ba5	-0.106192864
101	0xbcb8bb41	-0.022550227
102	0xbd8d78af	-0.06907784
103	0xbd091ba3	-0.033473622
104	0x3e477512	0.19478253
105	0xbda4c7e4	-0.080459386
106	0x3e66d3fb	0.22541802
107	0xbc8b841a	-0.017030764
108	0x3c0fc87b	0.008775826
109	0x3c3a5d09	0.01137472
110	0xbd42c267	-0.047548678
111	0x3ed022c8	0.40651536
112	0xbe0b8c13	-0.13627653
113	0x3d81e4a1	0.06342436
114	0xbe6778d5	-0.22604688
115	0xbd5a503b	-0.05329917
116	0xbddd776b	-0.10813793
117	0x3e81a0c0	0.25317955
118	0xbe40bd08	-0.1882211
119	0xbcf2fb74	-0.029660918
120	0xbe2f954e	-0.17146799
121	0x3e0b4c4a	0.1360332
122	0x3e41ffc8	0.18945229
123	0xbe029b5b	-0.12754576
124	0xbe60961a	-0.21932259
125	0x3c62292b	0.0138037605
126	0xbd8f1b43	-0.06987622
127	0x3e411841	0.18856908
128	0x3e41aaa9	0.18912758
129	0x3ea4bba9	0.32174423
130	0x3da7eb20	0.081991434
131	0xbdf99f97	-0.121886425
132	0x3de795f3	0.113078974
133	0x3eb62d65	0.35581508
134	0xbd8d0cdc	-0.06887218
135	0xbd92a2ca	-0.07159956
136	0x3e1b54f9	0.15169133
137	0x3e32f0da	0.1747469
138	0xbbba759b	-0.005690289
139	0x3c1615cb	0.009160469
140	0x3dd2fcc2	0.10302116
141	0xbe22ad14	-0.15886337
142	0xbcab62ed	-0.020921195
143	0xbdaf3c19	-0.085563846
144	0x3e424be8	0.18974268
145	0x3e7df7f9	0.24801625
146	0xbc85ded4	-0.016341604
147	0xbe01e686	-0.12685594
148	0xbdcf8424	-0.10132626
149	0x3e026fbb	0.12737934
150	0xbdb35bee	-0.087577686
151	0x3d8ddc97	0.0692684
152	0x3d84fab8	0.06493133
153	0x3d4e4a42	0.050363787
154	0x3cf519a7	0.029919459
155	0x3e0623f7	0.13099657
156	0x3d9eb0ed	0.0774859
157	0xbc08e705	-0.008355861
158	0x3dde9c00	0.108695984
159	0x3d9ed9bd	0.07756374
160	0xbd8ebd18	-0.069696605
161	0x3e17b330	0.14814448
162	0x3d9306b2	0.071790114
163	0x3cc40519	0.023928212
164	0x3d969e76	0.07354443
165	0x3e90db38	0.2829225
166	0x3e1979dd	0.14987893
167	0x3cf66282	0.030076269
168	0xbdd1181b	-0.10209676
169	0x3d425e2f	0.0474531
170	0x3d89abc1	0.067222126
171	0xbde8169f	-0.1133244
172	0xbdd02335	-0.10162965
173	0x3bc70060	0.0060730428
174	0xbe6b791d	-0.2299542
175	0x3d9db88f	0.077012174
176	0x3e996ee3	0.29967412
177	0xbdffa85b	-0.12483283
178	0xbddaeffb	-0.10690304
179	0xbd328eb9	-0.043593142
180	0x3e942b3d	0.28939238
181	0x3d96adf0	0.07357395
182	0x3eac335c	0.33632934
183	0xbdfa6454	-0.12226167
184	0xbe4ab452	-0.19795349
185	0x3d46bff9	0.048522923
186	0xbd95e63f	-0.073193066
187	0xbd773829	-0.060356293
188	0x3d8dd72b	0.06925806
189	0x3e9492e8	0.2901833
190	0x3e1658d0	0.14682317
191	0x3e4d52ea	0.2005116
192	0xbc9ce226	-0.019150805
193	0xbc816869	-0.015796857
194	0x3dee4fdf	0.11636328
195	0xbe0dc77a	-0.13845626
196	0x3d008aec	0.031382486
197	0x3d9fed03	0.07808878
198	0xbda6afc9	-0.08138997
199	0xbda5d0b1	-0.08096445
200	0xbe85b911	-0.26117757
201	0x3d540a42	0.051767595
202	0x3d819617	0.063274555
203	0x3d6ded39	0.05808756
204	0x3b3fbefe	0.0029258127
205	0x3e1528b1	0.14566304
206	0x3e8e640b	0.27810702
207	0x3d0611e9	0.032731924
208	0x3e3f4880	0.1868
209	0xbd7ca34b	-0.061679166
210	0x3d65ad15	0.056073267
211	0xbcfd6130	-0.030930132
212	0xbd8a51fc	-0.067539185
213	0x3d98cd5a	0.07461043
214	0x3e2f3a0e	0.1711199
215	0xbc350087	-0.011047489
216	0x3dca139f	0.09867024
217	0x3e0b65b7	0.1361302
218	0xbc97b057	-0.018516703
219	0xbd96ec6e	-0.07369314
220	0xbe00bf1c	-0.12572902
221	0xbd9949e3	-0.07484796
222	0xbe3753a4	-0.17903
223	0x3d56c5ac	0.05243461
224	0x3e659bd2	0.22422722
225	0x3c6a833b	0.014313514
226	0xbd5b6701	-0.05356503
227	0xbc146dd7	-0.009059391
228	0x3d8b84d7	0.068124466
229	0x3e7d69ef	0.24747442
230	0x3e3247f1	0.17410256
231	0x3e0c1f9d	0.13683935
232	0x3e87c472	0.26517063
233	0x3c5b6674	0.013391126
234	0x3e35636b	0.17713706
235	0xbdb9401d	-0.09045432
236	0x3e51fb32	0.2050598
237	0xbe0e704e	-0.13910028
238	0x3d82c1f3	0.06384649
239	0x3e09f1ba	0.13471118
240	0x3e834bd0	0.25643778
241	0x3dece4d4	0.11567083
242	0x3d23ae52	0.039961167
243	0x3c42c9c2	0.011888923
244	0x3ea5e096	0.32397908
245	0x3de42460	0.111397505
246	0x3c0713f4	0.008244503
247	0xbe6525b7	-0.22377668
248	0x3e0250f2	0.1272619
249	0xbecdf02e	-0.40222305
250	0xbda5c9fb	-0.08095165
251	0x3deef01b	0.1166689
252	0x3bca9b0c	0.006183034
253	0x3decf49a	0.115700915
254	0x3dd46e24	0.1037257
255	0xbdaf8569	-0.08570368

fc2.bias f4 [128]
0	0xbdbd845e	-0.09253763
1	0xbd465b82	-0.048427112
2	0x3d1e8d24	0.03870882
3	0xbe7618da	-0.24032918
4	0xbd7a5af0	-0.06112188
5	0xbd7368ea	-0.059426226
6	0xbd3648bf	-0.04450297
7	0xbea97a7a	-0.33101255
8	0xbd96cb68	-0.073630154
9	0xbe612c82	-0.21989635
10	0xbdf90bcd	-0.12160454
11	0xbc07a516	-0.008279106
12	0xbe2165d5	-0.15761502
13	0xbc7a152f	-0.01526384
14	0x3cef0910	0.029179126
15	0xbdfb0077	-0.12255948
16	0xbe2e963d	-0.17049499
17	0xbe59422d	-0.2121665
18	0x3b128b7b	0.002236097
19	0xbd9ec8f2	-0.07753171
20	0xbe5a7b85	-0.21336181
21	0xbcf7dd39	-0.030256854
22	0xbd0fdc30	-0.035122097
23	0xbdd6a68b	-0.10480984
24	0xbd0bf44e	-0.034168534
25	0xbdb15f1d	-0.086607195
26	0xbe1c6978	-0.15274608
27	0xbe0b998c	-0.13632792
28	0xbd3bef7f	-0.0458827
29	0xbe2fbe2e	-0.17162392
30	0xbe5bf610	-0.21480584
31	0xbe293451	-0.16523863
32	0xbdee30c3	-0.11630394
33	0xbd514833	-0.051094245
34	0x3d9ee7c1	0.07759047
35	0xbe185f09	-0.14880003
36	0xbe3260f2	-0.17419794
37	0xbe2b9671	-0.16756608
38	0xbdec9c35	-0.115532316
39	0xbe37ee97	-0.17962109
40	0xbca011a6	-0.019539665
41	0xbe707d98	-0.2348541
42	0xbdcbb763	-0.099470876
43	0xbdf73dee	-0.12072359
44	0xbdcc5b23	-0.099783204
45	0xbe31cea4	-0.17363983
46	0xbe1ea618	-0.15493047
47	0x3d0f3d58	0.03497061
48	0xbe1e0a09	-0.15433516
49	0xbd1f5fe4	-0.038909808
50	0xbdf099b8	-0.117480695
51	0xbac75dfc	-0.0015210505
52	0xbdd766d3	-0.10517659
53	0xbe413c1d	-0.18870588
54	0xbe94c0ad	-0.2905325
55	0xbe458efa	-0.19292822
56	0xbe2bcba8	-0.16776907
57	0xbe43d25d	-0.19123216
58	0xbad6e465	-0.0016394971
59	0xbca36a8d	-0.019948268
60	0x3d957fc3	0.07299759
61	0xbe16bb75	-0.14719947
62	0xbd75aa54	-0.05997689
63	0xbe80277d	-0.25030127
64	0xbdf59e3a	-0.1199307
65	0xbe1e7408	-0.1547395
66	0xbe80e92e	-0.25177902
67	0xbe06dd77	-0.1317042
68	0xbe7ca041	-0.24670507
69	0xbe92d8c3	-0.28681
70	0xbde97204	-0.113987
71	0xbcba5065	-0.022743413
72	0xbd0112f4	-0.031512216
73	0x3d9d4f2f	0.07681119
74	0xbd0d4e65	-0.03449859
75	0xbd861195	-0.06546322
76	0xbe6f78c1	-0.23385908
77	0xbb0f2743	-0.002184347
78	0xbdbf4296	-0.09338872
79	0x399785bf	0.00028900613
80	0xbe57c02a	-0.21069399
81	0xbdba8b97	-0.09108656
82	0xbde3308f	-0.11093246
83	0xbdf0710d	-0.11740313
84	0xbe1953fe	-0.14973447
85	0xbe03e878	-0.12881649
86	0xbdee08a4	-0.11622742
87	0xbd92b821	-0.07164026
88	0xbdb4b504	-0.088235885
89	0xbcac5318	-0.021035716
90	0xbe2f948e	-0.17146513
91	0xbe521bfd	-0.20518489
92	0xbdf483e6	-0.1193922
93	0xbd487633	-0.04894085
94	0xbdbf29fc	-0.0933418
95	0xbe9849d2	-0.2974382
96	0xbddb8e08	-0.1072045
97	0xbe09439d	-0.13404699
98	0x3c3c7eed	0.011504871
99	0x3c3fad8d	0.011699093
100	0xbd0d8187	-0.034547355
101	0xbdddcdb7	-0.108302526
102	0xbe135cd1	-0.14390875
103	0xbe5f2402	-0.2179108
104	0xbe3a0440	-0.18165684
105	0xbe2f911e	-0.17145202
106	0xbd409a4c	-0.04702215
107	0xbc026f5a	-0.007961119
108	0x3b87e3bb	0.0041470206
109	0xbdb8d09a	-0.090241626
110	0xbe8c199f	-0.27363297
111	0xbd8d01ad	-0.06885085
112	0xbe042fec	-0.12908906
113	0xbe3a455e	-0.18190524
114	0xbe00f7da	-0.12594548
115	0x3d8d6ad7	0.06905144
116	0x3d61bf70	0.05511421
117	0xbd56f154	-0.052476242
118	0xbe007ebf	-0.1254835
119	0xbd684f0d	-0.056716014
120	0x3d3e9f4d	0.04653864
121	0xbd71c424	-0.059024945
122	0xbdc5a42f	-0.09650456
123	0xbe15c2ea	-0.14625135
124	0x3d93b35a	0.07211943
125	0xbe33b3c7	-0.17549048
126	0xbeb0787e	-0.34466928
127	0xbdbb1a81	-0.091359146

fc3.weight f4 [128, 128]
0	0x3d9105cb	0.07081183
1	0xbe4ab35a	-0.1979498
2	0x3d3d89e6	0.04627409
3	0x3e5c528b	0.21515863
4	0xbd53aa6b	-0.051676195
5	0x3e1545ac	0.14577359
6	0x3cf9c9a9	0.030491667
7	0x3e0c66f1	0.13711144
8	0xbe0dff9d	-0.1386704
9	0x3b6d9804	0.0036253938
10	0xbd97d812	-0.07414259
11	0xbe438e55	-0.19097264
12	0xbc781b75	-0.015143265
13	0xbe7b0fce	-0.24517748
14	0xbec2bd3f	-0.38035008
15	0x3e882434	0.2659012
16	0x3d56ad09	0.052411113
17	0xbd0c50c1	-0.0342567
18	0xbd20f5d9	-0.03929696
19	0x3da9a573	0.0828351
20	0x3c4377dc	0.011930432
21	0x3d696617	0.056982126
22	0x3dfad116	0.12246911
23	0x3e65aa48	0.22428238
24	0x3d98bc31	0.0745777
25	0x3c253cf4	0.010085333
26	0xbde40d89	-0.11135394
27	0xbe04dc61	-0.12974693
28	0xbe47fbc3	-0.19529633
29	0x3e14bf17	0.1452602
30	0x3e8f26e4	0.2795936
31	0xbd00d75f	-0.031455394
32	0xbd485eed	-0.048918653
33	0x3c8dbd09	0.017302053
34	0xbdb53c3a	-0.08849378
35	0xbe5fb59f	-0.21846627
36	0xbc9469e1	-0.018116893
37	0xbde5b46f	-0.112160556
38	0x3d5ee023	0.054412972
39	0x3e6cec07	0.23136912
40	0x3d2c185e	0.042015426
41	0xbd9ba9e9	-0.07600767
42	0x3dab19c0	0.08354521
43	0xbd97c5fa	-0.07410808
44	0x3d89fbf9	0.06737513
45	0xbcf51b22	-0.029920164
46	0x3e94e496	0.29080647
47	0x3d82dd7c	0.06389901
48	0xbe8abc7b	-0.27096924
49	0xbcc92f2a	-0.024558622
50	0x3d0a2b8d	0.03373294
51	0x3e1e3a37	0.15451895
52	0xbdea5aa6	-0.11443071
53	0x3e29b8a5	0.16574343
54	0xbd8928dd	-0.06697247
55	0x3e5a7004	0.21331793
56	0xbb698c2d	-0.003563653
57	0x3df822d5	0.12116019
58	0x3d2c81b0	0.042115867
59	0xbd97dc95	-0.074151196
60	0xba22973c	-0.0006202345
61	0x3dcb4584	0.099253684
62	0xbdb728fc	-0.08943364
63	0xbdf66a5b	-0.120320044
64	0xbddf1cfc	-0.108942
65	0xbe3a2359	-0.18177547
66	0xbdb7447f	-0.089486115
67	0xbce441cc	-0.027863406
68	0x3da0d3a5	0.07852868
69	0xbdd9c0dd	-0.10632489
70	0x3e06a0ae	0.13147232
71	0xbdd73761	-0.105086096
72	0xbd991bb0	-0.07475984
73	0x3dfa0df0	0.122096896
74	0xbd46f3a4	-0.048572198
75	0x3dbed5a7	0.09318095
76	0x3e1bc239	0.15210809
77	0x3dc00cd6	0.09377448
78	0xbd2e5ed7	-0.042570915
79	0xbd916599	-0.07099456
80	0x3d415a56	0.04720529
81	0x3e0159ac	0.12631863
82	0xbe26502c	-0.1624152
83	0xbe7b0341	-0.2451296
84	0x3e3382bb	0.17530338
85	0xbe20d0bf	-0.1570463
86	0xbdb1714e	-0.08664189
87	0x3df37cf3	0.118890665
88	0xbe06372a	-0.13106981
89	0x3d166872	0.0367207
90	0xbe127f7a	-0.14306441
91	0x3e1b1678	0.1514529
92	0x3d1fa1fb	0.038972836
93	0x3e20420a	0.15650192
94	0x3e3b9292	0.18317631
95	0x3de3d4af	0.111245506
96	0xbd8cf45f	-0.068825476
97	0xbe1d0537	-0.1533402
98	0x3cd795a8	0.026316479
99	0xbbfc610f	-0.007702
100	0x3e4db180	0.20087242
101	0x3dd2a928	0.1028617
102	0xbd896f5d	-0.06710694
103	0x3e0efbf5	0.13963301
104	0x3d332503	0.04373647
105	0x3d86c725	0.065809526
106	0xbd03a7e8	-0.03214255
107	0x3e0fd3f6	0.140457
108	0xbd08a233	-0.03335781
109	0x3e014375	0.12623389
110	0x3e58f479	0.21187009
111	0xbe34652c	-0.17616719
112	0x3debc7e8	0.115127385
113	0x3dba2e19	0.09090824
114	0xbdbb7aa8	-0.09154254
115	0x3d76f6cb	0.060293954
116	0x3e513b83	0.20432858
117	0xbd022bc7	-0.03178003
118	0x3e506717	0.20351826
119	0xbde6cbdc	-0.11269352
120	0x3dbb27c1	0.09138442
121	0xbdb39ccb	-0.0877014
122	0x3ddf2d4d	0.10897312
123	0x3d5ff752	0.054679222
124	0x3c29fd4d	0.010375333
125	0x3e09a8ad	0.13443251
126	0xbd88b092	-0.06674303
127	0xbd99c5ac	-0.07508406
128	0x3aebe064	0.0017995951
129	0x3adacbac	0.0016692779
130	0xbab8bba0	-0.0014094003
131	0x3b3ae652	0.002851863
132	0xba86d9ee	-0.0010288337
133	0x3af24d2c	0.0018486134
134	0x3957dc7b	0.00020586133
135	0xba39c01c	-0.00070858165
136	0x3b37da04	0.0028053531
137	0xbad40d22	-0.001617823
138	0x392cd0ce	0.00016480984
139	0x3aaed14c	0.0013337522
140	0x3b2e6ff0	0.0026617013
141	0xbae10e82	-0.0017170461
142	0xba864238	-0.0010243123
143	0x3afa8c78	0.0019115349
144	0x3ad299ac	0.0016067526
145	0xbab606b0	-0.0013887491
146	0x3a22af06	0.000620589
147	0x3a2fb05c	0.0006702
148	0xbb234951	-0.0024915526
149	0x39f11430	0.00045982143
150	0x3ad86274	0.0016508834
151	0xb966ee10	-0.00022023194
152	0xbb0d209e	-0.0021534334
153	0x3a757928	0.0009364062
154	0xbb075d7e	-0.002065509
155	0xbb1c0b38	-0.0023810398
156	0xbab10174	-0.0013504461
157	0xba75e62c	-0.00093803066
158	0x3864b1ad	5.452491e-05
159	0xba330124	-0.0006828478
160	0x3a89c690	0.0010511447
161	0xb98bce00	-0.00026665628
162	0x3ade55a4	0.0016962779
163	0x3a8c90a0	0.0010724254
164	0x3a00cc3c	0.0004913246
165	0xba100324	-0.0005493632
166	0xbaa70731	-0.0012743232
167	0x3a1e9ff2	0.00060510554
168	0x39b4c730	0.00034480682
169	0xb8890fa0	-6.5355795e-05
170	0x39115420	0.00013859617
171	0x3b3f38ca	0.0029178136
172	0xba9b9f3b	-0.0011873016
173	0xba8c4f87	-0.0010704853
174	0xb9aa7354	-0.00032510853
175	0x3a2ad5d0	0.0006516846
176	0xbb3332d0	-0.002734352
177	0x3a632b58	0.00086658215
178	0xbb3697eb	-0.0027861546
179	0xba353c60	-0.00069135986
180	0xbb139d14	-0.0022524046
181	0xbb223b18	-0.002475446
182	0xbae5b38d	-0.0017524824
183	0xbb22cc14	-0.0024840878
184	0xb94d1400	-0.00019557774
185	0xb97f0fc4	-0.00024324568
186	0xba903efd	-0.00110051
187	0xbab62897	-0.0013897595
188	0xba5c1be0	-0.00083964877
189	0x39f08248	0.00045873434
190	0xbada07d1	-0.001663441
191	0xba3f2c16	-0.0007292641
192	0xbac68ccc	-0.0015148162
193	0x3a396b69	0.00070731953
194	0x3a63c365	0.0008688479
195	0xbb25a640	-0.0025276095
196	0xbb3dbaf7	-0.002895055
197	0x39039340	0.00012547988
198	0xbb38c9f5	-0.0028196548
199	0x3ae2b4f0	0.0017296355
200	0x3b1ff3cb	0.0024406787
201	0xbb0ee268	-0.002180243
202	0xbace8c6b	-0.00157584
203	0xba5b8c6c	-0.00083751115
204	0x3b195336	0.0023395545
205	0x39e10a18	0.00042922865
206	0x3af0b7f0	0.0018365365
207	0xb9250898	-0.00015738828
208	0x3a362b68	0.0006949217
209	0xb9a23298	-0.00030936743
210	0xb9d23e20	-0.00040100608
211	0xba54e2c0	-0.00081209466
212	0xb9e8add8	-0.00044380012
213	0x3af386d8	0.0018579615
214	0x3a032a28	0.0005003535
215	0x3b09f396	0.002104973
216	0x3b3a0dce	0.0028389576
217	0xba1da634	-0.0006013841
218	0x3a8bd22c	0.0010667494
219	0x3ad2ef34	0.0016093017
220	0xba91d5ec	-0.0011126376
221	0xba86ee9c	-0.00102945
222	0xbb224975	-0.0024763022
223	0xbb0410e2	-0.0020151665
224	0xbb3bbf95	-0.0028648127
225	0x3a930729	0.0011217344
226	0xbacf5cab	-0.0015820464
227	0xbb0ca534	-0.0021460773
228	0x3a8843ac	0.0010396144
229	0x39bf5770	0.00036495505
230	0xbae79108	-0.0017667124
231	0x3b33955e	0.0027402262
232	0xba6267bc	-0.00086366734
233	0xba1bf194	-0.00059487787
234	0x3b15d250	0.0022860952
235	0xba77a935	-0.0009447516
236	0xb9f662b0	-0.00046994304
237	0x3aa7816a	0.0012779657
238	0xbaaede56	-0.0013341408
239	0x3b2b696d	0.0026155368
240	0x3b2b4f1a	0.0026139678
241	0xba148be8	-0.00056665996
242	0xb9c75858	-0.0003802206
243	0xba4ae458	-0.00077397143
244	0xbb0e2a74	-0.0021692785
245	0x3ae86ad1	0.0017732029
246	0xbb050aa4	-0.0020300532
247	0xbae81b49	-0.0017708327
248	0x3b333030	0.0027341954
249	0xba380d4c	-0.00070210244
250	0x3afa77f8	0.001910924
251	0xba6af7e4	-0.000896333
252	0x39cee393	0.00039460938
253	0x3a86eb24	0.0010293466
254	0xb9a6d068	-0.00031817262
255	0xbad9172e	-0.0016562694

fc3.bias f4 [128]
0	0xbd570d1f	-0.052502748
1	0xbdaf3be7	-0.08556347
2	0x3c5c1ebe	0.013435064
3	0xbd050d0d	-0.03248315
4	0x3deff726	0.11717062
5	0x3db62989	0.08894641
6	0x3d93ad26	0.0721076
7	0xbd0b0cb6	-0.03394767
8	0xbe200cb9	-0.15629853
9	0xbd42a2d1	-0.047518555
10	0x3e1b3f66	0.15160903
11	0x3e4ea961	0.201818
12	0xbd4f4d25	-0.05061068
13	0x3b3b61e0	0.0028592274
14	0x3deadb2d	0.11467586
15	0x3d2a7261	0.041612986
16	0xbd1539aa	-0.036431946
17	0x3e3e5760	0.18588018
18	0xbcf3b192	-0.029747758
19	0x3c3e60fe	0.011619804
20	0xbcf69125	-0.030098507
21	0xbdba6380	-0.09101009
22	0xbe49c24f	-0.19703029
23	0xbd19069f	-0.03735983
24	0x3dfe822a	0.124271706
25	0xbdb18b7e	-0.08669184
26	0xbcc31cc8	-0.023817435
27	0x3cb2c51f	0.02182251
28	0xbdea11e4	-0.114291936
29	0xbd4d4d52	-0.050122567
30	0xbd9dbef3	-0.07702436
31	0xba6face2	-0.0009142888
32	0xbd136702	-0.035986908
33	0xbdc56dc2	-0.09640075
34	0xbd94bcaa	-0.07262547
35	0x3e1e1d80	0.15440941
36	0xbdd71073	-0.10501184
37	0xbd06f546	-0.032948755
38	0x3dec6e2e	0.115444526
39	0xbd9db7f2	-0.077011004
40	0xbcc26bc1	-0.023733022
41	0xbd894320	-0.06702256
42	0xbdb0a3e9	-0.086250134
43	0xbe33dbb5	-0.1756428
44	0x3dc760c6	0.09735255
45	0x3d98dcc1	0.074639805
46	0xbd6064cb	-0.054783624
47	0xbd8d36dc	-0.06895229
48	0x3d4389c5	0.04773881
49	0x3ceb8a3b	0.028752437
50	0xbce0f4a2	-0.0274604
51	0x3e5c0218	0.21485174
52	0xbe61f39b	-0.22065584
53	0x3e03f52b	0.12886493
54	0x3d3aa88a	0.045570888
55	0x3b6f4cfb	0.003651439
56	0x3e94cab8	0.29060912
57	0x3d831ac4	0.064015895
58	0xbd450feb	-0.048110884
59	0x3e1c826d	0.15284128
60	0xbd598cd9	-0.05311284
61	0x3d397de8	0.04528609
62	0xbd77284d	-0.06034117
63	0x3de20189	0.11035449
64	0xbd88126f	-0.06644141
65	0xbdb34144	-0.08752683
66	0x3e476fff	0.19476317
67	0x3dc3c06e	0.095581874
68	0x3dba3126	0.090914056
69	0x3e643364	0.22285229
70	0x3dbc31db	0.09189197
71	0x3cfd1a86	0.030896436
72	0xbd12d881	-0.035851005
73	0x3d7d3f70	0.061828077
74	0xbd08caaf	-0.03339642
75	0x3e04f210	0.12982965
76	0xbd445aea	-0.047938265
77	0x3d01a283	0.031649124
78	0x3dddbcd1	0.108270295
79	0xbd94470b	-0.07240113
80	0xbc366dc6	-0.01113457
81	0xbd573c52	-0.05254776
82	0x3ddb293b	0.107012235
83	0xbd381b78	-0.04494807
84	0xbdae9b84	-0.08525756
85	0xbcc14728	-0.0235935
86	0xbd819e12	-0.06328978
87	0xbd9a94c7	-0.07547908
88	0x3e21e072	0.15808275
89	0xbd95be7b	-0.07311722
90	0xbc62bf86	-0.013839608
91	0xbd522cc7	-0.051312234
92	0x3c0f16b0	0.008733436
93	0xbe098f1b	-0.13433497
94	0x3dd20596	0.10254972
95	0xbda73b1a	-0.081655696
96	0x3d784bcd	0.060619164
97	0xbe1c8d6d	-0.15288325
98	0x3e1da3f1	0.1539457
99	0x3dd3fb92	0.103507176
100	0xbdb60836	-0.08888285
101	0xbd887fd0	-0.06665003
102	0x3e19ad2b	0.15007465
103	0xbd8dafae	-0.06918274
104	0xbcec2033	-0.028823948
105	0xbdbb8cd6	-0.09157722
106	0xbd819a2a	-0.063282326
107	0x3e03f044	0.12884623
108	0x3de2dc65	0.11077193
109	0xbcdf151c	-0.027231745
110	0xbd057a5d	-0.032587398
111	0x3e59debf	0.21276377
112	0x3e0621a7	0.13098775
113	0xbd17be31	-0.037046615
114	0x3d663acd	0.05620842
115	0xbd1312e1	-0.035906676
116	0x3e27d156	0.16388449
117	0xbd98eee6	-0.07467441
118	0xbd4fba6c	-0.050714895
119	0x3db37bb5	0.087638296
120	0x3d8182f6	0.06323807
121	0xbdcfe564	-0.10151175
122	0xbdaf106b	-0.08548053
123	0x3e1fc5a4	0.15602738
124	0x3dee57ff	0.11637878
125	0xbda9cb5c	-0.08290741
126	0xbe367622	-0.17818502
127	0xbd7bdf59	-0.061492298

fc4.weight f4 [2, 128]
0	0xbcfc1951	-0.03077379
1	0xbda80252	-0.082035676
2	0xbf597e5f	-0.8495845
3	0xbe4cf724	-0.20016152
4	0x3f2c635e	0.6733912
5	0x3e94b602	0.2904511
6	0x3e02753f	0.12740038
7	0xbd2ae250	-0.041719735
8	0xbf0312d3	-0.512006
9	0x3d753c1a	0.05987177
10	0x3cf66e8e	0.030082013
11	0x3ce3440e	0.027742412
12	0xbe14b79f	-0.14523171
13	0xbef94cce	-0.4869141
14	0x3e0aacdb	0.13542502
15	0x3e8454bf	0.25845906
16	0x3d9d4448	0.07679039
17	0x3e61c6f7	0.22048555
18	0xbce62c97	-0.028097434
19	0xbc95f315	-0.018304387
20	0xbcb7cc7e	-0.022436377
21	0xbf500d60	-0.8127041
22	0x3ea52f8d	0.3226284
23	0xbd0b58c7	-0.03402021
24	0x3f25123a	0.64480937
25	0xbe544b3f	-0.20731829
26	0x3de6c34d	0.112677194
27	0x3ee37c70	0.44430876
28	0xbe5ed0cf	-0.21759342
29	0xbd5e25df	-0.054235335
30	0xbeafc173	-0.34327278
31	0x3e9cddc3	0.3063794
32	0xbbc65bf3	-0.0060534417
33	0xbd79a2a1	-0.06094611
34	0x3ac98300	0.0015374124
35	0x3d8842c3	0.06653359
36	0xbd3e7fbc	-0.046508536
37	0x3cce5ec2	0.025191668
38	0x3e1a26e5	0.150539
39	0x3dc5dc5e	0.09661172
40	0xbe87f67f	-0.2655525
41	0x3d0e7b14	0.034785345
42	0xbbf84de0	-0.007577643
43	0xbeae45c3	-0.340376
44	0xbd6c6696	-0.05771502
45	0x3e96c034	0.29443514
46	0xbd8b466e	-0.06800543
47	0x3b0f9c25	0.0021913138
48	0x3d068503	0.032841694
49	0xbcec755e	-0.028864559
50	0x3cd99db4	0.026564457
51	0x3eee6aff	0.46566007
52	0x3e8c658f	0.27421233
53	0x3d062448	0.032749444
54	0xbd184315	-0.03717335
55	0xbda3cb43	-0.079977535
56	0x3ee964fe	0.45584863
57	0x3f0fe353	0.56206244
58	0xbc419930	-0.011816308
59	0x3daeea7b	0.08540817
60	0xbc7bf127	-0.015377319
61	0xbe5e00c4	-0.2167998
62	0xbccae807	-0.024768842
63	0x3de20878	0.110367715
64	0xbdb0dbf9	-0.086357065
65	0xbd989c3b	-0.074516736
66	0x3d0ca83e	0.034340136
67	0xbdce4da9	-0.10073406
68	0x3dfb8172	0.12280549
69	0x3d1982b5	0.037478168
70	0x3e926011	0.28588918
71	0xbf002a59	-0.5006462
72	0xbcd82f98	-0.026389882
73	0x3f17bd44	0.5927317
74	0xbe9c292d	-0.30500165
75	0x3f1f42e4	0.6221144
76	0x3f259fd7	0.6469702
77	0xbd53758a	-0.051625766
78	0x3ed3b983	0.41352472
79	0xbd6f20cb	-0.058380883
80	0xbd9e6941	-0.07734919
81	0x3c286bca	0.010279605
82	0x3f0d5e1f	0.5522174
83	0x3ca55e87	0.020186676
84	0x3d2c1439	0.042011473
85	0xbcd2d5e8	-0.025736764
86	0xbd8e82e4	-0.06958559
87	0xbc47a02c	-0.012184184
88	0x3cb1994f	0.021679549
89	0xbd4b3628	-0.049612194
90	0xbf1cc8ee	-0.61244094
91	0xbe060e9d	-0.13091512
92	0xbdc5fc6d	-0.09667287
93	0xbe9f98ff	-0.31171414
94	0x3f46ea8d	0.77701646
95	0x3d69b6d9	0.057059143
96	0xbc03438b	-0.008011709
97	0x3c3d3abe	0.01154965
98	0x3dfbc92b	0.12294229
99	0xbd5f332f	-0.05449217
100	0x3d2723a9	0.040805493
101	0xbcc76d65	-0.024344156
102	0x3f2bf742	0.6717416
103	0x39530532	0.00020124463
104	0xbd956ac6	-0.07295756
105	0x3c394609	0.011308202
106	0x3d759802	0.05995942
107	0x3e8eb44d	0.27871934
108	0x3f1a4de1	0.60275084
109	0xbf095a0c	-0.53653026
110	0x3db2f322	0.0873778
111	0x3d0bdd87	0.03414681
112	0x3cb88a75	0.022526959
113	0xbe9839ef	-0.297317
114	0x3d879ea2	0.06622054
115	0xbc949d69	-0.018141465
116	0x3db6c6e1	0.08924652
117	0x3c88ee2c	0.016715132
118	0xbd7f1f63	-0.062285792
119	0x3e947f7b	0.2900351
120	0xbe81b434	-0.25332797
121	0xbd2d0b66	-0.0422472
122	0xbd891ff8	-0.06695551
123	0x3f17a7f4	0.5924065
124	0x3eccd959	0.40009573
125	0xbd8061a8	-0.062686265
126	0xbe9b0d2e	-0.30283493
127	0xbd87dbbe	-0.06633709
128	0xbe5888f6	-0.21145996
129	0x3d3517d6	0.044212185
130	0xbbc0fd05	-0.0058895373
131	0xbe97b0aa	-0.2962697
132	0x3bf1ded8	0.0073813014
133	0xbf1c509c	-0.610605
134	0xbf0dec69	-0.5543886
135	0x3e343a48	0.17600358
136	0xbe956e4d	-0.29185715
137	0x3ca458ce	0.020061877
138	0xbf3895fe	-0.7210387
139	0x3e83ec83	0.25766382
140	0xbf0fba25	-0.5614341
141	0x3d9e1038	0.07717937
142	0x3ec9eb32	0.39437252
143	0xbe08cc1f	-0.13359116
144	0xbc1eb761	-0.009687276
145	0x3eca36a8	0.39494824
146	0xbd8e9284	-0.069615394
147	0x3e19f5b5	0.15035136
148	0x3e0e2c65	0.13884123
149	0xbd637d69	-0.055539522
150	0xbeca0978	-0.3946035
151	0x3e37a9b4	0.1793583
152	0x3d80b94e	0.06285344
153	0xbe63f190	-0.22260118
154	0xbf2d4685	-0.6768573
155	0x3ea8fd6e	0.33005852
156	0xbe5848a8	-0.21121466
157	0xbd835392	-0.06412424
158	0xbe5b2d21	-0.21403934
159	0xbf0c92d9	-0.5491157
160	0xbd9702b3	-0.07373562
161	0xbea90847	-0.33014128
162	0x3d86be95	0.065793194
163	0xbf07de24	-0.53073335
164	0xbe7602b8	-0.24024475
165	0xbcd0eb1c	-0.025502734
166	0xbf17a717	-0.59239334
167	0x3f4d141a	0.801088
168	0x3e72bfef	0.2370603
169	0xbd1546ca	-0.036444463
170	0x3c425400	0.0118608475
171	0xbed941e3	-0.4243308
172	0x3eb7d3a8	0.35903668
173	0xbf404ab5	-0.75113994
174	0xbe49fca9	-0.19725288
175	0xbd067c2d	-0.032833267
176	0x3ee76de5	0.4520103
177	0x3ed0ab93	0.407559
178	0x3d3dc89c	0.046333894
179	0x3c300c94	0.010745186
180	0xbed178d8	-0.4091251
181	0x3eb30f33	0.34972534
182	0x3ea6a27d	0.32545844
183	0x3e06da7f	0.13169287
184	0x3dd1c194	0.10242
185	0xbd89cbca	-0.06728323
186	0xbc4801d4	-0.012207467
187	0xbf791525	-0.9729789
188	0x3c248d54	0.010043461
189	0x3ec04fef	0.37560984
190	0x3d650e4e	0.055921845
191	0xbf6615cb	-0.89877003
192	0x3da041eb	0.07825073
193	0xbdadc6e6	-0.084852025
194	0x3e8a37e4	0.26995766
195	0x3ede0f6f	0.4337115
196	0xbebf2e69	-0.37340096
197	0x3ea5412c	0.32276285
198	0xbf01ac38	-0.5065341
199	0xbc46920a	-0.012119779
200	0x3e27dbed	0.16392489
201	0xbec455a0	-0.38346577
202	0xbe3c35ec	-0.18379945
203	0x3de9a921	0.11409212
204	0x3e36b751	0.17843367
205	0x3e0db1b7	0.13837324
206	0x3e966380	0.29372787
207	0xbeb83060	-0.35974407
208	0x3c90effe	0.017692562
209	0x3db10477	0.0864343
210	0x3df204d5	0.11817328
211	0x3cf91096	0.030403417
212	0x3d9dd4d1	0.07706607
213	0x3c9ccf18	0.019141719
214	0xbc96df8c	-0.018417142
215	0x3d0c062a	0.034185566
216	0x3eca22d4	0.39479697
217	0x3dac8695	0.08424107
218	0xbe101b7c	-0.14072984
219	0xbe34a57f	-0.17641257
220	0x3e9e8995	0.30964342
221	0xbe3cb04b	-0.18426625
222	0xbce46027	-0.02787788
223	0x3c958f9b	0.018256953
224	0x3ebe916a	0.37220317
225	0xbeae7cd0	-0.340796
226	0xbf23c108	-0.6396642
227	0xbf485ab7	-0.7826342
228	0x3b832ce0	0.0040031523
229	0xbcbc0f32	-0.022956464
230	0x3e388985	0.1802121
231	0x3c03b53b	0.008038814
232	0xbe5325ca	-0.20619884
233	0x3a5c4014	0.00084018824
234	0x3c6ebc05	0.014571195
235	0xbdabe975	-0.08394138
236	0xbf441b27	-0.7660393
237	0x3d336afd	0.043803204
238	0x3cc1339f	0.023584185
239	0x3e746f2d	0.23870535
240	0x3ecd8c0e	0.40145916
241	0x3ec3ca5a	0.3824032
242	0xbf2b9ca5	-0.67035896
243	0xbbf883f5	-0.00758409
244	0xbee49219	-0.44642714
245	0xbd925b47	-0.07146316
246	0xbd16c71d	-0.036810983
247	0xbee0db8a	-0.43917495
248	0x3eb0ec63	0.3455535
249	0xbd5abec4	-0.053404585
250	0xbbacd05b	-0.0052738613
251	0x3da375e8	0.07981473
252	0x3e4f8dd8	0.20268953
253	0x3c3ea35d	0.0116356285
254	0xbe6ce1d4	-0.23133022
255	0xbd1c7929	-0.038201485

fc4.bias f4 [2]
0	0x3cb53824	0.022121496
1	0x3d95c507	0.073129706

bn1.weight f4 [256]
0	0x3ec7b814	0.39007628
1	0x3f4b5bda	0.7943703
2	0x3e08e07d	0.13366885
3	0x3ec7be84	0.3901254
4	0x3ef8b7f3	0.48577842
5	0x3f30da78	0.69083357
6	0x3f0d4818	0.5518813
7	0x3ec9b2e0	0.39394283
8	0x3f34a330	0.70561504
9	0x3e213eef	0.15746664
10	0x3f359cc0	0.70942307
11	0x3f16e91c	0.58949447
12	0x3f10c1e8	0.5654588
13	0x3d6cb4a1	0.05778945
14	0x3ee5c9da	0.44880563
15	0x3ea396b8	0.31950927
16	0x3ee0cb92	0.43905312
17	0x3f46a638	0.7759738
18	0x3f81c3a6	1.0137832
19	0x3ea92977	0.33039448
20	0x3f81eda2	1.0150645
21	0x3ef15060	0.47131634
22	0x3f59e4cc	0.8511474
23	0x3e2926f8	0.16518772
24	0x3ee07d5b	0.4384564
25	0x3f4c93ed	0.79913217
26	0x3eaf6764	0.34258568
27	0x3ee71678	0.4513433
28	0x3f730231	0.9492522
29	0x3e41f7e5	0.1894222
30	0x3f5d9592	0.8655635
31	0x3e8cb0d2	0.27478653
32	0x3f24949d	0.64289266
33	0x3f725c75	0.9467233
34	0x3f09807e	0.5371169
35	0xbccddf18	-0.025130793
36	0x3e87bc5f	0.26510903
37	0x3f4f6aab	0.8102214
38	0x3f044fe4	0.51684403
39	0x3f528845	0.8223918
40	0x3f5e904b	0.86938924
41	0x3e900a81	0.28133014
42	0x3f456430	0.77106
43	0x3dbd5505	0.09244732
44	0x3f06d694	0.5267117
45	0x3e4b5d60	0.19859838
46	0x3ecd1952	0.4005838
47	0x3f2352d9	0.6379829
48	0x3edf5793	0.436215
49	0x3f9b23fb	1.2120355
50	0x3eefd367	0.46840975
51	0x3e70518d	0.23468609
52	0x3f66ce1d	0.90158254
53	0x3f8f2a4e	1.1184785
54	0x3f09aca2	0.5377904
55	0x3e9d85e3	0.3076621
56	0x3e610f2c	0.21978444
57	0x3f73be7d	0.9521254
58	0x3eb6b048	0.35681367
59	0x3f156ae8	0.5836625
60	0x3ecd9da6	0.4015934
61	0x3f16be4e	0.5888413
62	0x3f59f85f	0.8514461
63	0x3f18b98e	0.59658134
64	0x3ead8cf4	0.338966
65	0x3ea8fd3e	0.33005708
66	0x3e784a4d	0.24247093
67	0x3f09048d	0.5352257
68	0x3f73ee88	0.95285845
69	0x3e3879b5	0.18015178
70	0x3ea1213c	0.31470668
71	0x3ee09cdb	0.4386967
72	0x3ec11b00	0.37715912
73	0x3f813a9b	1.009601
74	0x3f1ec9bb	0.62026566
75	0x3f125e6d	0.5717533
76	0x3f7998e7	0.97498935
77	0x3e8e5a2c	0.2780317
78	0x3ea1208b	0.3147014
79	0x3e85e48d	0.26150933
80	0x3f1525dc	0.58260894
81	0x3ebbc3c4	0.36672795
82	0x3eeaa234	0.45826876
83	0x3f1cc18b	0.61232823
84	0x3f24ab7d	0.6432417
85	0x3eb2bffb	0.34912094
86	0x3f0c8b4f	0.5490007
87	0x3ee36fb3	0.44421157
88	0x3f92fa76	1.1482685
89	0x3f8422b9	1.0323097
90	0x3f8f5fff	1.1201171
91	0x3f159217	0.5842604
92	0x3e44d976	0.1922358
93	0x3eca7b74	0.39547312
94	0x3f1656f3	0.58726424
95	0x3fbcf56e	1.4762399
96	0x3f243443	0.64142245
97	0x3f3ad1ff	0.7297668
98	0x3eb23d51	0.34812406
99	0x3f098b09	0.53727776
100	0x3eed142b	0.4630445
101	0x3f746739	0.95470005
102	0x3f6df72a	0.9295527
103	0x3f2a3398	0.66484976
104	0x3e856b3b	0.26058373
105	0x3e838a6a	0.2569154
106	0x3f79cb03	0.97575396
107	0x3ef30362	0.47463518
108	0x3efce380	0.4939232
109	0x3f0676c3	0.52524966
110	0x3f3dae9c	0.7409456
111	0x3f107bec	0.5643909
112	0x3eb93981	0.36176684
113	0x3f43f161	0.7654019
114	0x3f7c2bfe	0.98504627
115	0x3f1f9d6b	0.62349576
116	0x3e8cb7da	0.27484018
117	0x3e37c159	0.1794485
118	0x3e695a79	0.22788419
119	0x3ec968b2	0.3933769
120	0x3f469c8d	0.7758263
121	0x3e466bdc	0.19377083
122	0x3eae5850	0.34051752
123	0x3e9480fc	0.29004657
124	0x3ebd9959	0.37031057
125	0x3f599fc8	0.8500943
126	0x3f631c55	0.88715106
127	0x3f90ea20	1.1321449
128	0x3f3fc12d	0.7490414
129	0x3f9668d8	1.1750746
130	0x3f64b865	0.89343864
131	0x3f5628bb	0.836559
132	0x3e8c0a5d	0.27351657
133	0x3f4e5e46	0.806126
134	0x3eb487aa	0.35259753
135	0x3f25f802	0.64831555
136	0x3f2caef8	0.6745448
137	0x3d19454d	0.037419606
138	0x3f5e2ed9	0.86790234
139	0x3dbf0e28	0.09328872
140	0x3f2140a1	0.6298924
141	0x3f519da4	0.81881166
142	0x3e996728	0.29961514
143	0x3efb826c	0.49122941
144	0x3f5161fc	0.8179014
145	0x3f6dda08	0.92910814
146	0x3ecb7b77	0.39742634
147	0x3edba6b4	0.42900622
148	0x3ef7287f	0.48273084
149	0x3f025797	0.509149
150	0x3ec76b8c	0.3894924
151	0x3eceaaf9	0.40364817
152	0x3e893f1a	0.26805955
153	0x3ee24da3	0.44199857
154	0x3f485e6d	0.7826908
155	0x3f2919f3	0.6605522
156	0x3f594ca7	0.8488259
157	0x3ddd513b	0.10806509
158	0x3f8ed8ff	1.1159972
159	0x3efe0765	0.49615017
160	0x3ef016fb	0.46892533
161	0x3f4b6e25	0.7946494
162	0x3ea7fa92	0.32808357
163	0x3f86aa0b	1.0520643
164	0x3f4ce852	0.8004199
165	0x3f53ac3c	0.82684684
166	0x3f99a178	1.2002401
167	0x3f59f577	0.85140175
168	0x3f24b5be	0.64339817
169	0x3f7d3bff	0.9891967
170	0x3e425d65	0.1898094
171	0x3e533352	0.20625046
172	0x3e4fd348	0.20295441
173	0x3efd450e	0.49466747
174	0x3f3a8cd8	0.7287116
175	0x3f8518b4	1.0398164
176	0x3f2a17f6	0.6644281
177	0x3e8547ab	0.2603124
178	0x3e6236fa	0.22091284
179	0x3f2da007	0.6782231
180	0x3f0932cf	0.5359315
181	0x3f677a60	0.90421104
182	0x3f7506be	0.9571341
183	0x3de6de73	0.112728976
184	0x3db3d449	0.087807246
185	0x3f3ca0a8	0.7368264
186	0x3f14cf9a	0.58129275
187	0x3f15ec6e	0.5856389
188	0x3f4a01e5	0.7890914
189	0x3f9c3b8f	1.2205676
190	0x3f334108	0.70021105
191	0x3ee58306	0.44826525
192	0x3ecbb85b	0.3978909
193	0x3f5f7cf9	0.8730007
194	0x3f6812eb	0.90653867
195	0x3e357dc0	0.17723751
196	0x3f17e971	0.5934058
197	0x3f764475	0.9619821
198	0x3e848209	0.2588046
199	0x3ed1c929	0.40973786
200	0x3e611fd8	0.21984804
201	0x3eccbf06	0.3998949
202	0x3f44442b	0.76666516
203	0x3f7527b3	0.957637
204	0x3f047dcb	0.51754445
205	0x3f222162	0.6333219
206	0x3f949855	1.1608988
207	0x3f47655c	0.7788904
208	0x3f6e924e	0.93191993
209	0x3f12f58e	0.57405937
210	0x3f888e9f	1.0668525
211	0x3f3c0eec	0.7346027
212	0x3f54fb54	0.83195996
213	0x3f3753df	0.7161235
214	0x3f95b8c1	1.1697007
215	0x3ef35ff2	0.47534138
216	0x3f5b7823	0.8573019
217	0x3f531334	0.82451177
218	0x3e0fa904	0.14029318
219	0x3f711945	0.94179183
220	0x3f4c1768	0.79723215
221	0x3f18985c	0.5960748
222	0x3e1254b6	0.14290127
223	0x3e97c5be	0.29643053
224	0x3e7b27b2	0.24526861
225	0x3f7c32ff	0.98515314
226	0x3f165ddd	0.58736974
227	0x3e8c681c	0.2742318
228	0x3f0ab395	0.5418027
229	0x3f1ca321	0.61186415
230	0x3e296551	0.16542555
231	0x3f049ad9	0.5179878
232	0x3f1912d0	0.5979433
233	0x3f4fd6be	0.81187046
234	0x3ede00c7	0.43359968
235	0x3e057675	0.13033469
236	0x3fad3922	1.353306
237	0x3f06630c	0.52494884
238	0x3eaf1088	0.341923
239	0x3f34a3b4	0.7056229
240	0x3ee7107f	0.45129773
241	0x3ed7d94c	0.42157972
242	0x3f35ced0	0.71018696
243	0x3f5b7858	0.85730505
244	0x3e85ad3e	0.26108736
245	0x3f112069	0.5669008
246	0x3efdc863	0.49566945
247	0x3e08a2df	0.1334338
248	0x3f4d5a67	0.8021607
249	0x3f2fb549	0.68635994
250	0x3f498986	0.7872547
251	0x3f084db6	0.5324358
252	0x3f1ebb81	0.6200486
253	0x3f121bb7	0.5707354
254	0x3e2593a4	0.16169602
255	0x3f3290b5	0.69752055
