pretrainedNetworks/actor_target1.pth (torch_old, 230166 bytes, 12 tensors)

fc1.weight f4 [256, 24]
0.072117426 -0.3777423 -0.05006528 -0.53140724 0.09391166 -0.021121169 -0.014196296 -0.51624525
0.1478019 -0.41901106 0.06605721 -0.058804113 0.21696095 -0.09712274 -0.038335886 -0.05710502
0.02451185 -0.4927005 -0.00731253 -0.16596422 0.1976727 -0.21606947 -0.0468141 -0.24247332
0.18792386 0.11740969 0.0016553325 0.11091481 -0.21317986 -0.28475067 -0.035409573 0.079006284
0.18659069 0.21835436 -0.004928467 0.10826047 -0.18699013 -0.42116454 0.005467292 0.088481784
0.30359995 0.17493881 0.048734322 -0.37500745 -0.20663011 -0.21490619 0.006905059 -0.32779506
-0.06218242 -0.36537418 -0.2979075 -0.0313419 0.16953008 0.09815163 -0.18487105 -0.02693058
-0.037739515 -0.3172294 -0.12780608 0.13853891 0.0178785 -0.1660618 -0.041633368 0.083012015
-0.106250346 -0.19957621 -0.00028392038 0.004971435 0.0011517103 -0.5766922 0.001225187 -0.0019871232
0.30955535 0.28397304 -0.021865511 0.070667334 -0.21780397 0.26896343 -0.0031396823 -0.0015708212
0.37335068 0.48070204 -0.023725465 0.154163 -0.18188988 0.026226804 -0.014318146 0.1447986
0.21104823 0.32330897 -0.036216017 0.1250147 -0.379493 0.13954094 -0.024500608 0.0794941
-0.09992953 0.12796006 0.011955479 0.19480167 0.19032885 0.19295697 0.061880007 0.19383465
-0.08315866 0.18265262 -0.005278033 -0.0710441 0.03827534 -0.1206982 0.006501706 -0.08806534
-0.11785361 0.14532791 -0.21054716 -0.042187225 -0.22471789 -0.6363126 -0.13416725 0.0525506
0.023907691 0.05621447 -0.006314986 -0.2896862 0.026881441 -0.59079987 -0.050550863 -0.19602539
0.05677313 0.022625664 -0.10526602 -0.123649284 0.12920396 -0.50568897 -0.090249375 -0.11958708
0.12285371 -0.16967653 0.050994035 0.17457853 0.23862284 0.110726394 0.09513638 0.13348071
-0.001201213 -0.012006994 0.057048284 -0.0936685 0.06495598 -0.3741271 0.0028784908 -0.12241477
0.04784891 -0.09285724 0.02275728 -0.11203244 0.067852005 -0.32284763 0.10096941 -0.20382515
-0.0042641493 -0.11180647 -0.007778695 -0.033726312 0.31029475 -0.85973346 0.07466993 -0.105577864
0.014886228 -0.35178873 0.067719646 0.28426358 0.12009482 0.38416973 0.12577103 0.21977438
-0.023072468 -0.32629386 0.048783135 0.088463746 -0.012772202 0.43906966 0.117053345 0.13481055
0.13498943 -0.19547245 0.06512134 0.11036469 -0.10531339 0.080153964 0.10826762 0.13469075
0.15142216 0.20793334 -0.041127253 -0.038446102 0.074386135 -0.58976644 0.006889864 0.0014027039
0.17376837 0.15189534 0.0042657 -0.22038671 0.078467414 -0.73943126 -0.047833644 -0.21317123
0.24250746 0.06914855 0.036045972 -0.063340545 0.014190926 -0.7138528 -0.07423895 -0.054037776
0.042925272 -0.36341232 0.037031572 0.026748076 -0.29870856 -0.24814096 0.104468256 -0.020762285
0.12940791 -0.33610073 -0.027316766 0.07982436 -0.19912082 0.25300258 0.05808405 0.0348909
0.1626908 -0.2591198 -0.056664616 -0.1436486 -0.22370544 0.6945993 -0.09947829 -0.12658864
0.03353357 0.35126895 -0.057196938 0.22481313 -0.03837383 -0.3642661 -0.08258909 0.12885901
0.061829217 0.42253345 -0.043436512 -0.058207 -0.015902404 -0.62225693 -0.09372936 -0.07067543
00000000: 4db2 933d 7067 c1be 4011 4dbd 4e0a 08bf
00000010: c254 c03d 4d06 adbc 9597 68bc a628 04bf
00000020: 6259 173e 9e88 d6be 0149 873d 95dc 70bd
00000030: 032b 5e3e 49e8 c6bd 1706 1dbd f4e6 69bd
00000040: 13cd c83c 3d43 fcbe f39d efbb 86f2 29be
00000050: b66a 4a3e 5141 5dbe 24c0 3fbd ed4a 78be
00000060: 1d6f 403e 7e74 f03d bef7 d83a 4e27 e33d
00000070: d24b 5abe d7ca 91be a109 11bd 0cce a13d
00000080: a111 3f3e 4998 5f3e fa7e a1bb aab7 dd3d
00000090: 577a 3fbe e1a2 d7be f826 b33b f035 b53d
000000a0: 7471 9b3e 2923 333e a49d 473d fa00 c0be
000000b0: d896 53be 5e10 5cbe d543 e23b c1d4 a7be
000000c0: feb2 7ebd 5312 bbbe 5587 98be 5d60 00bd
000000d0: 4b99 2d3e b903 c93d d64e 3dbe 859d dcbc
000000e0: c094 1abd e46b a2be 99df 02be 25dd 0d3e
000000f0: ef75 923c 1b0c 2abe c087 2abd 3402 aa3d
00000100: c899 d9bd b55d 4cbe 26db 94b9 6be7 a23b
00000110: fcf4 963a 1aa2 13bf 7496 a03a 653a 02bb
00000120: 0a7e 9e3e ea64 913e 4d1f b3bc 09ba 903d
00000130: 0108 5fbe 93b5 893e 21c3 4dbb 03e4 cdba
00000140: d227 bf3e 941e f63e e85b c2bc e8dc 1d3e
00000150: 5741 3abe 98d9 d63c a896 6abc 1646 143e
00000160: 071d 583e c188 a53e 3f57 14bd db03 003e
00000170: e84c c2be d2e3 0e3e 80b5 c8bc cdcd a23d
00000180: daa7 ccbd f607 033e eae0 433c 177a 473e
00000190: 91e5 423e 8396 453e e475 7d3d 977c 463e
000001a0: 164f aabd 4a09 3b3e 5af3 acbb 927f 91bd
000001b0: 9ac6 1c3d 9e30 f7bd 430c d53b 9a5b b4bd
000001c0: 3c5d f1bd d7d0 143e ad99 57be 83cc 2cbd
000001d0: 721c 66be 62e5 22bf 2463 09be 4c3f 573d
000001e0: 10da c33c 2541 663d f1ed cebb c051 94be
000001f0: 7836 dc3c a93e 17bf 6c0e 4fbd e1ba 48be
00000200: f18a 683d 7559 b93c b695 d7bd d63b fdbd
00000210: 0b4e 043e d574 01bf aad4 b8bd 12ea f4bd
00000220: ba9a fb3d afbf 2dbe 1fdf 503d b7c4 323e
00000230: 8c59 743e 85c4 e23d ddd6 c23d 2baf 083e
00000240: 0572 9dba fcb8 44bc 76ab 693d 45d5 bfbd
00000250: a407 853d 968d bfbe 10a5 3c3b 98b4 fabd
00000260: 38fd 433d f02b bebd 7a6d ba3c 4471 e5bd
00000270: fef5 8a3d 494c a5be 0dc9 ce3d 8ab7 50be
00000280: 47ba 8bbb cafa e4bd 6ce4 febb 9a24 0abd
00000290: f4de 9e3e 7e17 5cbf 8cec 983d 3539 d8bd
000002a0: 5ee5 733c a71d b4be 99b0 8a3d ff8a 913e
000002b0: 46f4 f53d e5b1 c43e 1fca 003e 890c 613e
000002c0: 7902 bdbc fd0f a7be d3d0 473d 7b2c b53d
000002d0: 7f42 51bc bdcd e03e aab9 ef3d c70b 0a3e
000002e0: ab3a 0a3e ee29 48be 565e 853d e206 e23d
000002f0: 8cae d7bd c327 a43d 6abb dd3d 5fec 093e
00000300: 690e 1b3e 7aec 543e 0d75 28bd a979 1dbd
00000310: c257 983d effa 16bf 5ec4 e13b efda b73a
00000320: 56f0 313e 748a 1b3e 49c7 8b3b 0ead 61be
00000330: 86b3 a03d 5e4b 3dbf 36ed 43bd 8f49 5abe
00000340: e053 783e c19d 8d3d f1a4 133d b0b8 81bd
00000350: 0f81 683c 0fbf 36bf 970a 98bd b756 5dbd
00000360: 69d2 2f3d 2e11 babe 6bae 173d c81e db3c
00000370: 54f0 98be aa18 7ebe 74f3 d53d ab15 aabc
00000380: 8283 043e 6515 acbe 69c7 dfbc f47a a33d
00000390: 54e6 4bbe 8e89 813e 8ae9 6d3d c3e9 0e3d
000003a0: 6b98 263e 5aab 84be 2819 68bd 9e18 13be
000003b0: 0a13 65be 42d1 313f 46bb cbbd 74a0 01be
000003c0: 7f5a 093d 86d9 b33e 5647 6abd 6a35 663e
000003d0: e12d 1dbd 1681 babe 7824 a9bd 9ef3 033e
000003e0: a240 7d3d 4e56 d83e 7cea 31bd 776a 6ebd
000003f0: c245 82bc 3b4c 1fbf 2ef5 bfbd 48be 90bd

fc1.bias f4 [256]
-0.42487136 -0.19035341 -0.00997527 -0.16183636 0.060768895 -0.31645364 -0.34291178 -0.09819287
-0.27908614 -0.14909716 -0.3991519 0.011941005 -0.31263754 -0.3317044 0.111680076 -0.15856822
-0.04362325 -0.06306022 -0.24745174 -0.23018253 -0.23541576 -0.18634558 0.047124814 -0.066441014
-0.22250216 0.02750936 0.0021662733 -0.32456467 -0.11135545 -0.0745862 -0.05848769 -0.08545726
-0.042773977 -0.031378333 0.09157025 -0.22995175 -0.21187682 -0.3610865 0.12428117 -0.16697712
-0.19326869 -0.32176653 0.050148055 -0.045536272 -0.13073188 -0.6397988 -0.3731725 -0.087471366
0.0064968155 -0.18146506 0.20932797 -0.43089113 -0.17053021 -0.20469604 -0.13506761 -0.27815536
-0.25670877 -0.18804337 -0.20412463 -0.31389076 -0.40822813 0.02385379 0.22781274 -0.32200953
-0.2469295 -0.1825705 -0.1756662 -0.23985267 -0.27293938 -0.04083138 -0.1823025 0.2146823
-0.090884 0.09173601 -0.05995669 0.30342165 -0.30009767 -0.15922062 -0.062483154 -0.06631682
-0.06425037 -0.43493208 -0.06616287 -0.71187216 0.056777257 0.13911253 -0.1991436 0.5187634
-0.3221649 -0.30729386 0.17925781 -0.44134665 0.001731725 -0.112859726 -0.34248352 -0.038250845
-0.3458136 0.03170437 -0.3883097 -0.13456932 -0.29318312 0.09793023 -0.12897755 -0.02076395
-0.11737672 -0.3155848 -0.0047476315 0.250606 -0.16115658 -0.39696318 -0.21943235 -0.404133
-0.31100446 -0.4235049 -0.33580884 -0.028876707 -0.2963278 -0.19042854 -0.2797859 -0.11494571
0.13616686 -0.02784797 0.094527215 -0.30167007 -0.06909693 0.8297163 0.052709304 0.1541869
-0.11506517 0.119154185 -0.022658559 -0.12422854 -0.11807354 -0.29556608 -0.18053754 -0.21432711
0.1946143 -0.03622511 -0.25734702 -0.25565132 -0.13941239 0.18007134 -0.1239012 0.1855039
-0.29313552 0.04477347 -0.15757483 -0.22554274 -0.3809408 0.1222236 0.09469446 -0.31177023
-0.109353215 -0.2938218 0.09041627 -0.13019352 -0.45194855 0.25116888 -0.43726662 -0.24734828
-0.417249 -0.42119035 0.08436814 -0.05391763 0.2145925 0.09588936 -0.2590758 0.19686599
-0.22733028 0.19930972 -0.40704948 -0.031120313 -0.3013356 0.22311473 -0.1260426 -0.18525769
-0.024787124 -0.13530472 0.3261305 0.090539016 -0.15300745 -0.109631844 0.19756931 -0.2142064
-0.61078316 -0.3851553 -0.3722576 0.05647254 -0.039063953 0.12642774 0.19393352 -0.16885132
-0.16643736 -0.056401413 0.09339422 -0.05617596 -0.28716725 -0.17946514 -0.04486089 -0.19083445
-0.14828542 -0.17490782 -0.18507488 -0.15789376 -0.15421891 -0.1264791 -0.33036053 -0.19811279
-0.4790145 -0.3068458 -0.01838953 -0.12718861 0.11215777 -0.091447674 0.15774527 -0.4153375
0.09237398 0.17686449 -0.28174025 0.25700483 -0.34447744 -0.16943534 0.04208127 -0.3422841
-0.08544847 -0.30225036 -0.35605672 -0.13061617 -0.37646475 -0.18506348 0.11099461 0.15919502
-0.21440813 0.23591132 -0.20240386 -0.14529112 0.696705 -0.341162 -0.12395923 -0.12530512
-0.09517763 -0.28334442 -0.11336216 -0.16132429 0.05054509 -0.10128878 -0.19636472 0.19012861
-0.1197789 -0.047692653 0.0648629 -0.21904187 -0.2973625 -0.050610583 -0.14848372 -0.024924558
00000000: bd88 d9be 01ec 42be 516f 23bc 6eb8 25be
00000010: cee8 783d 3606 a2be 2292 afbe 5819 c9bd
00000020: 61e4 8ebe edac 18be a35d ccbe 34a4 433c
00000030: 0712 a0be 29d5 a9be 86b8 e43d b55f 22be
00000040: 4bae 32bd b725 81bd fd63 7dbe f8b4 6bbe
00000050: d410 71be 60d1 3ebe f305 413d 3a12 88bd
00000060: 9bd7 63be 4f5b e13c 09f8 0d3b 572d a6be
00000070: 530e e4bd a6c0 98bd ca90 6fbd 3704 afbd
00000080: c433 2fbd 9186 00bd 2f89 bb3d 7978 6bbe
00000090: 3df6 58be 54e0 b8be 2087 fe3d 0dfc 2abe
000000a0: 3ae8 45be 95be a4be 0c68 4d3d 3e84 3abd
000000b0: 94de 05be dbc9 23bf 7710 bfbe 3024 b3bd
000000c0: 3de3 d43b fad1 39be 125a 563e c39d dcbe
000000d0: 799f 2ebe d79b 51be 2a4f 0abe 616a 8ebe
000000e0: 556f 83be 718e 40be 0c06 51be 4ab6 a0be
000000f0: 4703 d1be 0669 c33c be47 693e 6fde a4be
00000100: 16db 7cbe c3f3 3abe d7e1 33be f09b 75be
00000110: b6be 8bbe ce3e 27bd 82ad 3abe add5 5b3e
00000120: 6421 babd 17e0 bb3d 2595 75bd 155a 9b3e
00000130: 67a6 99be bb0a 23be 56ee 7fbd 1dd1 87bd
00000140: b395 83bd 6baf debe 6680 87bd 413d 36bf
00000150: 458f 683d 8473 0e3e 4dec 4bbe aecd 043f
00000160: ccf2 a4be 9f55 9dbe 5c8f 373e 30f8 e1be
00000170: 0cfb e23a 0023 e7bd 005a afbe ebac 1cbd
00000180: 7b0e b1be 71dc 013d 87d0 c6be 8acc 09be
00000190: 191c 96be a58f c83d b112 04be 2919 aabc
000001a0: 3563 f0bd 5594 a1be 0592 9bbb 6e4f 803e
000001b0: 3b06 25be c23e cbbe e0b2 60be 85ea cebe
000001c0: fa3b 9fbe a2d5 d8be 23ef abbe d88e ecbc
000001d0: 47b8 97be b3ff 42be 1940 8fbe a868 ebbd
000001e0: 536f 0b3e 6d21 e4bc 7c97 c13d 8074 9abe
000001f0: b182 8dbd 4a68 543f b6e5 573d 2ce3 1d3e
00000200: 4aa7 ebbd 1c07 f43d 719e b9bc 886b febd
00000210: 8ad0 f1bd 7054 97be d5de 38be 9178 5bbe
00000220: f948 473e c860 14bd fdc2 83be bbe4 82be
00000230: 1fc2 0ebe 9f64 383e eabf fdbd bcf4 3d3e
00000240: dc15 96be 6364 373d 4c5b 21be adf4 66be
00000250: ac0a c3be 5e50 fa3d 2bef c13d 59a0 9fbe
00000260: 94f4 dfbd d06f 96be 2a2c b93d 7351 05be
00000270: cd65 e7be 3599 803e 69e1 dfbe de48 7dbe
00000280: a9a1 d5be 43a6 d7be 34c9 ac3d bcd8 5cbd
00000290: 23be 5b3e a461 c43d 95a5 84be 3d97 493e
000002a0: 45c9 68be d917 4c3e ca68 d0be 07f0 febc
000002b0: a948 9abe 3078 643e 5011 01be 31b4 3dbe
000002c0: 5e0e cbbc 528d 0abe 94fa a63e 856c b93d
000002d0: fcad 1cbe a986 e0bd 9c4f 4a3e ec58 5bbe
000002e0: 495c 1cbf 1333 c5be 8c98 bebe c04f 673d
000002f0: 8601 20bd 4676 013e 8296 463e 5ce7 2cbe
00000300: 8e6e 2abe 2b05 67bd 7845 bf3d c318 66bd
00000310: 9607 93be b6c5 37be 0dc0 37bd 1b6a 43be
00000320: 22d8 17be 091b 33be 4584 3dbe e7ae 21be
00000330: 90eb 1dbe bd83 01be 0425 a9be 14de 4abe
00000340: 6341 f5be e51a 9dbe a4a5 96bc bb3d 02be
00000350: f9b2 e53d eb48 bbbd fa87 213e 1ea7 d4be
00000360: 922e bd3d f71b 353e 4240 90be 2396 833e
00000370: 595f b0be 7580 2dbe 695d 2c3d dd3f afbe
00000380: 9cff aebd 8fc0 9abe 114d b6be 3fc0 05be
00000390: fdbf c0be 4881 3dbe 2451 e33d 0504 233e
000003a0: ce8d 5bbe bd92 713e f542 4fbe 32c7 14be
000003b0: 425b 323f c9ac aebe 56de fdbd fc4f 00be
000003c0: 7dec c2bd 8512 91be 6c2a e8bd 3232 25be
000003d0: 5e08 4f3d 7e70 cfbd d513 49be 13b1 423e
000003e0: a44e f5bd 5f59 43bd d7d6 843d 834c 60be
000003f0: e63f 98be 0b4d 4fbd 1e0c 18be 962e ccbc

fc2.weight f4 [128, 256]
0.017028827 -0.30861545 -0.1447313 -0.09888323 0.078097075 -0.014198331 0.1569977 -0.02581973
0.23813586 0.060124725 0.03675841 -0.21591137 0.0502679 -0.024556154 0.09883441 -0.047589246
0.024957819 0.14245667 0.045445804 0.14363545 -0.12033629 -0.03871447 0.057788886 0.081163794
-0.06403414 -0.5476008 -0.07989058 -0.34755 -0.09456829 -0.07637549 -0.43458462 -0.14047776
-0.2201348 -0.58694506 -0.0056747515 -0.17076363 -0.088252395 0.041355368 -0.19731036 0.00070960703
-0.05141111 -0.002716358 -0.10683991 0.020444617 0.109026626 -0.13073763 -0.09105185 0.30667624
-0.06337296 -0.16673785 -0.20909911 -0.22946794 0.08324309 -0.16496964 -0.10690572 -0.4041877
0.0029961588 -0.029505314 0.0346483 0.07787589 -0.43847564 0.030531688 0.07726483 0.005214544
-0.1141295 -0.03797813 0.059465174 -0.15359125 0.0107642785 -0.13500646 0.14556079 -0.009049528
0.29137552 0.049204692 0.06390696 -0.012982199 -0.23345582 0.060090996 -0.21100022 0.018426672
-0.18937579 -0.13887179 0.02559138 -0.032457154 0.09459139 -0.62868035 -0.026841655 0.025032636
-0.06566175 -0.04599621 -0.06907727 -0.36937332 -0.024842447 -0.3434341 -0.29638785 0.06336598
-0.043151908 0.033247475 0.18503311 -0.20577408 -0.044927955 -0.21149063 -0.12150395 -0.091449976
-0.27121276 -0.108115084 -0.1234188 -0.026091043 0.037246976 0.031545725 0.09254796 0.07374163
-0.16013366 -0.2066992 -0.11315797 0.15435937 -0.05973322 -0.004468733 0.16388154 -0.17009304
-0.19966775 0.21065669 0.05418252 0.018358685 -0.05048162 0.04620485 -0.14273168 0.17605431
-0.05306322 0.05417065 -0.010495228 -0.03262796 -0.016572526 -0.29675376 -0.20769776 -0.18201679
0.07441525 0.16142887 0.010989403 0.0706916 -0.1135571 -0.2007711 -0.11308599 -0.15361528
-0.44263914 -0.075535946 -0.22622052 0.11691718 -0.33862337 -0.17069903 0.118555404 0.21300901
0.023515476 -0.22087485 0.048438128 -0.08818072 -0.00633876 -0.02579435 0.014952106 -0.121999
0.2041632 -0.09602663 0.12925719 -0.17200589 -0.20501523 -0.07131966 -0.15130322 -0.023892593
-0.02038979 -0.03616974 -0.018749809 -0.16365984 0.14186043 -0.17524631 -0.036585636 -0.28394598
-0.012668832 0.011172938 -0.15184017 -0.41300306 -0.12307811 -0.1543631 -0.17676196 0.072413504
0.23118097 -0.033260383 0.14434387 0.042726498 -0.16288164 -0.048519775 -0.21680498 0.071766764
-0.06173277 -0.05755455 -0.0901921 -0.14928283 -0.040467005 -0.040034078 -0.107246645 -0.008823804
0.12035596 -0.15156366 -0.04322878 0.016802143 -0.1260802 0.10694832 -0.19761652 0.13370347
0.0289854 -0.07000761 -0.11198997 -0.2733665 -0.016673366 -0.10030763 -0.09475393 -0.5098108
0.20683096 0.06923234 -0.0032697679 -0.11600727 0.04143266 -0.063495286 -0.05620093 -0.09995948
0.25336254 -0.020746132 0.05597471 -0.02998446 -0.17069079 -0.13391693 0.011831944 -0.121934675
0.06219238 -0.09562873 -0.21537659 -0.084713005 -0.017868103 -0.002290147 0.044328496 0.12144331
0.15708448 -0.15567039 0.038795173 0.067047134 0.22489473 -0.010187962 -0.14201973 -0.015111449
0.06964368 -0.095979504 -0.039802063 0.20691302 -0.08794511 -0.055511847 -0.05507911 -0.0289939
00000000: 0a80 8b3c d802 9ebe 7134 14be 4a83 cabd
00000010: 5cf1 9f3d 1ea0 68bc 01c4 203e e683 d3bc
00000020: e3d9 733e 5845 763d fd8f 163d df17 5dbe
00000030: b7e5 4d3d fd29 c9bc b269 ca3d f1ec 42bd
00000040: 5774 cc3c 29e0 113e 6125 3a3d 2c15 133e
00000050: df72 f6bd 1093 1ebd 0ab4 6c3d 3439 a63d
00000060: 5524 83bd 912f 0cbf ac9d a3bd 13f2 b1be
00000070: 05ad c1bd c16a 9cbd e081 debe 67d9 0fbe
00000080: 046b 61be 0842 16bf 44f3 b9bb a9dc 2ebe
00000090: acbd b4bd 3f64 293d ba0b 4abe ec04 3a3a
000000a0: 7594 52bd ed04 32bb e2ce dabd 787b a73c
000000b0: 5a49 df3d 16e0 05be 6479 babd ab04 9d3e
000000c0: afc9 81bd 54bd 2abe 141e 56be a5f9 6abe
000000d0: 5a7b aa3d cded 28be 63f1 dabd b1f1 cebe
000000e0: 345b 443b 21b5 f1bc 60eb 0d3d 657d 9f3d
000000f0: e17f e0be 971d fa3c 063d 9e3d c4de aa3b
00000100: babc e9bd f58e 1bbd c191 733d 0647 1dbe
00000110: a85c 303c 223f 0abe e30d 153e 7944 14bc
00000120: 2c2f 953e dc8a 493d a7e1 823d 4ab3 54bc
00000130: 0b0f 6fbe fa21 763d 7110 58be 88f3 963c
00000140: baeb 41be 6834 0ebe 04a5 d13c cbf1 04bd
00000150: 21b9 c13d 32f1 20bf 08e3 dbbc 3e11 cd3c
00000160: ab79 86bd 8666 3cbd 6278 8dbd 801e bdbe
00000170: 6382 cbbc 98d6 afbe 26c0 97be 06c6 813d
00000180: 0ec0 30bd 812e 083d 5279 3d3e 71b6 52be
00000190: 6006 38bd 0091 58be 10d7 f8bd 204a bbbd
000001a0: 66dc 8abe 716b ddbd ffc2 fcbd e2bc d5bc
000001b0: 4990 183d 1736 013d c989 bd3d da05 973d
000001c0: 14fa 23be f5a8 53be 5ebf e7bd 6210 1e3e
000001d0: d2aa 74bd 736e 92bb 90d0 273e df2c 2ebe
000001e0: b475 4cbe 63b6 573e 7dee 5d3d f464 963c
000001f0: d1c5 4ebd 4c41 3d3d 4128 12be 9547 343e
00000200: d258 59bd 0be2 5d3d 2df4 2bbc e5a4 05bd
00000210: 1bc3 87bc 1cf0 97be b9ae 54be 9c62 3abe
00000220: 0667 983d 9c4d 253e e60c 343c c2c6 903d
00000230: a090 e8bd f096 4dbe a199 e7bd 534d 1dbe
00000240: 99a1 e2be 97b2 9abd 5aa6 67be 4672 ef3d
00000250: 0b60 adbe bacb 2ebe 2dcd f23d 091f 5a3e
00000260: 87a3 c03c 042d 62be 0f67 463d 1898 b4bd
00000270: 5fb5 cfbb ac4e d3bc aef9 743c 9dda f9bd
00000280: 2810 513e 9ca9 c4bd ff5b 043e 5022 30be
00000290: 83ef 51be 0b10 92bd 3bef 1abe 66ba c3bc
000002a0: 7d08 a7bc b926 14bd 3399 99bc 7296 27be
000002b0: dc43 113e c573 33be d2da 15bd 5e61 91be
000002c0: ef90 4fbc b30e 373c fd7b 1bbe 2375 d3be
000002d0: 6010 fcbd 5c11 1ebe 1601 35be 884d 943d
000002e0: b4ba 6c3e 0a3c 08bd e1ce 133e fb01 2f3d
000002f0: 72ca 26be acbc 46bd 2002 5ebe 74fa 923d
00000300: 80db 7cbd 52be 6bbd a3b6 b8bd 99dd 18be
00000310: bbc0 25bd c6fa 23bd 21a4 dbbd b791 10bc
00000320: 307d f63d 8133 1bbe a910 31bd a6a4 893c
00000330: 2b1b 01be b907 db3d fc5b 4abe 90e9 083e
00000340: ca72 ed3c 2660 8fbd ff5a e5bd b2f6 8bbe
00000350: 9596 88bc 166e cdbd 590e c2bd f682 02bf
00000360: 7fcb 533e afc9 8d3d 9a49 56bb 3895 edbd
00000370: 4bb5 293d d109 82bd f232 66bd 8eb7 ccbd
00000380: bcb8 813e cbf3 a9bc bd45 653d f8a1 f5bc
00000390: 91c9 2ebe 8521 09be c5da 413c e3b8 f9bd
000003a0: 70bd 7e3d ffd8 c3bd ae8b 5cbe 037e adbd
000003b0: 2160 92bc 4a16 16bb cc91 353d 45b7 f83d
000003c0: c1da 203e 0f68 1fbe b0e7 1e3d 0250 893d
000003d0: ce4a 663e 69eb 26bc 9f6d 11be 0396 77bc
000003e0: 58a1 8e3d e790 c4bd 7d07 23bd 02e1 533e
000003f0: 911c b4bd 6460 63bd a29a 61bd 9e84 edbc

fc2.bias f4 [128]
0.02195022 -0.38349754 -0.0277332 -0.115710706 -0.10736819 -0.20764747 -0.19138853 -0.1975118
-0.25401372 -0.26986334 -0.029181357 -0.14230967 -0.14800696 -0.06749445 -0.12274843 -0.067336395
-0.067396 -0.17170507 -0.010818197 -0.045544285 -0.09702215 -0.048831932 -0.1378801 -0.15819806
-0.08157872 0.029829172 -0.07189072 -0.080176055 -0.14509475 -0.10813499 -0.11289009 -0.09463602
-0.19382747 -0.10427234 0.021522418 -0.081530385 -0.1307189 -0.100171916 -0.1533694 -0.050203767
-0.088948466 -0.124074966 -0.16055374 -0.14325272 -0.1074408 -0.025720323 -0.113434866 -0.069971
-0.1697716 -0.018269315 -0.13986368 -0.06878598 -0.0016734548 -0.01276432 -0.21926524 -0.31088775
-0.041496906 -0.07259184 -0.10769033 -0.09034932 -0.14967921 -0.1614432 -0.19201264 -0.24270713
-0.094363384 -0.12685958 -0.17078292 -0.20701025 -0.14086217 -0.30063775 -0.08508068 -0.18973757
-0.09310977 -0.06038657 -0.09050625 -0.15745911 -0.039915446 -0.13740237 -0.12564772 -0.27320114
-0.16043364 0.01717638 0.023382956 -0.16762434 -0.08670197 -0.02309802 -0.07886366 -0.11698187
-0.16718382 -0.19702452 -0.38702327 -0.1345872 -0.12032362 -0.11120383 -0.1015567 -0.1422745
-0.31581733 -0.21226373 -0.008672171 -0.11195939 -0.19349517 -0.08832803 -0.039331313 -0.28331763
-0.15966561 -0.13770008 -0.30907023 -0.008117608 -0.024254553 -0.05457825 -0.103430964 -0.2526671
-0.052330524 -0.15314451 -0.05285107 -0.2137759 -0.032761835 -0.05948503 -0.15147932 -0.09713136
0.05964309 -0.042553253 -0.22143508 -0.1712115 -0.19856715 -0.116014116 -0.079140894 -0.19902694
00000000: f3d0 b33c ca59 c4be bc30 e3bc bcf9 ecbd
00000010: dbe3 dbbd 8aa1 54be 5bfb 43be 8940 4abe
00000020: 160e 82be 872b 8abe be0d efbc a0b9 11be
00000030: 238f 17be 883a 8abd 8763 fbbd aae7 89bd
00000040: ea06 8abd 74d3 2fbe cf3e 31bc a58c 3abd
00000050: 8db3 c6bd fe03 48bd 7130 0dbe acfe 21be
00000060: be12 a7bd 4f5c f43c 713b 93bd 5833 a4bd
00000070: b893 14be e175 ddbd eb32 e7bd 88d0 c1bd
00000080: b57a 46be bd8c d5bd c84f b03c 67f9 a6bd
00000090: 2ddb 05be ef26 cdbd de0c 1dbe 77a2 4dbd
000000a0: 9d2a b6bd 041b febd 3368 24be d7b0 12be
000000b0: ec09 dcbd 6db3 d2bc 8a50 e8bd f54c 8fbd
000000c0: 9bd8 2dbe 88a9 95bc 6d38 0fbe aadf 8cbd
000000d0: d357 dbba 7021 51bc 1187 60be ae2c 9fbe
000000e0: a9f8 29bd 08ab 94bd bf8c dcbd 1009 b9bd
000000f0: 8245 19be 5e51 25be f69e 44be 3888 78be
00000100: 9741 c1bd 7ae7 01be b8e1 2ebe 7ffa 53be
00000110: 2c3e 10be 31ed 99be c83e aebd 914a 42be
00000120: 56b0 bebd e857 77bd 575b b9bd f63c 21be
00000130: 617e 23bd 35b3 0cbe cca9 00be 05e1 8bbe
00000140: b748 24be 7bb5 8c3c 9d8d bf3c b7a5 2bbe
00000150: cd90 b1bd 0f38 bdbc 4583 a1bd 3194 efbd
00000160: 3c32 2bbe ccc0 49be ea27 c6be 3ad1 09be
00000170: 3b6c f6bd d5be e3bd f6fc cfbd 68b0 11be
00000180: cfb2 a1be aa5b 59be b915 0ebc f74a e5bd
00000190: 9923 46be 54e5 b4bd df19 21bd 020f 91be
000001a0: 627f 23be 4001 0dbe 743e 9ebe b7ff 04bc
000001b0: 7cb1 c6bc 718d 5fbd 9dd3 d3bd 955d 81be
000001c0: 8858 56bd ead1 1cbe 5d7a 58bd 12e8 5abe
000001d0: 4631 06bd 93a6 73bd 651d 1bbe ceec c6bd
000001e0: 504c 743d 524c 2ebd e1bf 62be 1152 2fbe
000001f0: 3055 4bbe cf98 edbd 9f14 a2bd b8cd 4bbe

fc3.weight f4 [128, 128]
0.08126554 -0.08969877 0.08203438 0.213725 -0.075986624 0.014320956 0.011568956 -0.13680637
0.25348818 0.19914545 -0.052165028 0.2683849 -0.03183689 -0.16758317 0.2318849 -0.04485174
-0.24651366 0.04587836 0.1723577 -0.40696487 -0.11611708 0.2697938 0.06197586 0.28893656
-0.23055424 0.013227586 0.48623213 -0.19868779 0.15667573 -0.112133555 -0.13646123 -0.31525362
0.15125656 -0.34220493 0.05695306 -0.033639338 0.028774882 0.0006326225 0.059104897 -0.071647726
0.15256143 0.09705303 -0.17115399 0.13000713 0.08433543 0.056454856 0.21860498 0.3656544
-0.19851902 -0.3281995 -0.16667745 0.09730747 0.21835162 -0.42751244 0.09834859 0.12195739
0.09430752 0.03876355 0.010346711 -0.013865421 0.10343366 -0.4932924 -0.00817413 -0.1132907
0.26476145 -0.11922462 0.06589308 -0.017915484 0.06146334 0.26935995 -0.1525919 0.16010767
-0.10593792 0.026540231 0.26266354 0.13048057 0.061725534 0.42613956 -0.49420866 0.074172206
0.60149616 0.083993495 -0.22984487 -0.24161655 -0.04473376 0.070438445 -0.22910355 -0.004396804
-0.21904317 0.09607063 -0.2597073 0.27476987 0.09603848 0.1460869 0.33088645 0.20193738
-0.47914875 0.02312769 -0.2870318 0.1639248 0.065202445 0.08695568 -0.28851497 -0.120547675
0.05523736 0.07818039 -0.12164501 0.038150694 0.27018124 -0.17030637 -0.042512834 -0.35199365
0.10001917 0.073205695 0.44576406 -0.14272813 -0.03715355 0.060540307 0.06919948 -0.023937464
0.021299614 -0.20167266 0.049230635 0.008316951 0.17194077 -0.21662146 0.02840121 -0.040101282
0.0008857282 -0.0009993803 -0.0014094003 0.002851863 -0.00586345 -0.0035119464 0.00020586133 -0.0010338397
-0.002241373 -0.0074411305 -0.0020313573 -0.00022489547 -0.0039281365 -0.0017170461 -0.0010243123 -0.00050719903
0.000359044 -0.002727064 -0.0028486033 -0.0014082361 -0.0024915526 0.00045904607 0.0016508834 -0.0018733214
-0.0052538915 0.0009364062 -0.0058345785 -0.0029652528 -0.0013504461 -0.0014375731 -0.0044119647 -0.004104159
-0.0036812164 -0.00026665628 0.0016962779 -0.0007357834 0.0004913246 -0.0037724872 -0.0012743232 -0.0024390488
-0.0029312593 -0.0038730714 -0.0016074253 -0.00028724398 -0.0011873016 -0.003877728 -0.0008780448 -0.003594835
-0.002734352 -0.0019601102 -0.005430845 -0.0006922436 -0.004151191 -0.002475446 -0.003257692 -0.0068008383
-0.005468564 -0.00024324568 -0.00110051 -0.0020143604 -0.00083964877 -0.005767988 -0.0067305225 -0.002478165
-0.0015148162 -0.0018134831 0.0008688479 -0.0025276095 -0.002895055 -0.0035310388 -0.003346169 -0.0028632719
0.0024406787 -0.002180243 -0.0019367685 -0.00083751115 0.0023395545 -0.0005196556 0.0018365365 -0.00015738828
-0.0028451108 -0.00030936743 -0.00040100608 -0.0036856402 -0.00044380012 -0.00091017585 0.00024170314 0.002104973
0.0028389576 -0.0006013841 -0.006095352 0.0016093017 -0.0061982647 -0.00102945 -0.0042261635 -0.0039802915
-0.0028648127 -0.004737466 -0.0015820464 -0.0021460773 0.0010396144 -0.0016300102 -0.0048040566 -0.0027964485
-0.0030176404 -0.0028318393 -0.003977963 -0.0062136315 -0.0029533785 -0.0023277544 -0.005206393 -0.0015468886
0.0010090427 -0.006127483 -0.00079795 -0.0029477905 -0.008604134 -0.001372729 -0.0020300532 -0.0017708327
0.0011226656 -0.0027852727 -0.003873537 -0.000896333 -0.0002015539 0.0010293466 -0.00031817262 -0.002049751
00000000: 8c6e a63d fdb3 b7bd a401 a83d bada 5a3e
00000010: e09e 9bbd 71a2 6a3c b88b 3d3c f816 0cbe
00000020: 34c9 813e c9ec 4b3e ffaa 55bd bf69 893e
00000030: 6667 02bd ec9a 2bbe 3c73 6d3e 75b6 37bd
00000040: 146e 7cbe f2ea 3b3d 897e 303e b35d d0be
00000050: cbce edbd 6a22 8a3e 66da 7d3d 7eef 933e
00000060: 6916 6cbe 84b8 583c 6bf3 f83e d074 4bbe
00000070: 9a6f 203e 47a6 e5bd 7ebc 0bbe ec68 a1be
00000080: 00e3 1a3e 7c35 afbe 9d47 693d 67c9 09bd
00000090: 4db9 eb3c 94d6 253a fa17 723d 0bbc 92bd
000000a0: 1039 1c3e bdc3 c63d fe42 2fbe 9720 053e
000000b0: 0eb8 ac3d 353d 673d fcd9 5f3e 0e37 bb3e
000000c0: 9248 4bbe c409 a8be 7ead 2abe 2449 c73d
000000d0: 9197 5f3e e9e2 dabe fc6a c93d ccc4 f93d
000000e0: 4d24 c13d 87c6 1e3d 4085 293c ca2b 63bc
000000f0: 07d5 d33d d290 fcbe c9ec 05bc f404 e8bd
00000100: d08e 873e 0a2c f4bd f3f2 863d 7ec3 92bc
00000110: fcc0 7b3d 8ce9 893e 0d41 1cbe 44f3 233e
00000120: fbf5 d8bd e66a d93c d67b 863e b39c 053e
00000130: ead3 7c3d f72e da3e eb08 fdbe 99e7 973d
00000140: a7fb 193f c804 ac3d 745c 6bbe 546a 77be
00000150: bf3a 37bd 0842 903d 1f9a 6abe 1113 90bb
00000160: da4c 60be aec0 c43d 5bf8 84be a3ae 8c3e
00000170: d3af c43d ce97 153e f369 a93e acc8 4e3e
00000180: fc52 f5be 4876 bd3c d5f5 92be e7db 273e
00000190: dc88 853d d215 b23d 3cb8 93be b3e1 f6bd
000001a0: 9240 623d 0a1d a03d 0521 f9bd e743 1c3d
000001b0: 3255 8a3e cb64 2ebe f021 2ebd 8338 b4be
000001c0: dad6 cc3d deec 953d 303b e43e 5327 12be
000001d0: 522e 18bd 1df9 773d 75b8 8d3d 8018 c4bc
000001e0: 877c ae3c 4783 4ebe 10a6 493d d243 083c
000001f0: 3e11 303e 04d2 5dbe a8a9 e83c 3e41 24bd
00000200: 3730 683a a3fd 82ba a0bb b8ba 52e6 3a3b
00000210: 2f22 c0bb af28 66bb 7bdc 5739 e781 87ba
00000220: 00e4 12bb bad4 f3bb 8520 05bb ebd1 6bb9
00000230: 99b7 80bb 820e e1ba 3842 86ba 8df5 04ba
00000240: 123e bc39 8bb8 32bb a2af 3abb 9094 b8ba
00000250: 5149 23bb 1fac f039 7462 d83a 3c8a f5ba
00000260: d628 acbb 2879 753a fe2f bfbb b054 42bb
00000270: 7401 b1ba f36c bcba 3e92 90bb 2e7c 86bb
00000280: 9040 71bb 00ce 8bb9 a455 de3a 97e1 40ba
00000290: 3ccc 003a d53b 77bb 3107 a7ba 73d8 1fbb
000002a0: 5f1a 40bb 5bd3 7dbb 3eb0 d2ba 3c99 96b9
000002b0: 3b9f 9bba 7b21 7ebb 972c 66ba 5397 6bbb
000002c0: d032 33bb 3175 00bb 3bf5 b1bb ae77 35ba
000002d0: b706 88bb 183b 22bb 017f 55bb 91d9 debb
000002e0: a431 b3bb c40f 7fb9 fd3e 90ba 5c03 04bb
000002f0: e01b 5cba 6401 bdbb b78b dcbb b668 22bb
00000300: cc8c c6ba 65b2 edba 65c3 633a 40a6 25bb
00000310: f7ba 3dbb 0069 67bb 664b 5bbb bba5 3bbb
00000320: cbf3 1f3b 68e2 0ebb 2bdb fdba 6c8c 5bba
00000330: 3653 193b 7f39 08ba f0b7 f03a 9808 25b9
00000340: 0a75 3abb 9832 a2b9 203e d2b9 c88a 71bb
00000350: d8ad e8b9 de98 6eba b171 7d39 96f3 093b
00000360: ce0d 3a3b 34a6 1dba 85bb c7bb 34ef d23a
00000370: d01a cbbb 9cee 86ba a17b 8abb 1b6d 82bb
00000380: 95bf 3bbb bf3c 9bbb ab5c cfba 34a5 0cbb
00000390: ac43 883a 11a6 d5ba 596b 9dbb 9f44 37bb
000003a0: 9bc3 45bb 6196 39bb 9259 82bb b89b cbbb
000003b0: 788d 41bb 3d8d 18bb 649a aabb f8c0 caba
000003c0: db41 843a 0ec9 c8bb 852d 51ba b82f 41bb
000003d0: 5bf8 0cbc 24ed b3ba a40a 05bb 491b e8ba
000003e0: 6826 933a 1f89 36bb 2bdb 7dbb e4f7 6aba
000003f0: 3758 53b9 24eb 863a 68d0 a6b9 1e55 06bb

fc3.bias f4 [128]
-0.12714024 -0.08645393 0.013274207 -0.106327176 -0.21618454 0.11259372 0.056410506 -0.019613622
0.119154684 -0.064419284 -0.08144417 0.09673944 -0.019702008 0.034442674 0.07671642 -0.017079746
-0.044992078 0.111744314 -0.035139255 0.017679691 -0.015597535 0.064911336 -0.09300307 0.013379268
0.060164526 0.043592833 0.0016584705 -0.06496618 0.015869886 -0.04432594 0.04819588 -0.107276246
-0.02927464 -0.16801278 -0.07268508 -0.053530447 -0.01548721 -0.008920308 -0.07691601 0.040621683
0.2806049 -0.06731314 -0.086250134 0.053813774 0.1872328 0.2064306 0.06523242 -0.3166226
-0.03655861 0.12823038 -0.028285563 0.02943544 -0.008629281 0.22850946 0.08577837 -0.0008696922
-0.024863271 -0.049829956 -0.07788565 0.108128436 -0.048725564 0.1352444 -0.058921814 0.11007449
-0.06702256 -0.092362314 0.20310198 0.18985252 -0.12728094 0.1563604 0.14792773 0.059223145
0.009104898 -0.00026456328 0.06364709 0.18407333 -0.08199842 0.2698091 0.14894834 0.04719159
-0.01369481 -0.054324746 0.0010636193 -0.042440917 -0.32479298 -0.02838242 -0.05629325 -0.055252355
0.19449519 -0.07206667 0.06184737 0.024036208 0.13022767 0.058186635 0.085922554 -0.083794035
0.1533171 0.050982147 -0.073313944 0.10123934 -0.24000035 -0.06915346 0.05611676 -0.07339289
0.081583776 -0.14069116 -0.063267425 0.16251424 0.08772895 0.03374745 0.08121207 0.046623968
0.20651719 -0.0767904 0.23410212 -0.035109453 -0.01993117 -0.075263016 -0.06556223 0.042428147
0.122783154 -0.0888903 -0.084755175 0.07603243 0.018700426 -0.082192145 0.09630036 -0.036952496
00000000: 0d31 02be c20e b1bd 0f7c 593c 10c2 d9bd
00000010: 7b5f 5dbe 8997 e63d b40e 673d bfac a0bc
00000020: 5f07 f43d 42ee 83bd 33cc a6bd 541f c63d
00000030: 1b66 a1bc c313 0d3d 801d 9d3d d3ea 8bbc
00000040: 9d49 38bd 34da e43d 2eee 0fbd 00d5 903c
00000050: ce8c 7fbc 3cf0 843d 6578 bebd b834 5b3c
00000060: 146f 763d 668e 323d 0961 d93a fd0c 85bd
00000070: 9001 823c 1e8f 35bd 0b69 453d a6b3 dbbd
00000080: 5fd1 efbc 8b0b 2cbe eadb 94bd be42 5bbd
00000090: 11be 7dbc 7c26 12bc 2486 9dbd ec62 263d
000000a0: 72ab 8f3e 79db 89bd e9a3 b0bd d56b 5c3d
000000b0: f5b9 3f3e 8b62 533e 9398 853d 5c1c a2be
000000c0: 7bbe 15bd d34e 033e 20b7 e7bc 9822 f13c
000000d0: d461 0dbc 62fe 693e 92ac af3d 0efc 63ba
000000e0: 0fae cbbc 7f1a 4cbd 8382 9fbd 7172 dd3d
000000f0: 7594 47bd 827d 0a3e 0058 71bd bc6e e13d
00000100: 2043 89bd 7428 bdbd f7f9 4f3e b368 423e
00000110: ef55 02be f11c 203e 5e7a 173e f893 723d
00000120: b62c 153c 15b5 8ab9 6859 823d b87d 3c3e
00000130: caee a7bd 6b24 8a3e ea85 183e f84b 413d
00000140: 3260 60bc a083 5ebd 2469 8b3a 87d6 2dbd
00000150: 444b a6be 4082 e8bc c093 66bd 4b50 62bd
00000160: bf29 473e b197 93bd ab53 7d3d 95e7 c43c
00000170: 675a 053e 1c55 6e3d 2af8 af3d 359c abbd
00000180: 28ff 1c3e a8d2 503d 9f25 96bd 9256 cf3d
00000190: a7c2 75be 54a0 8dbd b0da 653d 034f 96bd
000001a0: 6515 a73d 5811 10be 5a92 81bd 226a 263e
000001b0: 3cab b33d c43a 0a3d 8452 a63d c6f8 3e3d
000001c0: 3e79 533e 4944 9dbd 77b8 6f3e eece 0fbd
000001d0: b146 a3bc 7f23 9abd 7e45 86bd 23c9 2d3d
000001e0: bc75 fb3d 1e0c b6bd 1f94 adbd e4b6 9b3d
000001f0: a331 993c 5b54 a8bd 2039 c53d 805b 17bd

fc4.weight f4 [2, 128]
0.091330886 -0.08201332 -0.043775976 -0.09132812 0.9548797 0.8129511 0.98526645 -0.022777166
-0.019762676 0.17638753 0.72107285 -0.13506049 0.007957253 -0.010909636 0.13909793 0.056951106
0.81340593 0.061829884 -0.022503836 0.0020488882 0.002019233 -0.13666256 0.033120118 0.009282411
0.016301438 -0.017810348 -0.4284578 0.07106827 -0.032307945 -0.058966517 -0.044925142 0.17918718
-0.04467612 0.014189362 0.0015050948 0.66868794 -0.021563545 0.4888365 0.09994707 -0.26142448
-1.1500701 0.034800246 -0.007577643 -0.03665669 -0.77142054 0.101727694 -0.24832521 0.15253782
-0.009072595 -0.451142 0.023848683 0.095817484 -0.054429054 0.0058914567 -0.33152646 0.048920963
1.2534722 0.47502476 0.0037848274 0.84164125 0.00941719 -0.19808842 -0.025208548 0.44010678
-0.08636806 -0.070174195 0.039550535 -0.3808348 0.75391465 0.016767738 0.73621535 -0.057512734
-0.92980444 0.819001 -0.07323888 0.2856592 0.029038638 -0.5327114 0.014615056 -0.01857343
-0.077356644 0.011065652 0.099883825 0.020037662 0.5148639 -0.022546677 -0.081768975 -0.030072238
0.040519647 -0.049593564 -0.07422456 1.0450393 -0.43785274 -0.06702329 0.58113074 0.057072796
-0.69902146 0.011934662 0.86897564 0.82253575 0.25265846 -0.016966121 0.03135176 0.0513929
-0.21489342 0.013100918 0.05995942 1.0741738 0.9032293 -0.08543722 0.26423597 0.04057391
-0.354439 0.08585613 0.009400395 -0.019154757 0.4488456 0.016528394 -0.05333008 0.75898826
-0.2932918 -0.057368346 -0.066769235 0.016451245 0.017626844 -0.063625045 0.01572452 -0.775671
-0.76497924 0.044212185 0.08614338 -0.31770042 0.50004023 -0.5372263 0.21202509 0.21418753
-0.35629258 0.4973851 -0.6893096 0.7818986 -0.19715175 0.15450655 0.45416072 -0.0464084
0.31163546 0.2827774 -0.07025615 0.20203659 0.30223915 0.09303991 -0.06764096 0.15713926
0.08777519 -0.16794692 -0.82468456 0.047492646 -0.17049398 -0.07584416 -0.19684789 -0.68611115
-0.06507793 -0.57173103 0.06579802 -0.19371408 -0.3551092 0.39267775 -0.7064954 0.28905165
0.11275654 -0.036444463 0.0118608475 -0.09810431 -0.07557027 -0.7937695 -0.17858596 -0.48009723
0.06652336 0.43068817 0.046218406 0.06456139 -0.070427515 0.69494814 0.10949057 0.11025176
0.31137446 0.32815638 -0.018048331 -0.6082413 0.02532392 0.39091274 0.055896837 -0.3830636
0.078325234 -0.08538103 0.6108877 0.005923712 -0.122992866 0.23222634 -0.38930854 0.054167144
0.13130729 0.058648057 -0.23978397 0.30181584 0.06084781 0.2207659 0.22166929 -1.1623771
0.01760129 0.08329483 0.14957835 0.02961737 0.3005766 0.019184561 -0.013572804 0.049858063
0.3275431 0.084591255 -0.14262451 0.2662907 0.7189571 -0.30179378 0.38410276 0.01806137
-0.27837157 -0.27923504 -0.2108785 -0.46967256 -0.5789858 -0.03487522 0.13180707 -0.001965098
-0.17192946 -0.059547093 0.014513452 0.08357613 0.24356005 0.14275351 0.9348246 0.80721223
0.27833334 0.035634723 -0.72043705 -0.011704547 -0.43976337 -0.071649425 -0.013771178 0.34154624
0.3147833 -0.06156362 -0.009500466 0.09573744 0.10444668 0.010875659 -0.32815596 -0.008046731
00000000: b00b bb3d 99f6 a7bd 704e 33bd 3d0a bbbd
00000010: ff72 743f 901d 503f 6c3a 7c3f 2e97 babc
00000020: 56e5 a1bc ef9e 343e 3b98 383f 4c4d 0abe
00000030: 235f 023c 54be 32bc b06f 0e3e 9045 693d
00000040: 5f3b 503f 5541 7d3d f759 b8bc a446 063b
00000050: 1c55 043b 45f1 0bbe f6a8 073d 4115 183c
00000060: 988a 853c 02e7 91bc d25e dbbe 3e8c 913d
00000070: 5655 04bd e086 71bd 6d03 38bd d87c 373e
00000080: 4ffe 36bd 7f7a 683c 9a46 c53a 222f 2b3f
00000090: 08a6 b0bc c748 fa3e 0db1 cc3d 6ed9 85be
000000a0: 7f35 93bf b48a 0e3d e04d f8bb 5325 16bd
000000b0: d17b 45bf 9c56 d03d f748 7ebe e032 1c3e
000000c0: 39a5 14bc 16fc e6be 505e c33c f53b c43d
000000d0: 00f1 5ebd 1f0d c13b d6bd a9be 5961 483d
000000e0: c771 a03f 7236 f33e de0a 783b cd75 573f
000000f0: 8f4a 1a3c b1d7 4abe 2882 cebc ad55 e13e
00000100: bde1 b0bd 7db7 8fbd beff 213d c7fc c2be
00000110: 8d00 413f 7f5c 893c 9c78 3c3f 7992 6bbd
00000120: aa07 6ebf 0daa 513f 44fe 95bd ec41 923e
00000130: 70e2 ed3c c65f 08bf fd73 6f3c 4e27 98bc
00000140: 296d 9ebd b54c 353c e48f cc3d 0626 a43c
00000150: 1fce 033f cfb3 b8bc 7e76 a7bd 0e5a f6bc
00000160: eef7 253d 9f22 4bbd 0c03 98bd d9c3 853f
00000170: 3c2e e0be 8243 89bd fcc4 143f 2ac5 693d
00000180: 12f3 32bf 9a89 433c 3075 5e3f b491 523f
00000190: 735c 813e 89fc 8abc b46a 003d 5d81 523d
000001a0: 050d 5cbe 3ca5 563c 0298 753d 877e 893f
000001b0: 093a 673f b6f9 aebd f049 873e d430 263d
000001c0: 0779 b5be 57d5 af3d 1d04 1a3c 70ea 9cbc
000001d0: 17cf e53e 8e66 873c a470 5abd 0e4d 423f
000001e0: 582a 96be 12fb 6abd 4fbe 88bd c3c4 863c
000001f0: 2c66 903c d94d 82bd b5d0 803c 6092 46bf
00000200: aed5 43bf d617 353d f16b b03d a1a9 a2be
00000210: a302 003f aa87 09bf 1b1d 593e fa53 5b3e
00000220: fb6b b6be 43a9 fe3e 9876 30bf 822a 483f
00000230: 26e2 49be f736 1e3e c187 e83e bc16 3ebd
00000240: af8e 9f3e 33c8 903e 75e2 8fbd aee2 4e3e
00000250: 17bf 9a3e b58b be3d 5887 8abd 1de9 203e
00000260: 7bc3 b33d 47fa 2bbe 871e 53bf a687 423d
00000270: f995 2ebe 2f54 9bbd 7e92 49be fba4 2fbf
00000280: 9447 85bd f75c 12bf 1dc1 863d fc5c 46be
00000290: e0d0 b5be 0f0d c93e e2dc 34bf 94fe 933e
000002a0: e7ec e63d ca46 15bd 0054 423c eaea c8bd
000002b0: 96c4 9abd 7a34 4bbf 3ddf 36be 4ecf f5be
000002c0: 663d 883d 2983 dc3e 834f 3d3d c338 843d
000002d0: 4d3c 90bd 1fe8 313f 983c e03d adcb e13d
000002e0: 796c 9f3e 1d04 a83e 18da 93bc b4b5 1bbf
000002f0: 1c74 cf3c b725 c83e 15f4 643d ea20 c4be
00000300: fb68 a03d 40dc aebd 2363 1c3f b31b c23b
00000310: afe3 fbbd becc 6d3e 7353 c7be 5ede 5d3d
00000320: 6b75 063e f238 703d ee89 75be 9b87 9a3e
00000330: 8e3b 793d 7510 623e 46fd 623e c6c8 94bf
00000340: 9530 903c 7b96 aa3d 112b 193e 20a0 f23c
00000350: 2de5 993e f128 9d3c 7760 5ebc f837 4c3d
00000360: bbb3 a73e 2e3e ad3d 290c 12be 4157 883e
00000370: 930d 383f b784 9abe 1ea9 c43e 70f5 933c
00000380: b886 8ebe e5f7 8ebe 89f0 57be ec78 f0be
00000390: 6a38 14bf 52d9 0ebd 6ff8 063e e0c8 00bb
000003a0: 470e 30be a7e7 73bd d4c9 6d3c f629 ab3d
000003b0: ce67 793e fa2d 123e aa50 6f3f 76a5 4e3f
000003c0: b581 8e3e b7f5 113d 906e 38bf 6ec4 3fbc
000003d0: aa28 e1be efbc 92bd 82a0 61bc 26df ae3e
000003e0: 472b a13e 222a 7cbd d8a7 1bbc fe11 c43d
000003f0: 24e8 d53d d22f 323c 0f04 a8be 70d6 03bc

fc4.bias f4 [2]
-0.081966944 -0.01790975
00000000: 49de a7bd 78b7 92bc

bn1.weight f4 [256]
0.28822392 1.1204144 0.16311778 0.62673855 0.59541285 0.45512423 0.34154853 0.017545357
0.47050977 0.31443 0.50052637 0.52835995 0.930279 0.16837624 0.7976376 0.51361233
0.411001 0.7737752 0.9558679 0.58865404 1.1390784 0.11434558 0.8009759 0.3100449
0.27302468 0.96375513 0.30901068 0.47272947 0.6805118 0.09436768 0.8577822 0.008755832
1.160534 1.0425425 0.7253515 0.2797831 0.23140776 0.83520377 0.41975355 1.0174047
0.6831321 0.2529831 0.52808124 0.37352973 0.768461 0.38032112 0.17814565 0.9562824
0.3706139 0.503079 0.35688138 0.08117544 0.8441298 0.82861423 1.0032305 0.31175315
0.8272099 0.64763486 0.30631164 0.7010276 0.43007317 0.80382854 0.5323662 0.64448917
0.4413389 0.63671345 0.11814015 0.47912568 0.8089536 0.13964133 0.21610865 0.82216644
-0.28199145 0.92790496 0.9913039 0.29299295 0.8781066 0.43141222 0.51435006 0.24900202
0.3873959 0.9543278 0.43124607 0.87384266 0.5230325 0.7805939 0.7843662 1.0176556
0.94633055 1.023656 0.4560036 0.9340534 0.1351609 0.5591142 0.40556273 1.1942037
0.78605527 0.5579387 0.34821263 0.40554443 0.41553533 0.64307666 0.7207396 0.5329512
0.2757816 0.38163003 0.66930556 0.3235932 0.37105197 0.50333077 0.56316125 0.7200834
0.6350445 0.88692105 0.71389765 0.30551872 0.21741606 0.31246492 0.32657903 0.44061297
0.81089693 0.5220239 0.067592375 0.36697185 0.88164675 0.9181489 0.8307989 0.65895563
0.36647406 0.6970445 0.43746087 0.49857312 0.3584013 0.36907247 0.73564935 0.5534514
0.40975934 0.2511709 0.6715966 0.12631589 0.4136385 0.5304412 0.15357557 0.2735461
0.4976439 0.8973521 0.45187017 0.20247866 0.66271675 0.5095749 0.35682467 0.33440313
0.18908468 0.3897721 0.8728428 0.4369401 0.6629921 0.271573 0.7500991 0.54576933
0.24718826 1.1220884 0.55772203 1.0451627 0.7761879 1.0336329 1.1243019 0.6478607
0.77217793 0.5627978 0.41206792 0.36544114 0.3259839 1.0663699 0.8729132 0.8446955
0.50405383 0.29693982 0.19887991 0.9118881 0.15024488 0.66839707 0.53087837 0.38428298
-0.32560703 0.65497404 0.5367935 0.48945877 0.76596993 1.3256365 0.40877172 0.35814843
0.3568344 0.6525386 0.8435163 0.3188449 0.16827066 0.88180953 0.3965833 0.28145596
0.410044 0.27371034 1.1731493 0.74769884 0.9023229 0.4682613 0.6742112 1.3446988
1.0117605 1.0572019 0.65024954 0.6304589 0.63302195 0.5599962 0.9093403 0.45642853
0.8977742 0.4181028 0.09401819 0.48311624 0.9714337 0.58141124 0.74311274 0.2771745
0.26841497 1.1586031 -0.35984844 0.15735176 0.53236175 0.513805 -0.109835945 1.446219
0.8332538 0.5831576 -0.00042217202 0.3155521 0.85382956 0.2312907 0.18716055 0.84124744
0.17163599 0.101862594 0.66831326 1.2087805 0.94881374 0.615493 0.50472015 -0.008112279
0.64957076 0.7116914 0.79983145 0.5396999 0.8047315 0.4723878 0.30844066 0.82780886
00000000: 1692 933e bd69 8f3f 5908 273e f071 203f
00000010: fa6c 183f 0b06 e93e 73df ae3e 48bb 8f3c
00000020: a8e6 f03e f8fc a03e 7f22 003f 9942 073f
00000030: c426 6e3f d26a 2c3e fa31 4c3f 197c 033f
00000040: b96e d23e 2216 463f c2b3 743f 08b2 163f
00000050: 52cd 913f 042e ea3d c20c 4d3f 35be 9e3e
00000060: e4c9 8b3e a8b8 763f a636 9e3e 9909 f23e
00000070: 0536 2e3f d843 c13d 9d97 5b3f 9f74 0f3c
00000080: 618c 943f 0872 853f a3b0 393f bb3f 8f3e
00000090: 28f6 6c3e eacf 553f f0e9 d63e 513a 823f
000000a0: bfe1 2e3f 0087 813e 5530 073f 4a3f bf3e
000000b0: dcb9 443f 73b9 c23e d06b 363e ecce 743f
000000c0: 1bc1 bd3e c9c9 003f 28b9 b63e 4f3f a63d
000000d0: e418 583f 1020 543f db69 803f 1c9e 9f3e
000000e0: 07c4 533f 66cb 253f e1d4 9c3e 8b76 333f
000000f0: 8d32 dc3e b5c7 4d3f 2749 083f 3efd 243f
00000100: 2cf7 e13e a7ff 223f 77f3 f13d f64f f53e
00000110: 9517 4f3f 23fe 0e3e 964b 5d3e 8079 523f
00000120: 2f61 90be 2e8b 6d3f 18c6 7d3f 2c03 963e
00000130: 98cb 603f 10e2 dc3e 72ac 033f 63fa 7e3e
00000140: c158 c63e d44e 743f 49cc dc3e 27b4 5f3f
00000150: 75e5 053f 00d5 473f 39cc 483f 8a42 823f
00000160: b842 723f 2907 833f 4e79 e93e 201e 6f3f
00000170: 9e67 0a3e 1c22 0f3f eba5 cf3e abdb 983f
00000180: eb3a 493f 12d5 0e3f ed48 b23e 85a3 cf3e
00000190: 0cc1 d43e aca0 243f 6482 383f 7d6f 083f
000001a0: 3f33 8d3e 0365 c33e 9c57 2b3f 02ae a53e
000001b0: 86fa bd3e 49da 003f 562b 103f 6357 383f
000001c0: 4792 223f 420d 633f ffc1 363f f36c 9c3e
000001d0: 51a2 5e3e 67fb 9f3e 5e35 a73e 0698 e13e
000001e0: f196 4f3f 5ca3 053f df6d 8a3d bce3 bb3e
000001f0: 9ab3 613f ce0b 6b3f 3daf 543f 51b1 283f
00000200: 7da2 bb3e 8271 323f dffa df3e fa44 ff3e
00000210: 6080 b73e 11f7 bc3e 8453 3c3f feae 0d3f
00000220: facb d13e 7999 803e c1ed 2b3f f458 013e
00000230: 6dc8 d33e ffca 073f ea42 1d3e 3c0e 8c3e
00000240: 2ecb fe3e deb8 653f 875b e73e 9156 4f3e
00000250: cea7 293f 8073 023f b9b1 b63e e336 ab3e
00000260: 6a9f 413e 3590 c73e a072 5f3f 9db6 df3e
00000270: dab9 293f 9e0b 8b3e 7f06 403f 8ab7 0b3f
00000280: eb1e 7d3e 98a0 8f3f dfc6 0e3f e4c7 853f
00000290: 40b4 463f 154e 843f 20e9 8f3f 33da 253f
000002a0: 74ad 453f 8413 103f 91fa d23e 1a1b bb3e
000002b0: 5de7 a63e cf7e 883f 3d77 5f3f f73d 583f
000002c0: ac09 013f 7f08 983e 2da7 4b3e 8071 693f
000002d0: cbd9 193e 121c 2b3f a5e7 073f bdc0 c43e
000002e0: f7b5 a6be 61ac 273f 4c6b 093f 579a fa3e
000002f0: 9b16 443f 75ae a93f 874a d13e 3b5f b73e
00000300: 00b3 b63e c50c 273f aff0 573f a43f a33e
00000310: 254f 2c3e 45be 613f f70c cb3e ff1a 903e
00000320: 4af1 d13e c323 8c3e c229 963f 3169 3f3f
00000330: a2fe 663f f2bf ef3e 1b99 2c3f 171f ac3f
00000340: 5e81 813f 6452 873f c176 263f c165 213f
00000350: ba0d 223f e95b 0f3f 87ca 683f 00b1 e93e
00000360: 88d4 653f 9211 d63e 9c8c c03d 035b f73e
00000370: e1af 783f 5ed7 143f a33c 3e3f d1e9 8d3e
00000380: b06d 893e 1b4d 943f 0e3e b8be d220 213e
00000390: dc48 083f b988 033f abf1 e0bd b41d b93f
000003a0: 1f50 553f d149 153f f856 ddb9 0b90 a13e
000003b0: 9394 5a3f 78d7 6c3e 04a7 3f3e fe5b 573f
000003c0: 58c1 2f3e 569d d03d 9416 2b3f 52b9 9a3f
000003d0: 75e5 723f f390 1d3f 5735 013f 5de9 04bc
000003e0: 454a 263f 6831 363f c1c1 4c3f c629 0a3f
000003f0: e202 4e3f d0dc f13e efeb 9d3e 48eb 533f

bn1.bias f4 [256]
0.013418265 0.17861988 0.06298898 0.16793798 0.04560599 0.051932447 -0.08131359 0.022788828
0.019715196 0.037924655 -0.156149 0.0469373 0.025673643 0.3457062 -0.12740819 -0.14436845
-0.20305622 0.02861711 -0.15483904 -0.11103504 0.04152383 0.30427936 0.049970195 0.16096193
0.13627924 0.14954618 -0.1354216 0.29295632 0.034171723 -0.077761754 0.2901372 -0.0016139682
0.1678246 0.061233185 0.14626932 -0.16051048 -0.12981212 -0.020830866 -0.029653043 0.0008228104
-0.09018636 -0.0975392 -0.020938627 0.24857663 -0.13995518 -0.27229267 -0.04899964 0.11256375
0.23873398 0.19220959 0.06795233 0.17415422 -0.07537305 -0.08230481 0.14637572 0.11823466
-0.056053888 0.14767672 0.061524246 0.07561432 0.08840851 0.17417243 -0.046098396 0.1452143
0.06250195 0.28963745 -0.01759883 -0.005703755 0.3531362 -0.19476429 -0.14825311 0.04143942
-0.13945489 0.09634449 -0.11114234 -0.18578495 -0.09885688 -0.095947035 0.017881371 -0.3333605
0.23791498 -0.01812678 -0.06313871 0.005801331 -0.038377315 0.2179089 0.21277082 0.16169503
0.011955584 0.10197513 0.06840297 0.3487176 0.3035934 0.21618237 -0.039321575 0.10584139
-0.06398293 0.07719391 0.05069672 0.01962343 0.039309658 -0.11606739 0.049830336 0.0011841747
0.20390137 0.2687021 0.19225816 0.17042954 0.295469 0.21727191 -0.008998496 0.046670265
-0.05559761 0.09229428 -0.10086754 -0.047435198 0.2587133 -0.068362616 0.14255697 -0.09251179
0.38656548 -0.14169398 0.007152411 -0.06857551 -0.07275721 0.19682966 0.064179495 -0.0872801
-0.026758797 0.15045121 0.2540614 0.108713076 -0.122243375 -0.006026323 0.16179138 0.029902153
0.012849596 -0.1840959 -0.0018825171 -0.008186349 0.038337894 0.076829724 0.05896166 -0.29013357
0.09762429 -0.023746176 0.020650888 -0.27685016 0.39353836 -0.0077875415 -0.09597065 -0.0637776
0.021342997 0.028409768 0.13816309 0.25820437 -0.0426765 -0.15633856 0.09322052 0.21123716
-0.050465375 -0.116832726 0.09474608 0.17133893 0.038350727 0.014702875 0.20414236 0.23853584
0.18673407 -0.04601347 0.08408559 0.24656768 -0.07432127 0.19043219 0.08576399 0.17892046
0.10293146 -0.15134451 0.014112462 0.111292765 0.23310944 0.09259333 0.09506065 0.24221541
0.25274384 0.044637285 0.065319136 0.03248888 -0.020559613 -0.034292664 0.12849388 -0.18097164
0.03821349 -0.020893069 0.31812847 0.25203052 -0.0583664 -0.094880626 -0.015209629 0.14735937
0.018182844 0.087536536 0.24459188 0.24817862 0.14774258 0.30345768 0.20563935 0.0031716519
0.38636693 0.18549359 0.14951903 0.046314873 -0.06188751 0.21364766 0.17873237 0.0735032
-0.3475084 0.0074109137 0.07280594 -0.108867645 0.03370476 0.17059991 0.22456938 0.19552778
0.12575741 0.009123066 -0.25105298 0.15332332 0.18687457 0.116081946 -0.28855944 0.1767773
0.0027933957 0.042800356 -0.064859085 0.33698317 -0.0851784 -0.13474402 0.03528796 0.038027838
0.067637786 0.23754333 0.014431387 -0.064880215 0.28394377 -0.07255582 -0.028294435 -0.004804788
0.082665265 0.011526812 0.05518641 -0.022295272 0.049601886 -0.23239669 0.31675738 0.030318014
00000000: 48d8 5b3c 21e8 363e 5e00 813d eff7 2b3e
00000010: 59cd 3a3d 1eb7 543d bd87 a6bd a3af ba3c
00000020: c381 a13c e256 1b3d 86e5 1fbe 5441 403d
00000030: 8851 d23c 6700 b13e 4b77 02be 53d5 13be
00000040: f8ed 4fbe 6e6e ea3c 208e 1ebe 5766 e3bd
00000050: e414 2a3d 81ca 9b3e 8cad 4c3d 34d3 243e
00000060: c98c 0b3e a222 193e f6ab 0abe 5ffe 953e
00000070: a6f7 0b3d 8e41 9fbd dd8c 943e c98b d3ba
00000080: 36da 2b3e a6cf 7a3d a0c7 153e dc5c 24be
00000090: 78ed 04be 7ea5 aabc f0ea f2bc dfb1 573a
000000a0: a0b3 b8bd a2c2 c7bd 7c87 abbc df8a 7e3e
000000b0: 6950 0fbe f269 8bbe d9b3 48bd d387 e63d
000000c0: ae76 743e 97d2 443e 972a 8b3d 7c55 323e
000000d0: 305d 9abd 6d8f a8bd 84e3 153e 0325 f23d
000000e0: c398 65bd 9138 173e d900 7c3d aedb 9a3d
000000f0: 850f b53d 425a 323e acd1 3cbd 0fb3 143e
00000100: 0601 803d 5c4b 943e 6c2b 90bc 91e6 babb
00000110: 45ce b43e 4a70 47be aacf 17be 62bc 293d
00000120: 43cd 0ebe 4350 c53d 989e e3bd 693e 3ebe
00000130: 7a75 cabd e17f c4bd f47b 923c 3aae aabe
00000140: fc9f 733e 9d7e 94bc de4e 81bd 1719 be3b
00000150: 8831 1dbd 8323 5f3e 98e0 593e 6293 253e
00000160: 5be1 433c 56d8 d03d db16 8c3d 1d8b b23e
00000170: 9870 9b3e e95e 5d3e a90f 21bd 5fc3 d83d
00000180: 7b09 83bd d717 9e3d 5da7 4f3d 51c1 a03c
00000190: 2a03 213d bdb4 edbd e51a 4c3d 4f36 9b3a
000001a0: 85cb 503e 5293 893e 53df 443e 1585 2e3e
000001b0: b647 973e 877c 5e3e 6e6e 13bc 5229 3f3d
000001c0: 52ba 63bd c904 bd3d a493 cebd 694b 42bd
000001d0: 1276 843e b301 8cbd 74fa 113e d276 bdbd
000001e0: e9eb c53e 3a18 11be c65e ea3b 5171 8cbd
000001f0: bb01 95bd b78d 493e 8a70 833d e9bf b2bd
00000200: 4435 dbbc e20f 1a3e 5614 823e f6a4 de3d
00000210: bc5a fabd 7678 c5bb a4ac 253e 5cf5 f43c
00000220: 1d87 523c a383 3cbe cbbe f6ba 0920 06bc
00000230: 3208 1d3d e758 9d3d c881 713d 638c 94be
00000240: 3eef c73d 5787 c2bc 0d2c a93c 4ebf 8dbe
00000250: dc7d c93e a22e ffbb 438c c4bd d59d 82bd
00000260: 82d7 ae3c 9abb e83c a07a 0d3e 5d33 843e
00000270: 8ecd 2ebd 3717 20be 66ea be3d 8e4e 583e
00000280: c8b4 4ebd ff45 efbd 3c0a c23d 7973 2f3e
00000290: a715 1d3d 54e4 703c b20a 513e bd42 743e
000002a0: 3737 3f3e 9f78 3cbd 1135 ac3d 3d7c 7c3e
000002b0: c035 98bd a800 433e 08a5 af3d ed36 373e
000002c0: bbcd d23d 0efa 1abe f537 673c 76ed e33d
000002d0: 3eb4 6e3e 92a1 bd3d 28af c23d 5107 783e
000002e0: a467 813e 96d5 363d 0ac6 853d 0f13 053d
000002f0: a26c a8bc 7776 0cbd e693 033e a150 39be
00000300: c085 1c3d f127 abbc bce1 a23e 250a 813e
00000310: 9b11 6fbd c650 c2bd cf31 79bc 60e5 163e
00000320: 30f4 943c 5b46 b33d 4b76 7a3e 8922 7e3e
00000330: d549 173e ce5e 9b3e 1f93 523e 7ddb 4f3b
00000340: e3d1 c53e 08f2 3d3e 841b 193e aab4 3d3d
00000350: c27d 7dbd 74c6 5a3e 9e05 373e d988 963d
00000360: 9fec b1be 40d7 f23b 481b 953d 00f6 debd
00000370: 010e 0a3d beb1 2e3e 84f5 653e 6f38 483e
00000380: 8dc6 003e ea78 153c 048a 80be ca00 1d3e
00000390: 0c5c 3f3e 5fbc ed3d 10be 93be 1c05 353e
000003a0: 6711 373b 6d4f 2f3d d7d4 84bd 0f89 ac3e
000003b0: 0372 aebd 56fa 09be 1c8a 103d 14c3 1b3d
000003c0: ae85 8a3d 8f3e 733e a071 6c3c ebdf 84bd
000003d0: 1461 913e 2598 94bd bbc9 e7bc 7c71 9dbb
000003e0: 684c a93d f4da 3c3c 250b 623d 93a4 b6bc
000003f0: 592b 4b3d 66f9 6dbe 062e a23e 7c5d f83c
