pretrainedNetworks/critic_target2.pth (torch_old, 553166 bytes, 9 tensors)

fc1.weight f4 [300, 52]
00000000: f4b7 143c aa02 983f b5a3 5e3e 5f94 9b3d
00000010: a079 963d c264 373b 0c80 443e 6d38 993d
00000020: 0071 d23d 32b5 6e3f 28be 92bd 1ebc b2be
00000030: b609 46be 9d4e 0f3e 34fb cebd b38c c2be
00000040: 379b a63d feea 4e3f b4fc 09be cb2b bb3e
00000050: 54d2 09bf 8f4d 1f3b 14b4 1ebe 6f8e ce3e
00000060: 5339 eabc 666f fe3f b76b 09be 4373 2dbe
00000070: 0c5c 1cbd 7454 473d 0b5d 19be 24c0 6dbe
00000080: b5b7 78bc 6a8d e33f 3103 813d d898 f3bc
00000090: 14ac 553e 5afe e53d dfbc 0b3d 3780 f2bc
000000a0: ca3b 263d 078c c43f 6ef0 ef3d 262b 53be
000000b0: b85f 0b3f bbdf 293d 09ce 233d 677b 71be
000000c0: 047c 9dbe 97c8 0b3f cfbc 4fbe adb2 c43f
000000d0: a16e b33e ca2a 40bf e310 ab3d 0c68 433d
000000e0: 1f4b b93d bd03 01bf f923 bf3d cff9 1a3c
000000f0: 3ab1 803e bf59 2bbf 6c2b 21be 9cb1 c8be
00000100: 1229 283e cdc7 c7be 8868 f7bd 02b0 c4be
00000110: 4fd3 4e3d ea1b 22bf bcc4 12be 11d6 193e
00000120: 7c25 8e3e 1b71 d33c f38a c2bd c74e eb3d
00000130: a617 583f 38db 733e fe01 ffbd 8a1c b93d
00000140: d2e2 8fbd cf03 ffbe a4dc 43be d972 8d3d
00000150: 0f49 253f 85b3 8d3e ef25 9abe 1f1e 9f3d
00000160: 7e47 23be dcec b5be 32d9 90be 157f 943d
00000170: 78d1 223f 6eda 403e 59ff 37be 7038 bebe
00000180: eba1 9cbe acfe 99bd 05c1 36be 6d51 88be
00000190: 259a f0bc 1627 17bf 2eda 3d3f 26d7 dc3e
000001a0: 8c1b a23e 837c 143f c942 c63d 2621 9ebe
000001b0: 53ec 633e 4b43 babe 8869 063d 1b00 b1be
000001c0: 49ac 7a3e 15a8 d23e 4742 29be 21ff febd
000001d0: a7f0 843e 8add c8be de61 ffbd 012e 4ebe
000001e0: 6230 f53d ca10 c93e 74ee 5cbe 2a33 33be
000001f0: 424b be3e 02fe dbbe f5f0 5abe 619f f1bd
00000200: 257f 353f 17e8 1b3d 0bd1 9f3e 97c8 b4be
00000210: 48c6 efbd e360 bdbe f29c 8f3e 842a cabe
00000220: 1996 143f b550 023e 3ce7 5dbe 59ed 2f3e
00000230: 9038 8fbe a8fd cabe 122e 19be ccd5 5a3e
00000240: ebcd 803e 998b 8e3e d4b2 42be fed4 c03e
00000250: 4db9 c2be d18e bdbe 8fae 2dbe d290 e13e
00000260: 1cf1 783e 42bd c5be c3b5 383e 6630 a3be
00000270: 4a08 ec3e a73f e83e 26b2 a2bd 375e 713e
00000280: dd39 9fbe 6ecc 92be a760 c9bc c536 9e3e
00000290: b152 1b3f e481 fd3e 0dfe 54bc 880a 903d
000002a0: 8cca c8be 0c3a 12be 3c28 a53d 401b 0dbd
000002b0: 9c05 543f 2db4 1c3f e7d5 a43d c492 7cbd
000002c0: 5ab6 24bf a4e9 223e 04fa 413c c5c1 f5bd
000002d0: ab19 263e d0d9 22bf d22c 863d 6981 623d
000002e0: 2679 a93e d62d c6be e052 3dbd 4bb9 543d
000002f0: cf47 c73e 90ab 9abe 84df dcba 7f39 693e
00000300: 108c c83e 5b5c 0fbe 3572 c23d 466f 533e
00000310: 09f4 db3e fa7b 1ebe 7aef 513c b8cf aebc
00000320: af6c 253f bb14 263e e661 88bd f0ba 93bc
00000330: c418 643d 0c91 c23e 76ce 82bf 17a2 44bf
00000340: b2e6 b63e 2aa1 2cbe 8d77 c6bc 163b 253d
00000350: 3dfd 9bbe 5df3 5b3d d61d d03c d7ae 0abc
00000360: 0ea9 433f a37f 7bbd 4c6f 87bc 1785 f5bc
00000370: ab7e 523e 8373 4a3e 2d28 ec3b 4a7c 68bd
00000380: 6da6 143f 0a36 f8bd f8db 48bd 500c ddbd
00000390: 8e18 113f 99ce ef3e 90d2 75bd 0279 d1bd
000003a0: 7f89 df3d 8105 b1bf 21d6 3e3c 1ad7 78bc
000003b0: bf37 be3e 56ca a7b9 26be bfbc 0f6c 1a3c
000003c0: bd6e c3bc e176 c5bf 834c 2bbc 9e1b c6be
000003d0: 132a 68be 67d4 033e 9ccf a43b 710c b9be
000003e0: da1c c2bd cd9d c0bf ecea 0d3d d9d7 ee3b
000003f0: 369c 1dbf 7dbf f43e 7382 003d d642 123c
0.009077061 1.1875813 0.21742137 0.07596659 0.07347417 0.002798364 0.19189471 0.074814655
0.10275459 0.9324523 -0.07165176 -0.34909147 -0.19339642 0.13994832 -0.10106507 -0.3799797
0.08135074 0.8082732 -0.13475305 0.3655685 -0.5383656 0.0024307703 -0.15498382 0.40343043
-0.028591787 1.9877746 -0.13419996 -0.169385 -0.03817372 0.048664525 -0.149769 -0.23217827
-0.015180518 1.7777531 0.06299437 -0.029735968 0.20866424 0.11230154 0.03411567 -0.029602153
0.040584363 1.5355233 0.1171578 -0.20621929 0.5444293 0.04147313 0.039991412 -0.2358223
-0.3075868 0.5460295 -0.20286869 1.5367028 0.3504534 -0.7506529 0.0835283 0.04770665
0.09047531 -0.5039633 0.09333033 0.009458973 0.25135213 -0.66933817 -0.1573922 -0.39198005
0.16421917 -0.39019623 -0.12080485 -0.38415533 0.05049449 -0.63323843 -0.1433286 0.15023066
0.27762973 0.025810769 -0.09499159 0.11489635 0.84411085 0.23814094 -0.12451552 0.090386465
-0.070256844 -0.49807593 -0.19127136 0.06906671 0.64564604 0.27676025 -0.30107066 0.07769417
-0.15945241 -0.35532272 -0.28290707 0.072508015 0.63600874 0.18833324 -0.17968501 -0.37152433
-0.30592284 -0.07519278 -0.17847069 -0.26624623 -0.029370377 -0.59044015 0.7416104 0.43132895
0.31661642 0.5800249 0.09680707 -0.30884665 0.2225812 -0.36379465 0.032815486 -0.34570393
0.24479784 0.4114386 -0.16529189 -0.12451006 0.25964853 -0.3923152 -0.124698386 -0.20134737
0.11972119 0.39270622 -0.21575338 -0.17499986 0.37166792 -0.4296723 -0.2138098 -0.11797977
0.7089713 0.038063135 0.31214175 -0.35309288 -0.11707741 -0.3698798 0.28049427 -0.39485562
0.5804153 0.127261 -0.2167024 0.17180385 -0.2797284 -0.3964665 -0.1495898 0.2137062
0.25157103 0.2784088 -0.1901353 0.376625 -0.38031998 -0.37023023 -0.1696112 0.44055802
0.24310726 -0.38620955 0.18038087 -0.31872863 0.46100074 0.45361063 -0.07944135 0.23571096
-0.31098834 -0.28671592 -0.02458222 0.3090116 0.6067305 0.4951316 -0.013000024 0.07033259
-0.3921703 -0.14279956 0.08064315 -0.034449816 0.8282106 0.61212426 0.08048611 -0.061663404
-0.64340746 0.1590944 0.0118393935 -0.11999849 0.16220729 -0.63613605 0.065515175 0.055299196
0.3310024 -0.38706845 -0.046221614 0.05193452 0.38921973 -0.30209017 -0.0016851281 0.2277584
0.3916936 -0.14000075 0.094944395 0.20647916 0.42959622 -0.15476981 0.012813443 -0.021339282
0.64618963 0.16218846 -0.06659298 -0.018033475 0.05568768 0.38001287 -1.0219257 -0.7680983
0.35722882 -0.16858354 -0.024226928 0.040339552 -0.30466643 0.053698886 0.025404852 -0.008464537
0.7642983 -0.06140102 -0.016532563 -0.029970689 0.20556132 0.19770627 0.0072069378 -0.056759156
0.58066446 -0.12119682 -0.049037904 -0.10793364 0.5667809 0.4683731 -0.06001526 -0.102281585
0.10914897 -1.3829805 0.011647732 -0.015188003 0.37151906 -0.00032003474 -0.0234061 0.009425177
-0.023856515 -1.5426904 -0.0104552535 -0.38692945 -0.226723 0.12873994 0.005029632 -0.36142305
-0.09478159 -1.5048157 0.034647867 0.0072889146 -0.61566484 0.47802344 0.031374406 0.008927068

fc1.bias f4 [300]
00000000: 663e 0cbe 5e02 88be 2cc3 9abe b916 36bf
00000010: 4a24 06bf afe7 5a3c 80b0 453e 5027 03be
00000020: 0703 e7bf 6ae3 cdbe 1c72 91be 059d cfbe
00000030: 245e 22be 3e17 eabe c814 22bd 94ab 5fbe
00000040: 06e6 47be 3a3d d6be 7ab4 11be 3774 3dbd
00000050: b202 7dbe 5496 53be ae7c 8bbd 92a8 333e
00000060: f2d9 78be 619f 7a3c 5cd0 f3bc fceb 83bf
00000070: 0e81 053d 3df7 71bf e2c9 bdbc dd03 ce3d
00000080: ac95 2fbe 46ad 823d 4eb5 a6be e9ee b3be
00000090: 0d1b 85be 860f 4b3d 2a58 75be 0488 b93d
000000a0: b310 04bf 3e5b 9cbe f5ab 6c3e e85d 20bf
000000b0: c0bb 98be cd7c 0ebe fd67 6abe e7a5 c8be
000000c0: 8818 d6be 331a 2bbf 8941 8dbc 99c6 9abe
000000d0: 42bd 9fbe ac30 f2be bec3 2abe efad 9fbe
000000e0: 56f2 89be 388d 703e f405 02be a156 a1be
000000f0: a62b dbbe cc1d 10bf 6890 b2be ef69 97be
00000100: 5e70 a2be 1e88 013f 6f70 7fbe 369b f2bd
00000110: fc5f 0b3d 85ad 2dbf d512 b8be 78da 35bf
00000120: 1154 74be 5ceb 69be 59a9 c5be 0e4a 593d
00000130: 5987 18bf 7da7 0b3e 60d7 f6bc 2067 18bf
00000140: 2c00 76bd fac3 39be 2820 2dbf 728f 1ebe
00000150: 9986 4a3e 792f 01bf d60f 28bf 1f91 d23c
00000160: 67a8 72be ba82 edbe d46e c83c 30ac 903e
00000170: 6e48 98be b6b8 babd cc39 2e3e d08f abbf
00000180: d64b cbbe e182 e6be f4ee 99be ff51 c7bf
00000190: b3b6 97bd e8eb ed3d b356 0c3d de37 9bbe
000001a0: fcd8 46bf bf0a 1cbe ffde 7bbe 51e6 2dbf
000001b0: e74e f7be 6543 a7bd f3aa fcbe 2e26 33be
000001c0: e60e b2be 9276 96be 9341 cebe 496c 07be
000001d0: cb57 39be b845 cabe 4aa2 0abf 1c3e 04bf
000001e0: 4e95 17bf 9cd1 6bbf 392a d5bd a4ed 49be
000001f0: 3041 0b3c 2879 68be a650 a1be 6b6c ddbe
00000200: 8cc7 0bbf e6ea a9be 8cf9 4cbe 03df d7bd
00000210: 2cb1 c4be ddea 1abe 5def 0dbf 4c57 acbe
00000220: e60c 34bf 2ed9 0abe dbd9 863a 755a a8be
00000230: 61a2 6ebe f93d f0be 0c71 c5bd a885 51bf
00000240: 9122 dfbe ddb1 6cbf cfd7 a23e 8109 14bf
00000250: 4403 59be 4d95 79bf 9bb1 0bbe d52a c1be
00000260: 7a7c 30bf 9a03 78bd 0350 ecbe 6136 a3be
00000270: f765 013c c3f0 a8be 409f 07be 599f 12be
00000280: 4df3 08bf cd75 3fbf 9b90 85be ca09 42be
00000290: dfa4 f4be 8d0c e8be 6d83 89be c024 07bf
000002a0: ca2b fcbe 34ff 2abf dd86 8ebe b9d3 b0be
000002b0: fb88 e2be 4b29 2fbf 87b2 0fbf 51dd 0e3c
000002c0: 6f4b 4ebf 9156 aabd 530c 8bbe c709 65be
000002d0: d425 15bf 47eb 0ebc 117c 6fbe b75a 6abf
000002e0: e0c5 a5be 0b17 d2be d56b a7bf 8b4b a2be
000002f0: c6f5 6abf ce0c d2bd 203c 90be e318 11bf
00000300: caa8 cf3e 82ed 3ebf bed1 1f3d 647e 30be
00000310: 1b16 8dbd a856 6ebf 8036 c8be a017 a4be
00000320: ff78 3ebf 6512 30be d874 58bd f738 54be
00000330: 3d6f c93d 4736 d1be 89eb ea3c eb9f dcbe
00000340: c29c 39bd bc95 5dbe 30d8 06be 3e43 03bf
00000350: 457d 4d3d b793 27be 34d3 51be 51d2 f1be
00000360: 05ba c1bf ac28 edbe c35c 75be 5351 a3be
00000370: c649 e2be 6697 72be 9fef 1bbf 7392 48bf
00000380: 58ab e1bd 4946 ddbe 773d 7dbe 5234 90be
00000390: cb57 4abe ad2b edbe c37a 34be 8785 ddbe
000003a0: c60e 48be 3525 c8bd fdfc ecbe 2d8b 9abd
000003b0: 0f3b bfbe 05a2 46bf e899 23be 13f6 48be
000003c0: a146 36be 7799 c3bd 4fa2 b1be 38e9 1ebf
000003d0: d86e abbd 2ea9 ebbe 61f7 1fbf 67d5 9cbe
000003e0: 3d08 ccbe 3079 acbe ea6e 543f 515b 2cbf
000003f0: 3fce 843c e6a2 dfbe 105a 6ebe e996 22be
-0.13695678 -0.26564306 -0.3022703 -0.7112842 -0.5239912 0.013360902 0.1930561 -0.12807965
-1.8047799 -0.40212566 -0.2840737 -0.40549484 -0.15856224 -0.45720857 -0.0395706 -0.21842796
-0.1952134 -0.41843587 -0.14229003 -0.04625341 -0.2470806 -0.20662814 -0.0681089 0.17544773
-0.2430189 0.015296788 -0.02976244 -1.0306392 0.03259378 -0.9451788 -0.023167554 0.100593306
-0.17146939 0.063807055 -0.325602 -0.3514321 -0.259972 0.04957535 -0.23959413 0.09059146
-0.5158798 -0.30538362 0.23112471 -0.6264329 -0.29830742 -0.13914795 -0.22891231 -0.39189073
-0.4181559 -0.6683685 -0.017243164 -0.30229643 -0.3119908 -0.4730276 -0.16676232 -0.31187388
-0.269427 0.2349137 -0.12697583 -0.31511405 -0.4280674 -0.56295466 -0.34875798 -0.29573008
-0.31726354 0.50598323 -0.24945234 -0.118460104 0.034027085 -0.67842895 -0.35951868 -0.7103648
-0.23860194 -0.22843689 -0.38605765 0.05304914 -0.59581524 0.1363811 -0.030131996 -0.59532356
-0.060058758 -0.18141165 -0.6762719 -0.15484408 0.19777907 -0.5046306 -0.65649164 0.025703965
-0.23697053 -0.463888 0.02446691 0.2825637 -0.2974276 -0.09117262 0.17014235 -1.3403263
-0.39706296 -0.45021728 -0.3006512 -1.5571898 -0.07407894 0.11617261 0.03426237 -0.3031606
-0.7767484 -0.15238474 -0.24596785 -0.6792956 -0.48302385 -0.08167151 -0.49349174 -0.17495033
-0.34776992 -0.29387337 -0.40284404 -0.13224901 -0.18099897 -0.39506316 -0.54153883 -0.5165727
-0.59212196 -0.92116714 -0.10408444 -0.19719559 0.008499429 -0.22702467 -0.31506842 -0.4324678
-0.5460136 -0.33187026 -0.2001707 -0.10540583 -0.3841642 -0.15128656 -0.55443364 -0.33660352
-0.7033218 -0.1355941 0.0010288315 -0.32881513 -0.2330413 -0.4692228 -0.096407026 -0.8184457
-0.4358106 -0.924589 0.31805274 -0.57827 -0.21192652 -0.9749344 -0.1364197 -0.3772799
-0.68939936 -0.06055031 -0.46154794 -0.31877425 0.0078978455 -0.32996187 -0.13244343 -0.14318599
-0.5349625 -0.74789125 -0.26086888 -0.18949047 -0.47782037 -0.45322075 -0.26858082 -0.5279045
-0.49252158 -0.6679566 -0.27837268 -0.34536532 -0.44245133 -0.68422383 -0.56131786 0.008719758
-0.8058385 -0.083172925 -0.2715784 -0.22367011 -0.58260846 -0.008723087 -0.23387171 -0.9154467
-0.3237753 -0.41033205 -1.3079783 -0.3169826 -0.9178127 -0.102563486 -0.28170872 -0.566786
0.40558463 -0.7458116 0.039018385 -0.17235714 -0.06888982 -0.93100977 -0.3910408 -0.32049274
-0.74403375 -0.17194517 -0.052845806 -0.20724855 0.0983567 -0.40861723 0.028676765 -0.43090758
-0.04531551 -0.2163915 -0.13168406 -0.5127448 0.050168294 -0.16364942 -0.20490724 -0.4723077
-1.5134894 -0.46320093 -0.23961167 -0.31897983 -0.4419691 -0.23690566 -0.6091251 -0.78348464
-0.11019009 -0.43217686 -0.24730478 -0.28164917 -0.19760053 -0.46322384 -0.17624955 -0.43265936
-0.19536886 -0.09772722 -0.46286765 -0.07546077 -0.37349746 -0.7759097 -0.1597668 -0.1962512
-0.1780038 -0.095507555 -0.34694144 -0.62074614 -0.08370751 -0.4602751 -0.62486845 -0.30631563
-0.39850035 -0.3368621 0.8298174 -0.6732684 0.016211627 -0.4367897 -0.23276544 -0.1587788

fc2.weight f4 [400, 300]
00000000: cbf0 713c de25 3bbc 116c ac3c 6fbd 18be
00000010: 4e0d 563d 5150 22bc 14be 95bd 6a9d 14be
00000020: e26e 62bc fde2 44be 2dba 6c3e fef1 24bd
00000030: 0c17 8bbd a961 80be cfff aebd 5911 313c
00000040: 8f1f d6bd 03cd cb3c 3aa4 87bd 78c6 ed3b
00000050: cba7 d93b 7616 783c 847e 6c3e e93c 1b3d
00000060: 6524 77bd f82a 00be 2801 14bd db05 cdbd
00000070: 8061 223d 7b5c 0c3d 7ac2 533d c012 dfbd
00000080: 7e61 e9bd 51c7 1e3d b2ba cdbc a74a 9abb
00000090: 70b2 3e3d 7588 80ba 740f 90be 8c4b 21be
000000a0: 9ac8 7bbd 1447 973d c1be 4c3d 9371 c5bd
000000b0: d682 6fbd cf3d 09bc 1db4 d1ba 4a79 37bd
000000c0: 33e2 583d e754 24be ece6 a4bd 5162 9cbd
000000d0: 217d cd3c b5cf b4bd 49e0 d0bd 7970 373d
000000e0: 98c0 373d 330e 94bd 6340 b0bd c8d7 b0bb
000000f0: 1090 903c 4c4e 8dbd 62d3 01be e215 0abd
00000100: 9c3a c7bd 8c58 513c 8830 25bd 0fb5 cebd
00000110: 395b 733d 485f b93d da15 28be 3672 a0bd
00000120: e78e 8cbd e696 8fbd b787 483c f288 1fbc
00000130: 7938 c2bd 4b38 d43d 63dc 913b 0a9d 88be
00000140: 0e66 243b 22f9 10be f6e9 7ebb 974b c6bc
00000150: fc0a ad3d f06d 063b 208f bbbd d49c 9ebd
00000160: 2ce9 85bb 8fe3 6b3d 432b c53d 3722 83bd
00000170: c4b1 0e3e 610b 83bd 970b c83d 2bd4 6cbc
00000180: 1a1c c63c 3e9d 873d 6b63 95bc 0f70 e73d
00000190: 3c97 953b c737 6a3d b2c1 363d d870 b2bd
000001a0: fadc e03c 0c80 06bd 4d61 22be a0fc b33c
000001b0: 6a36 02be 1eab 223d be93 7cbe f118 afbc
000001c0: 1db8 4dba 18f1 c5bc cf79 bfbd 963b 07bd
000001d0: ebb9 a8bd cded d6bd a2e4 1f3c 52eb acbd
000001e0: 1981 bd3d e77f fbbd f5cc 07bd 00b7 afbd
000001f0: c0a1 4ebe b7fe a3bc 879a 113d 09ff 55bd
00000200: f4d1 d43d 0199 263d 90c8 5ebd b0cc 21be
00000210: 30cc 0bbe d31d 5abd 8059 b63d 8cf5 84bd
00000220: 3f9f d2bc cb82 7abe 0130 c93b 8abf 1b3e
00000230: dd37 9a3c d0a7 1cbe 0c69 d9bd cc21 aebd
00000240: e06c 7c3c 9a45 973d a5c2 a1bd ab2b a63b
00000250: 2290 9e3c d69e b0bd 15d6 a2bd 2908 a4bc
00000260: 3298 3abd e0a8 863d 8b41 47be 1a61 b8bd
00000270: ea54 96bc d961 b03b 81f2 36bc e5c8 d2ba
00000280: 6f6b 57bd 38f4 e93c 41f9 313e fd26 4f3d
00000290: 4628 5fbd 9ab2 22bd 0c9b 97bd caab 48bd
000002a0: a7b8 68bd fb01 a93c ac8f 373d ed04 04bc
000002b0: 2bf9 1cbc 57ef 8dbd 383d dcbd 0861 afbb
000002c0: 9b4f ab3d 31d8 a1bd f35f b7bd cfa5 653c
000002d0: 755f 90bd 8b10 08bd 0331 f6bc f178 99bd
000002e0: 1a93 9cbe 9832 8b3c a911 76bc fa51 543d
000002f0: f023 083d de92 70bc 4204 61be 60f3 3abe
00000300: 4c81 9fbc b69a e9bd f9cd 81bc 58b8 30be
00000310: 191d 23be 7e61 49be a911 f8bd aac0 bbbd
00000320: 197a ebbd 9119 d8bd 587c 34be 2ba0 f6bd
00000330: ca8a 76bc 4f73 e7bc 45f8 8dbd 7b4e 61bd
00000340: 18a8 d9bd 10fa 1cbe f510 46bd 1968 e7bc
00000350: 8570 c3bd b2db 1c3d 8f99 c63d 3b06 2dbc
00000360: 1398 823c 58ba 9bbd 5ef2 1f3d 1352 df3c
00000370: 4705 b73d 65fa 283d b206 6dbd 164c d3bc
00000380: 5ca3 bebc 4c8b b7bd 002e bd3c 42a4 a83c
00000390: d47f f6bc d408 76bd 545a 03bd dba1 e4bd
000003a0: 65c6 06be c3d0 d73d 8c60 303d 5956 acbd
000003b0: 96fb 7b3d f3e9 bcbc a9e9 7bbc 517d 63bd
000003c0: 33c0 163c 12a0 4cbd 1c31 923c 5396 723c
000003d0: ebe0 a33c d983 e73b 6ce5 16be ccac d73c
000003e0: 9020 8e3d 6ac8 9fbb 6891 323d f3e4 6abc
000003f0: 0793 853a 48ee 003d 08c3 393d 6ac0 cebd
0.014766882 -0.011422602 0.021047624 -0.14916013 0.052258782 -0.009906844 -0.07311645 -0.14513174
-0.013820382 -0.19227214 0.23117895 -0.040269844 -0.06791505 -0.2507451 -0.08544885 0.010807359
-0.10455238 0.02487803 -0.066231206 0.0072563253 0.006642317 0.015142074 0.23095137 0.037899885
-0.060337443 -0.12516391 -0.036133915 -0.100108825 0.039643764 0.034267884 0.05169914 -0.10892248
-0.11395548 0.0387643 -0.025113437 -0.0047086063 0.04655689 -0.0009806292 -0.2813679 -0.15751475
-0.061470605 0.07386604 0.049986605 -0.09640803 -0.058474384 -0.008376553 -0.0015999113 -0.044793405
0.052950095 -0.16048013 -0.08051857 -0.0763594 0.02508408 -0.088286795 -0.10199029 0.044784997
0.044861406 -0.07229271 -0.08606031 -0.005396817 0.01764682 -0.068996996 -0.12678292 -0.033712275
-0.09727976 0.012777459 -0.040329486 -0.10093128 0.05941317 0.090513766 -0.16414586 -0.07834284
-0.06863194 -0.070112035 0.012239388 -0.00973724 -0.094834276 0.103622995 0.004451321 -0.2668231
0.0025085243 -0.14157537 -0.0038896776 -0.024205966 0.08449361 0.0020512305 -0.09158158 -0.07744756
-0.004086634 0.057590064 0.09627392 -0.0640301 0.13935 -0.06398655 0.097678356 -0.014454882
0.024183322 0.066217884 -0.018235883 0.1130067 0.0045651477 0.0571821 0.044618316 -0.087129295
0.02744912 -0.03283696 -0.1585743 0.021971047 -0.1271607 0.03971397 -0.24665734 -0.021374198
-0.00078475644 -0.024162814 -0.09349405 -0.03301581 -0.08238586 -0.10494576 0.0097591 -0.08443321
0.09253139 -0.12280255 -0.033154447 -0.08579826 -0.2017889 -0.020018918 0.03554776 -0.052245174
0.10391608 0.04067326 -0.05439049 -0.15800738 -0.1365211 -0.0532511 0.089037895 -0.06492147
-0.0257107 -0.24463956 0.0061397557 0.15209785 0.018825466 -0.1529839 -0.10615739 -0.0850254
0.015406817 0.07386322 -0.078984536 0.0050711236 0.019355837 -0.086240456 -0.07950989 -0.020023422
-0.0455553 0.06575179 -0.19458596 -0.09002896 -0.018351037 0.005382758 -0.011166216 -0.00160816
-0.05259269 0.028558835 0.17380239 0.05057429 -0.054481767 -0.03972111 -0.0740262 -0.048991956
-0.056816723 0.020630827 0.04481475 -0.008057815 -0.009580891 -0.06930416 -0.10753864 -0.005352143
0.08364793 -0.07902563 -0.08953848 0.014016583 -0.07049457 -0.0332189 -0.030052667 -0.07493771
-0.3058098 0.016991898 -0.015018859 0.05183599 0.033237398 -0.014683453 -0.2197428 -0.18256903
-0.019470833 -0.11406462 -0.015845286 -0.17257822 -0.15929069 -0.19666097 -0.121127434 -0.09167607
-0.11497898 -0.105517514 -0.17625558 -0.12042268 -0.015047738 -0.028253226 -0.06932119 -0.055006485
-0.106277645 -0.15329766 -0.048356015 -0.02824788 -0.09542946 0.038295455 0.09697258 -0.0105605675
0.015941655 -0.076039016 0.0390495 0.027260816 0.089365534 0.04125442 -0.057867713 -0.025793117
-0.023271255 -0.08962116 0.023093224 0.020586137 -0.03009025 -0.060067013 -0.032068565 -0.11163684
-0.13161619 0.10537865 0.043060824 -0.08414907 0.061519228 -0.023060774 -0.015375533 -0.055539433
0.009201097 -0.049957342 0.017845683 0.014806348 0.02000471 0.007065278 -0.14735955 0.026327513
0.069398046 -0.004876186 0.0435957 -0.014336812 0.0010190912 0.031477243 0.045352012 -0.10095294

fc2.bias f4 [400]
00000000: 2719 77be 00b1 86bc 7e6e 3fbd 56a0 5abe
00000010: aebc dbbd 9312 4cbe 9ed2 07be 88fd 11be
00000020: d834 f1bd 8974 13be e58d 7abe 1e28 a3bd
00000030: 348d a3be ca39 cdbd c69a 7cbe 6a0b f4bd
00000040: 01f2 4abe d1c9 a6bd 8992 d5bd 13f9 95bd
00000050: d706 80bd 7140 39be 45df 18be 06e7 86bd
00000060: b40f e3bd 0268 a3be 1664 99bd 0bb3 aabe
00000070: 50a4 f0bd 652f eebd b858 fabd 6182 fabd
00000080: f432 0dbe 538a 1fbe ec5d 0dbe 7e07 adbd
00000090: 83ab 58bd c452 50bd 6df2 52be 5bed 15be
000000a0: 7846 1fbe e510 85bd b4a0 01be a77a 4abd
000000b0: 5df9 dabd e83d 2fbe de69 b6bd 00f5 08be
000000c0: 775b 66bd 4d33 eebd dac1 e0bd a664 dcbc
000000d0: ffef 10be 45b0 12be 5d5e 98bd 332b a9bd
000000e0: be17 55be 136d f4bd f58f 76bd 0f78 a4bd
000000f0: 0c90 a0bd 7892 dabd 9632 e5bd b15f b9bd
00000100: 6578 bebd 7e81 ebbd f738 d3bd a645 13be
00000110: c445 04be 40b8 36be 2a96 57bd 8963 1dbe
00000120: 0cf7 b2bd 3dab dabd 3f18 33be 9e07 e5bd
00000130: 148c 04be fff6 babd 8c50 8dbd d40d c6bd
00000140: 4c9e 2abe ed6c 32be acef 6fbe 8643 91bd
00000150: 0161 93bd 358d 14bf 7cb2 0fbe 20e0 9bbd
00000160: 3166 dfbd 8167 b9bd f334 e2bd e0eb 2ebe
00000170: b0cd 01be 0892 2ebe c308 b2bd f1ab 1cbe
00000180: 15d1 aabd b3f9 f4bd 7935 64be de96 99bd
00000190: 0731 9bbd 851c 5bbd 7035 42bd c20e b1bd
000001a0: 0cae e2bd ee89 c7bd cf85 07be 8992 55be
000001b0: 4ffe b6bd 55b1 bdbd aa0e 82be e7fe 07be
000001c0: 848d 96bd 99b7 00be f173 c2bd 016c 8abd
000001d0: 0223 babd 8d0d c8bd ebf7 9fbe 09d2 7cbe
000001e0: 74c3 ffbd d420 c9be 4c68 62bd 453d 21be
000001f0: 775b e6bd e622 49be c8e4 b7bd be71 8abe
00000200: 4c77 46be 0c37 34be b6dd 72bd e2ec 7cbd
00000210: 32cd c2bd d27e 01be 349a 86be 9631 b3bd
00000220: 08d7 d4bd e617 d2bd fa90 0bbe 6c1b e3bd
00000230: ea87 4dbe 9156 5fbd f466 bdbd 1ab7 06be
00000240: a926 bcbd a63d f8bd d70b 6dbe 598d 09be
00000250: 1c0e 88bd e5f4 17be cf65 f0bd c709 37be
00000260: c790 f0bd 97ba dcbd 056f 58be c81c 12be
00000270: 4535 b5bd c610 6abe 45c3 2bbe abea 45be
00000280: fb70 f4bd 14ef ecbd 78ee 54be fa02 95bd
00000290: 110e 19be 3392 da3d 9ab8 cebd f60b 70be
000002a0: bfdb 07be 2ceb 6cbe f3ef bbbd c921 0abe
000002b0: 59d2 afbd 483b fbbd 3f2d d3bd 2dc7 abbd
000002c0: a0c3 dcbd 577b e7bb f6e8 35be a6f8 d1bd
000002d0: 2b3c dcbd 21f5 6abd 8238 01be 5a49 31be
000002e0: 7ca9 75bd 4fb5 e6bd e544 35be 113f c3bd
000002f0: e13b ccbd 5694 8fbd 93d4 18be 4eb2 89be
00000300: b143 ccbd 1682 dbbd ea47 9fbd 6151 93bd
00000310: 1776 ddbd 4823 38be 6d08 18be 1939 f5bd
00000320: 5f41 24bd 741a 5dbe c89b e7bd 50f5 6dbe
00000330: 0078 88bd ac94 29be e64f acbd cd0f fbbd
00000340: ef73 54bd fe2f bfbd ac38 0ebe 69b4 09be
00000350: 6406 b5bd 7766 ddbd 780a c2bd c253 d7bd
00000360: 247d ffbd 767c 8abe fd89 05be befc 02be
00000370: 82a5 b2bd 332c 93bd 9167 d5bd ded0 a1bd
00000380: 69b0 5fbe 57c9 c0bc c803 b9be 709c d4bd
00000390: e52e c7bd 0970 c2bd cd86 0ebe 07a5 f9bd
000003a0: fed7 ddbd 6551 b5be 39da cbbd 5a72 6abd
000003b0: 58b1 f0bd bb60 15be 8ca1 bdbd 6953 9bbe
000003c0: 78b6 7abd 0378 b8bd 7476 05be 275c 86bd
000003d0: 3b1e ebbd ea26 babd f83d 4bbd 89a1 2dbe
000003e0: 2b16 96be a5f6 693b 59a1 8b3c eabf a7bd
000003f0: d31e bcbd cecc 6abd 5b15 f5bd 6bd7 8fbe
-0.24130689 -0.016441822 -0.046736233 -0.21350226 -0.10729347 -0.1992896 -0.13263938 -0.14256871
-0.11777657 -0.14399923 -0.24468191 -0.07966636 -0.31943667 -0.10020788 -0.24668416 -0.119162396
-0.1981888 -0.08143962 -0.1042834 -0.07322898 -0.062513046 -0.18090989 -0.1492892 -0.06587033
-0.110869795 -0.3191529 -0.07489793 -0.33339724 -0.1175009 -0.116301335 -0.12223953 -0.12231899
-0.13788968 -0.1558011 -0.1380536 -0.08448695 -0.05289794 -0.05086018 -0.2060029 -0.14641325
-0.15554225 -0.06497363 -0.1265896 -0.049433377 -0.106920935 -0.17113459 -0.08906911 -0.1337471
-0.05623957 -0.116308786 -0.10974474 -0.026903462 -0.14154051 -0.14325054 -0.07439873 -0.08260193
-0.20809838 -0.11934867 -0.060195882 -0.08030712 -0.07839975 -0.10672468 -0.11191289 -0.09051455
-0.09300307 -0.11499308 -0.103135996 -0.14382038 -0.12917238 -0.17843723 -0.052633442 -0.15370001
-0.08738527 -0.10677192 -0.17489718 -0.111830935 -0.1294406 -0.09129142 -0.06900129 -0.09670606
-0.16661948 -0.17424364 -0.23431271 -0.07092957 -0.071962364 -0.58027965 -0.1403293 -0.07611108
-0.10908163 -0.09052945 -0.110452555 -0.17082167 -0.1267612 -0.17047894 -0.086930774 -0.15299965
-0.083406605 -0.11961689 -0.22286023 -0.07499479 -0.075777106 -0.053493995 -0.047414243 -0.08645393
-0.11068353 -0.09743105 -0.13234638 -0.2085668 -0.08935224 -0.09262339 -0.25401813 -0.13280831
-0.07351211 -0.12570037 -0.0949477 -0.06758881 -0.090887085 -0.097682096 -0.31243834 -0.24689497
-0.124884516 -0.39282858 -0.055275247 -0.15746029 -0.11247914 -0.19642219 -0.089791834 -0.27039903
-0.19381446 -0.17599124 -0.05929347 -0.061749347 -0.09511794 -0.12646034 -0.26289523 -0.08749692
-0.103925765 -0.102584645 -0.13629523 -0.11089215 -0.20071378 -0.054525916 -0.092481524 -0.13155785
-0.09187061 -0.121211335 -0.23149048 -0.13432826 -0.06643316 -0.14839514 -0.117381684 -0.17874824
-0.11746364 -0.10777777 -0.211361 -0.14268792 -0.08848051 -0.22857961 -0.16773708 -0.193278
-0.11935612 -0.11569038 -0.20794094 -0.07275958 -0.14946772 0.106724165 -0.10093804 -0.23442063
-0.1326742 -0.23136586 -0.09176626 -0.1348945 -0.085850425 -0.122671664 -0.103113644 -0.08387599
-0.107795 -0.007064264 -0.17764649 -0.10252504 -0.10753664 -0.05736268 -0.12619212 -0.17313138
-0.059976086 -0.112650506 -0.17702062 -0.09533513 -0.099723585 -0.07010715 -0.1492484 -0.26893848
-0.099738486 -0.10718171 -0.077773884 -0.07193256 -0.108135395 -0.17982209 -0.14846964 -0.11973781
-0.040101405 -0.21592122 -0.1130901 -0.2323811 -0.06663513 -0.1656062 -0.08413677 -0.12258873
-0.051868375 -0.09335326 -0.13888806 -0.13447727 -0.088391095 -0.10810559 -0.09474653 -0.105140224
-0.124750406 -0.2704808 -0.1304092 -0.12791726 -0.08722974 -0.07186165 -0.10420144 -0.079011664
-0.21844639 -0.023533506 -0.36135697 -0.103814006 -0.09725741 -0.09494025 -0.1391861 -0.121896796
-0.10832213 -0.35413662 -0.09953732 -0.05723796 -0.11752576 -0.14587681 -0.09259328 -0.30337074
-0.061209172 -0.090072654 -0.13033468 -0.065605454 -0.114803754 -0.090894535 -0.049619645 -0.16956152
-0.29313788 0.003569999 0.01704471 -0.081909016 -0.09185567 -0.057324223 -0.11966964 -0.28094038

fc3.weight f4 [1, 400]
00000000: 1916 d2bb 0905 91bd 0d95 18bc 735f b3bc
00000010: 6bed 313c a970 28bd 5bfd e4bc 51d0 4cbc
00000020: 4de8 c83b 46db 6ebc c192 13bd 966e 9cbc
00000030: 53c7 f5bc d025 c23c 8ade 34bd 8ff0 533c
00000040: 4dd4 b03b 1d95 b4bc 8bc9 28bc d7b0 23bc
00000050: d418 dabb af94 f0bc 7f95 233a aa70 87bc
00000060: 3939 8a3c 6fae 33bd 17ec 90bb 6da0 7b3d
00000070: a6b2 243c 4d65 c9bb e5dd a23b 4e25 303c
00000080: 7428 bdbc d827 a53b e367 28bc 29e5 a63c
00000090: 5ce7 16bc 6218 b2bb ae07 75bc d48f 3ebc
000000a0: 35b3 20bb 5799 87bc fd38 173d d772 ca3b
000000b0: c5c9 51bc d2df a73c c065 543c e721 42ba
000000c0: 8046 543c 251f 8fbc a2a4 433c 48f6 543c
000000d0: cf0f 54bb 6ee5 70bc aa1d 28bc 951e 013c
000000e0: 07f6 e53c f7e2 b63c 5d31 b53c 5882 123c
000000f0: 6e5d adbc 7956 a43a efa8 79bc 245f 3dbc
00000100: e5d8 aabc bc60 113d eb47 9fbc a41a f3ba
00000110: 51da a03b 4fe3 e4ba f51b 18bb a5d5 173b
00000120: 1b67 033c 6ef1 a2bc 5202 80bc 2e7e dbbc
00000130: 4435 b5bb a44f 933c a1ea 30bd 2d2e 3ebc
00000140: 3afb b03c e95e f03c 1c12 9bbc d5df 643c
00000150: 5ee2 e5bc 4d77 df3c fd71 2cbd 06c3 86bc
00000160: 4c9e 2a3b 8f55 913c 4ca4 29bb ab62 cebc
00000170: c736 3abd d1b8 b03c c5b8 db3b 0f40 ca3b
00000180: 12ab cd3c 767d d23c 34db d53c 6140 9d3c
00000190: 35ad a1bc 2d39 b53c 4ce8 ceba e240 c43c
000001a0: 260e 19bc 2eeb 03bc d628 2c3c 56ac d2bc
000001b0: 9885 a53c f77c 823c 27fa 933c cb65 293c
000001c0: 91bb 1cbc 0ebf 12bb 3ca4 0d3c c74b ca3b
000001d0: df0d 1b3d b6b8 3fbc e4e3 af3c 01f4 b9bc
000001e0: 3559 5a3c 054f 81bd 8a63 4a3b 620b 22bd
000001f0: b18d eaba b612 86ba cfe8 ef3b 4baf 4a3d
00000200: 19f6 80bc b0b1 15bd 2bac 3b3c 2248 013c
00000210: e922 043c 67ff 2ebc 0a24 1b3d f5de 77bc
00000220: 1582 5bba 2e11 ca39 6feb a3bb d850 de3b
00000230: 9320 213b 9011 b93c 4e9f 783b 1f46 3e3c
00000240: e101 693c af7c 2d3b 9d0a 333d dd80 abbc
00000250: 9bc1 3b3c 4b27 293c 0422 b33c 7efd a9bb
00000260: 1215 03bc 7d90 ab3c 8a90 1d3d 76e2 0fbc
00000270: 3fd7 363c 576b c8bd b6f6 983c c79f 91bc
00000280: 988a 9d3b dfe6 363c 4f43 ddbc bf33 f9bb
00000290: 6942 373d 864f 1dbd e5a7 353c d01f 13bc
000002a0: a7db 5d3c a72a ad3a 4973 55ba b7ea 9a3b
000002b0: fc95 033d 3182 ccbc 1304 8d3b 6d26 da3c
000002c0: e7fb 213a be5f 0cbd 55d4 bdbb 848e 643b
000002d0: 632c 9f3c 285b 2f3c 1166 273c ea4d 1ebd
000002e0: 81e4 b93c b6d4 acbc fb25 4fbc eaf7 0139
000002f0: fc68 a03c aa1d 28bc 403d b2bc 61a2 82bd
00000300: 693e 56bc 12d8 30bc a56f 22bc 94ee c53b
00000310: 4e31 99bb c74b cabc 613c 73bc f0f4 893c
00000320: 38c4 ddbb cd63 a4bd 4551 a23c 91e0 62bd
00000330: 0a93 7c3c ec86 46bc a022 cbbc 2c97 1f3c
00000340: de9b abbb d01f 433c ea92 c43c 6b8d 6c3b
00000350: 8f0f 31ba 8500 ee3c 2bea 9e3c a56e 85bc
00000360: daee c33c 951c b239 6c82 753b 19a2 83bb
00000370: b3ca f4bc f2a6 b03b 832c 83bc 5599 2abd
00000380: 00bd ae3c 5dc7 cc3c c2b9 bf3d 467a dbbb
00000390: 7c7a 3dbc 6d9b 063b f0a2 faba 9547 05bb
000003a0: 661c 99bc 56f8 c83c 7cd5 f7bb ed8b 3e3b
000003b0: da6e 22bc 9808 a53c db86 903b 29f1 51bd
000003c0: 349c 2b3c 3877 b03c 8a36 3a3c 5d2d 1bbb
000003d0: 6e47 bfbc 6f91 5d3c bb8e c63b 32fd 86bd
000003e0: db99 5e3d 3ad7 fcbc 7e85 bc3c 32c1 f3bc
000003f0: 3df4 aa3b 4c22 d0b7 a61d 273c 5577 0b3d
-0.0064113257 -0.070810385 -0.00931288 -0.0218961 0.0108598275 -0.041123066 -0.02795284 -0.012500838
0.006131208 -0.014578646 -0.036028627 -0.0190957 -0.030002272 0.023699671 -0.044157542 0.012935772
0.005396402 -0.022043759 -0.010301958 -0.009990892 -0.006655792 -0.029367773 0.0006240233 -0.016533215
0.016872989 -0.043867525 -0.0044226754 0.06143229 0.010052359 -0.006146109 0.0049702995 0.010751082
-0.023090579 0.00504015 -0.010278675 0.020372944 -0.009210434 -0.0054350356 -0.014955444 -0.011630971
-0.0024520878 -0.01655261 0.036919583 0.0061782408 -0.012804453 0.020492468 0.012963712 -0.00074055645
0.012956262 -0.017470906 0.011941107 0.012998171 -0.0032358055 -0.014703138 -0.010260979 0.0078808265
0.028071417 0.022325022 0.022118265 0.008942209 -0.021162715 0.0012537978 -0.015238031 -0.011558328
-0.020855376 0.035492644 -0.019443473 -0.0018547368 0.004908838 -0.0017462763 -0.0023210023 0.0023168114
0.008020188 -0.019890513 -0.015626106 -0.026793566 -0.0055300314 0.017982312 -0.04319251 -0.011607689
0.02160417 0.029342132 -0.018929534 0.013969381 -0.028062042 0.027278567 -0.042100895 -0.016450416
0.0026034294 0.017740993 -0.0025885282 -0.025193533 -0.045462396 0.021572502 0.006705376 0.006172187
0.025105987 0.02569459 0.0261055 0.019195737 -0.019735912 0.02212199 -0.0015785783 0.02395672
-0.009341752 -0.008051677 0.010507783 -0.025716942 0.020205304 0.015928729 0.018063618 0.010339211
-0.009566204 -0.002239171 0.008645114 0.006173584 0.037855025 -0.011701753 0.021470971 -0.022699358
0.013326933 -0.063139 0.0030882084 -0.039561637 -0.001789501 -0.0010228965 0.007321454 0.04948358
-0.015742349 -0.03654641 0.011454622 0.007890733 0.008064964 -0.01068101 0.037876166 -0.015128841
-0.0008373571 0.00038541242 -0.005002431 0.0067845397 0.0024586066 0.022591382 0.003793675 0.011613398
0.014221639 0.0026472022 0.043711293 -0.02093547 0.011459733 0.01032431 0.021866806 -0.0051876893
-0.008000629 0.02094292 0.03846792 -0.00878202 0.011159717 -0.097860985 0.018672328 -0.017776383
0.0048077814 0.011163442 -0.027009634 -0.0076050456 0.044741068 -0.038405918 0.011087392 -0.008979753
0.013541139 0.0013211564 -0.0008142484 0.004727687 0.032125458 -0.024964424 0.004303464 0.026629651
0.0006179199 -0.034270994 -0.005793134 0.0034874985 0.019430345 0.010702886 0.010217206 -0.038648523
0.022691967 -0.021097522 -0.012643333 0.00012394754 0.01958131 -0.010260979 -0.021757722 -0.063786276
-0.013076403 -0.010793703 -0.009914313 0.0060404036 -0.004675067 -0.024694337 -0.014845938 0.016840428
-0.006767776 -0.08026848 0.019814143 -0.055389944 0.015415916 -0.012117129 -0.024796784 0.009740632
-0.0052370867 0.01190944 0.023995835 0.0036095034 -0.00067543326 0.029052982 0.01939877 -0.016288111
0.023917604 0.000339721 0.003746177 -0.0040171263 -0.02988181 0.005390995 -0.016012436 -0.041650135
0.021330357 0.024997408 0.09361602 -0.0066979257 -0.011564847 0.0020539418 -0.0019122045 -0.0020336856
-0.0186903 0.024532478 -0.007563291 0.0029075101 -0.009914124 0.0201457 0.0044106073 -0.05125538
0.010474253 0.021541223 0.011365542 -0.0023678162 -0.02334949 0.013523444 0.0060594953 -0.06591262
0.054345947 -0.030864347 0.023012873 -0.029755209 0.0052171038 -2.4811503e-05 0.01019994 0.03404935

bn2.weight f4 [300]
00000000: 4152 c03d 661c 9b3d b849 9e3d 03ee 3b3e
00000010: 5322 e43d 305a bf3d 7c07 013e 75cb e73d
00000020: 0687 cb3e 55df 3f3e 1287 b7bc f889 af3d
00000030: faf4 b93d 9c1b 8b3d 85ed 843e d435 fa3d
00000040: ff2d dc3d 5502 cc3d 7be5 3a3d 4dcc c03d
00000050: 9f6a e1bc a0b3 ba3d 5335 93bd 72fb 283e
00000060: ee14 fe3d d986 723d 05f1 b43d 5575 683f
00000070: 7f51 4f3d 1a13 773e 8f6e 333e 1601 623e
00000080: 9431 9e3d 958e 0f3d 4f06 1a3d 615f 303d
00000090: 21a9 8c3d d54a e13d 222f c63d f519 693e
000000a0: 3a40 513e 6a3a dd3d 577e 4d3d 017a ca3d
000000b0: 7cae 363d 0b06 233e 6d83 1c3e 4bb3 713d
000000c0: 3217 173d 4c82 973d 882b a33d b1c2 f53c
000000d0: 1f1d 173f c30d 073e a7cc 003f 01a4 823d
000000e0: 5929 573e 04e8 6d3e 0785 9f3f dc2d c33d
000000f0: e31c d63d 83c7 f73d 9433 753e 26b8 b33d
00000100: 8811 923d 49ff 7b3e e55b f93d 4fa4 ff3d
00000110: 5ace cf3d dd51 e1bd 4b3a 603d ea55 813e
00000120: a881 b43d 9e64 dd3d c7fc 2a3e ebe8 8c3d
00000130: 6ea2 da3d 82e3 f03d 7004 5d3c 1135 033e
00000140: 2d1e a63d 1508 9b3d 451a 153e 1030 043e
00000150: ef7d be3d ded5 fb3d d240 003e 9372 473e
00000160: 0886 4c3b 7841 c1bd 4939 19be 6f02 183e
00000170: 5797 823d a3f5 8b3d f3e0 463f 2f00 273f
00000180: 434d 603d 68df eb3d 5412 103e c1a4 403f
00000190: 7cea e33d e5fc 313e 09d1 473e 8495 d63e
000001a0: b23e 903d 6145 043e d779 dc3d 6474 873e
000001b0: a2df 173d 2960 103d 5c72 193f a61c d03d
000001c0: 455d a53d 5ea6 033e 7bfd c93d fd7d da3d
000001d0: 574d 193e 6f1b af3d 5830 453e 635d a73d
000001e0: 86c0 263e 1f1b 0e3f 106a 843d 48d1 953d
000001f0: 4ad2 073d e76a 8a3e 9792 303e 00b6 da3d
00000200: 63f5 013e e904 8c3d 5ab9 8c3d c617 1e3e
00000210: c840 8b3d 380a ab3d e8ba 103e 40ad e3bd
00000220: 47c0 7b3e f020 0c3f 721e b4bd eed3 b1bd
00000230: 3282 433d 0650 f83d 4828 a73d 71cd b73e
00000240: eeeb f13d 403f 883e 747b e03d 0bb6 0d3f
00000250: ec80 823d 1019 423e 4bf6 b63d 14a9 393e
00000260: 9f1d fc3d c908 d83d 1b58 de3d 029d b63d
00000270: e4c2 bf3d 072d 743d 3842 99bb 7453 6f3e
00000280: 3cb1 953d 1900 0d3e 24cb 873e b262 d73d
00000290: 23a0 e33d 2d01 f63d e37d 093e 6279 933d
000002a0: 42b7 6a3e 3742 443e f91d 823d 092e 1c3e
000002b0: 4387 e63d 063e 4e3e 84f5 973d 21d0 1b3e
000002c0: 4712 5c3e 4838 283e 85c9 ac3d 5d52 2b3d
000002d0: 2758 b13c c61c a6b9 3678 8c3d c618 ba3d
000002e0: 3e5d b93e 6955 513d 7401 a43e 07b1 bbbd
000002f0: 3023 8a3e 3df4 833e f330 083e c9ad 183e
00000300: a487 903e 3c72 983d 779a be3d f9e8 fcbc
00000310: 42e6 fe3d d75a d63e 5d76 003e 14cf 803d
00000320: 9c4c bf3d 93f8 7d3d 9972 033e 0ac1 203d
00000330: d6ca 803d c9c1 823d cbd2 803e e9dc bc3d
00000340: a69a 4c3f 6776 093d 699a 4b3e 7f98 ab3d
00000350: 3908 223e f268 cf3d 0677 9e3e 84d2 9c3d
00000360: d7c6 923e 9f24 923e 291f e43d 4787 823d
00000370: c5b6 323e 1ea4 ee3d 4570 183e e036 463e
00000380: f56c eb3d e6fe 153e 3877 773d 7388 d83d
00000390: ed7a 1f3e 9840 bb3d 30e7 b13d 34d9 853e
000003a0: d0ad c83d 01d0 0b3c e3d0 de3d 64a6 0d3e
000003b0: daaf 873d c84b 3c3e eef1 263d 85e4 943d
000003c0: 4a6c 073e 5a01 b13c 32d7 d63d d5f6 d73d
000003d0: e680 b83e 466b c43d 9797 603e 9ad2 593e
000003e0: 8084 6a3d 8e60 843d c297 7e3f 237f 753e
000003f0: 0aae 1e3e 67f3 963d 3e70 003e 41ec a33c
0.09390689 0.07573776 0.077289045 0.18352513 0.11139359 0.09343374 0.12600511 0.11318103
0.39751452 0.18737538 -0.022403274 0.08571237 0.09079929 0.067923754 0.25962463 0.12217298
0.107509606 0.09961382 0.045629006 0.09413967 -0.027516661 0.09116292 -0.07187905 0.16502169
0.12406336 0.059210632 0.08835033 0.90804034 0.05061483 0.2412838 0.17522644 0.22070727
0.077243 0.035048086 0.037603673 0.04305971 0.06868196 0.11000601 0.096769586 0.22763808
0.20434657 0.10802157 0.050169315 0.09886552 0.044599995 0.15920274 0.1528451 0.059008878
0.036887355 0.07397899 0.07967287 0.030000063 0.5902881 0.13188843 0.50312275 0.063789375
0.21011867 0.23233038 1.2462472 0.09530231 0.104547285 0.12098601 0.23945457 0.08775358
0.0713225 0.24609102 0.121757306 0.12482511 0.1014678 -0.11001942 0.054743093 0.2526086
0.088137925 0.10810207 0.1669799 0.06880363 0.10675512 0.11762144 0.0134898275 0.12813212
0.08111224 0.07569901 0.14560802 0.1290896 0.09301364 0.12296651 0.12524727 0.194773
0.0031207819 -0.09436315 -0.14963259 0.14844678 0.06376522 0.06833961 0.77686995 0.65234655
0.054761183 0.11517221 0.14069492 0.75251395 0.11128709 0.17381628 0.19513334 0.41910946
0.07043208 0.12917091 0.107654266 0.26455986 0.037078507 0.035247955 0.59940124 0.10161714
0.080744304 0.12856433 0.09862801 0.106685616 0.14970909 0.085501544 0.19256723 0.08172109
0.1628438 0.55510134 0.06465542 0.07315308 0.03315953 0.27034685 0.1724342 0.10679245
0.12691264 0.06836874 0.068712905 0.15438756 0.067994654 0.083515584 0.14133799 -0.11117029
0.24585067 0.5473776 -0.087948695 -0.086830005 0.047731586 0.12124638 0.0816198 0.35898927
0.11812578 0.26610756 0.10961047 0.553559 0.06372246 0.18954873 0.089336954 0.18130904
0.12310337 0.10548551 0.108566485 0.089166656 0.09363344 0.059613254 -0.0046770833 0.23371679
0.073091954 0.13769569 0.26522171 0.105168715 0.11114528 0.12011943 0.13426928 0.07200886
0.2292147 0.19165884 0.06353373 0.15251936 0.11256268 0.20140848 0.07419875 0.15216114
0.21491347 0.1642772 0.08436874 0.041826595 0.02164848 -0.00031683425 0.06858866 0.090867564
0.3620395 0.051106844 0.3203236 -0.09164625 0.2697997 0.25772277 0.13299923 0.14910044
0.28228486 0.074436635 0.093068056 -0.030872809 0.12446262 0.4186618 0.12545152 0.06289497
0.09340784 0.062004637 0.12836684 0.039246596 0.06288688 0.06384618 0.25160822 0.09221823
0.79923475 0.033560183 0.19883122 0.08378696 0.15823449 0.101274386 0.30950183 0.0765734
0.28667328 0.28543565 0.11138756 0.06373458 0.17452534 0.116523966 0.14886577 0.1935687
0.11495391 0.14648017 0.06041643 0.105729006 0.15574236 0.0914318 0.08686674 0.26142275
0.09798777 0.008533479 0.10879686 0.13833004 0.06625338 0.18388283 0.040758066 0.07270149
0.13224903 0.02160709 0.10490264 0.10545126 0.36035842 0.09590773 0.21932827 0.21271744
0.057255268 0.06463729 0.99450314 0.2397428 0.15496078 0.07370644 0.12542817 0.020010116

bn2.bias f4 [300]
00000000: 9f2f 333c 8e5e 803c 5b5f 4b3c 83e7 6e3d
00000010: 51fa 043c bf6b b43b 94ca 473c 161e 003d
00000020: d3f2 e43d df5d a63d 4bc8 9cbe e100 9c3c
00000030: 6198 1e3d 0c12 913c f4db 2e3d 85c8 4a3d
00000040: 1183 253d 9af5 7e3c ff35 523c bd43 053d
00000050: 0634 e139 d40d db3c 83e7 3fbe 62dd 033d
00000060: bb0a d63c 3429 793c 7e48 1a3d 81ad 4f3e
00000070: 80ad a93c 9d34 423e 3f67 143d 072d 483d
00000080: 14f0 0a3d eceb 463b 68ea 5a39 9fff 473b
00000090: da22 283c e1e8 023d 9b06 103c 064d 6c3d
000000a0: b051 c13d 1e44 173d 134d 053c e89d 283d
000000b0: bf52 6fba d479 323d 6f85 233d bd2e 3e3c
000000c0: 799a cc3b 91a1 4e3c f843 11bb 31ec 973a
000000d0: c81a 213e 69fa 503d 20fb d23d 7268 4e3c
000000e0: de6d 66bd 46a2 a13d 4b17 c33e cbd4 603c
000000f0: 3f75 033d daee ae3d e889 213e 2155 323c
00000100: 0674 793c 9e36 ad3d 9d29 073d c519 1d3c
00000110: 0d74 953c 9635 0bbd 3c65 243d 387f 363e
00000120: c7cb 423d e9fc a13b ca34 8f3d b384 553c
00000130: 7da9 c73c 8d52 583c efaa fb39 7237 3d3d
00000140: 2db4 ef3c 7a20 cc3c 751b b33d 87b8 833d
00000150: b8e7 ccbc 5a79 693d 84e8 633d 0523 fd3c
00000160: 49af 1bba c859 16bd dd67 28bd 8e92 a73d
00000170: 1cf4 493c 9e0e 123c 6849 1b3e 3591 873e
00000180: bf6f 653c f525 fe3c c191 0a3d 2b95 633e
00000190: f78a e63c b979 d13d 5ca8 443d abf6 9f3e
000001a0: 580f b63c 8390 343d 103c 583d c2f5 c03d
000001b0: 7d33 123b ac8c dfb9 1557 913e 0b3f 843d
000001c0: ad54 883c 17a0 323d 246f be3c 6f17 ba3c
000001d0: 39ca c83c 331e 8d3c ce4d af3d e2ed 423c
000001e0: 4bc1 b63d 6040 6a3e 26d9 863c cb9d 713c
000001f0: 8ddf a13b ca13 2f3e 3751 a63d 020d 203c
00000200: 9a38 873d 9c0c 093c f521 da3c 43e7 633d
00000210: 7e09 233d 0b60 a83c 41f3 3f3d 728f 96bc
00000220: 6799 cf3d e65a ac3e 9d82 88bc 0ac2 b1bd
00000230: 05b7 a53c ff4d c53d b12a a23c 90bf 243e
00000240: 75fe b23c 2632 c83c 5f70 863d dfe9 793e
00000250: 1cb0 143d dd5d f83d a73c 973c 41f2 c43d
00000260: f6c1 413d 4ddd 743d 9772 d53b 7637 c83c
00000270: 8313 5b39 5b3c b13c 5bad ccb9 fc8e 823d
00000280: 7535 8e3c 7b78 ea3c e179 a7bd 7161 1a3d
00000290: 4f28 ad3c 7e28 933c 2b19 013d bb9f 313c
000002a0: 358b e53c c67e a73d dd8d 033c 8d2a 433d
000002b0: 7e2d 473d fba1 863d 86a3 50bc 4fc1 9d3c
000002c0: 0fd6 053e 8c75 423d 9ca4 103d c96a 993b
000002d0: 14ae fc39 b3e7 8739 2763 c63b 0680 983c
000002e0: 8e15 0d3e 43bc 993a 6f19 ac3d 45d8 f7bc
000002f0: 513f fc3d d989 d23d 8af1 6d3d c02b 913d
00000300: 3ac6 eb3c f2b3 8f3c e138 32bd 7dea 053e
00000310: 0759 6a3b 50d4 713e ca53 b23d 6d75 993c
00000320: 8f16 9e3c 7771 4ebb 7618 223d 1061 1c3b
00000330: 30d6 b63b 4715 4c3c 86a2 333e 6f83 893c
00000340: c246 863e 1d0c 3638 ac64 a73d 381d 1e3d
00000350: b44c 9f3d 92f8 4c3d dc1c 053e 7aeb 4c3c
00000360: b2b8 c63d 9502 193e 2a64 843d fd5e 8b3c
00000370: 5919 b23c b6bb ee3c 4c7f 953d 0a60 863d
00000380: 41b0 2c3d a3ec 093d f1d5 073c 1811 f33c
00000390: 7a59 ba3c a60b 183c d17f 143d 3ceb 803d
000003a0: d11c b33c 6b52 a23a 9bb7 1f3d 7c93 383d
000003b0: 1473 233c fa37 633d e693 423c 1b71 d93b
000003c0: 4877 033d 587e 423c 0f49 043d a317 c53c
000003d0: 193c ea3d ee20 253d f906 063e b582 923d
000003e0: 7855 973b 49b6 163c 83a2 a63d b1f9 ae3d
000003f0: cf07 863d 6cb9 993c f5b0 ef3c 17d8 9438
0.010936647 0.015670087 0.012412871 0.058326256 0.008116321 0.0055060084 0.0121942945 0.031278692
0.111791275 0.08123373 -0.3062156 0.019043388 0.03871954 0.0177088 0.042690232 0.049507637
0.040408198 0.015561486 0.0128302565 0.032535303 0.00042954105 0.026739992 -0.18740658 0.03219355
0.026128164 0.0152075775 0.03766679 0.2028103 0.020712614 0.18965383 0.036231276 0.048871066
0.033920363 0.0030353023 0.00020877423 0.0030517352 0.0102622155 0.031960372 0.008790637 0.057690643
0.09439409 0.036930196 0.008136052 0.041166216 -0.00091294566 0.043573216 0.039922174 0.011607823
0.0062440005 0.012611763 -0.0022165757 0.0011590776 0.15732872 0.05102006 0.103018045 0.012598144
-0.05625712 0.07892279 0.3810371 0.013722609 0.032094236 0.08541651 0.15775263 0.010884554
0.015225416 0.08457683 0.03299867 0.0095886635 0.018243814 -0.03398665 0.040135607 0.17821968
0.04755762 0.0049434793 0.069924906 0.013032126 0.02437281 0.013203275 0.00048001806 0.046195455
0.02926072 0.02491783 0.087454714 0.0643168 -0.025012836 0.057000495 0.055641666 0.030900488
-0.00059389 -0.036706716 -0.041114677 0.0818225 0.012326267 0.008914618 0.15164721 0.26477972
0.014003693 0.031023959 0.033830408 0.22224872 0.028142435 0.10228295 0.048012123 0.3124288
0.022224113 0.04408313 0.052791655 0.094218746 0.0022308521 -0.00042638683 0.2838675 0.06457337
0.016641939 0.043609705 0.023246355 0.022716252 0.02451049 0.017226314 0.08559762 0.011897536
0.089235865 0.2287612 0.016460966 0.014747093 0.0049399794 0.17097393 0.08120959 0.009768726
0.06602593 0.008364823 0.02662752 0.05564047 0.039803974 0.02055361 0.046862844 -0.018378947
0.10136681 0.336631 -0.016663844 -0.08679588 0.020228872 0.09634017 0.019795747 0.160887
0.02184985 0.024437975 0.06564402 0.24405621 0.036300763 0.12127278 0.018461538 0.09616519
0.047304116 0.05978136 0.0065139043 0.024440508 0.00020892736 0.021635225 -0.00039039072 0.06374928
0.017359475 0.028621903 -0.081775434 0.037690584 0.021137385 0.017963644 0.031518143 0.010841305
0.02802048 0.08178477 0.008029428 0.047648 0.04862737 0.06573864 -0.0127342995 0.019257216
0.13069938 0.047475383 0.035313234 0.0046819192 0.00048194884 0.00025921836 0.0060543003 0.018615734
0.13777754 0.001172908 0.084032886 -0.030254493 0.12316764 0.102801986 0.058091678 0.07088423
0.028781045 0.01754186 -0.043511275 0.13077731 0.003575863 0.23616147 0.08707388 0.01873275
0.019297866 -0.0031500736 0.03957411 0.0023861565 0.0055797324 0.012456245 0.17542467 0.016786305
0.2622586 4.3403463e-05 0.081734985 0.038602084 0.07778302 0.050041743 0.1299929 0.012507314
0.097031966 0.14942391 0.06464417 0.017013067 0.021740602 0.029142242 0.072996706 0.06561287
0.042160276 0.03367294 0.008290754 0.029671237 0.022747744 0.009280121 0.036254708 0.062948674
0.021864327 0.0012384182 0.03899346 0.045062527 0.009976167 0.055473305 0.011876082 0.0066357977
0.032096177 0.011870943 0.032296237 0.024059122 0.11437244 0.040314607 0.13088597 0.07153837
0.004618343 0.009198734 0.081364654 0.085437186 0.06544458 0.018765174 0.029259184 7.09744e-05

bn2.running_mean f4 [300]
00000000: 58b3 5f40 8950 893e d0ad 5e3f 1eff 593f
00000010: e270 7040 946e b03f 8708 fd3e 849f 393f
00000020: a3ba 023f f278 e83f 170a 953f 5fd5 fb3f
00000030: c5d6 3e40 6563 d040 81d9 363e 31ac 6140
00000040: e067 253f 6655 2940 6429 5d40 524f 1640
00000050: 3e6d 153e b941 cd3e 2277 1442 a35b b53e
00000060: f4c2 163f 14c8 7140 3ae9 3740 a0e4 1d40
00000070: 9606 9b3f eac0 2841 639b 983f 919f 0b3f
00000080: 047c 4f40 4779 a240 da31 073b 13e2 893d
00000090: 09ee c83e 88c1 803e 3024 8c3f 8222 323f
000000a0: 8267 8940 5606 1e41 0c47 653f 5fc9 cf3f
000000b0: ea18 2d3f f6de 913f 1c3a 443f 9bdd dc3e
000000c0: 8cc6 0f3f abaa a83e 4035 b140 12cd 9a3d
000000d0: 6d6c 813e d941 3440 5fc1 b03e 5ce3 8a3f
000000e0: ed8f 4641 469b c93e 9d02 0942 8ad8 f63f
000000f0: 433f fe3f b1f0 b040 90bf e340 1ee5 1340
00000100: 2c1f e23f 6407 e53f 823e 7a3f 6ac1 1540
00000110: 1835 7840 36fc 5740 234e a240 e519 9540
00000120: 79ed 1640 f101 a13f 46e1 1741 620d 193f
00000130: f472 1340 3cc5 0b42 ed72 ae40 eb46 b83f
00000140: c8c6 883f 3127 8f3e 075b 8340 93af bb40
00000150: 1a51 6f3f 682f 453f 0864 ca3f 3cde 693f
00000160: 0f80 553e 21e9 1a40 f9ca 2c3f e435 0540
00000170: f7b2 013f 659e f03e 27bb 493e 91a5 933f
00000180: 5fe4 d83f 3ba2 0540 16e4 7340 4d53 2640
00000190: 32d1 533f a87d 1c40 5202 9d3f 9b9f fe41
000001a0: 9b96 6240 8a65 0040 8ef8 e53f 954c 553f
000001b0: 0cfb c53e a45a f03f cd15 2542 5b66 3541
000001c0: ab46 dc3e e375 6c3f 58f2 ce3f 59a7 d33e
000001d0: 6267 963e ab82 4b3f 39e0 6a40 f0fa a840
000001e0: f437 5841 f988 2840 21d8 a83e d995 233f
000001f0: c996 9840 ce88 c140 09f4 0640 6e20 d33e
00000200: cca8 1440 f01a c13f 4769 1640 2288 a340
00000210: fb7b 9240 b2a5 0840 33e8 3740 d905 7b3e
00000220: cff8 1a40 7958 f741 98ef 323f 9dbe 7441
00000230: f16f 0b40 ac10 913f d7c3 ce3f 6da4 6f40
00000240: 0805 9f3e e18d 873f 3dd5 e33e bf25 ff41
00000250: fcd6 d240 5356 2940 a6b7 003f 74aa ee3f
00000260: 757c 9040 b2a7 2041 b091 573f a647 ac40
00000270: 1672 473f c9e1 8e40 1b60 c23f d6ea 0e3f
00000280: ad70 5040 4943 a53e e9cc dd41 2844 0841
00000290: 9dde 3c3f 48e8 163f ec08 d83e 3734 743f
000002a0: 5ef8 ea3f b93b a940 4487 8a3e bf56 1a40
000002b0: c50e c53f f3d4 cd3f 25f1 f13e 2ce8 3a3f
000002c0: f3c1 0441 8de5 823f 9e30 6b40 715c 583e
000002d0: 634a f839 04e1 8240 f5d1 583f bda0 b93e
000002e0: 55b1 853f 5843 1f3e b145 1d41 ff1f f83e
000002f0: 921b 4240 0592 c13f 4346 b43f 15ea ad40
00000300: b9cb 313f b200 0341 ca69 333f 0469 143f
00000310: 5482 9e3f 7728 0340 8034 3f3e bea5 a640
00000320: 430a 983f cee1 1a3f e20d c73f 0ec9 033f
00000330: b9f7 c13e b89e 3e3f 9872 7241 8ed1 993e
00000340: 0a04 be41 4415 dc3e ae9d 3140 d7fe 1d40
00000350: 8046 1a40 41c2 8440 abbf 1740 2435 b13f
00000360: 811c 133f 7389 c140 d845 3840 8bb4 bc40
00000370: 49cc 9f3d 6b71 0040 549c 3e40 1638 fb40
00000380: 06c8 153f c253 b240 a89e 7840 43a3 d140
00000390: db53 8b3f aa4d 2841 92d1 5540 b0b5 9b3f
000003a0: 6eb6 8b3f 2908 bf3e 58a2 b940 8454 bd40
000003b0: 2778 6a3f 700c 9a3f d9d7 2a40 e8ef dd3f
000003c0: a248 8c3f d4af 4140 8981 463f cd4b 3740
000003d0: 1832 603f 8d08 d03f f3c9 9140 0bbd 3540
000003e0: b30a 3a3f dda0 8c3e 40ec db40 ee07 5a3f
000003f0: 2437 3640 e896 5d3f d9ff 623f 7b88 0f40
3.4953213 0.26819256 0.86983967 0.851549 3.7568898 1.3783746 0.49420568 0.72509027
0.51066035 1.816191 1.1643704 1.9674491 2.9818585 6.512133 0.17856409 3.5261347
0.64611626 2.6458373 3.4556513 2.3485913 0.14592454 0.40089205 37.11634 0.35421476
0.58891225 3.7778368 2.87361 2.4670792 1.2111385 10.547098 1.192242 0.54540354
3.2419443 5.0773044 0.002062908 0.06732573 0.39244106 0.25147653 1.0948544 0.69583905
4.293885 9.876547 0.89561534 1.6233329 0.6761614 1.1396167 0.7665117 0.43137822
0.56162333 0.3294271 5.5377502 0.07558645 0.25278035 2.816519 0.3452253 1.0850635
12.410138 0.39376277 34.252552 1.9284832 1.9863056 5.5293813 7.117134 2.3108592
1.7665763 1.789288 0.9775163 2.33993 3.8782406 3.3747687 5.072038 4.659411
2.3582442 1.2578717 9.492498 0.59786046 2.3038912 34.94261 5.451529 1.4396642
1.0685663 0.27959588 4.1048617 5.8651824 0.93483126 0.7702546 1.5811777 0.9135473
0.20849632 2.420479 0.6749721 2.0814142 0.50663704 0.46995845 0.19700299 1.1534902
1.6944693 2.0880268 3.8107963 2.5988343 0.8274108 2.4451694 1.2266333 31.827932
3.5404422 2.0061975 1.7966478 0.8331998 0.38668096 1.8777661 41.27129 11.337489
0.43022665 0.9236738 1.6167707 0.41338614 0.2937575 0.7949626 3.6699355 5.280632
13.51366 2.6333601 0.32977393 0.63900524 4.7684064 6.04795 2.1086447 0.4123568
2.3228025 1.5086346 2.3501756 5.110368 4.5776343 2.1351132 2.8735473 0.2451395
2.421436 30.9182 0.6989684 15.296536 2.1787074 1.1333213 1.6153516 3.7444108
0.31058526 1.0590173 0.44498625 31.89343 6.588743 2.6458938 0.50280225 1.8645768
4.5151925 10.040941 0.84206676 5.383746 0.77908456 4.4650617 1.5185579 0.5582708
3.2568772 0.32277897 27.725054 8.51664 0.7377718 0.58948183 0.42194307 0.95392174
1.8357046 5.2885404 0.27056324 2.4115446 1.5395132 1.6080612 0.4725429 0.73010516
8.297351 1.0226303 3.6748424 0.21129014 0.00047357669 4.0899677 0.8469537 0.36255446
1.0444742 0.15553033 9.8295145 0.4846191 3.0329328 1.5122687 1.4083942 5.4348245
0.6945148 8.18767 0.70083296 0.5797274 1.2383523 2.0493448 0.18672371 5.207732
1.1878132 0.605008 1.5551112 0.5147866 0.3788431 0.74460936 15.152977 0.3004269
23.751972 0.42984974 2.775249 2.4686792 2.410553 4.1487126 2.3710735 1.3844342
0.5746537 6.0480285 2.879263 5.897039 0.07802636 2.0069225 2.9782915 7.8505964
0.58508337 5.5727243 3.8846836 6.5511794 1.0884966 10.518961 3.3409162 1.2164822
1.0915048 0.37310913 5.8010674 5.916567 0.9158959 1.2035046 2.6694243 1.7338839
1.0959666 3.0263567 0.77541405 2.8640015 0.87576437 1.625261 4.555902 2.8396633
0.72672576 0.2746648 6.872589 0.8516835 2.8471155 0.8655839 0.8867164 2.242705
