pretrainedNetworks/critic_local1.pth (torch_old, 553166 bytes, 9 tensors)

fc1.weight f4 [300, 52]
000000 67 74 89 3e aa 4a 6a 3e f1 25 8a bc ca 4a 92 3e
       0.2684662 0.22880045 -0.016863795 0.28572685
000010 22 29 29 be 51 cd 11 be 44 a0 2d bd c6 b3 91 3e
       -0.16519597 -0.14238478 -0.04238917 0.2845747
000020 f0 68 f3 3e b7 ac 0c 3f 4b 55 65 be 0b 8e 0c 3f
       0.47540998 0.5495104 -0.22395818 0.5490424
000030 98 93 90 bc 00 cf 94 be f5 b9 81 be ab a5 04 3f
       -0.017648503 -0.29064178 -0.25337186 0.5181529
000040 a6 7d d4 3e 45 75 35 3f 01 c8 64 3d 91 98 7f 3c
       0.41502112 0.70882064 0.0558548 0.0156003395
000050 99 91 17 3e b3 c5 1b bf 69 eb 11 3d e8 f9 5a 3d
       0.14801635 -0.6084854 0.035624895 0.053460985
000060 6f ed 48 3b 47 d1 5f 3e 2d 80 77 bd 88 c0 e9 bb
       0.00306591 0.21857177 -0.060424972 -0.007133547
000070 dc 4e 4d 3e 53 ac c5 bd c0 a2 9b bd 39 35 8f bd
       0.20049614 -0.09652009 -0.075994015 -0.06992573
000080 57 c0 94 3e 8f 38 0a 3e a0 58 fb 3e 5a a0 30 be
       0.29052994 0.13498138 0.49091053 -0.1724867
000090 3a d3 06 3d 8a f6 a2 be 9e 8f ec 3e 4a 7d 30 be
       0.032916285 -0.3182872 0.4620332 -0.17235294
0000a0 15 5d 54 3e 5a d6 ad 3d ee c7 a0 bd 14 38 20 bf
       0.20738633 0.0848815 -0.078506336 -0.6258557
0000b0 87 5c 11 be ee c6 11 bf 4e 68 1f be fd cb 27 bf
       -0.14195453 -0.5694417 -0.15567133 -0.65545636
0000c0 73 f0 64 bf 2e 3c d3 be ee 94 ec 3e 16 4c 0f bd
       -0.89429396 -0.4125685 0.46207374 -0.03498467
0000d0 5e 9c a9 bd 2f 42 55 bf 44 30 8d bd 41 56 5b 3e
       -0.08281778 -0.83304113 -0.068939716 0.21419622
0000e0 42 62 bb 3e 3a f3 97 be 94 3b 72 bd a5 2b 34 3e
       0.36598402 -0.29677755 -0.05913885 0.17594774
0000f0 5a b7 41 3e a4 9f 33 bf 5d 83 e1 bd b0 73 3c 3d
       0.189176 -0.7016547 -0.11011384 0.046008766
000100 49 2f 66 3e 5d 5b c6 be c9 95 96 bd df 80 5c 3d
       0.22478975 -0.3874158 -0.07352788 0.05383384
000110 66 d9 99 3e 40 3f d4 be 63 e4 8b 3c 2e e5 9e 3f
       0.30048674 -0.41454506 0.017076677 1.241369
000120 6d 54 ff 3c 4f c5 31 be 62 f7 85 3d 4e 5f 9a 3f
       0.031168187 -0.17360424 0.06541325 1.2060335
000130 72 f6 87 3e 77 e4 32 bf 6c ad b9 3d d1 2f 26 be
       0.2655521 -0.6987986 0.09066281 -0.16229178
000140 18 08 b1 be cd ef 94 be ad db c3 3c 9a 04 3c be
       -0.34576488 -0.29089203 0.02390846 -0.1836113
000150 ca b9 b1 3e 16 a4 59 bf 33 0c 5b 3c ab 2a 1d bf
       0.34712058 -0.85016 0.013369608 -0.6139323
000160 cd 4d 61 be 61 80 b4 be 51 29 01 3d 80 7e 1e bf
       -0.22002335 -0.35254195 0.031533543 -0.61911774
000170 21 bf 5d 3e 17 c1 6a bf b0 9c f8 bd 2a 9a 73 bd
       0.21654941 -0.9170088 -0.12139261 -0.059473194
000180 6d 8c 73 bd 1d 99 8c be 2e 20 f6 bd fd 9b 3b 3d
       -0.059460092 -0.27460566 -0.120178565 0.04580306
000190 52 93 5a be fd c3 6c 3e 94 76 6b be 25 92 b5 3e
       -0.2134526 0.23121639 -0.22994453 0.35463062
0001a0 0f 6b bd 3d 1d 52 21 bf 06 74 3a 3e eb 1e d0 be
       0.092489354 -0.6301592 0.18208322 -0.4064859
0001b0 3c 00 e2 3d 37 89 3b 3e e8 da f1 3d bb fd e2 be
       0.11035201 0.18314062 0.11809331 -0.44334206
0001c0 0e cc 8b 3e 83 08 54 bf 06 78 24 3d 07 eb f9 3e
       0.2730412 -0.8282549 0.040153526 0.48812124
0001d0 d8 1c 79 3e 22 96 22 bc d1 5e a5 3d a9 93 d2 3e
       0.2432741 -0.00992349 0.080747254 0.4112828
0001e0 d7 80 63 3e ba 21 56 bf 94 c5 a7 be fb 30 ca 3e
       0.22217117 -0.8364521 -0.32767928 0.39490494
0001f0 19 58 eb 3e e1 b5 75 3d e3 c6 a6 be d5 62 e7 3e
       0.4596565 0.059987906 -0.32573614 0.4519259
000200 82 6b b1 3e 28 9e 10 3f 86 2f 3e bd bb c1 8d be
       0.34652334 0.5649133 -0.04643204 -0.27686867
000210 f0 f0 9e bb df 4d 35 3e b9 e7 9f bd ca 23 a3 be
       -0.0048504993 0.17705487 -0.078078695 -0.31863242
000220 d3 a4 9b 3e de 32 50 3f c5 97 8f be 17 1a 01 bd
       0.30399188 0.8132762 -0.28045478 -0.03151902
000230 5e d6 86 be c8 9a 66 bc a6 76 5a be b0 11 2a 3c
       -0.26335424 -0.014074989 -0.21334323 0.010380194
000240 15 a5 9d 3e 64 82 51 3f a6 23 db bc 01 a6 40 3e
       0.3079001 0.81839585 -0.026750397 0.18813325
000250 1e c6 ef be df 97 f4 3d b4 0c cc bb c7 0e 81 3e
       -0.4683084 0.119430296 -0.0062271003 0.25206587
000260 88 a4 d4 3e 30 ca 6d bf 67 1f 9d bf b9 92 38 bf
       0.41531777 -0.9288664 -1.2275208 -0.7209888
000270 ae ac b4 3d c7 10 89 bf 88 98 09 be 2c ca 35 3e
       0.088219985 -1.0708245 -0.13437092 0.17752904
000280 53 0b c4 be bf d5 f6 be b8 d7 a2 bd 6d 6c 80 3e
       -0.3828989 -0.4820995 -0.07951301 0.25082722
000290 99 df ac 3d b6 7a 8b bf b1 06 1e be 17 76 b1 bd
       0.08441085 -1.0896823 -0.1543224 -0.08665102
0002a0 f0 fa 93 be 8c e1 b2 bc b9 8a 78 bd d4 06 44 be
       -0.28902388 -0.021836065 -0.06067917 -0.1914323
0002b0 fd 2b d5 3e 6c 6e 8b bf 5b 29 0b 3e 96 3b 24 3d
       0.41635123 -1.0893073 0.13589995 0.040095888
0002c0 aa f8 bb be 6d c1 ec 3e 15 bd 89 3d ac 67 95 bc
       -0.36713153 0.46241322 0.06725518 -0.018237911
0002d0 8e 00 c9 3e 80 33 4c be 1c a6 04 3e fd db d5 be
       0.39258236 -0.1994152 0.1295399 -0.417694
0002e0 65 4a ce 3e 67 1b 15 bf 49 dc 91 3c 15 95 d7 be
       0.40291134 -0.5824494 0.017805235 -0.42105928
0002f0 2b 40 9a 3e 69 05 08 bf a2 54 68 3d ae 23 85 bd
       0.3012708 -0.53133255 0.056721337 -0.06500946
000300 79 bc 93 3e 8a f4 9b bc b2 07 1d 3e e0 b7 b0 bd
       0.2885473 -0.019037504 0.15334967 -0.086288214
000310 8d da 58 3e 46 65 7c be b5 96 66 be 12 d8 a4 3e
       0.2117712 -0.24648008 -0.22518428 0.321961
000320 59 65 bd 3e e2 56 ee 3e 7f f3 9b be 61 89 a6 3e
       0.36991385 0.4655066 -0.3045921 0.32526687
000330 d8 8a 90 bf d9 1f 9f 3e ab 5e 91 bf e9 4c 88 3f
       -1.1292372 0.31078985 -1.1357015 1.0648471
000340 7e 4f e4 3e b4 6c 63 bf 88 4c 09 bd e1 20 45 3e
       0.44591898 -0.8883774 -0.03352025 0.19250824
000350 78 e5 f9 be 57 9c f3 be 3f fb 83 3c eb 26 13 3e
       -0.48807883 -0.47580215 0.016111014 0.14370315
000360 dc e9 41 3f ac da 36 bf b4 ab 96 3d 67 db 10 3f
       0.75747466 -0.71427417 0.073569685 0.5658478
000370 79 c4 e2 be 9c d3 91 be 98 4a c7 3d cd ff 09 3f
       -0.44290522 -0.28481758 0.097310245 0.53905946
000380 fc 5f 2e 3f 6a 5a 0e bf 5a 75 95 3d 82 8b 11 3f
       0.6811521 -0.5560671 0.07297774 0.568535
000390 a5 18 67 be dc fd d9 bd 1c f4 7d 3d eb fd 12 3f
       -0.22567995 -0.10644123 0.06200038 0.574187
0003a0 36 fa 44 bd 70 5a 01 bf fa 22 ff 3c db 12 4d 3d
       -0.048090182 -0.5052862 0.031144608 0.05006681
0003b0 e3 0f 0e 3f 55 a2 07 bf c6 18 80 bb b3 f1 98 3d
       0.5549299 -0.52982074 -0.003909203 0.074679755
0003c0 15 d3 ae 3d 49 c6 b9 be 57 82 fd bc 36 ee 72 3e
       0.085363545 -0.36284092 -0.03094594 0.23723683
0003d0 bc ee d7 3e 2c 23 b5 be 68 52 7d bc 3e 86 86 3e
       0.42174327 -0.35378397 -0.015461542 0.26274294
0003e0 b1 af 00 3f 64 c1 a7 be 87 66 77 bd 1f 9e b9 bd
       0.50268084 -0.32764733 -0.060400512 -0.09063362
0003f0 bd 0a 35 3e a0 39 c6 bd 39 67 82 bd 49 43 b6 bd
       0.17679878 -0.0967896 -0.063673444 -0.088995524

fc1.bias f4 [300]
000000 1c 8d 94 be 05 97 a3 be 83 82 cf be 11 f3 02 bf
       -0.29013908 -0.31951156 -0.4052926 -0.5115214
000010 80 64 15 bf 7a c2 d6 be b6 1c ee bc c7 74 61 3d
       -0.58356476 -0.4194525 -0.029066425 0.05504301
000020 37 b0 b2 bf c3 c6 ae be 8e c4 06 be a5 c0 d1 be
       -1.3960027 -0.34136018 -0.13160917 -0.4096729
000030 e0 fc 19 bf f8 1a 31 bf 1e 9d a8 3e 22 9b 89 bf
       -0.6015148 -0.69181776 0.3293237 -1.0750468
000040 0f e4 4c be b0 53 65 bf ad 49 a4 3e f6 33 18 bf
       -0.20008872 -0.8958082 0.3208746 -0.59454286
000050 49 6b cf be 4b d0 f6 be 7f 30 ea be fa 22 71 3e
       -0.4051154 -0.4820579 -0.45740125 0.23548499
000060 3c 11 4a bf 9e c1 60 be 83 3e 92 be 98 6b 3b bf
       -0.7893255 -0.21948859 -0.28563318 -0.7321105
000070 6d 94 11 be a0 d2 fd be d5 88 5d 3e 5c 06 f0 3d
       -0.14216776 -0.49574757 0.21634229 0.11719963
000080 11 69 86 be fc 95 64 be 62 b6 97 be 9d db 02 bf
       -0.26252034 -0.2232284 -0.29631335 -0.51116353
000090 53 28 7e bf ad e2 de be cc c6 47 bf ff 74 20 bf
       -0.9928028 -0.43532315 -0.78037715 -0.6267852
0000a0 4b dd 30 be cf 62 32 be bb 68 56 3e 3b 22 bc be
       -0.17271917 -0.17420505 0.20938389 -0.36744866
0000b0 30 62 05 bf 64 87 de 3d a8 06 0d be bb 81 29 3e
       -0.5210295 0.108656675 -0.1377207 0.16553394
0000c0 8b f6 b2 be 50 7d 88 be f8 9c a1 3d fc d1 9f bf
       -0.34953722 -0.26658106 0.078912675 -1.2485957
0000d0 30 f5 c9 be 07 b9 2a bf e8 d0 15 bf 51 66 74 3e
       -0.39444876 -0.6668858 -0.5852189 0.23867156
0000e0 b7 40 fe be c9 29 4f be ad c9 a4 bf 33 d5 66 be
       -0.49658749 -0.20230784 -1.2874047 -0.22542267
0000f0 25 99 bc be a2 09 51 bd 83 c0 46 3e 47 32 1d be
       -0.3683559 -0.051034577 0.19409375 -0.1535121
000100 f5 18 97 3d 78 6a 82 be 19 29 8a bc 1a 0d a6 be
       0.07377807 -0.25471854 -0.0168653 -0.3243187
000110 4e be 0f be d7 ad 0a bf eb 5d c7 be 60 f4 7a bf
       -0.14037439 -0.5417151 -0.3893884 -0.98029137
000120 5b d3 18 bf 03 ee 1b be 14 61 ff be 3a ac 57 be
       -0.596975 -0.15227513 -0.49878752 -0.21061793
000130 75 ca fc be 5d 1c f4 3c 5b 7b 16 bf 8c 2c 4e bf
       -0.49373212 0.02979868 -0.58781976 -0.80536723
000140 cc 77 c9 be a4 bb 64 bf d8 b4 1b bf 7d 87 b7 be
       -0.3934921 -0.89348817 -0.6082282 -0.35845557
000150 70 0b c1 3d 0c 57 50 bf 73 4e 34 bf 81 dc 36 be
       0.0942601 -0.81382823 -0.70432204 -0.17857553
000160 6d 43 34 bd be fa a3 be 59 66 47 be 3b 7a 3e be
       -0.044009615 -0.3202724 -0.19472636 -0.18601315
000170 24 d8 b6 be 6a 36 94 3e 31 5a 65 be d3 d6 c2 bf
       -0.35711777 0.28947765 -0.22397687 -1.5221809
000180 7a 54 30 be be 92 46 bf 84 6b 3e be 68 76 96 be
       -0.17219725 -0.7756766 -0.18595701 -0.29387212
000190 97 79 94 be d5 20 83 be 1f 73 d1 3c fe fe f2 3d
       -0.28999016 -0.25610986 0.02556759 0.11865042
0001a0 19 92 f7 be cc df 05 bf 5e 45 14 bf 33 22 1d bf
       -0.4835365 -0.5229461 -0.57918346 -0.6138031
0001b0 04 3d 56 3d 0d d3 63 be 36 77 b0 be d7 a9 3b bd
       0.052304283 -0.22248478 -0.3446595 -0.04581627
0001c0 33 d1 80 3d 27 08 18 3d 95 05 8e bf 5b 97 29 bc
       0.062899016 0.03711715 -1.1095454 -0.010351027
0001d0 a8 b6 0a be 96 d9 26 3b c6 8f c1 be 1c ee 3b bf
       -0.1354624 0.0025459281 -0.37805003 -0.734102
0001e0 1b 8e 22 bf 45 ab d2 bd 8a 28 d2 bd 79 e3 33 3d
       -0.63498086 -0.10286573 -0.102616385 0.043918107
0001f0 89 ae 24 bc 50 f0 41 bf 17 0f 7b bf 30 5b 50 be
       -0.010051378 -0.7575731 -0.980699 -0.20347285
000200 14 c5 b2 be 0e 53 98 bf 8f 04 ad be ee 68 b3 be
       -0.34915984 -1.1900346 -0.3379254 -0.35040992
000210 78 fe 69 bf 11 87 96 3c 1c 58 4e bf 83 af 95 be
       -0.91403913 0.018374952 -0.80603194 -0.29235467
000220 06 02 83 bf 65 a0 b7 be b4 73 21 be 68 8e 58 3d
       -1.0234993 -0.3586456 -0.15766793 0.052870184
000230 3e 30 6b bf 82 5c 7b be aa e0 3f be 4a 3a 05 bf
       -0.91870487 -0.24547008 -0.18738046 -0.5204207
000240 c8 a2 ed 3d 72 cd ad be 7b 78 50 3e 0f d2 0f be
       0.11603314 -0.33945805 0.2035846 -0.14044975
000250 9b 74 a8 bd f8 69 32 bf c8 d0 03 3d a1 75 1f bf
       -0.08225366 -0.69692945 0.03218153 -0.6228886
000260 21 f0 b2 bd e8 69 01 be a7 a8 1c bf c5 fc c2 be
       -0.08737207 -0.12638056 -0.61194843 -0.38083473
000270 47 c1 ea bb 02 b2 0c bf cb 68 04 bf 00 00 13 bf
       -0.0071641537 -0.5495912 -0.517224 -0.57421875
000280 02 84 ee be 15 9f cd be e7 5f a0 3b 1a 74 29 3e
       -0.4658509 -0.40160432 0.004894245 0.16548195
000290 d4 f8 72 be 40 c7 46 bf e5 58 9a be 47 8d b4 be
       -0.23727733 -0.7764778 -0.30145946 -0.35264036
0002a0 d7 22 81 be e3 3b 83 be 77 30 00 bf 90 fb f4 be
       -0.25221893 -0.25631627 -0.5007395 -0.47848177
0002b0 db ad d6 be a1 dd 64 bf 80 19 da be b3 47 3e 3c
       -0.41929516 -0.8940068 -0.4259758 0.011613774
0002c0 56 bc a4 be 6a 68 92 be 2c 00 87 be 51 df d5 be
       -0.3217494 -0.28595287 -0.2636732 -0.4177194
0002d0 74 40 a8 be b6 c4 ed bd ee af 8c be 5f 53 68 bc
       -0.32861674 -0.11609785 -0.27477974 -0.0141800335
0002e0 64 57 01 be 68 f5 e3 be 32 dc 11 be ff 46 9e be
       -0.12630993 -0.44523168 -0.14244154 -0.3091354
0002f0 3e 8f 65 bf f4 1c a9 be c4 93 06 bf 60 a2 48 be
       -0.89671695 -0.33029902 -0.5256922 -0.19593191
000300 21 92 26 be b4 02 85 bf 21 14 3c be 3a d0 ad 3d
       -0.16266681 -1.039145 -0.18367054 0.08486982
000310 ed bb 05 3d b4 cb 9a 3e a6 61 bf bd e5 0f 0b be
       0.032649923 0.30233538 -0.09344797 -0.13580282
000320 a0 d5 84 be da 05 f4 be 28 dd c1 be ee e9 73 3e
       -0.25944233 -0.47660714 -0.3786404 0.23819706
000330 21 4a 15 be 10 45 e3 bc 8d 8c 98 be 2c 5b da be
       -0.14579059 -0.027742893 -0.29794732 -0.42647684
000340 e3 03 59 bf d5 37 4d be 13 e6 ef be 29 4f 41 3e
       -0.84771556 -0.2004083 -0.4685522 0.18877853
000350 d7 65 41 bc 68 4e 07 bf d2 21 6d bf cd c7 4f bf
       -0.011804066 -0.52854013 -0.9262973 -0.81164247
000360 d2 75 7f bf 3c 70 71 be 99 b1 13 bf 72 7b 31 be
       -0.99789155 -0.2357797 -0.5769287 -0.17332247
000370 20 00 04 3e fe 53 ab bf ee 41 15 bf aa 4f 93 bf
       0.12890673 -1.3385007 -0.58303726 -1.1508687
000380 15 91 2c bf d2 ad 3e bf c2 f0 1b bf 68 a7 16 be
       -0.6740888 -0.7448398 -0.6091424 -0.14712298
000390 e2 ee e1 be 39 93 55 be b0 5e 08 bf 1e e4 7a bc
       -0.44127566 -0.20856942 -0.5326948 -0.015313176
0003a0 a4 0b 08 be b7 40 bf be c6 7c 0a bf 2d 4a d0 be
       -0.1328569 -0.3735406 -0.5409664 -0.40681592
0003b0 51 24 a4 be 21 5d ba bd c9 1d 12 3d 17 5e ad be
       -0.32058957 -0.09099794 0.035672937 -0.33860847
0003c0 6c b2 48 be 40 69 99 be d3 ca be be f8 42 9a 3d
       -0.19599313 -0.29963112 -0.37264118 0.075323045
0003d0 78 0d 1a 3e ca cc 4f bf be 08 b7 bd bb 63 17 bd
       0.150442 -0.8117186 -0.08937214 -0.036960345
0003e0 d3 35 92 be 45 cd 2f be 1a cb 5b be 5b 23 f9 be
       -0.2855669 -0.17168148 -0.21464196 -0.48659787
0003f0 32 66 57 bf 53 a1 b4 bd 8d b0 9a 3d 50 48 14 be
       -0.8414031 -0.08819833 0.07553206 -0.1448071

fc2.weight f4 [400, 300]
000000 d2 80 82 bd 6f 8a 3b 3c ac 62 9c 3b 03 40 5a be
       -0.06372227 0.011446579 0.004772505 -0.21313481
000010 34 b7 84 3c 80 8b 19 bd 8e ef b9 3c 57 73 63 3b
       0.01620064 -0.037486553 0.022697236 0.00347062
000020 53 38 6a bd 4a dd 02 be 90 29 51 3e 7e 4a fc 3c
       -0.05718262 -0.12779728 0.20426011 0.03079724
000030 b8 8a 1a bd 40 dc 88 bd 52 54 1f 3d f3 f3 cc ba
       -0.03772995 -0.06682634 0.038898773 -0.0015636667
000040 1e a3 52 bd 95 5f a8 ba d5 cc 88 bd 3b 05 94 bc
       -0.051425092 -0.0012845868 -0.066796936 -0.0180689
000050 65 86 f3 bc 59 1e 8f 3c 4d 48 39 3e 83 31 af 3d
       -0.02972717 0.017470526 0.18093987 0.085543655
000060 c9 92 fb 3b e3 42 02 be c1 2a 88 3d 9a fa 96 bd
       0.0076774103 -0.12720828 0.0664878 -0.07372017
000070 61 44 29 3d cf 73 21 be 3c 3a 6c 3c 14 92 9e bd
       0.041324977 -0.15766834 0.014418181 -0.07742706
000080 34 26 1d bc 02 d2 b7 3c 7f 36 55 bd 53 7f 9d bd
       -0.009591628 0.022439007 -0.052053925 -0.07690301
000090 ee 9a 6f bc 93 65 70 bd cc 78 85 bd fc 7f 90 3c
       -0.01462434 -0.05869062 -0.06517181 0.017639153
0000a0 3a a5 da bd 2a e2 98 bc 33 bc ff bb 04 ee 34 bd
       -0.10676046 -0.01866253 -0.0078044175 -0.044172302
0000b0 2f 1e 2b bd 82 0f 97 bc 22 ab 07 bd 26 f6 8d bd
       -0.041776832 -0.018440012 -0.03312219 -0.06931715
0000c0 52 cc b9 bc 55 a3 21 be cc d7 ee bd 20 8e e7 bd
       -0.022680435 -0.15784962 -0.11662254 -0.11306405
0000d0 19 d3 d7 bd f3 98 2c 3d 9c ee c9 bd 91 70 57 bc
       -0.105383106 0.04213805 -0.09859964 -0.0131493965
0000e0 34 65 22 3c 03 79 18 be a6 5a e6 bd c6 47 35 bc
       0.009911824 -0.14889912 -0.112477586 -0.011064475
0000f0 00 74 5d 3d eb 57 c5 bd 55 53 f8 3b af b2 e5 bc
       0.054065704 -0.0963591 0.0075782933 -0.028039305
000100 eb 0a 95 bc 12 bb c2 3d 5a 74 29 bd d1 73 bd bd
       -0.018193683 0.09508337 -0.041370727 -0.09250606
000110 57 2c 2b bd 81 8d 69 3d d0 93 e5 bd d9 48 76 bd
       -0.041790333 0.057019714 -0.112098336 -0.060128067
000120 a2 e7 63 bd f7 30 fe bc 73 2c 5c bd 3b 70 45 3d
       -0.055640824 -0.031029208 -0.053753328 0.048202734
000130 1f 2a 0b be 2c 05 3c 3d ee ff 6f bc 86 d5 84 3c
       -0.13590287 0.04590337 -0.014648421 0.016215097
000140 27 d4 46 bd 27 70 06 be 76 69 13 3d 57 2b f0 bd
       -0.048542168 -0.1312872 0.035989247 -0.117270164
000150 e1 39 9b 3d 42 07 bc bd 5e ea 6f 3c de 0c 09 3d
       0.07579399 -0.09181072 0.01464328 0.033459537
000160 71 dd 0f bd fe 08 2c 3c 6d ef 6a 3c df 72 79 bd
       -0.035123292 0.010500191 0.01433931 -0.060900565
000170 92 4a 3c bd 10 34 84 bd 07 a9 45 bd a9 08 d6 bd
       -0.045969553 -0.06455243 -0.0482569 -0.104508705
000180 09 78 ea bd 1b 84 e7 ba eb 0d 5e bc 33 f4 b6 bc
       -0.11448676 -0.0017663272 -0.013553123 -0.02233324
000190 0a 3a b4 bc 43 35 82 bd 8c a6 85 bd b0 cd f8 bd
       -0.022000331 -0.06357815 -0.06525907 -0.12148607
0001a0 70 1f 2e be 3d 97 7e bd 63 e7 93 be e2 f5 d2 3c
       -0.1700418 -0.06215595 -0.28887472 0.025752012
0001b0 b1 b4 10 3c a0 cc b2 bc ef 20 3d be 2b c8 d6 bd
       0.008832143 -0.021826088 -0.18469594 -0.10487398
0001c0 7f 5c e2 3c 45 9e fe 3b d8 db 7d bd 99 6d ee bd
       0.027631996 0.007770332 -0.061977237 -0.11641998
0001d0 21 e1 d1 bb d2 65 c6 bd fd 0d 74 3b 2f 0f 34 bd
       -0.0064050113 -0.096873894 0.0037239783 -0.043959793
0001e0 b8 e4 1b bd cc e3 ea bd 67 fb da ba 79 4a ad bd
       -0.03805992 -0.1146923 -0.0016707004 -0.0846147
0001f0 35 b8 6f be 2d 98 a4 bd ce 2d a4 bc 4d b8 35 3b
       -0.23410113 -0.08036838 -0.020041373 0.002772826
000200 4b 6b da 3c 63 03 b4 3d d1 70 37 bd 64 72 f8 bc
       0.02666249 0.087897085 -0.044785324 -0.030327983
000210 10 c3 9c bd 7e 03 66 ba c5 48 75 3c b7 6f 10 be
       -0.07654393 -0.0008774324 0.014970963 -0.14105116
000220 af d9 14 b9 b2 ed 46 bd 71 16 cc bd ad e6 0e 3e
       -0.00014195473 -0.048566528 -0.09965218 0.13955183
000230 82 cd 78 bc d2 f9 c8 bd a4 a6 02 bc 4f ce 9e 3c
       -0.015185716 -0.098132744 -0.0079743005 0.019385485
000240 d6 6f 9a bc f4 65 1b 3d 45 e8 31 bd c1 f6 0d bd
       -0.018852156 0.037939027 -0.0434344 -0.03465915
000250 51 35 bc 3d 0c 2f a6 bb 76 2c fb bd f2 87 0e bd
       0.09189857 -0.0050715264 -0.122643396 -0.034797616
000260 61 80 d3 3c 59 78 72 bc 39 b0 6f bd 31 b2 05 bd
       0.025818052 -0.014799201 -0.05851767 -0.03264064
000270 dd a3 2d bb d7 5a 6e bd 14 9a fa bc fd 01 84 3d
       -0.0026495375 -0.0581921 -0.030591048 0.06445692
000280 d3 d8 65 be 6d 0a 19 3c 5a b3 04 3e c3 28 4f bc
       -0.22445993 0.009340865 0.12959042 -0.012643996
000290 fc 97 f9 3c 95 fa b0 bd a2 36 ef bc ae 36 54 3d
       0.03046798 -0.08641545 -0.029200856 0.05180996
0002a0 03 a4 89 bd f9 47 47 3a 73 d9 b2 3d af 8d cd bd
       -0.06720736 0.00076019723 0.087328814 -0.100367896
0002b0 58 dd 03 be 39 b2 83 bd 43 04 a4 bc 34 7a b9 bd
       -0.12877405 -0.06430478 -0.020021563 -0.090565115
0002c0 fc 35 2d 3d 07 4e 62 be e3 a2 d7 bc 2b 91 ab 3c
       0.04228781 -0.22100078 -0.026322788 0.020943245
0002d0 de 84 38 bc c8 74 12 bd a1 f0 0d be 2d 2a 98 bc
       -0.011262147 -0.035755903 -0.13861324 -0.018574798
0002e0 ee fb 17 bd da fb 4c bd 84 a3 47 bd 58 8b b7 3c
       -0.037105493 -0.050044872 -0.048739925 0.022405311
0002f0 19 4b a1 bd de 55 57 bd a6 69 02 bd aa 68 43 be
       -0.07875652 -0.052572124 -0.031839035 -0.19082895
000300 75 00 0b 3d 94 32 3e 3d 14 96 07 3b 78 6a ce bd
       0.033935983 0.046434954 0.0020688819 -0.10078901
000310 27 41 19 3d c8 8b 7a be c5 64 b8 bd 55 5d 32 bc
       0.03741565 -0.24467385 -0.09003595 -0.01088651
000320 5b ac 07 be b2 f1 9e bd c3 d0 ce bb a2 be a4 3c
       -0.13249342 -0.077609435 -0.0063115074 0.020110432
000330 f7 92 8f bd 52 de 42 3b 41 4b 56 bd c1 15 93 3d
       -0.07010453 0.0029734564 -0.05231786 0.071818836
000340 3c 1b 19 be 92 73 bb bc c0 24 1a be ba 96 90 bd
       -0.14951795 -0.022882257 -0.15053082 -0.07059999
000350 26 44 1b bd 6e de e4 3d ac 76 4b 3d e6 bb 3f 3d
       -0.03790679 0.111752376 0.04967372 0.046810053
000360 c9 70 67 bd 7e ff 1d 3d cf e0 c4 3b c5 9f 1b 3d
       -0.056504045 0.038573734 0.0060082446 0.037994165
000370 7d 99 47 3d f3 9c 82 bd 71 ee 75 3d f0 5a 0a 3d
       0.048730362 -0.06377592 0.06004185 0.03377813
000380 0f d6 ad bc f4 53 3a bd 04 e1 80 bd 54 f1 b3 bd
       -0.021220235 -0.04549022 -0.06292918 -0.08786264
000390 75 2a 71 3d 81 51 2e bb 27 c5 9b bd 79 19 97 bd
       0.05887838 -0.0026598873 -0.07605963 -0.073779054
0003a0 df a3 ff bd 97 44 df 3d 41 7a 33 bd 47 5b 63 3c
       -0.12482428 0.10901754 -0.043817762 0.013876743
0003b0 85 0c f6 3b f7 bd f1 bd 4c 54 c3 bd b8 74 4d bd
       0.0075088167 -0.11803811 -0.09537563 -0.05016014
0003c0 97 6b 1b bd be 5c 46 bc 67 80 b0 3c ab a7 54 bd
       -0.037944403 -0.012107072 0.021545602 -0.051917713
0003d0 00 00 a4 bd 0a 71 62 bd 92 30 11 bd a2 ae 11 bd
       -0.080078125 -0.055283584 -0.03544671 -0.035566933
0003e0 ab 07 c1 bc 78 f1 98 3c 3d a4 1e 3d 9a 79 8c bc
       -0.023563227 0.018669829 0.03873085 -0.017147828
0003f0 6b 94 b3 3d fc b4 b5 3c e4 63 8f bd 13 8a 0a 3d
       0.08768543 0.022181027 -0.070014745 0.033823084

fc2.bias f4 [400]
000000 80 a1 18 be 5b e8 89 be 11 77 9e bd 62 d1 34 be
       -0.14905357 -0.26935086 -0.07737554 -0.17657998
000010 4b ae f9 bd c1 42 fa bd 36 13 0a be 2f b0 66 bd
       -0.12191447 -0.122197635 -0.13483891 -0.056320366
000020 ab 93 00 be ad 9d c4 bd 4c c7 2d be c1 3f 0c be
       -0.12556331 -0.09600387 -0.16970557 -0.13696195
000030 2f 1d fe bd 0c 0b d3 bd 7e c8 fe bd f4 22 be bd
       -0.1240791 -0.103048414 -0.124405846 -0.092840105
000040 bf c4 66 be 97 4d 77 bd 54 10 bc bd ac de 11 bd
       -0.2253599 -0.06037673 -0.09182802 -0.035612747
000050 8d 2e d8 bd 8a 99 c4 3a d5 52 25 be f1 7f a7 bd
       -0.10555754 0.0014999371 -0.16144879 -0.081787
000060 45 58 11 be e8 d9 39 be 54 a4 04 be 78 55 a6 bd
       -0.14193828 -0.18149531 -0.12953311 -0.081217706
000070 02 ef 1c be e0 12 24 be 7d 78 53 be f0 98 04 be
       -0.15325549 -0.16022825 -0.20651431 -0.12948966
000080 7b e5 10 be 98 ba d0 bd 24 26 58 be 8e 94 25 be
       -0.1415004 -0.1019184 -0.211083 -0.1616995
000090 b8 40 af bd 8f af 4b be 87 49 fd bd e5 7a 2e be
       -0.08557266 -0.19891189 -0.1236754 -0.17039068
0000a0 22 6e 89 be ba 18 e2 bd 90 f9 14 be 68 7e 06 be
       -0.26841837 -0.110398725 -0.14548326 -0.13134158
0000b0 7c 4c d0 bd cb b9 05 be ab ea ed bd 14 98 aa be
       -0.10170838 -0.13059156 -0.11617025 -0.3331915
0000c0 a3 88 14 be cb e3 ec bd 2e 1c b2 bd 5a 3c 08 bd
       -0.14505248 -0.115668856 -0.08696781 -0.03326068
0000d0 6a db 50 be 66 9a 0e be 36 dd dd bd e9 e1 ee bd
       -0.203962 -0.13926086 -0.10833208 -0.11664183
0000e0 2d 70 e0 bd a8 c2 14 be 73 40 3c be 2c 75 27 be
       -0.10958896 -0.1452738 -0.1838396 -0.16353291
0000f0 24 5d c2 bd f7 dd 4e be bf 4a 8c bd 80 d6 0d be
       -0.094904214 -0.2020186 -0.06850194 -0.13851357
000100 3f 4a 35 be 5b a0 1b be 02 40 8e bd 9d ba fb bd
       -0.17704104 -0.1519789 -0.06945802 -0.12291453
000110 e4 e5 43 be 15 64 3c be d6 10 d7 ba 28 8b 39 be
       -0.19130665 -0.18397553 -0.0016408216 -0.1811949
000120 ad e3 22 be 12 76 f6 bd de 55 4a be e1 1e d4 bd
       -0.15907164 -0.12034239 -0.19759318 -0.10357452
000130 c5 fc db bd 77 41 f1 bd 52 af 28 be a3 25 06 be
       -0.10741571 -0.117800646 -0.1647313 -0.13100295
000140 3a 5f 0d be 6f 67 bf bd 45 f5 02 be 1c 21 92 bd
       -0.13805857 -0.093459 -0.12788875 -0.07135221
000150 70 40 aa bd c5 f2 cd bc 5b 3c 0e be 4b 33 90 bd
       -0.08313072 -0.025140176 -0.13890211 -0.07041033
000160 af 11 15 be 26 c3 34 be e8 8d 40 be a2 80 fa bd
       -0.14557527 -0.17652568 -0.18804133 -0.12231566
000170 9b 4d ba bd bf 10 35 be ae cd b9 bd ef e3 32 be
       -0.09096833 -0.1768217 -0.090724334 -0.17469762
000180 f1 ca 4c bd b2 30 e9 bd 76 d7 0c be ac 39 ca bd
       -0.049998228 -0.11386241 -0.13754067 -0.09874281
000190 aa 28 ec bd 75 27 99 bd bf 71 10 be 7a 61 af bd
       -0.115311936 -0.07478229 -0.1410589 -0.08563514
0001a0 e1 e4 9f bd 9f 43 ef be 92 1a 0b be 90 54 38 be
       -0.07807327 -0.46731278 -0.13584355 -0.18001008
0001b0 f4 b9 7a be b0 bb c3 bd d6 f9 b7 be 24 36 76 be
       -0.24484998 -0.09557283 -0.35932797 -0.2404409
0001c0 6c 8b 08 be be 76 37 be 98 31 af bd 7e 1d 25 bc
       -0.13334435 -0.1791639 -0.08554381 -0.010077832
0001d0 39 36 9d bd 31 22 d9 bd ac fa ff bd b8 9a 0c be
       -0.07676358 -0.106022246 -0.12498984 -0.13730896
0001e0 20 d6 8c bd e2 15 e6 bd 01 27 53 be 83 71 01 be
       -0.068767786 -0.112346426 -0.20620348 -0.12640958
0001f0 6a d6 ab bd 9b ca 19 be 9d d6 33 be 31 2a 07 be
       -0.083905056 -0.15018694 -0.17562337 -0.13199688
000200 bb 76 22 be ed 9c 2b be 8b 38 9e bd 39 0f 84 bd
       -0.15865605 -0.16759081 -0.077256285 -0.06448216
000210 06 8b ba bd da 22 26 be 37 5e df bd 5f 82 be bd
       -0.09108548 -0.16224232 -0.10906642 -0.0930221
000220 7a c8 21 be 98 44 fd bd b0 ca 56 be 3d 61 00 be
       -0.15799132 -0.12366599 -0.20975757 -0.12537093
000230 e7 05 46 be 43 14 1f be 66 58 47 be 4d 14 53 be
       -0.19338189 -0.15535073 -0.19467315 -0.20613213
000240 ee ee 76 bd f5 46 c5 bd ac fb ec bd 05 31 3f be
       -0.060286455 -0.096326746 -0.1157144 -0.18671043
000250 e8 5b 17 be 70 c0 16 be a7 5a e9 bd 7b 65 fc bd
       -0.14781153 -0.14721847 -0.11394244 -0.12324043
000260 dc ce bf bd 30 c2 01 bd 40 b3 86 be 6c 1b 8b be
       -0.09365627 -0.031679332 -0.26308632 -0.2716936
000270 a7 a2 06 be 87 f3 d0 bd 4a c7 08 be df 6d 0a be
       -0.13147984 -0.10202699 -0.13357273 -0.13518475
000280 56 13 1b be d9 d2 25 be 93 40 11 be 30 87 90 bd
       -0.15144095 -0.16193713 -0.1418479 -0.07057035
000290 59 64 40 bd 30 dd f8 bd 1f a6 cf bd 17 68 09 be
       -0.0469707 -0.12151563 -0.10139107 -0.13418613
0002a0 65 60 3b be f5 cd da bd 10 f7 ca bd e1 a2 2f be
       -0.1829849 -0.106838144 -0.09910405 -0.17151977
0002b0 6d 20 ed bd 79 46 e7 bd 84 62 c5 bd 5f 8c f9 bd
       -0.1157845 -0.112927385 -0.09637931 -0.12184977
0002c0 fb a3 be bd 0a 4d e6 3d 46 04 e9 bd 0f 30 d0 bd
       -0.093086205 0.11245163 -0.11377768 -0.101654164
0002d0 55 b3 32 be 33 47 04 be 42 1c fc bd 2b 99 16 be
       -0.17451222 -0.12917785 -0.12310077 -0.14706866
0002e0 f0 85 05 be db da 53 be 3c 9e 1a be a2 03 e0 bd
       -0.13039374 -0.20688955 -0.15099424 -0.10938193
0002f0 e6 47 0e be 6e a2 f3 bd ab c3 e9 bd 6a 4c 0f be
       -0.13894615 -0.118962154 -0.11414274 -0.13993993
000300 fb 4e d7 bd 17 6f c1 bd 42 fe a5 bd 6b f3 c2 be
       -0.10513111 -0.09445017 -0.081051365 -0.38076338
000310 6a eb 5b be 19 2b 03 be f1 fe 84 bd 0d c7 93 bd
       -0.21476522 -0.12809409 -0.06493939 -0.072157
000320 d9 c0 9c bd fe 9d c3 bd 7c 5a 61 be f1 75 15 be
       -0.0765397 -0.09551619 -0.22007173 -0.14595772
000330 d0 0c fa bd 11 5b a1 be 6e c6 fd bd b3 8e e2 bd
       -0.12209475 -0.3151479 -0.12391363 -0.11062374
000340 d6 8b cd bd cd 04 7c bd 1d cb ee bd 96 0b ce bd
       -0.10036437 -0.061528016 -0.116598345 -0.100608036
000350 b7 2e 8b bd 8c 67 e1 bd 51 39 00 be 68 13 c0 bd
       -0.067960195 -0.11006078 -0.12521864 -0.093787014
000360 25 ec 1f be b0 aa de bd 94 90 41 be af 80 90 bd
       -0.15617426 -0.108724 -0.18902808 -0.070557944
000370 2c 77 52 be 01 3d b8 be cb fd 17 be 8f dc 15 be
       -0.20553273 -0.35984042 -0.14842908 -0.14634918
000380 b3 b4 3f be ab ea f0 bd 03 3c 40 be 88 d8 9f bd
       -0.18721275 -0.11763509 -0.18772893 -0.07804972
000390 2d fe e9 bd 6e 46 a1 bd 3d 65 40 be 26 0d 3b be
       -0.11425433 -0.078747615 -0.1878862 -0.18266734
0003a0 2f 24 0f be 8f b5 7a be 44 87 02 be 9e 1a ab be
       -0.13978647 -0.24483322 -0.12746912 -0.33418745
0003b0 56 58 ae bd aa b8 a2 bd b4 36 1e be dc 17 0d be
       -0.085129425 -0.07945378 -0.15450555 -0.13778633
0003c0 28 3c ac bd 27 84 a3 be 8a ee 16 be 78 41 18 be
       -0.084099114 -0.31936762 -0.14739433 -0.14868724
0003d0 53 52 c7 bd af 46 19 be 8d 21 7e bd ce 02 e7 bc
       -0.09732499 -0.1496837 -0.062043715 -0.02819958
0003e0 79 5a ec bd d2 fd cb 3d 36 5d 29 be f3 ad e7 bd
       -0.11540694 0.09960522 -0.16539463 -0.11312475
0003f0 0b 84 ef bd 67 25 fb bd a3 46 75 be e9 ed 35 be
       -0.11695107 -0.12262993 -0.23952727 -0.17766537

fc3.weight f4 [1, 400]
000000 43 58 08 bc 5d 4d 44 3b 12 22 04 bc 34 f7 08 3b
       -0.0083218245 0.0029953339 -0.008064764 0.0020899298
000010 84 75 91 3c b1 70 3a bb 0a 47 0e bc 39 2d bd bc
       0.017756231 -0.0028448517 -0.008683929 -0.023092853
000020 e3 64 19 3c 7a d0 24 bc 43 95 ec 3b 59 ac 28 bc
       0.009362432 -0.01005947 0.007219942 -0.010294997
000030 7a 73 29 bc ae c9 13 3b 0e 1f 62 3b fd 7e 26 bc
       -0.010342473 0.002255063 0.0034503373 -0.010162112
000040 b1 e9 6c 3d cb d1 ae 3c 66 b4 7a 3a ec 46 a0 3c
       0.057840053 0.021340271 0.00095636246 0.019565068
000050 8d 75 bb bb 54 12 f5 3c e5 54 f7 bc 92 c4 ef ba
       -0.0057208003 0.029915966 -0.030191848 -0.0018292835
000060 6e 3f 15 bc 4d cc 89 bc b2 de 5c 3d 80 64 75 3c
       -0.009109361 -0.016821051 0.053923316 0.014977574
000070 8e 1f 83 bc da 4e 54 bc 68 59 0a 3d 41 5b e3 3c
       -0.016006257 -0.012958253 0.03377667 0.027753474
000080 24 88 14 3c 4c 9e 10 3c c3 ea 9d bc 84 6d d3 bc
       0.009065662 0.008826803 -0.019276982 -0.025809057
000090 78 c8 43 3b 8e 49 19 bd 2c 59 db bb f8 7b a5 bc
       0.0029874127 -0.037423663 -0.0066939797 -0.020200714
0000a0 e3 a3 93 bd f2 b7 cc bc 1a a7 9c 3c 7b b2 5f bd
       -0.07208993 -0.024990056 0.019122649 -0.05461357
0000b0 8b a6 b6 bb 3b 91 9e 3d 45 a3 30 bc 6e 3c 5c 3d
       -0.0055740527 0.07742544 -0.010781114 0.053768568
0000c0 f7 df b4 bc 93 c1 5a 3c bb 91 0b 3c 1f 44 b1 3c
       -0.022079451 0.013351816 0.008518632 0.021638928
0000d0 9d d0 ad 3c e6 24 24 3b 7d 8a 40 bc 8f 4d 93 3c
       0.021217639 0.0025046407 -0.011751768 0.017981319
0000e0 bb 02 bb 3b 86 c9 cb bc 10 88 2c bc 5a c5 fd 3c
       0.0057071126 -0.024876367 -0.010530487 0.030977894
0000f0 cd c7 e1 3b cc 2a 89 3b fd 0f 88 3c 2c b5 8e bc
       0.006890273 0.00418601 0.016609186 -0.017420374
000100 dd 5a a1 bc 0f 2f 9b 3c b6 fe 28 bb b0 6f f9 39
       -0.019696647 0.018943338 -0.0025786585 0.00047576195
000110 77 bf 20 bd 34 6c a5 bb 3e 5b 96 3c 9a 2b bb 3c
       -0.039245095 -0.005048299 0.018354055 0.02284794
000120 8b 20 a7 3b 0c 1e d9 3b 8e ba 31 3c 9d c5 70 bb
       0.005100315 0.0066258963 0.010847701 -0.003673888
000130 37 38 f3 3c fd c6 f2 3c f5 4f 35 bd 97 30 8c 3c
       0.029689891 0.0296359 -0.044265706 0.017113013
000140 a4 ba 02 3b d5 f1 fb 3c 5d 69 be 3b ed 41 b5 3b
       0.0019947672 0.030754963 0.0058109 0.0055315406
000150 f2 04 00 3d 04 00 50 bd 00 e5 5e bc f3 1c ee bb
       0.031254716 -0.050781265 -0.013604403 -0.0072666346
000160 f6 18 91 3a 78 dc e5 bb 77 47 56 bd 93 5f db 3a
       0.0011070061 -0.0070148073 -0.052314248 0.0016736857
000170 2f a1 e5 3b 82 18 c9 3c 98 71 d7 3a 59 fb c4 3a
       0.00700774 0.024547819 0.0016437052 0.0015028521
000180 05 b4 80 bc 53 cd 70 3b 40 cb af 3c 1c bb da 39
       -0.01571084 0.0036743477 0.021459222 0.00041719608
000190 67 74 52 bc 1f 06 2b 3c 06 24 c1 bb c0 5a c0 bb
       -0.012845135 0.010438471 -0.005894187 -0.0058701932
0001a0 ff b0 84 bb c6 85 8d bd 5a c9 2a bc 11 ad 81 bc
       -0.00404942 -0.06910281 -0.0104239825 -0.015829595
0001b0 11 36 6e bd e7 49 2f bc 77 cb 2b 3d b4 8f e5 3c
       -0.05815703 -0.010698772 0.041942086 0.028022625
0001c0 1b fa a3 bc 41 5f 3d 3c 5e ba 17 bb 07 34 f8 3c
       -0.02001672 0.011558355 -0.0023151855 0.030298246
0001d0 f1 a1 ea 3c f9 82 47 3c 0d 9c b0 3c a1 05 ac 3c
       0.028641673 0.012177222 0.021558786 0.020998778
0001e0 48 0a 5d 3c fc 6d a9 3c 1c bb 1a 3d e7 a4 21 3b
       0.013491221 0.020682327 0.037776098 0.002466494
0001f0 f6 b2 d8 3b 55 09 34 bc 7f d2 9e 3c e5 3b dd bc
       0.0066131307 -0.010988553 0.019387482 -0.027006099
000200 c9 02 7f 3c fe cf 14 bc ba 1a ae 3c 82 46 aa bc
       0.015564629 -0.009082792 0.021252979 -0.020785574
000210 85 85 b2 3c 42 d9 46 3d bf d1 22 bd 42 87 75 bd
       0.021792183 0.048547037 -0.03975081 -0.059943445
000220 bb 38 e0 bc 1a 5b 39 3b 8b 15 19 3c 94 5b 44 bc
       -0.027370801 0.002828306 0.009343515 -0.011984725
000230 78 1e 18 bc 33 78 c6 3c f8 6c a7 3c 7d b7 d7 3c
       -0.009284608 0.024227237 0.020437703 0.026332611
000240 f2 36 87 3c b4 0e 5d bc df 22 d9 bc b9 0c 0c 3b
       0.016505692 -0.013492275 -0.026505886 0.0021369888
000250 cb 90 16 ba d3 b9 f6 bb 6d 23 17 3d 6a f0 91 3c
       -0.0005743622 -0.007529476 0.03689902 0.017814834
000260 00 fc a5 bc 3d 16 a9 bc 18 a6 56 3d 36 cd d9 bc
       -0.020261765 -0.020640487 0.052404493 -0.02658711
000270 52 f7 b5 3c b0 6c ad bc 24 88 30 bb f7 9d 3a bb
       0.022212658 -0.02116999 -0.0026936615 -0.0028475502
000280 7b ee 1c bb ed 90 30 bc ab 5e 9c bb 4a 0e 5c 3d
       -0.0023945856 -0.0107767405 -0.0047720275 0.053724565
000290 c9 65 f3 bb 01 fd c7 bc 40 4c e0 bc 97 49 a4 bc
       -0.007427905 -0.024412634 -0.027380109 -0.020054622
0002a0 eb d9 2f bc ca c5 a8 bb f4 02 b6 bb 41 41 a9 3b
       -0.010733108 -0.0051505314 -0.0055545513 0.0051652496
0002b0 f9 04 9e bb 59 98 2d bd 3f 90 8e bc 70 1d 0a 3b
       -0.00482237 -0.04238162 -0.017402766 0.0021074675
0002c0 2b e4 a5 bc 0e fa 21 bd 8e af af 3c 19 8c d7 bb
       -0.0202504 -0.03954511 0.021446016 -0.0065779802
0002d0 ff c5 e3 3c 08 dc 3f 3c 13 47 ea bc f8 60 dd bc
       0.027804373 0.011710174 -0.028598344 -0.027023777
0002e0 0c a5 a8 3b 27 fd e8 bc 87 39 d9 3c e0 f5 8e 3c
       0.0051466282 -0.028441025 0.026516689 0.017451227
0002f0 fe 06 e7 bc 33 17 63 bc e2 a8 82 3d f2 f3 62 3c
       -0.028201576 -0.013860512 0.06379868 0.013852106
000300 26 fd 33 3b 60 57 0d 3b 8f 70 28 3c 00 96 47 3d
       0.002746412 0.0021566972 0.010280742 0.048727036
000310 85 92 69 3d e2 d9 86 3c 4f 71 5a 3c d9 c8 29 bc
       0.057024498 0.016461316 0.013332679 -0.010362827
000320 9a 69 a6 bc 01 64 ac bc 0d 38 91 3c a0 b7 59 bd
       -0.020314027 -0.02104378 0.017726922 -0.053153634
000330 a8 7f ff 3c 16 d1 6d bd c9 83 16 bc 7f ee 73 3b
       0.0311888 -0.058060728 -0.0091866935 0.0037221012
000340 78 04 11 bc 62 49 e4 bb 60 94 e1 3b d6 e9 ff bb
       -0.008851163 -0.0069667557 0.0068841428 -0.007809858
000350 05 db db 3a bb 8b 0f bb e0 f8 4d bc 6c 44 a8 bc
       0.0016773647 -0.0021903354 -0.012571543 -0.020540439
000360 f5 16 48 bc d0 47 b1 bc 4d 57 37 ba 09 0d 00 3d
       -0.012212505 -0.021640688 -0.0006993905 0.03126243
000370 68 62 cf bc 4b f5 4b 3d 6d 47 4d 3d 46 e9 cc bc
       -0.025315478 0.049794476 0.050116945 -0.025013577
000380 6e 1f 0c 3d bd 3d 4b 3c e9 4e 83 bb 35 d2 d5 ba
       0.03420966 0.012404856 -0.0040072096 -0.0016313257
000390 da ad 9c 3c af 96 bd bc 0c fa 24 3c 89 b7 c3 3c
       0.019125868 -0.02314314 0.010069381 0.023891227
0003a0 08 7a 6e bc 9a 97 c1 3c 86 3b 9e bb ca 6e 4e 3d
       -0.014555462 0.02363186 -0.004828873 0.050398625
0003b0 03 87 57 3d bf a3 12 bb 88 dd e6 bc c6 4e bc bc
       0.05261899 -0.0022375432 -0.028181806 -0.02298678
0003c0 86 d5 61 3b e6 ea 54 3d 81 f4 44 3b 48 1c 2d bb
       0.0034459545 0.05198183 0.0030052962 -0.0026414562
0003d0 4c 93 b2 3c dd f9 06 3c 56 87 19 3c 35 d6 01 3c
       0.021798752 0.008238283 0.0093706455 0.007924606
0003e0 fe 5c 9e 3c 05 6a 12 bd b3 cf 05 b9 49 b7 e4 ba
       0.019331452 -0.03574564 -0.00012761242 -0.0017449643
0003f0 1b 5d 7e bd ed 1b be 3c 23 4e 08 3d 5b 09 bb bc
       -0.06210051 0.023206675 0.033277642 -0.02283161

bn2.weight f4 [300]
000000 7c 63 45 3d 7e 7b 3d 3d 64 78 a7 3d 7f 6d 99 3d
       0.04819058 0.04626035 0.081772596 0.07491588
000010 30 75 17 3e e5 9f 5f 3e 8a 38 2c 3e 08 8d 5c 3e
       0.14790797 0.21838339 0.16818443 0.21538174
000020 e7 90 7f 3e e2 20 83 3d 9c bf 21 3c 26 e9 a5 3d
       0.2495762 0.06402756 0.009872343 0.0810111
000030 1c 53 01 3e 43 4a e3 3e ba 97 4b 3e 7e df 97 3d
       0.1262936 0.44392595 0.19882098 0.074156746
000040 a1 9c e2 3d 00 31 9f 3d f8 4f 87 3d 9c 0b aa 3d
       0.11065031 0.07773018 0.0660705 0.083029956
000050 24 40 b4 ba 0e 80 14 3e cf bd f9 bc 6c 66 0f be
       -0.0013752026 0.14501974 -0.030486016 -0.14003915
000060 26 6c 44 3d 14 66 0c 3e 08 59 f1 3d ed 8a 75 3f
       0.0479547 0.13710815 0.117845595 0.9591511
000070 07 1a ec 3c a2 3f 1f 3e a9 90 01 3e 69 80 88 3e
       0.028821005 0.15551618 0.1265284 0.2666047
000080 ef ea ad 3d 81 57 c8 3d 71 3c 9c 3d ca 1f a2 3d
       0.08492076 0.09782315 0.07628716 0.079162195
000090 f2 88 84 3e fb 06 b9 3d 53 64 6f 3e 81 ba 40 3d
       0.2588573 0.090345345 0.23378114 0.047052864
0000a0 f1 2e 3b 3d e7 ba fb 3e 95 d2 d6 3d d6 1e 02 3d
       0.045699064 0.49166033 0.10489384 0.03176769
0000b0 f1 df 67 3d 69 49 62 3e 25 ef 1b 3d 74 49 32 3e
       0.05661005 0.22098316 0.038069863 0.17410833
0000c0 53 79 b2 3d 8d 2c 3a 3e 8d 69 e4 3e 7a cd bb 3e
       0.08714547 0.18181057 0.4461178 0.36680204
0000d0 0b b2 47 3e 9a 87 d5 3d 00 6c 35 3e 96 08 0a 3e
       0.19501512 0.104262546 0.1771698 0.13479838
0000e0 05 5e 12 3e bb d1 92 3d 5e 15 6b 3f 89 38 98 3d
       0.14293678 0.07168909 0.9182948 0.07432658
0000f0 94 14 df 3e 2a 61 67 3d 8a 15 38 3f 81 de cb 3d
       0.43570387 0.056489147 0.71907866 0.099545486
000100 80 47 a2 3d 67 88 08 3f fe 2f 06 3e ce 90 d0 3d
       0.07923794 0.53333133 0.13104245 0.10183869
000110 c0 65 08 3f 18 ae 2f 3d ca e9 75 3e 4a f2 f7 3e
       0.5328026 0.042890638 0.24014965 0.4842704
000120 3a 62 9f 3d 6b 06 3d 3d c5 7c 50 3e e8 df 5e 3d
       0.07782407 0.0461487 0.20360096 0.054412752
000130 ba 92 97 3d 0e 31 6c 3e 98 39 f9 3d ad ba bd 3d
       0.07401033 0.23065588 0.12169188 0.09264121
000140 7a c4 c2 3d 08 16 aa 3e a4 42 99 3d cf 09 d0 3d
       0.09510131 0.33219934 0.07483414 0.10158121
000150 30 54 8d 3d 24 49 42 3e cc 5c 04 3e 4a 3e 92 3d
       0.06900823 0.18973213 0.12926024 0.07140787
000160 ac 5c bc 3c 54 96 0f 3d 54 c2 2b 3d 80 b9 ea 3d
       0.022993408 0.035055473 0.041933373 0.114611626
000170 aa 67 d0 3d 71 84 9e 3d f1 be 80 3e 84 48 a8 3e
       0.10176022 0.07740105 0.25145677 0.32867825
000180 2a de 29 3d b4 f2 91 3d 57 f1 9b 3d 18 79 83 3d
       0.041471638 0.0712637 0.07614391 0.06419581
000190 c4 ac b9 3d da f3 aa 3d f8 22 8f 3e df 21 06 3e
       0.090661556 0.08347292 0.27956367 0.13098858
0001a0 32 9c 5b 3e 9d 0b a0 3d 38 b1 1b 3e e5 92 23 3e
       0.21446303 0.07814715 0.15204322 0.15974005
0001b0 44 bf b3 3d 4e 5a 03 3e b1 de 19 3f 0b 91 9c 3d
       0.087767154 0.12827417 0.60105425 0.07644852
0001c0 86 12 0a 3e a6 01 c5 3d 94 1f 3b 3e 54 99 6c 3d
       0.13483629 0.09619455 0.18273765 0.057763413
0001d0 1e d8 0d 3e e7 e3 eb 3d 04 52 4d 3e 6e a5 a7 3d
       0.13851973 0.11518078 0.20050818 0.0818585
0001e0 d9 9d 7b 3d ec 21 2b 3e 61 76 43 3d 4d 64 b3 3c
       0.061429832 0.16712159 0.047720317 0.021898413
0001f0 c2 f8 31 3d ff ba 6c 3e 30 ab 74 3e 94 e8 0e 3e
       0.043450125 0.23118208 0.23893428 0.13955909
000200 fb 90 a3 3d 1e 87 7e 3e 4c bc 6c 3d 88 51 b9 3d
       0.07986637 0.2485623 0.05779676 0.09048754
000210 86 84 3a 3d 28 cb e1 3d 1c f6 00 3e f1 2a 0f 3e
       0.04553654 0.11025077 0.12593883 0.13981225
000220 b0 b2 27 3e 49 2a ba 3e 67 7c e3 3d 19 63 c6 bb
       0.16376758 0.36360386 0.11107712 -0.006054294
000230 06 0a a7 3d 6a 79 2e 3f 5d ef 97 bd a0 e3 d1 3d
       0.08156209 0.68154013 -0.07418702 0.10248494
000240 84 03 20 3e 96 0a e6 3d 6a cd 5c 3e c9 31 0e 3e
       0.15626341 0.11232488 0.21562734 0.13886179
000250 d5 0c 4f bc 05 e7 a8 3e 1c 76 ec 3d 2c ff 3a 3e
       -0.012637337 0.32988754 0.11545965 0.18261403
000260 c1 0d 02 3e 87 09 c6 3d 5d d9 b2 3d 8e 8c 91 3d
       0.12700559 0.09669786 0.08732865 0.07106887
000270 ba 59 e1 3d b2 4f 16 3f 2f 8b c5 3d c4 b2 03 3e
       0.11003442 0.58715355 0.09645688 0.12861162
000280 7d ff 02 3e f9 3f c1 3d 03 e7 69 3d 8b d2 7b 3f
       0.12792774 0.0943603 0.057105076 0.9836814
000290 be 8c d8 3d 98 b1 33 3e 4d 17 2b 3d d2 9f d4 3c
       0.105737194 0.17548215 0.04177027 0.025955115
0002a0 5f 81 4b 3c 5b d6 aa 3d f1 29 b9 3d cc fc 0c 3f
       0.012420981 0.08341666 0.09041203 0.5507324
0002b0 dc ef 9e 3d 12 67 54 3e 29 ea 98 3e e1 50 1f 3e
       0.07760593 0.20742443 0.2986615 0.15558197
0002c0 7f 92 cb 3d 70 61 0d 3d 55 4b d6 3c 8d b5 db bd
       0.09940051 0.03451675 0.026158968 -0.107279874
0002d0 97 3e 23 3e 0d 9c a3 3d 9c 55 a4 3e 76 2a c4 3d
       0.15941845 0.07988749 0.32096565 0.09578411
0002e0 92 9f 4f 3e a3 c4 b1 3d 9a 3b 12 ba 3d ee 17 3e
       0.20275715 0.086800836 -0.00055783393 0.14836974
0002f0 71 58 15 3e d1 7d 17 3e ae 9a 03 3e 60 15 13 3e
       0.14584519 0.14794089 0.12851974 0.14363623
000300 d1 27 74 bd 1e 82 1a 3e e6 58 5b 3d 77 a8 61 bc
       -0.059608284 0.15088698 0.053551577 -0.013773075
000310 0e 5b b6 3d 76 35 28 3e 77 34 84 3e 60 41 68 3e
       0.08904086 0.16426644 0.25821277 0.22681189
000320 26 5d 16 3d 38 e2 87 3c 29 a7 06 3e b6 e6 06 3e
       0.036709927 0.016587362 0.13149704 0.13173947
000330 99 f2 07 3e 86 a8 b8 3d bf 39 b0 3d 77 8c 89 3d
       0.13276137 0.09016518 0.08604764 0.06716245
000340 bc c0 15 3e 03 3c e8 3d 9e 55 1e 3e 34 d4 be 3d
       0.14624304 0.11339571 0.15462348 0.09317818
000350 70 d0 d5 3d 5c 35 f1 3d ab 37 33 3e fb d6 a9 3e
       0.10440147 0.117777556 0.17501704 0.3317183
000360 3d 24 e8 3d dd 04 85 3d ea 41 ef 3d cf 4b d3 bb
       0.11335037 0.06495068 0.11682494 -0.006448246
000370 37 cc 54 3d b1 ec d4 3e 4f a1 a0 3d da 55 c3 3e
       0.051952567 0.4158683 0.07843267 0.38151437
000380 33 ce c1 3d fb 0f 60 3e b8 c7 e4 3d 41 fe 44 3d
       0.094631575 0.21881096 0.11170906 0.048094038
000390 79 02 12 3e b7 b6 1e 3e 99 0b a5 3c 4a 61 05 3e
       0.14258756 0.15499388 0.020147132 0.13025394
0003a0 52 c6 b5 bd 51 8b 1e 3d 63 ba 03 3e d7 4b 83 3d
       -0.08875717 0.03870708 0.1286407 0.0641095
0003b0 66 ec 8e 3d 8e ab 17 3e 66 e6 16 3d 50 9b 2f 3d
       0.06978683 0.14811537 0.03684082 0.042872727
0003c0 01 5b 56 3d 88 62 b4 3d 6b 15 ad bc ed 62 57 3b
       0.05233288 0.08807856 -0.021128377 0.003286536
0003d0 b1 21 99 3d de 67 16 3e 35 b5 3f 3e cf c5 e9 3e
       0.07477129 0.1468806 0.18721469 0.45658728
0003e0 f8 bc 82 3d 4d 37 41 3e 8f ad b5 3d ac 08 82 3e
       0.06383699 0.18868752 0.08870994 0.2539724
0003f0 37 e9 d0 3e dd 03 29 3e 60 6c 23 3e 31 e3 bd 3d
       0.4080293 0.1650538 0.1595931 0.09271849

bn2.bias f4 [300]
000000 03 76 5d 3c 31 82 14 3c 85 f7 10 3c 5c 30 c8 3c
       0.013516906 0.009064243 0.008848076 0.024437122
000010 a5 79 a5 3c b2 e2 78 3d fd 6b 6f 3d b1 b5 83 3d
       0.020199606 0.06076307 0.058452595 0.06431139
000020 cd b2 f8 3d 24 8c db 3c 01 df 83 be 5e 42 2d 3c
       0.121434785 0.026800223 -0.25756076 0.010574905
000030 1d 47 ac 3c d6 77 08 3e f7 32 5a 3d 65 ec 80 3c
       0.021030003 0.13326964 0.05327126 0.015737722
000040 4f ac b0 3c 23 a7 17 3d e4 78 ef 3b 7d d6 8b 3c
       0.021566538 0.03702463 0.0073081125 0.01707005
000050 89 13 b4 ba 1c de d5 3c 8b 2c 1e bd 55 3d f3 bc
       -0.0013738732 0.026106887 -0.0386167 -0.029692331
000060 f1 f5 1c 3c de c4 8c 3d 59 6b 25 3d 76 46 4c 3e
       0.009580121 0.06873487 0.040385578 0.19948754
000070 29 f6 ab 3b 3e 18 a3 3d e4 56 2d 3c fe 89 20 3d
       0.0052478504 0.07963608 0.010579798 0.0391941
000080 7d 15 b0 3c c7 78 81 bc 51 d4 f5 3c 32 41 e3 3a
       0.021494621 -0.015804661 0.030008467 0.0017338155
000090 5f 8a cb 3d ab 7d 8f 3c 73 1d c4 3d 25 ac 26 3c
       0.099385016 0.017515978 0.095759295 0.010172878
0000a0 6b 71 1a 3c 3f c9 5d 3e d0 7a 79 3d 41 e0 28 3b
       0.009426455 0.216588 0.06090814 0.0025768431
0000b0 60 ce 03 3d 80 84 86 3d ed a2 0b 3c d4 77 7d 3d
       0.032179236 0.06568241 0.008522731 0.061881855
0000c0 5a ee 9d 3c 75 8f 19 3d 9d dc 73 3e 54 c4 34 3e
       0.019278694 0.037490327 0.23814626 0.17653018
0000d0 29 11 a2 3d f4 40 5d 3d 8a 56 a3 3d ff c7 c2 3c
       0.07913429 0.054017022 0.079754904 0.023777006
0000e0 af 14 83 3c dc ec e4 bb 01 fc 74 3e a1 d7 98 3c
       0.016001074 -0.0069862437 0.23924257 0.018657507
0000f0 eb c4 46 3e f8 ed 93 3c 8d 86 5f 3e a2 47 1d 3d
       0.19411056 0.018057808 0.21828671 0.038398392
000100 f0 48 ec bb 16 e9 11 3e d3 c1 9d 3c 9b 9f 4f 3d
       -0.0072108433 0.14249071 0.019257462 0.05068932
000110 c5 57 2e 3d 37 b9 f4 3a 69 b2 f8 3d 99 a9 82 3e
       0.042564172 0.0018670921 0.12143404 0.25520018
000120 36 ea 9d 3c 45 c9 58 3c cb 98 cb 3d b4 c2 8d 3b
       0.01927672 0.01323158 0.09941252 0.004326189
000130 96 3b 1a 3d 12 5f 52 3d 05 eb 0e 3d 3e e0 0a 3d
       0.03765448 0.051360197 0.0348921 0.03390526
000140 55 c9 f7 3c 6f 4e 58 3e 98 e0 d4 3c 06 9a 5d 3d
       0.03024737 0.2112367 0.025986 0.054101966
000150 f5 aa 08 3c f5 73 c0 3d 0f 6e 79 3d 43 1f d8 3b
       0.008341541 0.09397117 0.060895976 0.0065955236
000160 5c ca be bb 53 0d 02 b9 d6 a7 c3 ba 5d 60 33 3d
       -0.005822463 -0.0001240273 -0.0014927338 0.04379307
000170 a9 6f f5 3b 9f b1 ea 3b bf 7e 82 3d 5a f2 0a 3e
       0.0074901176 0.0071622874 0.06371831 0.13569012
000180 1b 15 72 3c 2a ca c5 3c 96 c9 90 3c 2c 9a 5e 3c
       0.01477554 0.02414425 0.017674249 0.013586562
000190 05 aa 89 bb 0a 86 bc 3c 46 bb 58 3d ab 28 a9 3c
       -0.004201176 0.023013134 0.052912973 0.020649275
0001a0 39 7e ab 3d c7 64 96 3c 3f 9a e3 3c e4 a3 b7 3d
       0.083736844 0.018358601 0.027783511 0.089668065
0001b0 32 28 0d bc 69 20 26 3d 9b 4c 89 3e b6 ee 8c 3c
       -0.00861554 0.040558252 0.26816258 0.01720367
0001c0 2b ca d1 3c 58 30 e9 3c d6 79 c5 3d 74 b8 5b 3c
       0.025609097 0.028465435 0.09642379 0.013410676
0001d0 ff 1d a6 3c cd fb f2 3c 87 cb 40 3d c7 0e 8f 3c
       0.020277975 0.029661084 0.0470691 0.017463101
0001e0 3b da 43 3c 00 6f d5 3d 29 a8 d6 ba 7a 68 ba 3b
       0.011953886 0.10421562 -0.001637702 0.005688724
0001f0 e9 0f 80 3a 20 34 3e 3e a3 bd a0 3d 1d b5 53 3d
       0.0009770367 0.18574572 0.0784867 0.051686395
000200 b7 00 ef 3c c5 09 bd 3d e2 c5 91 3b e2 ba a3 3c
       0.029175146 0.09230379 0.0044486383 0.019986574
000210 60 4b 20 3d 30 fc 2e 3d 56 7f 51 3d f9 9c 1c 3d
       0.039134383 0.042720973 0.051146828 0.03823564
000220 15 09 3a 3d b3 d3 33 3d 96 2d bb 3c 8b e0 8c bb
       0.045418818 0.043903064 0.022848886 -0.0042992285
000230 3f 6f b6 3c 9d 71 ae 3e fd 67 01 bc 3f fe 9a 3c
       0.022269843 0.34071055 -0.007898328 0.018920062
000240 e1 6a 35 3c 0c 14 af 3c 4d a9 14 3d b5 e7 38 3d
       0.011072845 0.021371864 0.03629427 0.045142848
000250 34 b6 c4 3a 80 73 58 3e ab d2 95 3c be 7e 8c 3d
       0.0015007914 0.2113781 0.01828893 0.06860112
000260 e7 1d 0b 3d 01 de c0 3c 73 47 79 3c 4a c7 41 3c
       0.033964064 0.02354336 0.015214789 0.011827299
000270 19 dd 56 3d 6b f8 f1 3d 52 36 ce 3c 3e 7a 93 3d
       0.05245695 0.1181496 0.025172386 0.0720105
000280 ff cb 07 3d 1b 09 05 3d 81 b7 17 3b 00 38 e6 bc
       0.03315353 0.032479387 0.0023150148 -0.028102875
000290 84 03 35 3d 15 e8 45 3d 87 37 47 3c 73 09 88 3c
       0.044192806 0.048317034 0.012159235 0.016606068
0002a0 f1 2f 77 bb e9 25 22 3c 8f 9a c4 3c b6 b7 22 3e
       -0.0037717784 0.009896734 0.02399948 0.15890393
0002b0 f4 c7 81 3c e3 f2 94 3d 12 42 70 3d 9f fc e4 3c
       0.015842415 0.072728895 0.05865676 0.02795249
0002c0 50 89 95 bc 35 8e 04 3b 0c 7a c9 3b 1e 8d cf 3b
       -0.018253952 0.0020226364 0.0061485823 0.006333961
0002d0 5e 03 d5 3c 25 01 d8 3a 5a 7e 18 3e c2 81 b5 3c
       0.026002582 0.0016479833 0.1489195 0.0221566
0002e0 58 56 85 3c 96 ef 8d 3c 88 52 01 3b 4d fa ba 3c
       0.016276523 0.017326158 0.001973303 0.02282443
0002f0 c3 22 67 3d ef a9 f9 3c e6 68 da 3c 10 8c a2 3d
       0.056429636 0.030476538 0.026661348 0.07936871
000300 2b 4b bb bb 6d b2 fc 3b e8 54 ce 3b 5f f9 a6 3a
       -0.005715748 0.0077116997 0.0062967427 0.0012739113
000310 4c dc 44 3c 03 2d c8 3d 5d ee 8e 3d c9 39 b9 3d
       0.0120154135 0.0977421 0.06979058 0.09044225
000320 35 35 a1 3c b3 35 4d 3c 6a 2c 0e 3d 2a f3 53 3d
       0.019678691 0.01252501 0.034710325 0.05174557
000330 a8 5d 79 3d 7f 7b 9e 3c 26 e2 4c 3c a9 69 32 3a
       0.060880333 0.019345997 0.01250509 0.0006805906
000340 bc de 91 3d fc f1 40 3d 9f 8f 11 3e e2 ec ed 3c
       0.07122561 0.047105774 0.14214943 0.029043619
000350 02 bf 0d 3d 43 d1 f2 bc 0d 19 5d 3c 45 07 c0 3d
       0.034605987 -0.0296408 0.013494742 0.093763866
000360 a1 33 bd 3c 9f ea 3e 3c 47 2e f4 3c 01 10 8c 3b
       0.023095908 0.011652618 0.029807223 0.0042743688
000370 50 b2 83 3c 7d be 36 3e 97 bd 8d 3c 0d 7e 26 3e
       0.016076237 0.17846103 0.017302318 0.16259022
000380 b2 ac a0 3c ce 61 1f 3d f8 60 61 3c 6f be 12 3a
       0.019613598 0.038911633 0.013756029 0.0005597835
000390 33 9c 54 3d 09 dc 14 3d 35 b7 68 bb 74 77 f7 3c
       0.051906776 0.036342654 -0.003550959 0.030208327
0003a0 98 32 4f bc 38 e5 ff 3b 86 98 00 3d 9d b1 e1 ba
       -0.01264634 0.0078093074 0.031395458 -0.001721907
0003b0 3b be 1e 3d ed cd e2 3d b4 69 35 3c 45 10 88 3b
       0.038755637 0.110744335 0.011072565 0.00415233
0003c0 2e 9b e4 3b a6 9d a4 3c e1 54 fb bb 83 1e 11 3b
       0.0069765067 0.020094704 -0.0076700305 0.002214343
0003d0 60 c9 64 3b c9 fc c3 3d 4b df 0a 3e 4e bb 1a 3e
       0.0034910068 0.09569699 0.13561742 0.15110514
0003e0 44 00 24 3c 14 30 3c ba 64 97 dd bb 3e 2a b7 3d
       0.010009829 -0.0007178795 -0.006762432 0.08943604
0003f0 97 36 2d 3e db a1 7e 3d ad dc 9f 3c 30 e3 6c bb
       0.16915356 0.062166076 0.019514406 -0.0036146156
