pretrainedNetworks/critic_target1.pth (torch_old, 553166 bytes, 9 tensors)

fc1.weight f4 [300, 52]
0	0x3e85b639	0.26115587
1	0x3e77ba43	0.24192147
2	0xbca81c0c	-0.020521186
3	0x3e9135c1	0.28361323
4	0xbe35f64b	-0.17769735
5	0xbe0bb4a5	-0.13643129
6	0xbd3c9baf	-0.04604691
7	0x3e909ec2	0.28246123
8	0x3eefad49	0.46811894
9	0x3f0fa863	0.5611631
10	0xbe5fda6a	-0.21860662
11	0x3f0c5e92	0.548318
12	0xbd037074	-0.032089666
13	0xbe91cde8	-0.28477407
14	0xbe7df915	-0.24802049
15	0x3f047605	0.51742584
16	0x3ed1204b	0.4084495
17	0x3f378b69	0.716971
18	0x3d3c9284	0.046038166
19	0x3bd654b5	0.0065408596
20	0x3e075818	0.13217199
21	0xbf1b6ec7	-0.6071591
22	0x3cd36b20	0.025807917
23	0x3d35deed	0.04440205
24	0x3be0b659	0.006857675
25	0x3e59cf2a	0.21270433
26	0xbd592ec6	-0.053023122
27	0xbc174fde	-0.00923535
28	0x3e5a1c20	0.21299791
29	0xbdb97ab9	-0.090566106
30	0xbd8c7a45	-0.068592586
31	0xbd9383ab	-0.07202848
32	0x3e9501dc	0.2910298
33	0x3e09115f	0.13385533
34	0x3efbc7f4	0.4917599
35	0xbe17ecd5	-0.14836438
36	0x3d41fa1a	0.047357656
37	0xbe9ff571	-0.31241944
38	0x3eecfee7	0.46288225
39	0xbe17c9c6	-0.14823064
40	0x3e59922d	0.21247168
41	0x3db24f4c	0.08706531
42	0xbd9b7bb3	-0.07591953
43	0xbf203c0d	-0.6259163
44	0xbe0122ee	-0.12610981
45	0xbf116ffa	-0.5681149
46	0xbe1cc271	-0.15308549
47	0xbf27cfe2	-0.6555158
48	0xbf5b4415	-0.8565076
49	0xbec31e38	-0.38108993
50	0x3ee20bea	0.44149715
51	0xbc44575d	-0.01198372
52	0xbdbb8db7	-0.09157889
53	0xbf5523df	-0.8325786
54	0xbd865c31	-0.06560553
55	0x3e5b0838	0.21389854
56	0x3eb671f7	0.35633823
57	0xbe989bdd	-0.29806414
58	0xbd649320	-0.05580437
59	0x3e33dd7e	0.17564961
60	0x3e3b71ed	0.18305178
61	0xbf3367e5	-0.70080405
62	0xbdc11977	-0.09428685
63	0x3d467716	0.048453413
64	0x3e5bf48c	0.21480006
65	0xbec875cf	-0.3915238
66	0xbd6c5726	-0.0577003
67	0x3d66848d	0.056278754
68	0x3e97bc1c	0.29635704
69	0xbed5ca94	-0.41756117
70	0x3d09457c	0.03351353
71	0x3f9ef530	1.2418575
72	0x3cba48d1	0.0227398
73	0xbe321630	-0.17391276
74	0x3da7a156	0.08185069
75	0x3f9a6f43	1.2065204
76	0x3e857cff	0.26071927
77	0xbf342d77	-0.70381874
78	0x3db0375b	0.08604308
79	0xbe1edd3f	-0.15514086
80	0xbeac17d1	-0.3361192
81	0xbe959869	-0.29217842
82	0x3c9e017c	0.019287817
83	0xbe34b21e	-0.17646071
84	0x3eb1ea1b	0.3474892
85	0xbf58804f	-0.84570783
86	0x3d0db5fb	0.03459738
87	0xbf14854b	-0.5801589
88	0xbe571304	-0.21003348
89	0xbeb69acc	-0.35664976
90	0x3d581c7d	0.052761544
91	0xbf15d924	-0.58534455
92	0x3e584dc0	0.2112341
93	0xbf68e98d	-0.9098137
94	0xbe0c4eb7	-0.13701902
95	0xbd73e8f4	-0.059548333
96	0xbd510715	-0.051032145
97	0xbe8cc1c3	-0.27491578
98	0xbe0b108f	-0.13580535
99	0x3d3b4ec2	0.045729406
100	0xbe5a8b95	-0.21342309
101	0x3e57496e	0.21024105
102	0xbe73a955	-0.23795064
103	0x3ea2fb9a	0.31832582
104	0x3ddcb601	0.10776902
105	0xbf2563c8	-0.6460538
106	0x3e3c8092	0.1840842
107	0xbecb71e7	-0.39735338
108	0x3dc8f5bd	0.09812496
109	0x3e2e0608	0.16994488
110	0x3df5f377	0.12009328
111	0xbede50b0	-0.43420935
112	0x3e92794d	0.2860817
113	0xbf56bb82	-0.83879864
114	0x3d1029fb	0.035196286
115	0x3ef8ffab	0.4863256
116	0x3e7537f9	0.23947133
117	0xbcde4efd	-0.027137274
118	0x3d9b3801	0.07579041
119	0x3ed1a844	0.4094869
120	0x3e6fd4e8	0.23421061
121	0xbf545550	-0.82942677
122	0xbea9dceb	-0.3317636
123	0x3ed54723	0.41655836
124	0x3eed8ed6	0.46398038
125	0x3d28a568	0.04117337
126	0xbea8de4c	-0.329821
127	0x3ef27904	0.47357953
128	0x3eae313e	0.34021944
129	0x3f0fecd3	0.5622074
130	0xbd424f38	-0.04743883
131	0xbe8f1230	-0.27943563
132	0x3bf1c2f8	0.0073779784
133	0x3e27caa2	0.16385892
134	0xbda1f7be	-0.07908581
135	0xbea4744d	-0.3211998
136	0x3e9ab719	0.30217817
137	0x3f4f6df7	0.8102717
138	0xbe7e7868	-0.24850619
139	0xbd0fad16	-0.035077177
140	0xbe84e3f6	-0.2595517
141	0xbd0028b1	-0.031288806
142	0xbe39bf75	-0.18139441
143	0x3bdf8fe0	0.006822571
144	0x3e9dac7c	0.30795658
145	0x3f5087f9	0.8145748
146	0xbc5c4677	-0.0134445345
147	0x3e40d2ce	0.18830416
148	0xbef1fcdc	-0.4726323
149	0x3dce100a	0.10061653
150	0x3be7f744	0.007079037
151	0x3e812545	0.25223747
152	0x3ecefd5f	0.40427682
153	0xbf64da20	-0.8939533
154	0xbf97433d	-1.1817394
155	0xbf38c24e	-0.72171485
156	0x3da35b2d	0.07976375
157	0xbf87b4d6	-1.0602062
158	0xbdfa8ee4	-0.122342855
159	0x3e24ed1c	0.16106075
160	0xbecbc118	-0.39795756
161	0xbef0d0bd	-0.47034255
162	0xbd8a3519	-0.06748409
163	0x3e6ffc06	0.23435983
164	0x3da0e7b1	0.07856692
165	0xbf8aa547	-1.0831689
166	0xbe13b4e9	-0.1442448
167	0xbdcf6bcc	-0.101279825
168	0xbe9a8300	-0.3017807
169	0xbc87cc18	-0.016576812
170	0xbd4f425f	-0.050600406
171	0xbe530223	-0.20606284
172	0x3ed47b74	0.41500437
173	0xbf8ad4fc	-1.0846248
174	0x3e1b30e7	0.15155374
175	0x3d07b75f	0.03313386
176	0xbebfc896	-0.37457722
177	0x3eea2812	0.45733696
178	0x3da9cbc4	0.08290818
179	0xbcce71aa	-0.025200684
180	0x3ec6eea2	0.38853937
181	0xbe5e8d0d	-0.21733494
182	0x3e0a2424	0.13490349
183	0xbeceb964	-0.40375817
184	0x3ed60024	0.41796982
185	0xbf1218fe	-0.57069385
186	0x3cbdc9af	0.02316746
187	0xbed07279	-0.40712336
188	0x3e9a64f1	0.30155137
189	0xbf089fa5	-0.533686
190	0x3d6978a9	0.056999836
191	0xbd213dd1	-0.039365593
192	0x3e9a4487	0.30130407
193	0xbc61be07	-0.013778216
194	0x3e1d5113	0.15362959
195	0xbd786681	-0.06064463
196	0x3e618431	0.22023083
197	0xbe7b0df4	-0.24517041
198	0xbe5dd244	-0.21662241
199	0x3ea5b076	0.32361192
200	0x3ec1353b	0.37735924
201	0x3eebbd80	0.46043015
202	0xbe979160	-0.296031
203	0x3ea761c4	0.32691777
204	0xbf8d9134	-1.1059937
205	0x3e9d5f5b	0.30736813
206	0xbf8f340a	-1.1187756
207	0x3f83725c	1.0269275
208	0x3eea3c9d	0.4574937
209	0xbf57c56f	-0.84285635
210	0xbca9a73f	-0.020709632
211	0x3e4cbde8	0.19994318
212	0xbef3fef2	-0.47655445
213	0xbef6b9b0	-0.48188543
214	0x3cecee62	0.028922264
215	0x3e1ac3d9	0.15113772
216	0x3f446d0c	0.7672889
217	0xbf2ae8de	-0.6676158
218	0x3d919fef	0.07110583
219	0x3f0dad87	0.55342907
220	0xbedfa47f	-0.43680188
221	0xbe950b37	-0.2911012
222	0x3dc23ef7	0.09484666
223	0x3f06d1c5	0.5266383
224	0x3f309656	0.68979394
225	0xbf06dccf	-0.5268068
226	0x3d8bd73d	0.06828163
227	0x3f07658d	0.5288933
228	0xbe671c3f	-0.22569369
229	0xbdeb0be6	-0.11476879
230	0x3d6ab7c0	0.057304144
231	0x3f08d7ff	0.53454584
232	0xbd1ab405	-0.037769336
233	0xbf040358	-0.515676
234	0x3cf68361	0.030091943
235	0x3d3a2e45	0.045454282
236	0x3f0b1cad	0.5434063
237	0xbf0930fe	-0.5359038
238	0xbba29b20	-0.00496234
239	0x3d8f7f9a	0.0700676
240	0x3dc5b383	0.0965338
241	0xbec05d8d	-0.37571374
242	0xbce8ef70	-0.028434485
243	0x3e73cd6c	0.23808831
244	0x3ed4cec7	0.4156401
245	0xbeb85ae1	-0.36006835
246	0xbc542b7c	-0.012949821
247	0x3e86f5d8	0.2635944
248	0x3f01f176	0.50759065
249	0xbeaeead1	-0.34163526
250	0xbd828588	-0.06373125
251	0xbdbf7548	-0.093485415
252	0x3e350e29	0.17681183
253	0xbdd747b3	-0.105117224
254	0xbd893981	-0.06700421
255	0xbdbc1a68	-0.09184724

fc1.bias f4 [300]
0	0xbe97a353	-0.29616794
1	0xbea1a994	-0.3157469
2	0xbed20356	-0.4101817
3	0xbf031e74	-0.5121834
4	0xbf17f448	-0.5935712
5	0xbecfede4	-0.40611184
6	0xbc68eaba	-0.014216119
7	0x3d5f7880	0.054558277
8	0xbfb1bfa0	-1.3886604
9	0xbea43d11	-0.3207784
10	0xbe0701b5	-0.13184245
11	0xbed35dd4	-0.41282523
12	0xbf1d5d14	-0.6147015
13	0xbf2eb4c8	-0.682446
14	0x3ea31bf4	0.31857264
15	0xbf85efbb	-1.0463785
16	0xbe4b67f1	-0.19863869
17	0xbf5ed16e	-0.87038314
18	0x3ea26d36	0.31723946
19	0xbf15b4f7	-0.58479255
20	0xbecf6864	-0.4050933
21	0xbef32b1f	-0.47493836
22	0xbee841f6	-0.45362824
23	0x3e68cac0	0.22733593
24	0xbf445637	-0.76694053
25	0xbe6c89e7	-0.2309948
26	0xbe946523	-0.2898341
27	0xbf373d2a	-0.71577704
28	0xbe128970	-0.14310241
29	0xbf002406	-0.5005497
30	0x3e4bee1a	0.19915047
31	0x3df80077	0.12109464
32	0xbe87460f	-0.26420638
33	0xbe5682e6	-0.20948371
34	0xbe941184	-0.28919613
35	0xbf016d81	-0.50557715
36	0xbf7945a1	-0.9737187
37	0xbed5118a	-0.41614944
38	0xbf485743	-0.7825815
39	0xbf1f0ad6	-0.6212591
40	0xbe2cb853	-0.16867189
41	0xbe2f7eea	-0.17138258
42	0x3e6f9b21	0.2339902
43	0xbeba2ef8	-0.3636396
44	0xbf017dee	-0.5058278
45	0x3ddd792b	0.108141266
46	0xbe02487e	-0.12722966
47	0x3e29a35f	0.16566227
48	0xbeae9d96	-0.34104604
49	0xbe840ca1	-0.25790885
50	0x3dae6501	0.08515359
51	0xbf9da6c4	-1.2316518
52	0xbec2c2ca	-0.38039237
53	0xbf27a814	-0.6549084
54	0xbf1557bd	-0.58337003
55	0x3e702317	0.23450886
56	0xbef52b0d	-0.47884408
57	0xbe48a178	-0.19592845
58	0xbfa2d9eb	-1.2722753
59	0xbe67de89	-0.22643484
60	0xbeb8671f	-0.36016175
61	0xbd95fca6	-0.073235795
62	0x3e47cb53	0.19511156
63	0xbe214ee9	-0.15752758
64	0x3da3b414	0.079933316
65	0xbe89ac17	-0.26889107
66	0xbc48bc46	-0.012251919
67	0xbe9f64a8	-0.31131482
68	0xbe0f1464	-0.13972622
69	0xbf0ce3ac	-0.550349
70	0xbec7feb0	-0.390615
71	0xbf7740b2	-0.9658309
72	0xbf15fc53	-0.5858814
73	0xbe2ad502	-0.16682819
74	0xbefaa92e	-0.489572
75	0xbe61d803	-0.22055058
76	0xbf021ed9	-0.5082832
77	0x3cfc4cf1	0.030798407
78	0xbf132bc2	-0.57488644
79	0xbf5027ac	-0.81310534
80	0xbecd0342	-0.40041548
81	0xbf60c368	-0.87798166
82	0xbf1965a3	-0.5992071
83	0xbec285a6	-0.3799259
84	0x3d9b952f	0.07596814
85	0xbf4f8b7d	-0.8107222
86	0xbf2f7162	-0.68532383
87	0xbe332f28	-0.17498457
88	0xbd5907c9	-0.05298594
89	0xbe9f2f3a	-0.31090719
90	0xbe4208ef	-0.1894872
91	0xbe3a7141	-0.18207265
92	0xbeb0b2c4	-0.34511387
93	0x3e9a3f3f	0.30126378
94	0xbe6cee0c	-0.23137683
95	0xbfbeb830	-1.489996
96	0xbe1a4151	-0.15063979
97	0xbf43f325	-0.76542884
98	0xbe46aaa4	-0.19401032
99	0xbe9ac543	-0.30228624
100	0xbe8bee7c	-0.27330387
101	0xbe759e6d	-0.23986216
102	0x3c9aaa5d	0.018880064
103	0x3e02fb00	0.12791061
104	0xbef6d4ac	-0.4820913
105	0xbf02eb75	-0.5114053
106	0xbf14d5b1	-0.5813857
107	0xbf165943	-0.5872995
108	0x3d8b6c98	0.06807822
109	0xbe547fbc	-0.20751852
110	0xbeae20ed	-0.34009495
111	0xbd5abe55	-0.05340417
112	0x3d2ccf50	0.042189896
113	0x3c93c532	0.018038366
114	0xbf8d0227	-1.1016282
115	0xbc3aab39	-0.011393362
116	0xbdefae11	-0.117031224
117	0x3c17dfa9	0.009269633
118	0xbebf92d6	-0.37416714
119	0xbf37a8d8	-0.7174201
120	0xbf240a5d	-0.64078313
121	0xbde22fa1	-0.11044241
122	0xbdced59f	-0.10099339
123	0x3d55adff	0.05216789
124	0x3ab14778	0.0013525328
125	0xbf4024a3	-0.75055903
126	0xbf7677e5	-0.96276695
127	0xbe62535d	-0.22102113
128	0xbeb36bfd	-0.35043326
129	0xbf961c65	-1.1727415
130	0xbea8ec98	-0.32993007
131	0xbeb4dd4d	-0.3532509
132	0xbf691988	-0.9105458
133	0x3b86603e	0.0041008284
134	0xbf4c6120	-0.798357
135	0xbe90765f	-0.2821531
136	0xbf80f768	-1.0075502
137	0xbeb3431b	-0.35012135
138	0xbe1b53f9	-0.15168752
139	0x3d6ffa47	0.058588292
140	0xbf6e3d95	-0.93062717
141	0xbe7fd7cf	-0.24984668
142	0xbe4fc4bd	-0.20289893
143	0xbf070fd8	-0.5275855
144	0x3de7ef52	0.113249436
145	0xbe9eac03	-0.3099061
146	0x3e514439	0.20436181
147	0xbe114f96	-0.14190516
148	0xbda7e01a	-0.08197041
149	0xbf2fce2e	-0.6867398
150	0x3cd08e09	0.025458353
151	0xbf219dd1	-0.63131434
152	0xbda98ec2	-0.08279182
153	0xbe0b42da	-0.1359972
154	0xbf1b2276	-0.6059946
155	0xbebe5973	-0.3717762
156	0xbb998dca	-0.004686092
157	0xbf018930	-0.50599957
158	0xbf03c2cc	-0.5146911
159	0xbf13eba6	-0.57781446
160	0xbef10984	-0.47077572
161	0xbec5b28a	-0.38612777
162	0x3a972f09	0.0011534403
163	0x3dff4da6	0.12465982
164	0xbe64547f	-0.22297858
165	0xbf41cd0b	-0.75703496
166	0xbe988273	-0.29787025
167	0xbeb7ab52	-0.35872895
168	0xbe80c251	-0.25148252
169	0xbe81f367	-0.25381014
170	0xbf01196d	-0.5042942
171	0xbeeff2c3	-0.468649
172	0xbed349da	-0.41267282
173	0xbf64ae21	-0.893282
174	0xbedb22e1	-0.42800048
175	0x3c0b336a	0.008496145
176	0xbea8f576	-0.32999772
177	0xbe92a3d9	-0.2864063
178	0xbe56819a	-0.20947877
179	0xbed5dcc1	-0.41769984
180	0xbea54dcd	-0.3228592
181	0xbdd541da	-0.10412951
182	0xbe898d30	-0.2686553
183	0x3b736c3e	0.0037143375
184	0xbe0c068b	-0.13674371
185	0xbee1c57a	-0.44095975
186	0xbe095cea	-0.1341435
187	0xbe8d6e91	-0.27623418
188	0xbf5c1cb1	-0.8598128
189	0xbea52814	-0.3225714
190	0xbf05ecd9	-0.52314526
191	0xbe346879	-0.17617978
192	0xbe127084	-0.14300734
193	0xbf8209ef	-1.0159281
194	0xbe38f0d6	-0.18060622
195	0x3db3894a	0.0876642
196	0x3cfbd0c5	0.030739198
197	0x3e96d3a4	0.29458344
198	0xbdc2f0e5	-0.09518603
199	0xbe0d22ca	-0.13782802
200	0xbe85af02	-0.26110083
201	0xbef09759	-0.4699047
202	0xbec13e3f	-0.37742803
203	0x3e6abd7e	0.22923848
204	0xbe1bcb70	-0.15214324
205	0xbd2b4bf7	-0.041820493
206	0xbe99f606	-0.30070513
207	0xbee36790	-0.4441495
208	0xbf57853c	-0.84187675
209	0xbe4f3265	-0.20234068
210	0xbeeebc31	-0.46627954
211	0x3e411e76	0.18859276
212	0xbcd8863d	-0.026431197
213	0xbf0c4aa1	-0.54801375
214	0xbf730685	-0.94931823
215	0xbf4bb726	-0.7957634
216	0xbf776bdf	-0.96648973
217	0xbe6a3a57	-0.22873817
218	0xbf150fb2	-0.58227074
219	0xbe2b7cf6	-0.16746888
220	0x3e127b8d	0.14304943
221	0xbfa9620f	-1.323305
222	0xbf0f117e	-0.55886066
223	0xbf91b2a0	-1.1382637
224	0xbf2a396b	-0.6649386
225	0xbf3d2a2b	-0.7389247
226	0xbf146fb4	-0.57982945
227	0xbe211379	-0.15730084
228	0xbee05ebe	-0.43822283
229	0xbe5e8173	-0.21729068
230	0xbf0bb378	-0.5457072
231	0xbc1a08b3	-0.009401488
232	0xbe0ab65a	-0.13546124
233	0xbeb89456	-0.3605067
234	0xbf0a6486	-0.54059637
235	0xbecd20f9	-0.4006422
236	0xbea3c569	-0.3198655
237	0xbdc06324	-0.093939096
238	0x3c8c3117	0.017113252
239	0xbe9c8649	-0.305712
240	0xbe4eb1b2	-0.20184973
241	0xbe8fe712	-0.2810598
242	0xbec1b998	-0.3783691
243	0x3d9b7300	0.07590294
244	0x3dfd9781	0.12382413
245	0xbf4e7b8b	-0.8065726
246	0xbdaacb9c	-0.08339617
247	0xbd41b2ad	-0.04728954
248	0xbe9076c8	-0.28215623
249	0xbe2fca89	-0.17167105
250	0xbe66dcc0	-0.22545147
251	0xbef71a95	-0.48262468
252	0xbf51c3db	-0.81939477
253	0xbdb1138b	-0.08646306
254	0x3dc4e5fc	0.096141785
255	0xbe1b9964	-0.15195233

fc2.weight f4 [400, 300]
0	0xbd82848a	-0.06372936
1	0x3c3b8e4a	0.011447499
2	0x3b9c61b8	0.004772391
3	0xbe5a41c4	-0.2131415
4	0x3c84b70c	0.016200565
5	0xbd198f0d	-0.03748994
6	0x3cb9ec51	0.022695692
7	0x3b63715c	0.0034705019
8	0xbd6a3ba9	-0.057185803
9	0xbe02da7b	-0.12778656
10	0x3e51299d	0.2042603
11	0x3cfc48d1	0.03079644
12	0xbd1a890f	-0.037728366
13	0xbd88dd8f	-0.06682884
14	0x3d1f578a	0.038901843
15	0xbaccf760	-0.0015637688
16	0xbd52a485	-0.05142643
17	0xbaa863fa	-0.0012847178
18	0xbd88cdef	-0.06679904
19	0xbc940511	-0.018068822
20	0xbcf38a81	-0.02972913
21	0x3c8f1f24	0.017470904
22	0x3e394841	0.18093969
23	0x3daf2e48	0.08553749
24	0x3bfb9520	0.007677689
25	0xbe024609	-0.12722029
26	0x3d8829df	0.06648611
27	0xbd96fecb	-0.07372817
28	0x3d2942a3	0.041323315
29	0xbe21729d	-0.15766378
30	0x3c6c377c	0.014417525
31	0xbd9e9439	-0.07743115
32	0xbc1d28f0	-0.00959228
33	0x3cb7d527	0.022440506
34	0xbd5538af	-0.05205601
35	0xbd9d82c8	-0.0769096
36	0xbc6f9e96	-0.014625212
37	0xbd7065cf	-0.058690842
38	0xbd857675	-0.065167345
39	0x3c907eb6	0.017638545
40	0xbddaa754	-0.106764466
41	0xbc98df45	-0.01866115
42	0xbbffbf8b	-0.007804816
43	0xbd34eb0d	-0.044169474
44	0xbd2b1b4d	-0.041774083
45	0xbc971253	-0.018441355
46	0xbd07acde	-0.033123843
47	0xbd8df644	-0.06931737
48	0xbcb9c929	-0.022678928
49	0xbe21a17d	-0.15784259
50	0xbdeed75e	-0.11662172
51	0xbde78c28	-0.113060296
52	0xbdd7d4aa	-0.10538609
53	0x3d2c9a1d	0.04213916
54	0xbdc9ee07	-0.09859853
55	0xbc576f1a	-0.013149047
56	0x3c2268b5	0.009912659
57	0xbe1879b4	-0.14890176
58	0xbde65b76	-0.112479135
59	0xbc3548cc	-0.011064719
60	0x3d5d7616	0.054067694
61	0xbdc55a22	-0.09636332
62	0x3bf8512e	0.0075780367
63	0xbce5af96	-0.028037827
64	0xbc950eb1	-0.018195482
65	0x3dc2be28	0.09508926
66	0xbd297183	-0.04136802
67	0xbdbd72ac	-0.092503875
68	0xbd2b2aed	-0.041788984
69	0x3d698be2	0.05701817
70	0xbde59825	-0.1121066
71	0xbd764d8b	-0.060132544
72	0xbd63ea74	-0.055643514
73	0xbcfe311b	-0.031029275
74	0xbd5c2df5	-0.053754766
75	0x3d456dab	0.04820029
76	0xbe0b2782	-0.1358929
77	0x3d3c037b	0.045901757
78	0xbc700426	-0.014649427
79	0x3c84d265	0.016213605
80	0xbd46d124	-0.048539296
81	0xbe06745d	-0.13130327
82	0x3d136cb8	0.035992354
83	0xbdf02f1e	-0.11727737
84	0x3d9b3cbe	0.07579945
85	0xbdbc0b4a	-0.09181841
86	0x3c6fe8cf	0.014642908
87	0x3d090c70	0.033459127
88	0xbd0fde8d	-0.03512435
89	0x3c2c0995	0.010500331
90	0x3c6aef5b	0.014339293
91	0xbd79723f	-0.06089997
92	0xbd3c4db2	-0.045972534
93	0xbd84323c	-0.06454894
94	0xbd45ac2a	-0.04825989
95	0xbdd607b9	-0.10450692
96	0xbdea7a29	-0.114490815
97	0xbae78458	-0.0017663343
98	0xbc5e0e70	-0.013553247
99	0xbcb6f67e	-0.022334334
100	0xbcb4375d	-0.021999056
101	0xbd823669	-0.06358034
102	0xbd85a93c	-0.065264195
103	0xbdf8d215	-0.12149445
104	0xbe2e20be	-0.17004678
105	0xbd7e9a92	-0.06215913
106	0xbe93e9b8	-0.2888925
107	0x3cd2f68f	0.025752334
108	0x3c10b17f	0.008831381
109	0xbcb2cc13	-0.021825826
110	0xbe3d20a4	-0.18469483
111	0xbdd6cb09	-0.10487945
112	0x3ce25c03	0.027631765
113	0x3bfea262	0.0077708224
114	0xbd7ddb2b	-0.061976593
115	0xbdee6de6	-0.11642055
116	0xbbd1e136	-0.006405021
117	0xbdc663c4	-0.096869975
118	0x3b740b6a	0.0037238249
119	0xbd34104b	-0.04396085
120	0xbd1be89f	-0.03806364
121	0xbdeae78a	-0.11469944
122	0xbadafd44	-0.0016707559
123	0xbdad49e7	-0.084613614
124	0xbe6fb607	-0.23409282
125	0xbda4974f	-0.08036672
126	0xbca431be	-0.02004325
127	0x3b35b62e	0.0027726996
128	0x3cda6cbc	0.026663177
129	0x3db400ac	0.08789191
130	0xbd37737e	-0.044787876
131	0xbcf87455	-0.030328909
132	0xbd9cc361	-0.07654453
133	0xba66019f	-0.0008774045
134	0x3c7547d3	0.0149707375
135	0xbe1072fd	-0.14106365
136	0xb914e351	-0.00014199062
137	0xbd46f063	-0.048569094
138	0xbdcc14d1	-0.09964908
139	0x3e0ee48d	0.13954373
140	0xbc78d215	-0.015186806
141	0xbdc8fbd5	-0.09813658
142	0xbc02a3cb	-0.007973622
143	0x3c9eced2	0.019385729
144	0xbc9a719e	-0.018853005
145	0x3d1b63d0	0.037936985
146	0xbd31e982	-0.04343558
147	0xbd0df644	-0.034658685
148	0x3dbc325b	0.09189292
149	0xbba63178	-0.005071815
150	0xbdfb2f8f	-0.122649305
151	0xbd0e8ab4	-0.034800246
152	0x3cd3832e	0.025819387
153	0xbc727cf8	-0.014800303
154	0xbd6fb21e	-0.058519475
155	0xbd05b4f4	-0.032643273
156	0xbb2da3bf	-0.0026495305
157	0xbd6e5a5e	-0.05819165
158	0xbcfa9b1f	-0.030591546
159	0x3d84035b	0.064459525
160	0xbe65da8d	-0.22446652
161	0x3c190e25	0.009341751
162	0x3e04b324	0.12958962
163	0xbc4f29e2	-0.012644263
164	0x3cf99567	0.030466748
165	0xbdb0fb39	-0.08641667
166	0xbcef351e	-0.029200133
167	0x3d543ac7	0.051813867
168	0xbd89a4c8	-0.06720883
169	0x3a474655	0.0007601728
170	0x3db2dbb2	0.0873331
171	0xbdcd8bd2	-0.10036434
172	0xbe03dc4c	-0.12877005
173	0xbd83b53b	-0.06431051
174	0xbca402df	-0.0200209
175	0xbdb97b08	-0.090566695
176	0x3d2d365f	0.04228818
177	0xbe62504a	-0.2210094
178	0xbcd7a1e2	-0.026322309
179	0x3cab9464	0.020944782
180	0xbc3888d7	-0.011263094
181	0xbd12769f	-0.035757657
182	0xbe0dee74	-0.13860494
183	0xbc9827ad	-0.018573606
184	0xbd17fcb4	-0.03710623
185	0xbd4cff30	-0.050048053
186	0xbd47a415	-0.048740465
187	0x3cb78aef	0.022405116
188	0xbda14b8d	-0.07875738
189	0xbd5753c2	-0.052570112
190	0xbd026d1a	-0.03184233
191	0xbe436621	-0.19081928
192	0x3d0b0459	0.033939693
193	0x3d3e35fc	0.046438202
194	0x3b07956f	0.0020688435
195	0xbdce6e62	-0.100796476
196	0x3d1940ee	0.037415437
197	0xbe7a8f67	-0.24468766
198	0xbdb865af	-0.090037696
199	0xbc325acb	-0.010885905
200	0xbe07a8f7	-0.13248049
201	0xbd9ef5e2	-0.07761742
202	0xbbced3f2	-0.006311887
203	0x3ca4c247	0.02011217
204	0xbd8f9455	-0.07010714
205	0x3b42dd69	0.0029734022
206	0xbd564a21	-0.05231679
207	0x3d9312e1	0.07181335
208	0xbe191dc5	-0.14952762
209	0xbcbb76da	-0.022883821
210	0xbe1a237f	-0.15052603
211	0xbd909626	-0.070598885
212	0xbd1b4877	-0.037910905
213	0x3de4e08d	0.11175642
214	0x3d4b788f	0.04967552
215	0x3d3fb8b6	0.046807013
216	0xbd6774b7	-0.056507792
217	0x3d1dffca	0.038574018
218	0x3bc4e10b	0.0060082725
219	0x3d1ba24f	0.037996586
220	0x3d47985d	0.04872929
221	0xbd829fe2	-0.063781515
222	0x3d75ebe4	0.060039416
223	0x3d0a5c60	0.033779502
224	0xbcadda6e	-0.02122232
225	0xbd3a51e2	-0.045488246
226	0xbd80e290	-0.06293213
227	0xbdb3f4f3	-0.08786955
228	0x3d712d07	0.058880832
229	0xbb2e4fa0	-0.0026597753
230	0xbd9bc95f	-0.07606768
231	0xbd971a23	-0.07378032
232	0xbdffa434	-0.12482491
233	0x3ddf4309	0.10901458
234	0xbd337bdb	-0.04381929
235	0x3c6359ec	0.0138764195
236	0x3bf60f0b	0.0075091175
237	0xbdf1bd90	-0.11803734
238	0xbdc35680	-0.09537983
239	0xbd4d7849	-0.05016354
240	0xbd1b6f87	-0.037948158
241	0xbc465bf4	-0.012106884
242	0x3cb08220	0.021546423
243	0xbd54a828	-0.05191818
244	0xbda3fef7	-0.08007615
245	0xbd626f8c	-0.05528216
246	0xbd112e7f	-0.035444733
247	0xbd11ab7f	-0.035563942
248	0xbcc108a6	-0.023563694
249	0x3c98eee6	0.018668603
250	0x3d1ea7c1	0.0387342
251	0xbc8c7b5a	-0.017148662
252	0x3db3934c	0.08768329
253	0x3cb5b62d	0.022181595
254	0xbd8f6574	-0.070017725
255	0x3d0a8759	0.033820484

fc2.bias f4 [400]
0	0xbe18a0c5	-0.14905079
1	0xbe86ce3b	-0.26329216
2	0xbd9e7151	-0.07736457
3	0xbe34cfb5	-0.17657359
4	0xbdf9acd7	-0.1219117
5	0xbdfa4148	-0.12219483
6	0xbe0a1229	-0.1348349
7	0xbd66ad7f	-0.056317803
8	0xbe009089	-0.12555136
9	0xbdc49aba	-0.09599824
10	0xbe2dc6e7	-0.16970406
11	0xbe0bdbd6	-0.1365808
12	0xbde9fbad	-0.114249565
13	0xbdd01747	-0.1016069
14	0xbdfec58b	-0.12440022
15	0xbdbe2275	-0.09283916
16	0xbe603747	-0.21896087
17	0xbd73c6a2	-0.059515603
18	0xbdbc0f33	-0.091825865
19	0xbd056eb9	-0.032576296
20	0xbdd82e83	-0.105557464
21	0x3ab3f478	0.0013729474
22	0xbe2bad37	-0.16765295
23	0xbda575e4	-0.080791265
24	0xbe11381f	-0.14181565
25	0xbe39d8c9	-0.18149103
26	0xbe09abe9	-0.13444485
27	0xbda654a1	-0.081216104
28	0xbe1cee59	-0.15325297
29	0xbe241105	-0.16022117
30	0xbe46de95	-0.19420846
31	0xbe0497cc	-0.12948531
32	0xbe10e447	-0.14149581
33	0xbdd0b855	-0.101914085
34	0xbe582611	-0.21108271
35	0xbe257eac	-0.16161603
36	0xbdaf3cda	-0.085565284
37	0xbe46ea11	-0.19425227
38	0xbdfd46ba	-0.12367006
39	0xbe2e7a98	-0.17038953
40	0xbe889d19	-0.26682356
41	0xbddea060	-0.10870433
42	0xbe14f742	-0.14547446
43	0xbe01eb6e	-0.12687466
44	0xbdd04af4	-0.10170546
45	0xbe0b6b4b	-0.13615148
46	0xbdec5692	-0.115399495
47	0xbea5c1e0	-0.32374477
48	0xbe146daf	-0.14494966
49	0xbdece35c	-0.11566803
50	0xbdb21c4b	-0.08696803
51	0xbd08397f	-0.033257958
52	0xbe50caf4	-0.2038992
53	0xbe0e9a55	-0.1392606
54	0xbdce0638	-0.1005978
55	0xbdeedf2e	-0.11663662
56	0xbde06fd2	-0.10958828
57	0xbe14c092	-0.14526585
58	0xbe3c3e13	-0.18383054
59	0xbe270ed6	-0.16314253
60	0xbdc25c80	-0.09490299
61	0xbe4adfdc	-0.19811958
62	0xbd8c4893	-0.0684978
63	0xbe0dd31c	-0.13850063
64	0xbe3548cd	-0.17703553
65	0xbe1e3a1e	-0.15451857
66	0xbd8780e8	-0.06616384
67	0xbdedd2d1	-0.11612476
68	0xbe43d66a	-0.19124761
69	0xbe3c613b	-0.18396465
70	0xba29a02e	-0.0006470707
71	0xbe355a9c	-0.17710346
72	0xbe22e5b5	-0.15907939
73	0xbdf6749c	-0.1203396
74	0xbe4a5397	-0.1975845
75	0xbdd41f6f	-0.10357558
76	0xbddd6ba4	-0.108115464
77	0xbdee3f98	-0.11633223
78	0xbe251c38	-0.16124046
79	0xbe062256	-0.13099036
80	0xbe0d5dec	-0.1380536
81	0xbdbf66ae	-0.093457565
82	0xbdf5de19	-0.120052524
83	0xbd68fc1a	-0.056881048
84	0xbdaa408c	-0.083130926
85	0xbcc64d18	-0.024206683
86	0xbe0e3c95	-0.13890298
87	0xbd903096	-0.07040517
88	0xbe13267c	-0.1437015
89	0xbe34bd35	-0.17650302
90	0xbe42166c	-0.18953866
91	0xbdfa7fc8	-0.122314036
92	0xbdba4dfa	-0.09096904
93	0xbe350e35	-0.17681201
94	0xbdb9a4d3	-0.09064641
95	0xbe32e383	-0.17469601
96	0xbd4cbcbd	-0.049984682
97	0xbde92e21	-0.113857515
98	0xbe094da7	-0.13408528
99	0xbdca383f	-0.09874009
100	0xbdec27dc	-0.1153104
101	0xbd992596	-0.07477872
102	0xbe0c770f	-0.13717292
103	0xbdaf6110	-0.08563435
104	0xbd9fe42b	-0.078071915
105	0xbeee4f98	-0.465451
106	0xbe0b17e2	-0.1358333
107	0xbe38561d	-0.180016
108	0xbe766f7b	-0.24065964
109	0xbdc3bc12	-0.09557356
110	0xbebc9de9	-0.36839226
111	0xbe76361c	-0.24044079
112	0xbe0054fe	-0.12532422
113	0xbe37737f	-0.17915152
114	0xbdae936a	-0.08524211
115	0xbc101c4a	-0.008795807
116	0xbd9d34a9	-0.0767606
117	0xbdd920b4	-0.10601941
118	0xbdfffa24	-0.124988824
119	0xbe0c9a9b	-0.13730852
120	0xbd8cd533	-0.06876602
121	0xbde6076f	-0.112318866
122	0xbe3ffa1a	-0.1874775
123	0xbe016f32	-0.12640074
124	0xbdabd6cd	-0.083905794
125	0xbe19c68c	-0.15017146
126	0xbe3af46c	-0.18257302
127	0xbe07280f	-0.13198875
128	0xbe1ff894	-0.15622169
129	0xbe2b9c35	-0.16758807
130	0xbd9e367a	-0.07725234
131	0xbd840f14	-0.064481884
132	0xbdba8892	-0.0910808
133	0xbe2da04e	-0.16955683
134	0xbddf57a1	-0.10905386
135	0xbdbc909d	-0.0920727
136	0xbe21c88d	-0.1579916
137	0xbdfd42d2	-0.123662606
138	0xbe56cb0a	-0.20975891
139	0xbe0061a9	-0.12537254
140	0xbe460604	-0.19338232
141	0xbe1f113b	-0.15533917
142	0xbe457791	-0.19283892
143	0xbe5311e7	-0.20612298
144	0xbd76edb5	-0.06028529
145	0xbdc5469b	-0.096326075
146	0xbdecfacc	-0.11571273
147	0xbe3f2ffe	-0.18670651
148	0xbe1758a4	-0.14779907
149	0xbe16c04c	-0.14721793
150	0xbde95919	-0.11393947
151	0xbdfc6429	-0.123237915
152	0xbdbfcc3e	-0.09365128
153	0xbd01c13a	-0.031678416
154	0xbe867a1d	-0.2626504
155	0xbe8b1bca	-0.2716964
156	0xbe069f56	-0.1314672
157	0xbdd0f2ed	-0.102025844
158	0xbe08c620	-0.13356829
159	0xbe0a6c01	-0.13517763
160	0xbe1b11c7	-0.151435
161	0xbe25cfd0	-0.16192555
162	0xbe113e1f	-0.14183854
163	0xbd976b39	-0.07393498
164	0xbd406497	-0.04697093
165	0xbdee4916	-0.11635034
166	0xbdcfa2fc	-0.10138509
167	0xbe096648	-0.13417923
168	0xbe3b5f6b	-0.18298118
169	0xbddace65	-0.10683898
170	0xbdcaf7a8	-0.09910518
171	0xbe2f9f91	-0.17150714
172	0xbded1df5	-0.115779795
173	0xbdf96dad	-0.12179122
174	0xbdc561f3	-0.09637823
175	0xbdf989af	-0.12184464
176	0xbdbea35d	-0.09308503
177	0x3de3c309	0.111211844
178	0xbde901ac	-0.11377272
179	0xbdd02f9c	-0.10165331
180	0xbe1e28ec	-0.15445298
181	0xbe0445c4	-0.12917238
182	0xbdf97d98	-0.12182158
183	0xbe16993c	-0.14706892
184	0xbe05a203	-0.13050084
185	0xbe4fcff0	-0.20294166
186	0xbe1a9c97	-0.15098797
187	0xbde00272	-0.109379664
188	0xbe0be904	-0.13663107
189	0xbdf3a1f2	-0.11896123
190	0xbdfa54bc	-0.12223193
191	0xbe0f4a1d	-0.13993116
192	0xbdd74bf2	-0.10512532
193	0xbdc16e38	-0.09444851
194	0xbda5feb1	-0.08105219
195	0xbec02665	-0.37529293
196	0xbe5fc9d7	-0.2185434
197	0xbe03289b	-0.12808459
198	0xbd55c0b5	-0.052185733
199	0xbd93c691	-0.07215608
200	0xbd9cbf79	-0.07653708
201	0xbdbfb6aa	-0.09361012
202	0xbe613118	-0.21991384
203	0xbe11c30e	-0.14234564
204	0xbdf9fba6	-0.12206201
205	0xbea04a44	-0.3130666
206	0xbdfdc3bb	-0.12390848
207	0xbde28ecc	-0.110623926
208	0xbdcd8bd2	-0.10036434
209	0xbd7c0281	-0.061525825
210	0xbdeecba6	-0.116599366
211	0xbdce08d2	-0.10060276
212	0xbd8b2b6a	-0.0679539
213	0xbde165eb	-0.110057674
214	0xbe005081	-0.1253071
215	0xbdc0128f	-0.0937854
216	0xbe19258b	-0.14955728
217	0xbddeaab0	-0.108724
218	0xbe418d78	-0.18901622
219	0xbd906d34	-0.07052079
220	0xbe568ee9	-0.20952953
221	0xbeb93dc9	-0.3617995
222	0xbe1bfd16	-0.15233263
223	0xbe15d9d3	-0.14633875
224	0xbe3d40e4	-0.18481785
225	0xbdf0eaa0	-0.11763501
226	0xbe3f826f	-0.187021
227	0xbd9fd873	-0.07804956
228	0xbde9fd2a	-0.1142524
229	0xbda143bd	-0.07874248
230	0xbe406497	-0.18788372
231	0xbe3b0d62	-0.18266824
232	0xbe0f230d	-0.13978215
233	0xbe796e2e	-0.24358436
234	0xbe02848b	-0.12745874
235	0xbea636e8	-0.32463765
236	0xbdb38710	-0.087659955
237	0xbda2b6d6	-0.079450294
238	0xbe1ffd80	-0.15624046
239	0xbe08d71b	-0.13363306
240	0xbdac3c5e	-0.084099516
241	0xbe9bfbbb	-0.30465493
242	0xbe16eb44	-0.14738184
243	0xbe183f1d	-0.14867826
244	0xbdc7520d	-0.09732447
245	0xbe1944d6	-0.14967665
246	0xbd7e217b	-0.06204365
247	0xbce7036f	-0.02819988
248	0xbdec5aa4	-0.11540726
249	0x3dcd3c28	0.100212395
250	0xbe295a13	-0.16538267
251	0xbde7ab68	-0.1131199
252	0xbe095fea	-0.13415495
253	0xbdfb23d8	-0.12262696
254	0xbe6c8ea4	-0.23101288
255	0xbe359843	-0.17733864

fc3.weight f4 [1, 400]
0	0xbc0858bf	-0.00832194
1	0x3bb955eb	0.005655994
2	0xbc040b93	-0.0080594
3	0x3b08f500	0.0020897985
4	0x3c9174cf	0.017755894
5	0xbb3a7509	-0.0028451106
6	0xbc0e4465	-0.008683299
7	0xbcbd2c5c	-0.023092441
8	0x3c196416	0.009362241
9	0xbc24ce00	-0.01005888
10	0x3bec9923	0.0072204038
11	0xbc2c5162	-0.01051745
12	0xbc85e0cc	-0.016342543
13	0x3ac8bd88	0.0015315274
14	0x3b62216a	0.003450478
15	0xbc267bb1	-0.010161326
16	0x3d4f1f32	0.05056686
17	0x3cb0bbbb	0.021573892
18	0x3a7ab677	0.00095639325
19	0x3ca72456	0.020403069
20	0xbbbb72f3	-0.00572049
21	0x3cf02d71	0.029318543
22	0xbd00833b	-0.03137515
23	0xba8049ba	-0.0009787597
24	0xbc135d8e	-0.008994473
25	0xbc89cbd9	-0.016820835
26	0x3d1e454f	0.038640317
27	0x3c75632c	0.014977258
28	0xbc831ce3	-0.016004985
29	0xbc544564	-0.012955997
30	0x3d00978e	0.031394534
31	0x3ce35dd3	0.0277547
32	0x3c1489e1	0.009066076
33	0x3c109df7	0.008826724
34	0xbc9dcde2	-0.019263212
35	0xbcd2d968	-0.025738433
36	0x3b43831b	0.0029832784
37	0xbd0bbc63	-0.034115206
38	0xbbdb571e	-0.006693735
39	0xbca57dc7	-0.020201577
40	0xbd769fc3	-0.060210954
41	0xbcbfeede	-0.02342933
42	0x3c9ca808	0.019123092
43	0xbd524e69	-0.05134431
44	0xbbb6a85e	-0.00557427
45	0x3d92bd89	0.07165057
46	0xbc24e88d	-0.01006521
47	0x3d556b94	0.052104548
48	0xbcb3d367	-0.02195139
49	0x3c5abec5	0.013351147
50	0x3c0b90fa	0.008518452
51	0x3cb1418a	0.021637697
52	0x3caa784c	0.020809315
53	0x3b242606	0.0025047078
54	0xbc6800ec	-0.014160376
55	0x3c934d79	0.017981278
56	0x3bbb01aa	0.0057069855
57	0xbccbc6b0	-0.024875015
58	0xbc2c8b79	-0.0105313
59	0x3cfda5f7	0.030962927
60	0x3be1be84	0.0068891663
61	0x3ae6bf6f	0.0017604659
62	0x3c88126e	0.01661035
63	0xbc8eb1c5	-0.017418751
64	0xbca15538	-0.019693956
65	0x3cbd6845	0.023121009
66	0xbb9d1731	-0.0047940244
67	0xbbdc02ed	-0.006714216
68	0xbd20beec	-0.039244577
69	0xbba56a40	-0.0050480664
70	0x3c9f7765	0.019466111
71	0x3cc49562	0.023997013
72	0x3ba71fc2	0.0051002214
73	0x3bd91ccc	0.0066257473
74	0x3c31baa2	0.010847719
75	0xbb70c390	-0.0036737658
76	0x3cfd46a2	0.03091747
77	0x3cf11ece	0.029433634
78	0xbd3c6a5c	-0.04599987
79	0x3c8c2d3b	0.017111411
80	0x3b02b753	0.0019945696
81	0x3cfbeef9	0.0307536
82	0x3c89a6fc	0.016803257
83	0xbbebf294	-0.0072005484
84	0x3d0002ef	0.031252798
85	0xbd364499	-0.044499014
86	0xbc5ee930	-0.013605401
87	0xbbee1bdd	-0.007266505
88	0x3aa9a821	0.0012943783
89	0xbbe55513	-0.006998667
90	0xbd5157b9	-0.05110905
91	0x3adb62d5	0.0016737828
92	0x3be59ff6	0.007007594
93	0x3cc9172e	0.024547186
94	0x3adeff86	0.0017013408
95	0x3ac4f87b	0.0015027666
96	0xbc806eb5	-0.01567779
97	0x3b70cb60	0.0036742315
98	0x3cc01f25	0.02345235
99	0x39dabec4	0.00041722332
100	0xbc5271be	-0.012844501
101	0x3c2b03dd	0.010437933
102	0xbb661c22	-0.0035111983
103	0xbbc05cc6	-0.0058704345
104	0xbb84af3c	-0.00404921
105	0xbd92066d	-0.07130132
106	0xbc2ac945	-0.010423963
107	0xbc8a4600	-0.016879082
108	0xbd55245a	-0.05203662
109	0xbc2f49a0	-0.010698706
110	0x3d1127ec	0.035438463
111	0x3ce5943d	0.028024787
112	0xbc9244a8	-0.017855003
113	0x3c3d630b	0.011559258
114	0xbb09fb2f	-0.0021054258
115	0x3cfd74e7	0.030939532
116	0x3ceaa13a	0.028641332
117	0x3c4780ed	0.012176734
118	0x3cb09992	0.021557603
119	0x3cabf318	0.02098994
120	0x3c5d08b7	0.013490847
121	0x3ca92cd1	0.020651253
122	0x3d0ff58d	0.035146285
123	0x3b21a94c	0.002466756
124	0x3bd8b73a	0.006613639
125	0xbc33c036	-0.01097112
126	0x3cad90b3	0.021187162
127	0xbcdd3b7f	-0.027005909
128	0x3c56d913	0.013113278
129	0xbc14d419	-0.009083771
130	0x3cae18ef	0.021252124
131	0xbcaa4474	-0.020784594
132	0x3cb285c3	0.021792298
133	0x3d707036	0.058700763
134	0xbd22c89b	-0.039742094
135	0xbd8fbad6	-0.07018058
136	0xbce03922	-0.027370993
137	0x3b395bc8	0.0028283466
138	0x3c1919dd	0.009344545
139	0xbc446021	-0.01198581
140	0xbc181bf5	-0.009284009
141	0x3cc6774c	0.024226807
142	0x3ca2e616	0.019885104
143	0x3cd7b56b	0.026331624
144	0x3c8733c7	0.016504182
145	0xbc5d0c9f	-0.013491779
146	0xbcd9249b	-0.026506713
147	0x3b0c0dfa	0.0021370635
148	0xba16916b	-0.0005743715
149	0xbbf6b705	-0.007529142
150	0x3d1721f4	0.036897615
151	0x3c91ede8	0.017813638
152	0xbca5fac9	-0.020261185
153	0xbca913c3	-0.020639306
154	0x3d721399	0.05910072
155	0xbcd9afd3	-0.026573097
156	0x3cb5f4ae	0.022211399
157	0xbcad6d0f	-0.021170167
158	0xbb3089f0	-0.0026937686
159	0xbb3aa001	-0.0028476717
160	0xbb1cee59	-0.0023945777
161	0xbc308dd9	-0.010776007
162	0xbb9c5dd0	-0.0047719255
163	0x3d5a8511	0.05334956
164	0xbbf36372	-0.0074276263
165	0xbce0be5b	-0.027434519
166	0xbce04caa	-0.027380306
167	0xbca4492f	-0.020054428
168	0xbc2fda29	-0.010733166
169	0xbba8c98a	-0.0051509785
170	0xbbb6044d	-0.005554712
171	0x3ba93ebb	0.0051649488
172	0xbb9e03b2	-0.004822218
173	0xbd1841a3	-0.03717197
174	0xbc8e8e9d	-0.017401988
175	0x3b0a2720	0.002108045
176	0xbca5e358	-0.020250008
177	0xbd2208de	-0.039559238
178	0x3caf7e2c	0.021422468
179	0xbbd78e59	-0.0065782485
180	0x3bb63018	0.0055599324
181	0x3c3fdbde	0.011710135
182	0xbcd9af09	-0.026572721
183	0xbcdd628e	-0.027024534
184	0x3c6592dc	0.014012065
185	0xbcc036e9	-0.023463683
186	0x3cd93824	0.026516028
187	0x3c8ef42d	0.017450416
188	0xbcf62dc3	-0.030051118
189	0xbc631784	-0.013860587
190	0x3d8bf727	0.0683425
191	0x3c62f843	0.0138531355
192	0x3b33fcc4	0.0027463892
193	0x3b0d561c	0.0021566218
194	0x3c286fb3	0.010280537
195	0x3d408122	0.04699815
196	0x3d568d35	0.05238076
197	0x3c86ddd5	0.0164632
198	0x3c843e82	0.016143087
199	0xbc29c774	-0.010362495
200	0xbca66829	-0.02031334
201	0xbc9d0b66	-0.019170474
202	0x3c8fd321	0.017556729
203	0xbd3d85fc	-0.046270356
204	0x3cfe1e3e	0.03102028
205	0xbd6e5f9e	-0.058196656
206	0xbc1681cb	-0.0091862185
207	0x3b73ec2a	0.0037219622
208	0xbc110387	-0.008850939
209	0xbbe44835	-0.0069666156
210	0x3be194cb	0.0068841926
211	0xbbffea84	-0.007809939
212	0x3adbdbed	0.0016773917
213	0xbb0f889e	-0.0021901499
214	0xbc4cbb32	-0.012495803
215	0xbca844ba	-0.020540584
216	0xbc09f92a	-0.008421222
217	0xbcb14572	-0.02163956
218	0xba37543f	-0.00069934496
219	0x3cfeb7cf	0.031093506
220	0xbcaa807e	-0.020813223
221	0x3d64a046	0.05581691
222	0x3d4ad2e3	0.049517523
223	0xbccce7c1	-0.025012853
224	0x3cf1eef8	0.029532894
225	0x3c4b3df8	0.012404911
226	0xbb9a1eec	-0.004703393
227	0xbad5d4f0	-0.0016314071
228	0x3c9ca2dc	0.019120626
229	0xbcbd909d	-0.023140246
230	0x3c24fcdf	0.010070055
231	0x3cc3bc11	0.023893388
232	0xbc6e799e	-0.014555363
233	0x3d06628a	0.032808818
234	0xbb9e3a62	-0.004828737
235	0x3d31693b	0.043313246
236	0x3d612d67	0.05497494
237	0xbb12a57f	-0.0022376475
238	0xbccd88b0	-0.025089592
239	0xbcfab8f1	-0.030605765
240	0x3b61d34b	0.0034458216
241	0x3d5065ad	0.050878216
242	0x3b44f173	0.0030051142
243	0xbb2d1eee	-0.002641614
244	0x3cb2917b	0.021797886
245	0x3c06f1a6	0.008236324
246	0x3c19873e	0.009370623
247	0x3c01d4c2	0.007924261
248	0x3c9e59a2	0.01932985
249	0xbd12ffae	-0.035888366
250	0xb905cc65	-0.00012760011
251	0xbae4b595	-0.0017449135
252	0xbd943e76	-0.07238476
253	0x3cbe1aa5	0.023206064
254	0x3d0403ad	0.032230068
255	0xbcb49e81	-0.022048237

bn2.weight f4 [300]
0	0x3d843c31	0.06456793
1	0x3d3a41b0	0.0454728
2	0x3d8e2050	0.06939757
3	0x3da1f033	0.079071425
4	0x3e1235af	0.14278291
5	0x3e5b967c	0.21444124
6	0x3e330473	0.17482166
7	0x3e5fcff7	0.21856676
8	0x3e78344b	0.24238698
9	0x3d7a78df	0.061150428
10	0x3b1c9508	0.002389254
11	0x3dad5156	0.08462779
12	0x3dfad258	0.12247151
13	0x3ee0c1ed	0.43897954
14	0x3e4dbb9d	0.200911
15	0x3d878a50	0.06618178
16	0x3de7b6d9	0.11314172
17	0x3da4f357	0.08054226
18	0x3d9b54f1	0.07584561
19	0x3dae6f87	0.08517366
20	0x3bce5e62	0.0062978724
21	0x3e0b9fa2	0.13635114
22	0xbd0d8069	-0.03454629
23	0xbe082728	-0.13296187
24	0x3d442bb5	0.047893245
25	0x3e0714b1	0.13191487
26	0x3de03213	0.10947051
27	0x3f74a4c1	0.95563895
28	0x3d09d545	0.033650655
29	0x3e10f450	0.14155698
30	0x3e0b9516	0.1363109
31	0x3e8bcea0	0.2730608
32	0x3d94e750	0.07270682
33	0x3db41e89	0.087948866
34	0x3da924b8	0.08258957
35	0x3d817771	0.0632161
36	0x3e7fea9d	0.24991842
37	0x3db9e816	0.0907747
38	0x3e70f30f	0.2353022
39	0x3d7433ea	0.05961982
40	0x3d61c8ac	0.055123016
41	0x3efcaf6c	0.49352586
42	0x3dd66d86	0.10470109
43	0x3d1bfcb0	0.03808278
44	0x3d8a4a60	0.06752467
45	0x3e51bffa	0.2048339
46	0x3d0b3a90	0.033991396
47	0x3e3204b0	0.173846
48	0x3db4fd3d	0.08837364
49	0x3e31bdfd	0.17357631
50	0x3ee4d6f1	0.44695237
51	0x3ebb7bdf	0.36617944
52	0x3e485293	0.1956275
53	0x3dd8e3d7	0.10590332
54	0x3e3134c5	0.17305286
55	0x3e0fdb2e	0.14048454
56	0x3e13fe2c	0.14452428
57	0x3d85e574	0.06537905
58	0x3f6aef1f	0.9177112
59	0x3dae6189	0.08514697
60	0x3edc6e42	0.4305287
61	0x3d7c3be9	0.061580572
62	0x3f36a6e9	0.71348435
63	0x3ddf62a0	0.10907483
64	0x3dba7dbf	0.091060154
65	0x3f0d3771	0.5516272
66	0x3e08e05e	0.1336684
67	0x3dcdf594	0.10056606
68	0x3f09bead	0.53806573
69	0x3d4c17d1	0.0498274
70	0x3e784fa7	0.24249135
71	0x3ef5cd20	0.4800806
72	0x3db79b62	0.08965184
73	0x3d3eb48f	0.046558913
74	0x3e530c6f	0.20610212
75	0x3d5a8874	0.053352788
76	0x3d91a853	0.071121834
77	0x3e644a31	0.22293927
78	0x3df395ed	0.118938304
79	0x3dca0941	0.09865046
80	0x3de8e998	0.113726795
81	0x3ea96b66	0.3308975
82	0x3d97e9f6	0.074176714
83	0x3df2b1b6	0.11850302
84	0x3da71396	0.081580326
85	0x3e3fdd3f	0.18736742
86	0x3e001e3b	0.12511532
87	0x3d82fa68	0.063954175
88	0x3d233475	0.03984495
89	0x3ccec27f	0.025239227
90	0x3d2296ea	0.039694704
91	0x3ddd813c	0.10815665
92	0x3dc053cf	0.09390985
93	0x3d8099d8	0.06279343
94	0x3e7d584b	0.24740712
95	0x3ea95b65	0.3307754
96	0x3d61017d	0.05493306
97	0x3da0576b	0.07829174
98	0x3daa9da9	0.083308525
99	0x3d750d86	0.05982735
100	0x3dbabe90	0.09118378
101	0x3d97c53b	0.074106656
102	0x3e92a42a	0.28640872
103	0x3e1779b8	0.14792526
104	0x3e5cf651	0.21578337
105	0x3dafee08	0.08590323
106	0x3e169abb	0.14707462
107	0x3e21765f	0.15767811
108	0x3dbad545	0.09122709
109	0x3e09723f	0.13422488
110	0x3f195c65	0.5990661
111	0x3d9c9d13	0.07647147
112	0x3e0d0893	0.13772802
113	0x3dbd0fa7	0.09231501
114	0x3e3bb70d	0.18331547
115	0x3d4478c1	0.047966722
116	0x3dfc2be6	0.123130605
117	0x3dfe376d	0.124129154
118	0x3e54853c	0.2075395
119	0x3da8a13a	0.082338765
120	0x3d7ec00b	0.062194865
121	0x3e2a49fe	0.16629788
122	0x3d1ed74f	0.038779553
123	0x3ced8e99	0.02899866
124	0x3d173405	0.036914844
125	0x3e6d3fdb	0.2316889
126	0x3e73f815	0.23825105
127	0x3e068d42	0.13139823
128	0x3dba5679	0.090985246
129	0x3e781c83	0.24229626
130	0x3d585c5a	0.05282245
131	0x3dbe40ce	0.09289704
132	0x3d892867	0.06697159
133	0x3df11b22	0.11772753
134	0x3e04641f	0.12928818
135	0x3e15a745	0.1461459
136	0x3e27686e	0.1634843
137	0x3ebdd37f	0.3707542
138	0x3de3ae3e	0.111172184
139	0xbb951486	-0.0045495657
140	0x3d941fd9	0.07232637
141	0x3f2e29a4	0.6803229
142	0xbd82e1dc	-0.063907355
143	0x3dd2b008	0.102874815
144	0x3e2b85d4	0.1675027
145	0x3df0eb11	0.11763585
146	0x3e5e9046	0.21734723
147	0x3e15c4d9	0.14625873
148	0xbb40b50a	-0.0029404783
149	0x3ea5ed1d	0.32407466
150	0x3df14f3a	0.117826894
151	0x3e37e2f4	0.1795767
152	0x3dfbcdf1	0.122951396
153	0x3dcbf928	0.09959632
154	0x3d9a1367	0.07523232
155	0x3d8fcf72	0.07021989
156	0x3dd93b47	0.106070094
157	0x3f17efd5	0.5935033
158	0x3db5eb03	0.088827156
159	0x3e05e469	0.13075413
160	0x3e03d383	0.12873654
161	0x3dc9fe3c	0.098629445
162	0x3d949935	0.072557844
163	0x3f7c1571	0.98470217
164	0x3dd8f07b	0.10592743
165	0x3e37314c	0.17889899
166	0x3d05f5b1	0.032705013
167	0x3d4bdb53	0.04976971
168	0x3ca89ba1	0.020582022
169	0x3daaa86f	0.083329074
170	0x3dc290e3	0.09500291
171	0x3f0f8ba4	0.5607245
172	0x3dad2c03	0.0845566
173	0x3e43c3d9	0.19117679
174	0x3e9b9304	0.30385602
175	0x3e1bae3b	0.15203182
176	0x3dcdc6a6	0.10047655
177	0x3d0b19fc	0.033960328
178	0x3d168785	0.036750335
179	0xbddbb8c5	-0.10728601
180	0x3e20e24a	0.15711322
181	0x3da982d3	0.08276906
182	0x3ea0ab1b	0.31380543
183	0x3db8575b	0.09001037
184	0x3e4a3a28	0.19748747
185	0x3db824b9	0.08991379
186	0xbb9bc9b9	-0.004754272
187	0x3e0c7aff	0.13718794
188	0x3e16ba16	0.14719424
189	0x3e1848a9	0.14871468
190	0x3df82fe3	0.12118509
191	0x3e18f02a	0.14935365
192	0xbd24eb5c	-0.04026352
193	0x3e140268	0.14454043
194	0x3d3bef2d	0.045882393
195	0xba837b37	-0.0010031228
196	0x3db1df0c	0.08685121
197	0x3e3409f6	0.17581925
198	0x3e81a25e	0.2531919
199	0x3e73b2c4	0.23798662
200	0x3d2930ad	0.041306186
201	0x3d1d7cc4	0.038449064
202	0x3e15dbab	0.14634578
203	0x3e037e5d	0.12841173
204	0x3e0ada84	0.1355992
205	0x3dc19d51	0.09453834
206	0x3da6dd25	0.08147649
207	0x3d8e66c9	0.069531985
208	0x3e194559	0.1496786
209	0x3df3281d	0.118728854
210	0x3e201b13	0.15635328
211	0x3dae0b6f	0.084982745
212	0x3dd3389b	0.10313531
213	0x3ddea274	0.10870829
214	0x3e2ce05e	0.16882464
215	0x3ea926f9	0.33037546
216	0x3dec31c2	0.11532928
217	0x3d85dd54	0.065363556
218	0x3df0a19e	0.11749576
219	0x3a71f481	0.00092298543
220	0x3d7bbde1	0.06146038
221	0x3ece3b7b	0.40279755
222	0x3dad1fdf	0.084533446
223	0x3ec290a0	0.38000965
224	0x3dd3bee2	0.103391424
225	0x3e595d45	0.21226986
226	0x3dcc5a9d	0.099782206
227	0x3d823074	0.06356898
228	0x3e085e3c	0.13317198
229	0x3e2623ea	0.16224638
230	0x3cb868de	0.022510942
231	0x3dfd3d07	0.12365156
232	0xbdd5cbc1	-0.104392536
233	0x3d742945	0.05960967
234	0x3e117141	0.14203359
235	0x3d3caea5	0.04606499
236	0x3db675de	0.089092
237	0x3e1d36b4	0.15352899
238	0x3d44d661	0.04805601
239	0x3d26dfca	0.040740766
240	0x3d6153cf	0.055011567
241	0x3da082a9	0.078374214
242	0xbd1acc2c	-0.03779237
243	0x3aedd521	0.0018145182
244	0x3d9daf92	0.07699503
245	0x3e1b6473	0.15175037
246	0x3e45fb47	0.19334136
247	0x3ee63ec9	0.44969776
248	0x3d827bd4	0.063712746
249	0x3e413b6f	0.18870328
250	0x3db2cce7	0.08730488
251	0x3e844732	0.25835568
252	0x3ece721c	0.40321434
253	0x3e221f63	0.15832286
254	0x3e1f8383	0.15577511
255	0x3dcdf1a1	0.10055853

bn2.bias f4 [300]
0	0x3c3f4575	0.011674275
1	0x3c3c5fa2	0.01149741
2	0x3bd119c9	0.0063812477
3	0x3ccbc87d	0.024875874
4	0x3ca08ae1	0.019597473
5	0x3d89a78e	0.06721412
6	0x3d7186e5	0.058966536
7	0x3d8c0dcb	0.06838568
8	0x3def5931	0.11686934
9	0x3cc7b0a6	0.024376225
10	0xbe849310	-0.2589345
11	0x3c11a755	0.008889993
12	0x3ca782c2	0.020448092
13	0x3e0c3686	0.13692674
14	0x3d59d9ca	0.053186215
15	0x3caa0eed	0.02075907
16	0x3c6d9191	0.014500038
17	0x3d1db2c0	0.038500547
18	0x3bf113bd	0.0073570893
19	0x3c9f12c5	0.01941813
20	0x37756c1e	1.4628311e-05
21	0x3cd404f0	0.02588126
22	0xbd2e051b	-0.042485338
23	0xbce9628c	-0.028489374
24	0x3c695668	0.014241792
25	0x3d85df87	0.06536775
26	0x3d255dc8	0.04037264
27	0x3e4eecfb	0.20207588
28	0x3bc206be	0.005921214
29	0x3d9f7e8a	0.07787807
30	0x3c4edee4	0.012626383
31	0x3d266931	0.040627662
32	0x3cc03d63	0.023466771
33	0xbc7b9460	-0.0153552
34	0x3cf21f14	0.029555835
35	0xb9815f56	-0.00024675828
36	0x3dcea9fc	0.10091016
37	0x3c987bc9	0.018613713
38	0x3dc5f0ee	0.09665094
39	0x3c3c0868	0.011476614
40	0x3ba1187e	0.00491625
41	0x3e5d486d	0.2160966
42	0x3d828849	0.063736506
43	0x3bb81528	0.0056177564
44	0x3d03c680	0.032171726
45	0x3d872a77	0.065998964
46	0x3bcb416b	0.006202867
47	0x3d81bbfd	0.06334684
48	0x3c91c384	0.017793424
49	0x3d237353	0.039904904
50	0x3e7348c3	0.23758225
51	0x3e344f13	0.1760829
52	0x3da0bf04	0.07848933
53	0x3d6a1d7a	0.057157017
54	0x3d9f80d8	0.07788247
55	0x3ccda29e	0.025101956
56	0x3c5f745d	0.013638583
57	0xbb9c75c4	-0.004774781
58	0x3e76776c	0.24068993
59	0x3c991963	0.018688863
60	0x3e47145e	0.19441363
61	0x3c9e099c	0.019291691
62	0x3e618199	0.22022094
63	0x3d0e8975	0.034799058
64	0xbb13e813	-0.0022568747
65	0x3e128a88	0.14310658
66	0x3ccf229a	0.025285054
67	0x3d486d93	0.048932623
68	0x3d2f19c0	0.042749166
69	0x3bbfd486	0.005854192
70	0x3df8ff8b	0.12158116
71	0x3e81d4a4	0.25357544
72	0x3cd33714	0.0257831
73	0x3c77d713	0.015126961
74	0x3dc8a595	0.09797207
75	0x3bbf7d6c	0.005843809
76	0x3d1cbb46	0.038264535
77	0x3d4b0e82	0.049574383
78	0x3d12f62d	0.035879303
79	0x3d0ea60b	0.03482632
80	0x3ce9d4ce	0.028543856
81	0x3e53a518	0.20668447
82	0x3cde294e	0.027119305
83	0x3d545000	0.051834106
84	0x3c56c7ae	0.013109131
85	0x3dc412e2	0.09573914
86	0x3d7dd022	0.06196607
87	0x3b90c33c	0.004417805
88	0xbb3740c1	-0.002796218
89	0x3b3cf0da	0.0028830082
90	0xbbb047fc	-0.005379675
91	0x3d43fafd	0.047846783
92	0x3c145625	0.009053742
93	0x3c750270	0.014954194
94	0x3d7c5047	0.061599996
95	0x3e1007cf	0.14065479
96	0x3c57209e	0.013130335
97	0x3ce1c8fd	0.027561659
98	0x3c81ea6a	0.015858848
99	0x3c731a9d	0.014837888
100	0xbb8bd54d	-0.004267371
101	0x3ccb2b48	0.024800912
102	0x3d5b51d3	0.05354483
103	0x3cae0f76	0.021247607
104	0x3daa8964	0.083269864
105	0x3c93e3ec	0.018053018
106	0x3cd28e2c	0.025702558
107	0x3dbef6b7	0.09324401
108	0xbbb1c0c9	-0.005424593
109	0x3d1d0739	0.038336966
110	0x3e89b57e	0.2689628
111	0x3caaf55b	0.020868948
112	0x3cc8a75d	0.024493868
113	0x3ce73e64	0.028227992
114	0x3dc5e017	0.09661882
115	0x3c74d455	0.014943202
116	0x3c8d2f92	0.017234597
117	0x3cf53672	0.029933188
118	0x3d41c708	0.04730895
119	0x3c864e43	0.01639474
120	0x3c4179f4	0.011808861
121	0x3dd6ce70	0.104885936
122	0xba1d74b6	-0.0006006466
123	0x3bd92f75	0.006627972
124	0x3b4f2023	0.0031604848
125	0x3e3f27c8	0.18667519
126	0x3d9435e8	0.07236844
127	0x3d560fab	0.052261036
128	0x3ce7a0c0	0.028274894
129	0x3db87aa1	0.090077646
130	0x3a9dc36d	0.0012036391
131	0x3ca83978	0.020535216
132	0x3d22c3d4	0.039737538
133	0x3d2a3087	0.041550186
134	0x3d579527	0.052632477
135	0x3d1eafd6	0.03874191
136	0x3d2f4f9e	0.04280054
137	0x3d472f30	0.048628986
138	0x3cc4de11	0.02403167
139	0x38f61e34	0.0001173582
140	0x3ccd9a3d	0.02509796
141	0x3eae8131	0.3408294
142	0xbbc0a647	-0.005879197
143	0x3cb45ffb	0.022018423
144	0x3c0f74fa	0.008755917
145	0x3cb3df0a	0.02195694
146	0x3d1f3840	0.038872004
147	0x3d3c9575	0.04604097
148	0xb9880d0a	-0.00025949656
149	0x3e59db84	0.21275145
150	0x3ca15aa5	0.019696543
151	0x3d82310c	0.06357011
152	0x3cf9231e	0.030412253
153	0x3cccaad9	0.02498381
154	0x3c36535d	0.011128274
155	0x3c46513f	0.0121043315
156	0x3d613627	0.054983284
157	0x3df1ef37	0.11813205
158	0x3cef5b08	0.029218212
159	0x3d9492d7	0.0725457
160	0x3d1daf99	0.03849754
161	0x3d164ad4	0.036692455
162	0x3b690886	0.003555806
163	0xbcfc87f9	-0.030826556
164	0x3d38e5a9	0.045140896
165	0x3d3b0220	0.045656323
166	0x3c6300a5	0.013855134
167	0x3c736b00	0.014857054
168	0xb9b00586	-0.0003357345
169	0x3bec2823	0.007206933
170	0x3ca95d0a	0.020674247
171	0x3e20dd50	0.15709424
172	0x3c84e43c	0.016222112
173	0x3d929952	0.0715815
174	0x3d65ca0c	0.05610089
175	0x3ce7aeb8	0.028281555
176	0xbc8ada6f	-0.01694986
177	0x3bcd598b	0.006266778
178	0x3c4760f4	0.0121691115
179	0x3807ca4b	3.237491e-05
180	0x3ce5e9b2	0.028065536
181	0x3b2da91e	0.0026498507
182	0x3e17d4b7	0.14827238
183	0x3cc63a2b	0.024197659
184	0x3c75072a	0.014955321
185	0x3c6fb37d	0.014630196
186	0xba6f397f	-0.0009125694
187	0x3cb34cb4	0.02188716
188	0x3d737003	0.059432995
189	0x3cfb6b4f	0.030690817
190	0x3cc38925	0.023869107
191	0x3dadbc1e	0.08483146
192	0xbb83a35d	-0.004017277
193	0x3bdb1a9c	0.0066865217
194	0x3bc96ecd	0.0061472417
195	0x3927302e	0.0001594431
196	0x3c4df361	0.012570233
197	0x3dd2db02	0.10295679
198	0x3d91d008	0.07119757
199	0x3db9436d	0.090460636
200	0x3cb03ff2	0.021514867
201	0x3c604e83	0.013690594
202	0x3d02649e	0.031834237
203	0x3d5805e3	0.05273999
204	0x3d7eb1c8	0.062181264
205	0x3cb32f66	0.021873187
206	0x3c453f8f	0.012039079
207	0xbaadf5c7	-0.00132721
208	0x3d9207bb	0.07130381
209	0x3d3eb0c3	0.04655529
210	0x3e0d131a	0.13776818
211	0x3cf20ccf	0.029547123
212	0x3d137fba	0.03601048
213	0xbcd5b2e0	-0.02608627
214	0x3c2132ba	0.009838754
215	0x3dbb86ad	0.09156547
216	0x3cc347d5	0.023837963
217	0x3c67166f	0.01410447
218	0x3d05441a	0.03253565
219	0xb94085eb	-0.00018360435
220	0x3c9acfd2	0.018897925
221	0x3e34d607	0.1765977
222	0x3c910d42	0.017706517
223	0x3e2a0f9c	0.16607517
224	0x3cb6b77f	0.022304295
225	0x3d130173	0.035890054
226	0x3c89af40	0.016807199
227	0x3a57dce7	0.0008234516
228	0x3d596ccc	0.053082272
229	0x3d24f964	0.0402769
230	0xb95d681d	-0.00021114988
231	0x3d10bc42	0.035335787
232	0xbc354dd9	-0.011065924
233	0x3c070aab	0.00824229
234	0x3cf04c7e	0.02933335
235	0x3b2bfbf9	0.0026242717
236	0x3d26ca89	0.040720496
237	0x3de9f282	0.11423208
238	0x3c5f8d4b	0.013644527
239	0x3c078589	0.008271583
240	0x3c04b5d3	0.008099991
241	0x3c8cd189	0.017189758
242	0xbb78f4d6	-0.003798773
243	0x39086018	0.00013005768
244	0x3abaa3b3	0.001423946
245	0x3dc8db86	0.09807496
246	0x3e0d2531	0.13783719
247	0x3e17da21	0.14829303
248	0x3c76dc3d	0.015067157
249	0xb8abd82a	-8.194179e-05
250	0xbbd8be81	-0.0066145067
251	0x3db925ea	0.09040435
252	0x3e2e5c41	0.1702738
253	0x3d84de4d	0.06487713
254	0x3c91f5e7	0.01781745
255	0xbb43a4dd	-0.0029852905
