pretrainedNetworks/critic_local2.pth (torch_old, 553166 bytes, 9 tensors)

fc1.weight f4 [300, 52]
0	0x3d90ee95	0.07076756
1	0x3f593679	0.84848744
2	0x3e09a7f8	0.13442981
3	0xbb459c67	-0.0030153038
4	0x3e255ead	0.16149397
5	0xbcee3509	-0.029078024
6	0x3ddf08b8	0.10890335
7	0xbb888d34	-0.0041672233
8	0x3e12423b	0.14283077
9	0x3f32f3d4	0.699033
10	0xbd911386	-0.07083802
11	0xbe95a523	-0.29227552
12	0xbd81b186	-0.06332688
13	0x3d07d39f	0.033160802
14	0xbdcd5093	-0.10025134
15	0xbea5759e	-0.32316297
16	0x3da8bfb1	0.08239687
17	0x3f1892cb	0.5959899
18	0xbd69bfcf	-0.05706769
19	0x3e82b4a6	0.2552845
20	0xbec34b80	-0.3814354
21	0xbd946d11	-0.07247365
22	0xbd9e4e8e	-0.07729827
23	0x3e961743	0.29314622
24	0x3db5d6bb	0.08878847
25	0x3fc4e4d2	1.538233
26	0xbe00f2f6	-0.12592682
27	0xbde29983	-0.11064436
28	0xbe013917	-0.12619434
29	0x3c89868e	0.016787793
30	0xbe10e41d	-0.14149518
31	0xbe319960	-0.17343664
32	0x3dfdbeea	0.123899296
33	0x3fb75611	1.432314
34	0x3df46a86	0.1193438
35	0x3d4f5d82	0.050626285
36	0x3da0f646	0.07859473
37	0x3bb4adee	0.005513898
38	0x3db9460a	0.09046562
39	0x3d4fe9cc	0.050760075
40	0x3e43983f	0.19101046
41	0x3fa48a9e	1.2854803
42	0x3dfe2cc5	0.12410883
43	0xbe4ce05e	-0.20007464
44	0x3ec665fe	0.3874969
45	0xbd08efda	-0.033431865
46	0x3d404817	0.04694375
47	0xbe6b307d	-0.22967716
48	0xbe7e90bc	-0.248599
49	0x3f117bf0	0.5682974
50	0xbe2a491c	-0.16629452
51	0x3fe986b4	1.8244233
52	0x3e8f9a9e	0.2804765
53	0xbeb9122d	-0.3614668
54	0x3d96bc86	0.07360177
55	0xbde3a08c	-0.11114606
56	0x3b8a7cd2	0.0042263055
57	0xbeb5d570	-0.35514402
58	0x3daacf72	0.08340348
59	0xbe18fa8f	-0.1493933
60	0x3e3bc500	0.18336868
61	0xbe914786	-0.2837488
62	0xbe597c1c	-0.2123875
63	0xbe7eb7db	-0.24874823
64	0x3dace7de	0.08442663
65	0xbe933b33	-0.28756103
66	0xbe34051b	-0.17580073
67	0xbe76b471	-0.2409227
68	0x3d3d4c4b	0.046215337
69	0xbe5e43ed	-0.21705599
70	0xbdd85860	-0.10563731
71	0x3e8a2485	0.26980987
72	0x3e2a381b	0.16622965
73	0x3cd46e18	0.025931403
74	0xbd6ab41f	-0.057300683
75	0x3e701a13	0.23447447
76	0x3f12e5d2	0.5738193
77	0x3ed1a474	0.4094578
78	0xbe0f862f	-0.1401603
79	0xbde26216	-0.11053865
80	0x3c8301f3	0.01599214
81	0xbeb2d20d	-0.3492588
82	0xbe53e17e	-0.20691487
83	0xbe0705c8	-0.13185799
84	0x3ed739cf	0.42036292
85	0x3ea3a95a	0.31965142
86	0xbe9cd5e2	-0.3063193
87	0xbdd30d18	-0.10305232
88	0xbda324d8	-0.07966012
89	0xbe816034	-0.2526871
90	0xbe938923	-0.28815565
91	0xbdddac26	-0.1082385
92	0x3ee106f3	0.43950614
93	0x3e570c70	0.21000838
94	0xbde25ba8	-0.11052638
95	0xbf0090f0	-0.5022116
96	0xbe4730d0	-0.19452214
97	0xbd99bf11	-0.07507146
98	0xbddfdf19	-0.109312244
99	0xbecb3b14	-0.3969351
100	0x3e078570	0.13234496
101	0xbf227d0c	-0.63472056
102	0x3eafc2c3	0.3432828
103	0x3e7ac530	0.24489284
104	0x3e79be89	0.2438909
105	0x3ebd95fe	0.37028497
106	0x3d6fe7d8	0.058570713
107	0xbdfcd329	-0.12344963
108	0x3e51e468	0.20497286
109	0xbdde53f6	-0.10855858
110	0xbbb1965f	-0.005419537
111	0xbe2427a9	-0.16030754
112	0x3e5455aa	0.20735803
113	0x3e9460ff	0.28980252
114	0xbe67683b	-0.22598355
115	0xbd7f06be	-0.06226229
116	0x3e60f0ed	0.21966906
117	0xbe6567eb	-0.22402923
118	0xbe3dd70b	-0.18539064
119	0xbe0e6fe4	-0.1390987
120	0x3dd7f19e	0.10544132
121	0x3ea473df	0.32119653
122	0xbe548567	-0.20754014
123	0xbe6c911f	-0.23102234
124	0x3ebbaf5e	0.36657232
125	0xbeaa150a	-0.33219177
126	0xbe5287ec	-0.20559663
127	0xbe322dc4	-0.1740027
128	0x3f14ffa3	0.5820257
129	0x3dfa6c59	0.12227697
130	0x3e62b66c	0.22139901
131	0xbec7592a	-0.38935214
132	0xbdcbb78c	-0.09947118
133	0xbdeacaa7	-0.11464434
134	0x3e424e1f	0.18975113
135	0xbedcbb0c	-0.43111455
136	0x3ed525c7	0.41630384
137	0x3e86dbd2	0.26339585
138	0xbe3e2911	-0.18570353
139	0x3e7a4424	0.24440056
140	0xbe75808b	-0.23974817
141	0xbe69a848	-0.228181
142	0xbdf2e021	-0.118591554
143	0x3e9295d7	0.28629944
144	0x3e442feb	0.19158904
145	0x3eb14d9e	0.3462953
146	0xbdee08e5	-0.1162279
147	0x3e872d71	0.26401857
148	0xbec01d7f	-0.37522504
149	0xbe8ba609	-0.27275112
150	0xbdc4009b	-0.09570428
151	0x3ea7e93e	0.32795137
152	0x3e6f93be	0.23396203
153	0xbec11fa1	-0.37719443
154	0x3e80b744	0.2513982
155	0xbd4787fd	-0.048713673
156	0x3e9e080f	0.30865523
157	0x3f08f331	0.5349608
158	0xbc63d524	-0.013905797
159	0x3dda9350	0.10672629
160	0xbe6f8f1f	-0.2339444
161	0xbe46433f	-0.1936159
162	0x3d27bded	0.04095261
163	0x3e385860	0.18002462
164	0x3eec1746	0.46111506
165	0x3f17e8e8	0.5933976
166	0x3d0fc602	0.035100944
167	0x3d611e9e	0.05496084
168	0xbebe7466	-0.3719818
169	0xbe7d899f	-0.2475953
170	0x3e03d52c	0.12874287
171	0xbd4c0fdf	-0.049819823
172	0x3f20308e	0.6257409
173	0x3f24be9e	0.6435336
174	0x3d713531	0.058888618
175	0xbd6530ad	-0.055954624
176	0xbf24943f	-0.64288706
177	0xbe676a50	-0.22599149
178	0xbc1fdcdd	-0.009757248
179	0xbdea1027	-0.11428862
180	0x3e0a30a9	0.13495125
181	0xbf29eee5	-0.6638015
182	0x3d0aec59	0.033916805
183	0x3ddc3990	0.10753167
184	0x3e8206a6	0.25395697
185	0xbe9682fc	-0.29396808
186	0xbd9f5fa0	-0.07781911
187	0x3dd55580	0.104166985
188	0x3ea76a5f	0.32698342
189	0xbecd6b5a	-0.40120965
190	0xbd92abf2	-0.07161702
191	0x3e194e83	0.14971356
192	0x3ebe35ed	0.37150517
193	0xbe7aabf2	-0.24479654
194	0x3ccce574	0.025011756
195	0x3e038468	0.12843478
196	0x3eb4a0df	0.35278985
197	0xbe8d4da6	-0.27598304
198	0x3b6730af	0.003527682
199	0xbd80f3f2	-0.06296529
200	0x3f254a98	0.64566946
201	0xbe643f3c	-0.22289747
202	0xbd9b6564	-0.07587698
203	0xbd745d9f	-0.059659597
204	0x3e8b5982	0.27216727
205	0x3f04bdd2	0.5185214
206	0xbf5c78fd	-0.86122113
207	0xbeb50766	-0.35357207
208	0x3e909146	0.28235835
209	0x3cc7230c	0.024308704
210	0xbd3b0186	-0.04565575
211	0xbd7ef421	-0.06224454
212	0xbe71a582	-0.23598292
213	0x3e8bf9ea	0.27339107
214	0x3b82450c	0.003975516
215	0xbde36d4c	-0.11104831
216	0x3f12eefb	0.57395905
217	0x3d7ed2c8	0.062212735
218	0xbc8d95df	-0.017283378
219	0xbdf51414	-0.1196672
220	0x3dfafb25	0.12254933
221	0x3ec37559	0.38175467
222	0x3bd389be	0.006455629
223	0xbe15f85c	-0.14645523
224	0x3ec28666	0.37993163
225	0xbc968a8f	-0.018376617
226	0xbcbb4aae	-0.022862758
227	0xbd26c3c6	-0.040714048
228	0x3ea09661	0.3136473
229	0x3eef70c5	0.46765724
230	0xbd0a9bb5	-0.0338399
231	0xbd0f9d1f	-0.03506195
232	0x3e09db4b	0.1346256
233	0xbf9c4a0e	-1.22101
234	0x3aa7065c	0.0012742984
235	0xbdc7848e	-0.0974208
236	0x3e9b0d3f	0.30283543
237	0x3e60a3a0	0.21937418
238	0xbd0a5bc9	-0.03377894
239	0xbd951c65	-0.072808065
240	0x3ca721c0	0.020401835
241	0xbfa2a667	-1.2707032
242	0xbb2f70a4	-0.002677002
243	0xbe25790f	-0.16159461
244	0xbe132905	-0.14371116
245	0x3ea025fa	0.31278974
246	0x3c51d764	0.012807701
247	0xbe0b5b36	-0.13609013
248	0x3c368519	0.011140131
249	0xbf8d5a3b	-1.1043161
250	0x3b0578a5	0.00203661
251	0x3dfc6aa7	0.1232503
252	0xbeb99d43	-0.36252794
253	0x3ef461d7	0.47730896
254	0xbaa21af9	-0.0012367658
255	0x3dffc586	0.124888465

fc1.bias f4 [300]
0	0xbe24713b	-0.16058819
1	0xbe7b5814	-0.24545318
2	0xbe389357	-0.18024956
3	0xbeee8cab	-0.46591696
4	0xbee566bf	-0.44804952
5	0x3cc03087	0.02346064
6	0x3d35800d	0.044311572
7	0xbd83b6d4	-0.06431356
8	0xbfb2d085	-1.3969885
9	0xbe7d6438	-0.24745262
10	0xbe68023f	-0.22657107
11	0xbe786897	-0.24258648
12	0xbe173d2c	-0.14769429
13	0xbed36ba8	-0.41293073
14	0xbc431e74	-0.011909116
15	0xbe2291ed	-0.15875979
16	0xbe222de4	-0.15837818
17	0xbe7ca43c	-0.24672025
18	0xbe3d99c3	-0.18515687
19	0xbcda767c	-0.026667826
20	0xbd642bcb	-0.055705827
21	0xbe11aa3f	-0.142251
22	0xbda3fb45	-0.0800691
23	0x3d45809c	0.048218355
24	0xbdc5bcc9	-0.096551485
25	0x3c9e0858	0.019291088
26	0x3d8029a4	0.06257942
27	0xbf3cef11	-0.73802286
28	0x3d265133	0.04060478
29	0xbf675a78	-0.9037242
30	0x3c3c4789	0.011491665
31	0x3c80ea10	0.01573661
32	0xbe33f5ad	-0.17574187
33	0x3d596068	0.053070456
34	0xbdc7efd6	-0.09762542
35	0xbe8fbd45	-0.2807409
36	0xbe3d9aa1	-0.18516017
37	0x3e1026da	0.1407732
38	0xbe8b57a9	-0.27215317
39	0xbd6c7510	-0.057728827
40	0xbec5e372	-0.3865009
41	0xbea48d95	-0.3213927
42	0x3e4665a5	0.19374712
43	0xbf160a88	-0.5860982
44	0xbe74a6a5	-0.23891695
45	0x3cf0cc16	0.02939419
46	0xbe051c74	-0.12999135
47	0xbeade30c	-0.33962286
48	0xbe5f9212	-0.21833065
49	0xbf0db131	-0.553485
50	0xbd88b2e7	-0.06674748
51	0xbe62a73f	-0.22134112
52	0xbe4337a0	-0.19064188
53	0xbea28cba	-0.3174799
54	0xbe6f440c	-0.23365802
55	0xbe5762fe	-0.21033856
56	0xbe42ab55	-0.1901067
57	0x3e4aa12f	0.19788049
58	0xbe194195	-0.14966424
59	0xbe7a1341	-0.24421407
60	0xbeac66c0	-0.33672142
61	0xbeb2b96a	-0.34907085
62	0xbe90f0f8	-0.28308845
63	0xbe36bff1	-0.17846657
64	0xbe2ad506	-0.16682824
65	0x3ee0f214	0.4393469
66	0xbe0ef6c5	-0.13961323
67	0xbd167525	-0.03673281
68	0xbd88cba0	-0.066794634
69	0xbef5c885	-0.48004547
70	0xbe234d97	-0.15947567
71	0xbef38f74	-0.47570384
72	0xbe965f22	-0.29369456
73	0xbe8d4d0f	-0.27597854
74	0xbeba408f	-0.3637738
75	0x3e04cafc	0.12968057
76	0xbe908c14	-0.2823187
77	0x3d0d0b59	0.03443465
78	0xbcacb86e	-0.021084037
79	0xbf1163f2	-0.5679313
80	0xbdb75273	-0.08951273
81	0xbe1de3df	-0.15418957
82	0xbea60a59	-0.3242977
83	0xbcad5a25	-0.021161148
84	0x3e1cd9aa	0.15317407
85	0xbe97871c	-0.29595268
86	0xbeebd1a5	-0.46058384
87	0xbd9ee890	-0.077592015
88	0xbe5f5093	-0.2180808
89	0xbedbb75b	-0.42913327
90	0xbc0926b3	-0.008371043
91	0x3e3bd4de	0.18342921
92	0xbe7f513b	-0.2493333
93	0xbd014ed4	-0.031569317
94	0x3e59f834	0.21286088
95	0xbf838375	-1.0274493
96	0xbe8513b1	-0.25991586
97	0xbed69346	-0.41909236
98	0xbe486308	-0.19569027
99	0xbf86ab6e	-1.0521066
100	0x3cc06f82	0.023490671
101	0x3e01657a	0.12636366
102	0xbd049991	-0.032373015
103	0xbe7c8537	-0.24660192
104	0xbf08c2fc	-0.5342252
105	0xbe12fd99	-0.14354552
106	0xbe3e18fb	-0.18564217
107	0xbeef2a87	-0.46712133
108	0xbedd2a13	-0.43196163
109	0x3d751bda	0.059841014
110	0xbedf6eee	-0.4363932
111	0xbe535d31	-0.20641018
112	0xbeab806a	-0.3349641
113	0xbeeb7256	-0.4598567
114	0xbe7d864b	-0.2475826
115	0xbdc92220	-0.09820962
116	0xbdd2f26e	-0.10300146
117	0xbe87760e	-0.26457256
118	0xbea71ea2	-0.32640558
119	0xbecbc5e6	-0.39799422
120	0xbf0dff04	-0.5546725
121	0xbf3a9901	-0.72889715
122	0x3bd3617a	0.006450829
123	0xbe0646f0	-0.13112998
124	0x3d05ca83	0.032663833
125	0xbed55ef1	-0.41673997
126	0xbe7c74bf	-0.2465391
127	0xbe9978bf	-0.29974934
128	0xbed5e998	-0.4177978
129	0xbe8a1cde	-0.2697515
130	0xbdb3437b	-0.08753105
131	0xbdd9f651	-0.10642684
132	0xbe1b5c42	-0.15171912
133	0xbbb76f83	-0.00559801
134	0xbec31b0d	-0.38106576
135	0xbe8dfd66	-0.2773239
136	0xbee24a0e	-0.44197124
137	0x3c4b0721	0.012391836
138	0x3c899831	0.016796203
139	0xbe584bae	-0.2112262
140	0xbe86478e	-0.26226467
141	0xbeb7c094	-0.35889113
142	0xbdb7fc1e	-0.089836344
143	0xbf013b35	-0.5048097
144	0xbe7f55a5	-0.24935015
145	0xbf127eff	-0.5722503
146	0x3ea41266	0.32045287
147	0xbeb486d8	-0.35259128
148	0xbdedc338	-0.11609501
149	0xbf368362	-0.71294224
150	0xbd99a8f4	-0.075029284
151	0xbef6b806	-0.48187274
152	0xbf15c5ba	-0.5850483
153	0xbdc10652	-0.09425034
154	0xbf18ea2f	-0.59732336
155	0xbe868d72	-0.2627979
156	0x3dc20bcc	0.09474906
157	0xbe170bf9	-0.14750661
158	0xbdb4a375	-0.088202395
159	0xbe3df854	-0.18551761
160	0xbebb2a4e	-0.36555713
161	0xbea4e633	-0.32206878
162	0xbd8c6544	-0.068552524
163	0xbe953772	-0.29143864
164	0xbe639bfa	-0.22227469
165	0xbed0365d	-0.40666476
166	0xbe510e8d	-0.20415707
167	0xbede8172	-0.43458134
168	0xbf00bd12	-0.502885
169	0xbf05ea17	-0.5231032
170	0xbea0bfd3	-0.3139635
171	0xbe923923	-0.28559217
172	0xbe87b001	-0.26501468
173	0xbf095556	-0.5364584
174	0xbec2d011	-0.38049367
175	0x3cc0128f	0.02344635
176	0xbf2defaf	-0.67943853
177	0xbdbf1754	-0.09330621
178	0xbe4a1c27	-0.19737302
179	0xbe640811	-0.22268702
180	0xbf019f2d	-0.5063351
181	0x3c2e1b02	0.010626556
182	0xbe37ba25	-0.17942102
183	0xbf03e3e2	-0.51519597
184	0xbe781f16	-0.24230608
185	0xbeaddb86	-0.33956546
186	0xbf62817d	-0.88478833
187	0xbea2d758	-0.3180492
188	0xbf1095ec	-0.5647876
189	0xbe03f7eb	-0.12887542
190	0xbe8dcd40	-0.27695656
191	0xbed38e86	-0.41319674
192	0x3e66689b	0.22500841
193	0xbf0d772d	-0.5525997
194	0x3dd7eca7	0.10543185
195	0xbe1f4ec3	-0.15557389
196	0xbd95ec4d	-0.073204614
197	0xbf1e11a5	-0.61745673
198	0xbee0e933	-0.43927917
199	0xbebe56bc	-0.37175548
200	0xbec179d3	-0.37788257
201	0xbe6a731d	-0.22895475
202	0xbd6df86b	-0.058098238
203	0xbdd53177	-0.10409825
204	0x3c352ffc	0.011058804
205	0xbebc05e0	-0.36723232
206	0x3de65130	0.11245954
207	0xbec4dd82	-0.38450247
208	0xbdd2b736	-0.10288851
209	0xbe582d9a	-0.21111146
210	0xbd174c48	-0.03693798
211	0xbeaddd0f	-0.33957717
212	0x3d14684f	0.03623229
213	0xbdcbcff7	-0.099517755
214	0xbdfa7f61	-0.12231327
215	0xbed07ab8	-0.40718627
216	0xbf8f5f78	-1.120101
217	0xbe50dd42	-0.20396903
218	0xbe36b19f	-0.17841195
219	0xbd5a84a5	-0.053349156
220	0xbe94c6e2	-0.29057986
221	0xbe921c25	-0.28537098
222	0xbeb2a738	-0.34893203
223	0xbf1f51c8	-0.62234163
224	0xbe2158b3	-0.15756492
225	0xbedff6d2	-0.43742996
226	0xbd9312d2	-0.07181324
227	0xbe3581dd	-0.1772532
228	0xbe4af545	-0.19820125
229	0xbec46ef7	-0.3836591
230	0xbe648f6f	-0.2232034
231	0xbe1884b3	-0.1489437
232	0xbe3e3f62	-0.18578866
233	0xbd5e667a	-0.054296948
234	0xbe996865	-0.2996246
235	0xbcf6d376	-0.03013013
236	0xbe6697a8	-0.2251879
237	0xbf19e08e	-0.6010827
238	0xbc354143	-0.011062923
239	0xbe6e2746	-0.23257169
240	0xbdb38cfe	-0.087671265
241	0xbe04d6af	-0.1297252
242	0xbeb09efc	-0.34496295
243	0xbf07cfca	-0.53051436
244	0x3cf3fc25	0.029783318
245	0xbeba69c9	-0.36408833
246	0xbf132918	-0.5748458
247	0xbe800136	-0.25000924
248	0xbe81973d	-0.25310698
249	0xbe36a2f3	-0.17835598
250	0xbe0037fb	-0.12521355
251	0xbece995d	-0.40351382
252	0x3cc69221	0.024239602
253	0xbe860bd8	-0.2618091
254	0xbdc6914b	-0.09695681
255	0xbe6a18a0	-0.22860956

fc2.weight f4 [400, 300]
0	0x3b3ef9cc	0.002914059
1	0xbbd9362f	-0.0066287736
2	0x3cdaf6e9	0.026729064
3	0xbe28c32c	-0.16480702
4	0x3d240e31	0.040052596
5	0x3c9bad32	0.019003484
6	0xbd8e9375	-0.06961719
7	0xbe11531d	-0.14191861
8	0xbccde35a	-0.025132824
9	0xbe2a7518	-0.1664623
10	0x3e62916c	0.22125787
11	0xbd470459	-0.04858813
12	0xbd9e4013	-0.07727065
13	0xbe7ad2cf	-0.2449448
14	0xbd99801f	-0.0749514
15	0x3be9a77b	0.007130561
16	0xbdc448b9	-0.09584183
17	0x3d3f635a	0.04672561
18	0xbd9462da	-0.07245417
19	0xbc51c5b5	-0.012803485
20	0x3c5605c0	0.013062894
21	0xbb8f2553	-0.004368463
22	0x3e6109f8	0.21976459
23	0x3d1fca9a	0.039011575
24	0xbd729f4c	-0.05923395
25	0xbe0145f5	-0.12624343
26	0xbcdf5079	-0.027260052
27	0xbe0181e7	-0.1264721
28	0x3d1ca950	0.038247406
29	0x3cf85399	0.0303133
30	0x3c91b4a9	0.01778634
31	0xbd93c795	-0.072158016
32	0xbdad0dbd	-0.08449886
33	0x3cc8db90	0.024518758
34	0xbca8375e	-0.020534214
35	0xbb773c20	-0.0037725046
36	0x3cc2fe35	0.023802856
37	0x3bd003df	0.0063481177
38	0xbe839fa7	-0.25707743
39	0xbe1dde27	-0.15416776
40	0xbd6b3878	-0.0574269
41	0x3d7a98f2	0.061181016
42	0x3cebef08	0.028800502
43	0xbdb08037	-0.08618205
44	0xbd806ade	-0.06270383
45	0xbb9b9830	-0.004748367
46	0xbc932240	-0.017960668
47	0xbd19af35	-0.037520606
48	0x3d35019a	0.04419098
49	0xbe23442c	-0.15943974
50	0xbdc0c094	-0.09411731
51	0xbda2da0f	-0.079517476
52	0x3d369b55	0.04458173
53	0xbd9f2a4a	-0.07771738
54	0xbdf2f054	-0.11862245
55	0x3d1e98b9	0.038719866
56	0x3d1976be	0.037466757
57	0xbd5cc973	-0.053903054
58	0xbde50f74	-0.11184588
59	0xbc763e5d	-0.015029517
60	0x3d147002	0.03623963
61	0xbd55744b	-0.05211286
62	0xbde0fdd7	-0.10985916
63	0xbd734d12	-0.05939967
64	0xbdc20b75	-0.094748415
65	0x3ca8ad66	0.020590495
66	0xbd303304	-0.043017402
67	0xbdecd31d	-0.11563704
68	0x3cffe6b6	0.031237941
69	0x3dc1f211	0.09469999
70	0xbe2165ec	-0.15761536
71	0xbd99ede3	-0.075160764
72	0xbd2309d1	-0.039804284
73	0xbd5ff13d	-0.054673422
74	0x3a92905b	0.0011181937
75	0xbb56685d	-0.0032716014
76	0xbd9ffde4	-0.07812098
77	0x3dc75bf6	0.09734337
78	0x3b118d80	0.0022209585
79	0xbe8ea6a2	-0.27861506
80	0x3b572117	0.003282612
81	0xbe0e3754	-0.13888294
82	0xbca91bca	-0.020643134
83	0xbd1d1c6c	-0.038357183
84	0x3d32c39f	0.04364359
85	0x3cb93307	0.02260734
86	0xbdc994fe	-0.09842871
87	0xbdb74829	-0.0894931
88	0xbbd31234	-0.006441379
89	0x3d828bf7	0.063743524
90	0x3daa46ad	0.083142616
91	0xbd5d0d5c	-0.05396782
92	0x3df4d0f2	0.11953916
93	0xbd828041	-0.06372119
94	0x3dc861e5	0.09784297
95	0xbca0e707	-0.019641412
96	0x3c7840d1	0.015152172
97	0x3d8dbee8	0.06921178
98	0xbcde2969	-0.027119355
99	0x3de41a1e	0.11137794
100	0x3b4b9fc4	0.003107057
101	0x3d84765b	0.06467887
102	0x3d0c3dc4	0.03423859
103	0xbda14ef9	-0.07876391
104	0x3caf3da6	0.021391701
105	0xbcb49ce0	-0.02204746
106	0xbe172bd8	-0.14762819
107	0x3d5ca597	0.053868856
108	0xbe007e73	-0.12548237
109	0x3d10a7a9	0.035316143
110	0xbe84867d	-0.25883856
111	0xbd1f166c	-0.038839743
112	0xbc5033aa	-0.01270763
113	0xbd008462	-0.03137625
114	0xbdd31763	-0.10307195
115	0xbd134cc8	-0.035961896
116	0xbdaf996e	-0.08574186
117	0xbdb022c7	-0.08600383
118	0x3d29d34a	0.041461267
119	0xbd977494	-0.073952824
120	0x3d9d1a0c	0.07670984
121	0xbd9f3c8f	-0.077752225
122	0xbcfbb601	-0.030726435
123	0xbd629d5b	-0.055325847
124	0xbe53f651	-0.20699431
125	0xbcdd97c8	-0.027049914
126	0x3d501a0b	0.050806087
127	0xbd6e5af0	-0.058192194
128	0x3dc81700	0.09770012
129	0x3ce31a99	0.027722644
130	0xbd6284a6	-0.055302285
131	0xbdfa3f76	-0.122191355
132	0xbde40a67	-0.111347966
133	0xbd29a61c	-0.04141818
134	0x3daf9506	0.08573346
135	0xbd81daa4	-0.063405305
136	0xbc68700e	-0.014186872
137	0xbe748de0	-0.23882246
138	0x3c579f74	0.013160575
139	0x3e1bc01d	0.15210004
140	0x3ca70fad	0.020393217
141	0xbe0e9990	-0.13925767
142	0xbde4b537	-0.111673765
143	0xbdf020a9	-0.117249794
144	0xbb961c55	-0.004581014
145	0x3d7acebe	0.06123232
146	0xbd81c894	-0.06337085
147	0xbd011360	-0.031512618
148	0x3d126edc	0.035750255
149	0xbdcb309e	-0.09921382
150	0xbda67953	-0.081286095
151	0xbc4dcda6	-0.012561237
152	0xbd6ddbfa	-0.058071114
153	0x3d569590	0.052388728
154	0xbe3071eb	-0.17230956
155	0xbdae58da	-0.08513041
156	0xbbeabf92	-0.0071639502
157	0x3b4766b1	0.00304262
158	0xb928beb4	-0.00016092771
159	0xbca24882	-0.019809965
160	0xbd6cda4f	-0.057825383
161	0x3cf0fb97	0.029416842
162	0x3e20342c	0.15644902
163	0x3d169812	0.03676612
164	0xbd5f08e9	-0.054451857
165	0xbd1d0ed1	-0.03834421
166	0xbd900f8d	-0.07034216
167	0xbc70f2c1	-0.014706315
168	0xbd38923e	-0.045061342
169	0x3cc4f75f	0.024043737
170	0x3d325fd2	0.043548413
171	0xbc9c16b5	-0.019053796
172	0x3bf45d43	0.0074574067
173	0xbd86d033	-0.065826796
174	0xbde9f99e	-0.11424564
175	0x3cd4744f	0.025934367
176	0x3d9481d1	0.07251323
177	0xbd49a901	-0.04923344
178	0xbd82dc01	-0.06389619
179	0x3c6bc451	0.014390067
180	0xbd878132	-0.06616439
181	0xbd0934e3	-0.033497702
182	0x3b6e8482	0.0036394899
183	0xbd8e44bd	-0.069467045
184	0xbe8b46c9	-0.27202442
185	0x3c640159	0.013916337
186	0xbcb3d0d7	-0.021950169
187	0x3d6661be	0.056245558
188	0x3d47a42c	0.04874055
189	0xbc8e2b11	-0.01735452
190	0xbe5544e2	-0.20827058
191	0xbe5c9868	-0.21542513
192	0x3c64ac79	0.013957136
193	0xbdb24715	-0.08704964
194	0x3a1fa980	0.0006090626
195	0xbe2306dd	-0.15920587
196	0xbe05b2eb	-0.13056533
197	0xbe446c3f	-0.19181918
198	0xbdcb5eff	-0.099302284
199	0xbde2b5f4	-0.11069861
200	0xbdfc40d1	-0.1231705
201	0xbd9414e5	-0.07230548
202	0xbe43298d	-0.19058819
203	0xbdfd4340	-0.123663425
204	0xbcece85d	-0.028919393
205	0xbce243ad	-0.027620161
206	0xbda73319	-0.08164043
207	0xbda2f695	-0.07957188
208	0xbded039d	-0.11572955
209	0xbe1990b3	-0.14996605
210	0xbc7c1cbd	-0.015387711
211	0xbc81d891	-0.015850337
212	0xbdd4436d	-0.10364423
213	0x3cedfe91	0.02905205
214	0x3de2b99f	0.11070561
215	0xbc66bbc3	-0.014082852
216	0x3a492b18	0.0007673963
217	0xbd9a87b1	-0.07545412
218	0x3d3b1452	0.045673676
219	0x3c81565d	0.015788252
220	0x3dce5b0c	0.100759596
221	0x3c10d596	0.008839985
222	0xbd83ae7f	-0.06429767
223	0x3c6a09c2	0.014284553
224	0xbc634feb	-0.013874034
225	0xbdcc8d9d	-0.09987948
226	0x3c6ddde1	0.014518232
227	0xbc394d51	-0.011309938
228	0xbd333d3f	-0.04375958
229	0xbd0ef7e9	-0.034904394
230	0xbd256e81	-0.040388588
231	0xbdff6186	-0.12469773
232	0xbe054a97	-0.13016735
233	0x3de2519d	0.11050723
234	0x3d74dbdd	0.05977999
235	0xbd50f540	-0.05101514
236	0x3d3bfa67	0.0458931
237	0xbc225772	-0.009908544
238	0xbce10f3e	-0.027473088
239	0xbd85c0c3	-0.06530907
240	0x3c8c2c62	0.017111007
241	0xbd3d909f	-0.0462805
242	0x3cdedb82	0.027204279
243	0xbaa186e1	-0.0012323522
244	0x3d4995ea	0.049215235
245	0x3c049eff	0.008094548
246	0xbe0fe0ec	-0.14050645
247	0x3cd539cd	0.026028538
248	0x3d2c14ce	0.04201203
249	0xbb02eae2	-0.0019976427
250	0x3d25a576	0.040441
251	0xba3d00c9	-0.0007209895
252	0x3b6c050c	0.003601375
253	0x3cd2b774	0.025722243
254	0x3c9b337b	0.018945446
255	0xbde7f963	-0.113268636

fc2.bias f4 [400]
0	0xbe6f3697	-0.23360668
1	0xbd7ea50a	-0.062169112
2	0xbd3f6ea2	-0.046736367
3	0xbe28e584	-0.16493803
4	0xbddbbef9	-0.107297845
5	0xbe0038e0	-0.12521696
6	0xbe0e1576	-0.13875374
7	0xbe11fe33	-0.14257126
8	0xbdd567a8	-0.104201615
9	0xbe1375c3	-0.14400391
10	0xbe6abbc1	-0.22923185
11	0xbd916003	-0.07098391
12	0xbe869a57	-0.26289627
13	0xbdcd3aa0	-0.100209475
14	0xbe259d5e	-0.16173312
15	0xbdf40c70	-0.11916435
16	0xbe2beba5	-0.1678911
17	0xbda6c954	-0.08143869
18	0xbddfe700	-0.10932732
19	0xbd32bf4c	-0.043639466
20	0xbd332a94	-0.043741778
21	0xbe2165dd	-0.15761514
22	0xbe015d95	-0.12633355
23	0xbdcb4b50	-0.09926474
24	0xbdc093de	-0.094032034
25	0xbe6bd06f	-0.2302873
26	0xbd84b467	-0.064797215
27	0xbe5e4aec	-0.21708268
28	0xbdca64e0	-0.09882522
29	0xbdee3092	-0.11630358
30	0xbdc9a9f9	-0.09846873
31	0xbddfe1be	-0.10931729
32	0xbe0d3413	-0.13789396
33	0xbe1290a8	-0.14312994
34	0xbdecc764	-0.11561468
35	0xbdad0860	-0.08448863
36	0xbd58abcd	-0.052898217
37	0xbd50553c	-0.050862536
38	0xbe206756	-0.1566442
39	0xbe15ed0e	-0.1464121
40	0xbe0bcc90	-0.13652253
41	0xbd851445	-0.06498007
42	0xbda9643b	-0.082710706
43	0xbc9ed7bb	-0.019389978
44	0xbddafb84	-0.10692504
45	0xbe261b32	-0.16221312
46	0xbd81600f	-0.0631715
47	0xbdfeb455	-0.12436739
48	0xbd665c9f	-0.056240674
49	0xbdb539b0	-0.08848894
50	0xbde0c1c1	-0.109744556
51	0xbc7d23fe	-0.015450476
52	0xbe10f2ed	-0.14155169
53	0xbdebb323	-0.11508777
54	0xbd985f54	-0.074400574
55	0xbda17251	-0.07883132
56	0xbe2f898a	-0.1714231
57	0xbdf46ee8	-0.11935216
58	0xbd7690f8	-0.060196847
59	0xbda47b29	-0.080313034
60	0xbd409821	-0.04702008
61	0xbdd6d2ff	-0.10489463
62	0xbde535a7	-0.11191874
63	0xbdb96159	-0.09051771
64	0xbdbe7b4b	-0.0930086
65	0xbdb04df1	-0.08608616
66	0xbdd338f3	-0.103135966
67	0xbe044a8e	-0.12919065
68	0xbdd60c97	-0.1045162
69	0xbdd85770	-0.105635524
70	0xbd57989e	-0.05263578
71	0xbe1d653d	-0.1537065
72	0xbdb2f7ef	-0.08738696
73	0xbddaaa8e	-0.10677062
74	0xbe17e2f7	-0.14832674
75	0xbde508bd	-0.11183307
76	0xbdf7a00f	-0.12091076
77	0xbdc84e71	-0.097805865
78	0xbd89e261	-0.067326315
79	0xbdc60de3	-0.096706174
80	0xbe2a9fb1	-0.1666248
81	0xbdd77483	-0.1052027
82	0xbe1f0fc2	-0.15533355
83	0xbd52cbb8	-0.051463813
84	0xbd936402	-0.07196809
85	0xbe8afa98	-0.27144313
86	0xbe0cb8e2	-0.13742402
87	0xbd93420b	-0.07190331
88	0xbddf6578	-0.109080255
89	0xbdb96891	-0.090531476
90	0xbdb370ca	-0.08761747
91	0xbe2eef1b	-0.17083399
92	0xbd9c4473	-0.07630243
93	0xbe2e944b	-0.17048757
94	0xbd8ae149	-0.06781251
95	0xbe1cab93	-0.15299825
96	0xbdaad32a	-0.083410576
97	0xbdd52961	-0.10408283
98	0xbe02bdd7	-0.1276773
99	0xbd999967	-0.07499962
100	0xbd9b32f2	-0.075780764
101	0xbd2ddfba	-0.04244969
102	0xbd489fff	-0.04898071
103	0xbdb110ee	-0.08645807
104	0xbd640bda	-0.055675365
105	0xbd9fc27e	-0.07800768
106	0xbe0786c7	-0.13235007
107	0xbe4a12d9	-0.19733752
108	0xbdb70123	-0.08935764
109	0xbd8ef05a	-0.06979437
110	0xbe4ce265	-0.20008238
111	0xbdf187fa	-0.117935136
112	0xbd969079	-0.07351775
113	0xbddf83e1	-0.10913826
114	0xbdc27650	-0.094952226
115	0xbd8a6bb8	-0.06758827
116	0xbdba262d	-0.09089313
117	0xbdc80d2f	-0.097681396
118	0xbe43a7f6	-0.19107041
119	0xbe13b83a	-0.14425746
120	0xbdffc346	-0.12488417
121	0xbe9fd6f9	-0.312187
122	0xbcbb992f	-0.022900192
123	0xbde916e2	-0.11381318
124	0xbde65e61	-0.1124847
125	0xbe37d6f1	-0.17953087
126	0xbdb7e518	-0.08979243
127	0xbe6d807a	-0.23193541
128	0xbe37ba3a	-0.17942134
129	0xbe12f746	-0.1435214
130	0xbd4f093c	-0.050545916
131	0xbd7cee26	-0.061750554
132	0xbd8e9033	-0.069610976
133	0xbe0181db	-0.12647192
134	0xbe4cb917	-0.19992481
135	0xbd92e279	-0.071721025
136	0xbdd4d980	-0.10393047
137	0xbdd217e0	-0.1025846
138	0xbe0b93d3	-0.13630609
139	0xbde31c63	-0.11089399
140	0xbe4d8868	-0.20071566
141	0xbd5f55f5	-0.054525334
142	0xbd4e4120	-0.050355077
143	0xbdce5dc2	-0.10076477
144	0xbd899daf	-0.06719529
145	0xbde230a4	-0.11044434
146	0xbe18cbc1	-0.14921476
147	0xbe098eb3	-0.13433342
148	0xbd31f742	-0.043448694
149	0xbe17f472	-0.14839342
150	0xbdf066cf	-0.11738359
151	0xbe317f7f	-0.17333792
152	0xbdf0924d	-0.11746655
153	0xbdc0592a	-0.09392007
154	0xbe64b7e6	-0.22335777
155	0xbe06a50b	-0.13148896
156	0xbd7ac365	-0.0612215
157	0xbe28632f	-0.16444086
158	0xbe2bc68d	-0.1677496
159	0xbe45edce	-0.19328997
160	0xbdf471dd	-0.1193578
161	0xbdecf1f1	-0.11569584
162	0xbe54eefe	-0.20794293
163	0xbd9505fb	-0.07276531
164	0xbe12c699	-0.14333571
165	0x3da1d2eb	0.079015575
166	0xbda7ef67	-0.08199959
167	0xbe7413eb	-0.23835723
168	0xbe07dc7b	-0.132677
169	0xbe6ced6d	-0.23137446
170	0xbdbbf006	-0.0917664
171	0xbdfae0d8	-0.12249917
172	0xbdafd375	-0.08585254
173	0xbdfb3c02	-0.12267305
174	0xbdd32ebe	-0.1031165
175	0xbdabc8a5	-0.08387879
176	0xbda6184c	-0.08110103
177	0xbb850ec5	-0.0040605986
178	0xbe35ec35	-0.17765887
179	0xbdbaf3a3	-0.09128501
180	0xbdc18691	-0.09449495
181	0xbcd49d7d	-0.025954003
182	0xbd787559	-0.060658786
183	0xbe1c6192	-0.15271595
184	0xbd75ab9e	-0.05997812
185	0xbde6b7e8	-0.11265546
186	0xbe17e817	-0.14834629
187	0xbdc34044	-0.09533742
188	0xbd38e1fe	-0.045137398
189	0xbd8f94f8	-0.070108354
190	0xbdb86a4f	-0.09004652
191	0xbe2a3e36	-0.16625294
192	0xbd8a1731	-0.06742705
193	0xbddb81cb	-0.107181154
194	0xbd9ff755	-0.07810847
195	0xbd9351b6	-0.071933195
196	0xbddd7889	-0.10814006
197	0xbe193404	-0.14961249
198	0xbd152de9	-0.036420736
199	0xbdbfe687	-0.093701415
200	0xbd2442b4	-0.040102676
201	0xbe1281e0	-0.14307356
202	0xbde79b53	-0.113089226
203	0xbe1badfc	-0.15203089
204	0xbd8878dd	-0.06663678
205	0xbe2997ca	-0.16561809
206	0xbd7a902b	-0.061172646
207	0xbddd6f12	-0.108122006
208	0xbd3ba9ad	-0.045816112
209	0xbdbf2f85	-0.093352355
210	0xbe0e3b02	-0.13889697
211	0xbde3c17f	-0.11120891
212	0xbdb77376	-0.08957569
213	0xbdd70ddf	-0.105006926
214	0xbdc20c34	-0.09474984
215	0xbdd75573	-0.10514345
216	0xbdff7fe8	-0.12475568
217	0xbe6f3f6e	-0.2336404
218	0xbe058a11	-0.1304095
219	0xbdcadfde	-0.099059805
220	0xbd4c7661	-0.049917582
221	0xbd86a7a5	-0.065749444
222	0xbdd569b7	-0.10420554
223	0xbdcbd9ba	-0.099536374
224	0xbe1f99dd	-0.15586038
225	0x3b1a83af	0.0023577025
226	0xbe923084	-0.2855264
227	0xbdd49c83	-0.10381415
228	0xbdc73044	-0.09726003
229	0xbdc26f94	-0.09493938
230	0xbe0e8759	-0.13918819
231	0xbdf9a6a2	-0.12189986
232	0xbe034fea	-0.12823454
233	0xbe55524c	-0.20832175
234	0xbdb9fabe	-0.090810284
235	0xbd6a72bb	-0.05723832
236	0xbd91363d	-0.07090423
237	0xbe043cbf	-0.12913798
238	0xbdbfaca6	-0.09359102
239	0xbe58edf6	-0.21184525
240	0xbd7ab7e1	-0.061210517
241	0xbda9e7a6	-0.082961366
242	0xbe0df1c2	-0.13861755
243	0xbd51e6c0	-0.05124545
244	0xbdeb2144	-0.11480954
245	0xbdba273d	-0.09089515
246	0xbd4b3deb	-0.049619596
247	0xbdcc4af2	-0.09975232
248	0xbe4b0137	-0.19824682
249	0x3cdcb96f	0.02694389
250	0xbcc723d5	-0.024309078
251	0xbda7c263	-0.08191373
252	0xbdbc1f8c	-0.091857046
253	0xbd464ca9	-0.048412953
254	0xbdb9a672	-0.0906495
255	0xbe742c67	-0.23845063

fc3.weight f4 [1, 400]
0	0x3b8faba3	0.0043844744
1	0xbd4437d0	-0.04790479
2	0xbc18983a	-0.009313637
3	0x3c9851f2	0.018593762
4	0x3c31eecf	0.010860159
5	0xbd9bffaf	-0.07617127
6	0xbceab64e	-0.028651383
7	0xbc4cd130	-0.012501046
8	0x3c3fafdb	0.011699642
9	0xbc6edc41	-0.01457888
10	0xbc802d6a	-0.015646655
11	0x3a876ee3	0.001033273
12	0xbcb87a4b	-0.022519251
13	0x3cc2257b	0.023699513
14	0xbd7e55a0	-0.062093377
15	0x3c53f07a	0.012935752
16	0x3b000432	0.001953375
17	0xbcb495bc	-0.022044055
18	0x3ba8a7b7	0.0051469463
19	0x3cb0ad13	0.021566903
20	0x3c5890c8	0.013218112
21	0x3b0f6854	0.0021882253
22	0xbbe6061f	-0.0070197727
23	0xbcda931f	-0.02668148
24	0xbc46dd8f	-0.012137785
25	0xbd02b29d	-0.03190862
26	0x3b74e13b	0.0037365693
27	0x3d31d73d	0.043418158
28	0x3c706e78	0.014674775
29	0xbbc96145	-0.0061456286
30	0x3ce1941f	0.02753645
31	0x3b39cf71	0.0028352404
32	0xbcbd282a	-0.02309044
33	0xbc4ae36e	-0.012383325
34	0x3c003f15	0.00782754
35	0x3ca6e4cd	0.020372773
36	0xbc16ea6b	-0.009211163
37	0xbbb21692	-0.0054348195
38	0x3b3fd172	0.0029269126
39	0xbc3e8bfb	-0.011630054
40	0xbc8d6534	-0.017260171
41	0xbc879930	-0.016552538
42	0xbb1f6ebc	-0.0024327477
43	0xbcbdfeae	-0.02319273
44	0xbc51c5fd	-0.012803552
45	0x3a4e7d31	0.00078769313
46	0xbc3a84ec	-0.01138423
47	0xbc776088	-0.015098698
48	0x3c544766	0.012956476
49	0x3c36d92b	0.011160175
50	0x3c43a57f	0.011941313
51	0xbcb4c403	-0.022066122
52	0xbb5412f0	-0.003235992
53	0x3c7d3019	0.015453362
54	0xbc281f7f	-0.0102614155
55	0xbcf2f723	-0.02965886
56	0x3cce1cde	0.02516025
57	0x3cb6e598	0.022326276
58	0x3cb533e3	0.022119468
59	0x3c128375	0.008942475
60	0xbce0acb8	-0.027426109
61	0x3b71e350	0.003690917
62	0xbc79aa8c	-0.015238415
63	0xbc3d5fd5	-0.011558493
64	0xbcaad98a	-0.020855684
65	0x3d244de1	0.040113334
66	0xbc9f499a	-0.019444276
67	0x3c03980a	0.008031854
68	0xbc27ab09	-0.010233649
69	0xbcbc5e6c	-0.022994243
70	0xbb181d4c	-0.0023210822
71	0x3b17d5dd	0.0023168244
72	0x3c0368e2	0.0080206115
73	0xbca2f41d	-0.019891793
74	0x3b49b40e	0.0030777487
75	0xbcdb7e68	-0.026793674
76	0xbbec28fb	-0.0072070337
77	0x3c661639	0.014043384
78	0xbd177804	-0.03697969
79	0xbc3e2e07	-0.011607653
80	0x3cb0fe12	0.021605525
81	0x3d49fd6c	0.049313948
82	0xbcb79b4f	-0.022412924
83	0xbb0529d5	-0.0020319123
84	0xbce5e371	-0.028062554
85	0x3c928a3c	0.01788818
86	0xbcdd87dc	-0.027042322
87	0x39e9aea6	0.00044571346
88	0x3b2aa052	0.00260355
89	0x3c915750	0.01774183
90	0x3cc45ba5	0.02396948
91	0xbcce6327	-0.025193764
92	0xbd0d775e	-0.034537666
93	0x3cb0b613	0.021571195
94	0x3caf28c3	0.021381741
95	0x3bca4152	0.0061723376
96	0x3ccdaa8e	0.02510574
97	0xbaa2e29d	-0.0012427155
98	0x3cb639f6	0.022244435
99	0x3c9d41ad	0.019196356
100	0xbca1acb0	-0.019735664
101	0x3a07292f	0.0005155978
102	0x3c05b921	0.008161814
103	0x3cc44279	0.023957478
104	0xbb981730	-0.004641436
105	0xbc810cdf	-0.015753208
106	0x3c2c29c6	0.010508006
107	0xbbd1fc08	-0.0064082183
108	0x3ca585fa	0.020205487
109	0xbce2b555	-0.027674356
110	0x3d66cb8e	0.05634647
111	0xb8424e41	-4.6326084e-05
112	0xbc1cbd4f	-0.009566619
113	0x3c96211b	0.018326333
114	0x3c0da4c8	0.008645244
115	0x3bca4b32	0.0061735148
116	0x3d1b0f6a	0.037856497
117	0xbc3fb9e3	-0.011702034
118	0x3cba086d	0.022709096
119	0xbcc88ea9	-0.024482088
120	0x3c5a59a9	0.013327041
121	0xbd3b7fd4	-0.045776203
122	0xbc992b44	-0.018697388
123	0xbc9e2f1c	-0.019309573
124	0xbaea8c26	-0.0017894551
125	0x3b65ec1f	0.0035083366
126	0x3befeaed	0.0073217065
127	0x3d32690b	0.043557208
128	0x3bd6633a	0.0065425904
129	0x3b518a2a	0.0031973221
130	0x3c6da986	0.01450575
131	0x3c014b3d	0.007891473
132	0xbb0f080e	-0.002182487
133	0xbc2efb2e	-0.010680003
134	0x3d6b5783	0.057456505
135	0xba59e622	-0.00083121855
136	0xba5b7f19	-0.0008373126
137	0x39ca0e12	0.00038538926
138	0xbba3ec11	-0.0050025065
139	0x3bde53d4	0.0067848954
140	0x3b211d7e	0.002458423
141	0x3cb90d8a	0.022589464
142	0xbacdd46d	-0.0015703567
143	0xbc335336	-0.010945132
144	0x3b8930ab	0.00418671
145	0xbae31378	-0.0017324528
146	0x3d275303	0.04085065
147	0xbcab8099	-0.020935344
148	0xbc0d13ae	-0.008610649
149	0x3c29283d	0.010324535
150	0x3cb32533	0.021868324
151	0xbc8dd23d	-0.017312163
152	0xbc031112	-0.007999675
153	0xbccec78f	-0.025241641
154	0x3d28d558	0.041219085
155	0xbcc878e3	-0.024471706
156	0xbc9806f2	-0.018558
157	0xbd9849db	-0.07435962
158	0x3c98f8b5	0.01867328
159	0xbc91a2ba	-0.01777779
160	0x3b9d895a	0.0048076333
161	0x3c36ea1c	0.011164214
162	0xbcdd4425	-0.027010033
163	0xbbf93349	-0.0076049906
164	0x3d4d6a5c	0.05015026
165	0xbcfed316	-0.031106513
166	0x3a6079a1	0.0008563046
167	0x3b194c4a	0.002339142
168	0x3c5dda80	0.013540864
169	0x3aad2d79	0.0013212404
170	0xba5572e2	-0.0008142424
171	0xbc053e91	-0.008132593
172	0x3d03970e	0.03212648
173	0xbccc82d7	-0.024964733
174	0x3b8d05fd	0.0043036924
175	0x3cda2803	0.026630407
176	0xbcd947ed	-0.026523555
177	0xbd19778a	-0.037467517
178	0xbbbdd429	-0.0057931137
179	0x3c6d2532	0.0144742
180	0xbc16c1f7	-0.009201518
181	0x3bdbb457	0.006704848
182	0x3ce2c4d9	0.027681755
183	0x3c57b8c9	0.013166615
184	0x3cb9e469	0.022691922
185	0xbcacd5dc	-0.02109807
186	0x3c84dcb0	0.016218513
187	0x3901f848	0.0001239489
188	0xbaffdcd3	-0.0019520767
189	0xbc281e39	-0.010261112
190	0xbcae1c92	-0.021253858
191	0xbd334e63	-0.043775927
192	0xbbf195d3	-0.0073725968
193	0xbc30d944	-0.010793988
194	0xb91bbbb4	-0.00014851877
195	0x3bc5f11e	0.0060407063
196	0xbb9933a3	-0.004675345
197	0x3b1a6932	0.0023561236
198	0x3c81bf34	0.015838243
199	0x3c948709	0.018130796
200	0xbbddc5da	-0.0067679705
201	0xbd62e55e	-0.055394523
202	0x3ca252d0	0.019814879
203	0xbd34aeed	-0.044112135
204	0x3c7c92c0	0.015415847
205	0xbc468722	-0.012117179
206	0x3b82651b	0.003979338
207	0x3b502ddc	0.0031765616
208	0xbc032fc3	-0.008006993
209	0x3c431e59	0.011909091
210	0x3cc494ae	0.023996677
211	0x3c756099	0.014976644
212	0xbbf4ef09	-0.0074747843
213	0xb99fcf9f	-0.00030481533
214	0x3c9eea60	0.019398868
215	0xbc8570d7	-0.016289158
216	0x3cc3efd2	0.023918066
217	0x3b988f76	0.0046557738
218	0x3b7584c9	0.003746318
219	0x3cbf7a33	0.023373699
220	0xbcc8d824	-0.024517126
221	0x3c41d30e	0.0118301045
222	0xbc832d2b	-0.016012749
223	0xbd4a9b24	-0.04946436
224	0x3cab7617	0.020930333
225	0x3cec4d73	0.028845524
226	0x3d97367d	0.0738344
227	0xbbdb79cd	-0.0066978694
228	0xbc3d7d09	-0.011565455
229	0x3b0697e7	0.0020537318
230	0xbafaa317	-0.0019122091
231	0xbb054a7b	-0.0020338583
232	0xbd1d9821	-0.03847516
233	0x3c98e1b1	0.018662306
234	0x3cb65c3f	0.022260783
235	0x3b3e8b81	0.002907485
236	0x3cd67ece	0.026183512
237	0xbc60a785	-0.013711815
238	0xbc28c362	-0.010300489
239	0xbd7e5969	-0.062096987
240	0x3c2b9925	0.010473524
241	0x3c373957	0.0111831045
242	0xbbb9a520	-0.0056654364
243	0x3c4f699c	0.012659457
244	0xbcbf49f8	-0.0233507
245	0x3c5d9246	0.013523644
246	0x3bc68b22	0.0060590664
247	0xbd88234c	-0.06647357
248	0x3d3defef	0.046371397
249	0xbce4afe7	-0.027915908
250	0x3cb17e06	0.021666538
251	0xbcf3c31c	-0.029756121
252	0x3baaf585	0.0052172565
253	0x3c49f8c6	0.012327379
254	0x3cfccd90	0.030859739
255	0x3c6e02f2	0.014527069

bn2.weight f4 [300]
0	0x3dd05c2c	0.101738304
1	0x3da83246	0.08212714
2	0x3e08413c	0.13306135
3	0x3e969b66	0.29415435
4	0x3e2147c4	0.15750033
5	0x3e2aadea	0.16667905
6	0x3e43c17c	0.19116777
7	0x3db6f65e	0.089337096
8	0x3eab726a	0.33485729
9	0x3e0419c8	0.1290046
10	0xbd5db26e	-0.054125242
11	0x3d50e4a4	0.0509993
12	0x3d86da19	0.065845676
13	0x3e0c2ff2	0.13690165
14	0x3ec463af	0.38357303
15	0x3e14622b	0.14490573
16	0x3dec776b	0.11546215
17	0x3dd46890	0.10371506
18	0x3d4abf4d	0.049498845
19	0x3dc36ba6	0.09542017
20	0x3b60eda8	0.0034321342
21	0x3e07f1ad	0.13275786
22	0xbd52a820	-0.051429868
23	0x3dfb39bb	0.122668706
24	0x3df95b0a	0.121755674
25	0x3dac36be	0.08408879
26	0x3e0e57ef	0.13900732
27	0x3f6466b6	0.89219224
28	0x3dc09b84	0.09404662
29	0x3e9dfc81	0.30856708
30	0x3e5ed807	0.21762095
31	0x3e6f45f7	0.23366533
32	0x3dd0e588	0.102000296
33	0x3dd5c805	0.10438541
34	0x3d33eceb	0.043927114
35	0x3ce90921	0.028446736
36	0x3dea6c52	0.11446442
37	0x3e0ecc7a	0.13945189
38	0x3d9ddf66	0.077086255
39	0x3e6c52ce	0.23078462
40	0x3e819f48	0.25316834
41	0x3d93d585	0.0721846
42	0x3db37845	0.08763174
43	0x3e017aee	0.1264455
44	0x3d8125ce	0.06306039
45	0x3e37dd88	0.17955601
46	0x3dfee712	0.12446417
47	0x3daec3d3	0.08533444
48	0x3dae6297	0.08514898
49	0x3dee9f17	0.11651438
50	0x3dde6281	0.10858632
51	0xba2e2499	-0.0006643027
52	0x3f14dbdc	0.5814798
53	0x3de2ba92	0.11070742
54	0x3f09f99d	0.53896505
55	0x3d341bba	0.043971755
56	0x3e6dd577	0.23225962
57	0x3eaccb4b	0.3374885
58	0x3f9a75ce	1.2067201
59	0x3d77d43f	0.060505148
60	0x3dfcb598	0.12339324
61	0x3e08c532	0.13356474
62	0x3e9d494e	0.3071999
63	0x3dac6ead	0.08419547
64	0x3dd5bcbc	0.10436389
65	0x3e56d41d	0.20979352
66	0x3dc4200b	0.09576424
67	0x3dec75b9	0.11545891
68	0x3d906981	0.07051373
69	0xbdc6acd0	-0.0970093
70	0x3d568e4e	0.052381806
71	0x3e81150e	0.25211376
72	0x3ddb1801	0.10697938
73	0x3df9d0d7	0.12198036
74	0x3deb3d1b	0.11486264
75	0x3d7db770	0.061942518
76	0x3da8a704	0.08234981
77	0x3e01460b	0.12624376
78	0x3d45353c	0.04814647
79	0x3e054d87	0.13017856
80	0x3da4eb51	0.080526955
81	0x3e10121e	0.14069411
82	0x3e2d8c4a	0.16948047
83	0x3e073b9f	0.13206337
84	0x3da254e9	0.079263516
85	0x3ddb8e45	0.10720495
86	0x3e043c34	0.1291359
87	0x3e20c50e	0.1570017
88	0x3d09e785	0.03366806
89	0xbd648b9c	-0.055797204
90	0xbe112cd6	-0.1417726
91	0x3e800c53	0.25009403
92	0x3d50cccf	0.05097657
93	0x3dd84c56	0.10561435
94	0x3f5c0d1f	0.8595752
95	0x3f0d5b8d	0.5521782
96	0x3d71e887	0.059059646
97	0x3e29b317	0.16572224
98	0x3de15d52	0.110041276
99	0x3f26581b	0.6497819
100	0x3da187f8	0.07887262
101	0x3e2eed69	0.17082752
102	0x3e598491	0.21241976
103	0x3ecd5e5f	0.40111062
104	0x3e1f996a	0.15585867
105	0x3e02ceb1	0.12774159
106	0x3e1680ea	0.14697614
107	0x3e8299cf	0.25507972
108	0x3cf5e57c	0.030016653
109	0x3dd0d245	0.10196356
110	0x3f176979	0.59145314
111	0x3e0f43fa	0.13990775
112	0x3da82fb0	0.08212221
113	0x3e1a4b31	0.15067746
114	0x3dba2f05	0.090909995
115	0x3d9eb291	0.077489026
116	0x3dc7fd81	0.09765149
117	0x3dedb2cf	0.11606371
118	0x3e4c4b85	0.19950683
119	0x3d6e9c10	0.0582543
120	0x3e02512e	0.1272628
121	0x3f0654c8	0.52473116
122	0x3d11fbe9	0.03564063
123	0x3da5f8ce	0.08104096
124	0x3cad1a71	0.021130772
125	0x3e6aa7c8	0.22915566
126	0x3e4d4493	0.2004569
127	0x3d5457bd	0.051841486
128	0x3e0c466e	0.13698742
129	0x3e0dca15	0.1384662
130	0x3dc10935	0.09425584
131	0x3e405c8f	0.18785308
132	0x3defbee6	0.11706333
133	0x3d81c749	0.06336839
134	0x3ddf2d41	0.108973034
135	0xbdd1210f	-0.102113836
136	0x3e6c1b08	0.23057187
137	0x3f0dd8d2	0.55408967
138	0xbda1f651	-0.07908309
139	0xbd58787c	-0.052849278
140	0x3da5bd54	0.08092752
141	0x3d84c35c	0.06482574
142	0x3d8cfc79	0.06884093
143	0x3eb9b56e	0.36271232
144	0x3d886a3e	0.06660889
145	0x3e6c4fe7	0.23077355
146	0x3e7f5603	0.24935155
147	0x3f0ae337	0.5425295
148	0x3d02e721	0.031958703
149	0x3e3cd787	0.18441592
150	0x3d9a00bb	0.075196706
151	0x3e38ed6e	0.18059322
152	0x3e00d574	0.12581426
153	0x3db2db34	0.08733216
154	0x3db98581	0.09058667
155	0x3dbda24c	0.09259471
156	0x3dfacbd7	0.122459106
157	0x3dbc2cc8	0.09188229
158	0x3b116b09	0.0022189042
159	0x3e922834	0.28546298
160	0x3dd6053a	0.10450216
161	0x3e221967	0.15830003
162	0x3e8e01bb	0.27735695
163	0x3dfcfc93	0.12352862
164	0x3d97ab46	0.07405715
165	0x3e067733	0.13131408
166	0x3e0cf40e	0.13764974
167	0x3d98075e	0.0742328
168	0x3e597bee	0.21238682
169	0x3e248fe7	0.1607052
170	0x3d842a53	0.06453385
171	0x3e0e4d7c	0.13896745
172	0x3e3a7c6c	0.18211526
173	0x3e195bd8	0.14976442
174	0x3d9d0c2b	0.076683365
175	0x3dd839c4	0.10557893
176	0x3e4fed4b	0.20305364
177	0x3e09bab8	0.13450134
178	0x3e069f27	0.1314665
179	0xbcb6118d	-0.022225166
180	0x3c80ad95	0.01570777
181	0x3bab942e	0.0052361703
182	0x3ddbc6f9	0.107313104
183	0x3db666bb	0.08906313
184	0x3ed28b9f	0.41122147
185	0x3e3fb54b	0.18721502
186	0x3e83c3eb	0.2573541
187	0xbda2ec79	-0.0795526
188	0x3e72cd31	0.23711087
189	0x3e9918fd	0.29901877
190	0x3e24a8d5	0.1608003
191	0x3e276c21	0.16349842
192	0x3e80de0e	0.25169414
193	0x3dc49d50	0.096003175
194	0x3de16bc6	0.11006884
195	0xbcb19f94	-0.021682538
196	0x3de8aabd	0.11360691
197	0x3ec75d3a	0.38938314
198	0x3e86b524	0.26310074
199	0x3d5bdf8f	0.05368
200	0x3da112c3	0.07864907
201	0x3d496faf	0.049178775
202	0x3e3be333	0.18348388
203	0x3d56fd1f	0.05248749
204	0x3d8e517a	0.06949134
205	0x3decb219	0.11557407
206	0x3e83ba13	0.257279
207	0x3da9585e	0.08268808
208	0x3f562e24	0.83664155
209	0x3d817771	0.0632161
210	0x3e59e443	0.21278481
211	0x3d9f7ab7	0.07787078
212	0x3e29ac17	0.16569553
213	0x3e00b896	0.12570414
214	0x3e97aafd	0.2962264
215	0x3db7e0d8	0.089784324
216	0x3e6e598e	0.2327635
217	0x3e981900	0.29706573
218	0x3e0da5be	0.13832757
219	0x3d9dcf23	0.07705524
220	0x3e849c9f	0.25900742
221	0x3e01341f	0.12617539
222	0x3e227b88	0.15867436
223	0x3e1a97ca	0.15096965
224	0x3dda4663	0.106579565
225	0x3e0e1bb6	0.13877758
226	0x3d68cfbe	0.056838743
227	0x3de5e682	0.112256065
228	0x3e2986d3	0.16555338
229	0x3d85889a	0.06520195
230	0x3d9e8b86	0.07741456
231	0x3e48e5b8	0.19618881
232	0x3e32f711	0.17477061
233	0x3c8d0359	0.01721351
234	0x3de25155	0.11050669
235	0x3e099825	0.13436945
236	0x3d8018a1	0.062546976
237	0x3e9e9323	0.3097163
238	0x3d2577b6	0.04039737
239	0x3d9e64a0	0.077340364
240	0x3e2ab4a6	0.16670474
241	0x3d8f6e56	0.07003467
242	0x3e084fb1	0.1331165
243	0x3d8b1b17	0.06792276
244	0x3eca119e	0.39466566
245	0x3dd4b16f	0.10385405
246	0x3e98d769	0.29851845
247	0x3e407362	0.18794015
248	0x3de90cc0	0.11379385
249	0x3d78a045	0.06069972
250	0x3f7b9618	0.982759
251	0x3e5196ba	0.20467654
252	0x3df6af96	0.12045209
253	0x3d4db0df	0.050217506
254	0x3df1b631	0.118023284
255	0x3d43c8f5	0.04779907

bn2.bias f4 [300]
0	0x3cd10656	0.025515717
1	0x3cea0ad3	0.028569615
2	0x3cbf4be2	0.023351613
3	0x3db145bf	0.08655881
4	0xbc01ba9c	-0.007918026
5	0x3d0b3107	0.033982303
6	0x3d3822ef	0.04495519
7	0x3cdfdc4d	0.027326727
8	0x3dc532be	0.09628819
9	0x3d871e4b	0.06597575
10	0xbe8c7827	-0.2743542
11	0x3bfc298b	0.007695382
12	0x3cbe388c	0.023220323
13	0x3d845eca	0.06463392
14	0x3d996482	0.074898735
15	0x3d6a3101	0.05717564
16	0x3d208d1e	0.03919708
17	0x3c800ad1	0.015630158
18	0x3d08f3a9	0.033435497
19	0x3d18bb43	0.03728796
20	0xbb0a93f0	-0.0021145307
21	0x3d0a7a91	0.033808295
22	0xbe2a1b40	-0.16611958
23	0x3c800f89	0.015632408
24	0x3cdd1df8	0.02699183
25	0x3d0f8315	0.03503712
26	0x3d8b9591	0.06815637
27	0x3e6c3889	0.23068441
28	0x3ca28034	0.019836523
29	0x3e1aeedb	0.15130179
30	0x3d4d56c4	0.050131574
31	0x3d50cd12	0.05097682
32	0x3d49f5bf	0.049306627
33	0x3d33268e	0.04373794
34	0x3b0ef796	0.0021815053
35	0xbb84fd41	-0.0040585105
36	0x3c94b566	0.018152904
37	0x3d19ae4c	0.037519738
38	0x3ca3ce0b	0.01999571
39	0x3d822a1a	0.063556865
40	0x3dfc03be	0.12305401
41	0x3ca93b4a	0.020658154
42	0x3c9f2d10	0.019430667
43	0x3d713e2d	0.058897186
44	0x3c8f8edd	0.017524177
45	0x3d1e0dd2	0.0385874
46	0x3d2cb16a	0.042161383
47	0x3c887d07	0.01666118
48	0x3cc086c8	0.023501769
49	0x3ce5678b	0.028003475
50	0x3cdb0f52	0.026740704
51	0x391d455f	0.0001499853
52	0x3e13ebe2	0.14445451
53	0x3d34297c	0.043984875
54	0x3dd1071c	0.10206434
55	0x3b1e4cf1	0.0024154747
56	0xbcc9786d	-0.024593556
57	0x3dc61b47	0.096731715
58	0x3eb29722	0.3488093
59	0x3c4caeb0	0.012492821
60	0x3d5ac60b	0.053411525
61	0x3dc185e5	0.094493665
62	0x3e35515c	0.17706817
63	0x3d0c2912	0.034218855
64	0x3ca4fa68	0.020138934
65	0x3d9e46db	0.07728358
66	0x3d02aa1d	0.031900514
67	0x3cb32df5	0.0218725
68	0x3c520f10	0.012820974
69	0xbd0c080f	-0.034187373
70	0x3d919337	0.07108157
71	0x3e278b7a	0.163618
72	0x3d18f4c6	0.03734281
73	0x3c69414c	0.014236759
74	0x3d1eff58	0.038817734
75	0x3cc12da4	0.023581333
76	0x3cc69a63	0.02424354
77	0x3ab4ac00	0.001378417
78	0x3c4a66fa	0.012353653
79	0x3d81548d	0.06314955
80	0x3c688ec5	0.014194195
81	0x3d0c645f	0.03427541
82	0x3dd8bf45	0.10583357
83	0x3d629293	0.055315565
84	0xbb9e9658	-0.0048396997
85	0x3d6272c6	0.055285238
86	0x3d8b1106	0.06790356
87	0x3cc7be07	0.024382604
88	0xba7f0cf4	-0.0009729408
89	0xbcee36b9	-0.029078828
90	0xbd302e2a	-0.043012775
91	0x3dd13e50	0.10216963
92	0x3baa2217	0.005192052
93	0x3c93126a	0.017953116
94	0x3e29de84	0.16588789
95	0x3e6037f7	0.21896349
96	0x3c8c782f	0.017147152
97	0x3d519dc7	0.05117586
98	0x3cee70a3	0.029106444
99	0x3dfcc91e	0.123430476
100	0x3cde6ff6	0.027152997
101	0x3da9cb7e	0.08290766
102	0x3d5092cc	0.050921246
103	0x3e9af24f	0.30262992
104	0x3d663e34	0.056211665
105	0x3d6c8210	0.057741225
106	0x3d80ec0c	0.06295022
107	0x3db7f950	0.089830995
108	0x3b1b1ec6	0.0023669465
109	0x3c9712ce	0.018441584
110	0x3e88ea00	0.26741028
111	0x3dad9924	0.08476475
112	0x3c9e6fbf	0.019340394
113	0x3d2aa383	0.041659843
114	0x3d223470	0.03960079
115	0x3c24e109	0.010063418
116	0x3ca22838	0.019794568
117	0x3cfb1ccf	0.030653385
118	0x3dabcfef	0.083892696
119	0x3c98f800	0.018672943
120	0x3d3f0e4f	0.046644505
121	0x3e66ff96	0.22558436
122	0x3c26b2a1	0.010174424
123	0x3cf1543b	0.02945911
124	0xba974f04	-0.0011543934
125	0x3def5d34	0.11687699
126	0x3dcb7520	0.09934449
127	0x3b85113d	0.004060893
128	0x3d6b6752	0.05747158
129	0x3caa03b8	0.020753726
130	0x3d0e7a3e	0.034784548
131	0x3d662219	0.05618486
132	0x3d99d118	0.075105846
133	0x3c85755b	0.016291311
134	0x3ce95174	0.028481223
135	0xbc9b4d05	-0.018957624
136	0x3de6f042	0.11276294
137	0x3ead0463	0.3379241
138	0xbbf48f75	-0.0074633905
139	0xbd816ac2	-0.063191906
140	0x3d559b57	0.052150097
141	0x3db90cad	0.09035621
142	0x3ca02573	0.019549107
143	0x3e1d6440	0.15370274
144	0x3c03e0cd	0.008049202
145	0x3d3f65a5	0.046727795
146	0x3d8dfdba	0.0693316
147	0x3e770f14	0.24126846
148	0x3cc56022	0.024093691
149	0x3da39bba	0.07988687
150	0x3c63845d	0.013886538
151	0x3daa765c	0.083233565
152	0x3d14a851	0.03629333
153	0x3d18a9a5	0.03727116
154	0x3cbbea9a	0.022939015
155	0x3cdd3b6f	0.02700588
156	0x3ca90756	0.02063338
157	0x3d05f048	0.032699853
158	0xbb82cce2	-0.003991709
159	0x3d896958	0.06709546
160	0x3d08ce97	0.033400144
161	0x3d5945c9	0.053045068
162	0xbd698ed6	-0.057020985
163	0x3d0f7361	0.035022143
164	0x3c9d1af4	0.019177891
165	0x3c940185	0.01806713
166	0x3d1515b1	0.03639764
167	0x3c24baa8	0.010054268
168	0x3d43d281	0.047808174
169	0x3d8a470e	0.06751834
170	0x3c2feedc	0.010738101
171	0x3d6469ca	0.05576495
172	0x3da67058	0.081268966
173	0x3d817159	0.063204475
174	0x3cab346c	0.02089902
175	0x3b175ff9	0.0023097976
176	0x3d4443ff	0.04791641
177	0x3d214328	0.039370686
178	0x3d5855b0	0.052816093
179	0xbb003c92	-0.0019567353
180	0x3b279ca7	0.002557555
181	0xbab5f831	-0.0013883171
182	0x3c3b2975	0.011423458
183	0x3ccaa818	0.024738356
184	0x3e17bd50	0.1481831
185	0xbb1779d5	-0.002311339
186	0x3d1cd3ee	0.03828805
187	0xbca71a0b	-0.02039816
188	0x3e0bf6a1	0.136683
189	0x3df8e381	0.12152768
190	0x3d9cfdc3	0.07665589
191	0x3da61879	0.081101365
192	0x3d384766	0.044989966
193	0x3c841b72	0.016126368
194	0xbbd07bf5	-0.006362433
195	0x3def94e7	0.11698323
196	0x3c48ef97	0.012264154
197	0x3e8a81e1	0.27052215
198	0x3dd57aee	0.104238376
199	0x3cca4172	0.02468941
200	0x3c78eda1	0.015193374
201	0xbae82b32	-0.0017713069
202	0x3dd8440f	0.10559856
203	0xb993e4f7	-0.00028208617
204	0x3c0f33db	0.008740391
205	0x3d16790d	0.036736537
206	0x3e399687	0.18123828
207	0x3c9055c7	0.017619027
208	0x3e8733a1	0.26406577
209	0x3c32658b	0.010888468
210	0x3de4f3db	0.11179324
211	0x3cf66500	0.030077457
212	0x3d98b2bf	0.07455968
213	0x3d763da5	0.060117383
214	0x3dcaba08	0.09898764
215	0x3cb3e12e	0.02195796
216	0x3d87ae34	0.066250235
217	0x3df09771	0.11747635
218	0x3d5bdc4b	0.053676885
219	0x3c3b45b4	0.011430193
220	0x3d1e579d	0.038657773
221	0x3d150b84	0.036387935
222	0x3d8e28ba	0.06941362
223	0x3d3cf52f	0.046132263
224	0x3d18f578	0.037343472
225	0x3d0f2678	0.034948796
226	0x3c5c7250	0.013454989
227	0x3c9bc5b3	0.019015169
228	0x3d1b437e	0.037906162
229	0x3c073026	0.008251226
230	0x3ce2c371	0.027681084
231	0x3d866c8d	0.06563673
232	0x3d0eb6c8	0.034842283
233	0x3b694667	0.0035594942
234	0x3d5a9756	0.05336698
235	0x3cf644fd	0.030062193
236	0x3ca7d754	0.020488419
237	0x3de6aff6	0.11264031
238	0x3c966277	0.018357499
239	0x3c324e3f	0.010882913
240	0x3d86b329	0.06577141
241	0x3d254b25	0.040354867
242	0x3d1b6826	0.03794112
243	0x3cb2cfa7	0.021827532
244	0x3df8aade	0.12141965
245	0x3d4459b4	0.04793711
246	0x3e416517	0.18886219
247	0x3d8d35b7	0.06895011
248	0x3c4ba52d	0.012429518
249	0x3be603e5	0.0070195072
250	0xbcbe5df9	-0.023238169
251	0x3d86c3f8	0.06580347
252	0x3d8b3ebd	0.06799076
253	0x3c4b3852	0.0124035645
254	0x3cede71b	0.029040864
255	0xbc237ad9	-0.00997802
