pretrainedNetworks/critic_target2.pth (torch_old, 553166 bytes, 9 tensors)

fc1.weight f4 [300, 52]
0.050438024 0.82284176 0.14000048 0.017034722 0.1517529 -0.008094322 0.11447368 0.015882717
0.12432717 0.68805575 -0.07850394 -0.26019853 -0.07379854 0.041767117 -0.107917696 -0.29108617
0.05054366 0.5877118 -0.07490283 0.2530223 -0.39496204 -0.0718983 -0.09513372 0.29088384
0.07958566 1.4969654 -0.107989386 -0.1052946 -0.116452985 0.037772056 -0.12355787 -0.16808769
0.11517807 1.4000406 0.13020623 0.049867433 0.0890665 0.014119846 0.10132767 0.050001215
0.17385493 1.2618785 0.12408586 -0.20294185 0.40102407 -0.032856062 0.046919763 -0.23254481
-0.25388297 0.5536707 -0.14094856 1.8222703 0.25756377 -0.3387247 0.07635081 -0.05282604
-0.006891087 -0.31442446 0.08615259 -0.09107373 0.152552 -0.25113115 -0.24513623 -0.22386658
0.07526088 -0.25413647 -0.2085485 -0.21604094 0.01835579 -0.18124588 -0.10785879 0.28161597
0.1589994 0.04984239 -0.0595215 0.24628107 0.55122614 0.41980612 -0.13205206 -0.10409956
0.027109765 -0.30853933 -0.19880758 -0.12541917 0.40084 0.33279037 -0.314064 -0.102659605
-0.070494354 -0.21926202 -0.29589984 -0.10784591 0.422237 0.22264086 -0.10584475 -0.50926656
-0.18729264 -0.051161632 -0.10463064 -0.40398905 0.13630268 -0.62534714 0.3095959 0.23019
0.2421177 0.4002986 0.0447872 -0.12543197 0.18073355 -0.105053365 -0.019203756 -0.16229065
0.20720366 0.3137801 -0.23381892 -0.08009167 0.19564717 -0.21884492 -0.19322513 -0.1569292
0.10499728 0.34124234 -0.21746354 -0.24975963 0.34290606 -0.32843333 -0.21552005 -0.19273937
0.57399136 0.123822965 0.22221306 -0.39914247 -0.07523037 -0.11113916 0.19056474 -0.44090572
0.41042566 0.25931478 -0.17236136 0.23518391 -0.21572666 -0.22299679 -0.10524877 0.27708253
0.20094784 0.33931857 -0.10096048 0.25899217 -0.35155898 -0.26899138 -0.08043645 0.3229255
0.20988235 -0.3884164 0.260733 -0.03611101 0.30487713 0.5463542 -0.011479834 0.12367152
-0.22821656 -0.19006391 0.043379247 0.19697095 0.45486143 0.6131253 0.008317066 0.06554934
-0.36672732 -0.24675946 0.10196023 -0.03923272 0.6178658 0.658271 0.05932113 -0.034049273
-0.639778 -0.22542407 -0.009325549 -0.092384025 0.14029533 -0.64641243 0.028318701 0.118317805
0.24822922 -0.29041758 -0.08341881 0.11495297 0.33016822 -0.3862525 -0.07842803 0.14519833
0.36625063 -0.24396047 0.01820205 0.12391891 0.3545768 -0.26509783 0.006181112 -0.05102119
0.6425612 -0.22233005 -0.07322452 -0.047715407 0.26902956 0.51972973 -0.83822745 -0.31529346
0.2833296 0.02154727 -0.049129605 -0.05761764 -0.2242604 0.27973297 0.000502277 -0.10642186
0.56740344 0.063778035 -0.0108343605 -0.102861434 0.12327377 0.38974148 0.0129049765 -0.1296498
0.3772684 -0.012792244 -0.011166423 -0.02553485 0.30576363 0.46901128 -0.022143696 -0.01988273
0.13670051 -1.2019589 -0.0020404768 -0.09249754 0.29111412 0.2257155 -0.03709416 -0.067884706
0.023083689 -1.2507532 -0.004447748 -0.15541074 -0.14443621 0.32077572 0.011037132 -0.12990613
0.016703993 -1.0882069 -0.003635929 0.11420935 -0.35464457 0.4786625 -0.0069093388 0.11584761
00000000: 1a98 4e3d c2a5 523f 495c 0f3e 678c 8b3c
00000010: 1d65 1b3e 0c9e 04bc 2d71 ea3d 791c 823c
00000020: 3e9f fe3d 6c24 303f acc6 a0bd be38 85be
00000030: b023 97bd ff13 2b3d f403 ddbd 3f09 95be
00000040: de06 4f3d 4874 163f a866 99bd 248c 813e
00000050: 7738 cabe 6a3f 93bd 78d5 c2bd baee 943e
00000060: cefd a23d 909c bf3f 8a29 ddbd b2a4 d7bd
00000070: e77e eebd dfb6 1a3d e90b fdbd 2e1f 2cbe
00000080: 7be2 eb3d 8834 b33f c854 053e cb41 4c3d
00000090: 7f68 b63d ed56 673c e284 cf3d 13ce 4c3d
000000a0: 0707 323e 3c85 a13f ba20 fe3d fdcf 4fbe
000000b0: 0753 cd3e 1494 06bd f02e 403d 3a20 6ebe
000000c0: f3fc 81be 5dbd 0d3f d254 10be 2740 e93f
000000d0: 66df 833e 536d adbe d05d 9c3d 1e60 58bd
000000e0: a1ce e1bb 3efc a0be c570 b03d dd84 babd
000000f0: 9736 1c3e 4394 80be fe04 7bbe 483d 65be
00000100: 6022 9a3d 2d1e 82be bd8d 55be d639 5dbe
00000110: e25e 963c 8598 39be 12e5 dcbd f82f 903e
00000120: bdd0 223e 8927 4c3d d1cc 73bd 1b31 7c3e
00000130: 281d 0d3f d4f0 d63e a838 07be 2632 d5bd
00000140: 4c15 de3c def8 9dbe 3794 4bbe e26d 00be
00000150: e73a cd3e 8063 aa3e ffcc a0be 333f d2bd
00000160: 585f 90bd 3986 60be 2f80 97be 51de dcbd
00000170: 732f d83e f7fb 633e 22c5 d8bd 4b5f 02bf
00000180: a4c9 3fbe dc8e 51bd 9748 d6bd a7d7 cebe
00000190: ee92 0b3e c016 20bf 5b83 9e3e edb6 6b3e
000001a0: b4ed 773e f0f3 cc3e c872 373d 3d71 00be
000001b0: 3712 393e 3826 d7bd 3251 9dbc 852f 26be
000001c0: 322d 543e c9a7 a03e 3a6e 6fbe 1a07 a4bd
000001d0: bb57 483e e218 60be cfdc 45be 0cb2 20be
000001e0: d008 d73d 51b7 ae3e c3ae 5ebe fdc0 7fbe
000001f0: 6291 af3e 6a28 a8be 4ab1 5cbe 785d 45be
00000200: 19f1 123f e596 fd3d d28b 633e 675c ccbe
00000210: 6112 9abd ee9c e3bd 6723 433e 65be e1be
00000220: 5023 d23e e8c4 843e 7f7f 30be 0dd4 703e
00000230: 73e7 5cbe 4559 64be ab8c d7bd c3dd 8d3e
00000240: 45c5 4d3e 2abb ad3e 5ec4 cebd 9f9a 843e
00000250: 8aff b3be 3db9 89be debb a4bd 7e56 a53e
00000260: 66eb 563e 84de c6be cc7e 853e 23e9 13bd
00000270: db18 9c3e dedd 0b3f ea15 3cbc 7e47 fd3d
00000280: 9ab1 69be 1da0 42be 70ae 313d c1b2 493e
00000290: 99e3 e83e c8f5 1c3f 4e44 083c bb3e 863d
000002a0: afc3 bbbe 83ae 7cbe 86d0 d03d 7db2 20bd
000002b0: 742c 1e3f 7384 283f b7fa 723d 4077 0bbd
000002c0: 7ec8 23bf 91d5 66be 30ca 18bc d633 bdbd
000002d0: 94a9 0f3e 497b 25bf 9ffc e73c 9b50 f23d
000002e0: cd2f 7e3e 9db1 94be 7bd7 aabd 766c eb3d
000002f0: cf0b a93e e3c2 c5be e09e a0bd dfae 143e
00000300: 3485 bb3e c6d0 79be 771c 953c 33c9 fd3d
00000310: 178b b53e e7ba 87be ed8a ca3b 98fb 50bd
00000320: e47e 243f 7daa 63be bdf6 95bd 3b71 43bd
00000330: 3ebe 893e 020d 053f 1396 56bf 256e a1be
00000340: 9410 913e e683 b03c 203c 49bd 7900 6cbd
00000350: 85a4 65be 2939 8f3e 3dab 033a b4f3 d9bd
00000360: 5a41 113f 0f9e 823d 9a82 31bc 04a9 d2bd
00000370: f576 fc3d 328c c73e 656f 533c ebc2 04be
00000380: 5329 c13e 8f96 51bc 5ff3 36bc 762e d1bc
00000390: 0d8d 9c3e 3f22 f03e b266 b5bc 1be1 a2bc
000003a0: 38fb 0b3e cad9 99bf 85b9 05bb 5a6f bdbd
000003b0: e90c 953e f721 673e 0cf0 17bd 2307 8bbd
000003c0: 011a bd3c ae18 a0bf 6abe 91bb fe23 1fbe
000003d0: 16e7 13be b73c a43e 16d5 343c 1d06 05be
000003e0: d0d6 883c 5d4a 8bbf c448 6ebb 97e6 e93d
000003f0: f993 b5be 4013 f53e bc67 e2bb 8341 ed3d

fc1.bias f4 [300]
-0.12717272 -0.22296204 -0.1785729 -0.46969816 -0.44320956 0.01721712 0.04607815 -0.049611047
-1.3759955 -0.25479794 -0.23609126 -0.22887331 -0.14885177 -0.41737056 -0.017775564 -0.15534732
-0.15242739 -0.24459323 -0.18543123 -0.016660305 -0.05629719 -0.14778242 -0.080011316 0.059338115
-0.0942618 0.015572688 0.053863 -0.71764076 0.040011995 -0.89734876 0.015196774 0.022227665
-0.17044318 0.048843928 -0.09862439 -0.2506504 -0.20072046 0.12956952 -0.26531994 -0.059301265
-0.36997885 -0.31557283 0.2067151 -0.5756474 -0.24872826 0.02913011 -0.13188869 -0.34083593
-0.21078146 -0.5423303 -0.07210079 -0.22117454 -0.14785346 -0.2928005 -0.24627352 -0.21336555
-0.1817989 0.1988555 -0.14624146 -0.23304076 -0.3266992 -0.34499246 -0.28027356 -0.17221147
-0.15678658 0.43731505 -0.1330304 -0.044097424 -0.06764959 -0.4656492 -0.16123107 -0.45364025
-0.30542007 -0.2699294 -0.35569158 0.12064524 -0.27737105 0.028248247 -0.015687719 -0.56881434
-0.09279408 -0.16017501 -0.31221342 -0.023132658 0.15516089 -0.28807315 -0.45992702 -0.08943323
-0.19959866 -0.41199115 -0.008234854 0.17654862 -0.23863314 -0.018980373 0.20806082 -1.0143248
-0.26991403 -0.41882935 -0.19414485 -1.0326974 0.01844401 0.123810284 -0.039513018 -0.2408309
-0.52720106 -0.14853032 -0.18388757 -0.45659882 -0.43494284 0.06265417 -0.4341374 -0.18907194
-0.32969517 -0.45977703 -0.24222179 -0.10024216 -0.108652525 -0.2522106 -0.30948797 -0.39526662
-0.56036806 -0.7203175 0.006039544 -0.13021933 0.030097175 -0.41211435 -0.24406843 -0.27958694
-0.41041535 -0.26070294 -0.07640307 -0.10395032 -0.1612706 -0.0046709278 -0.3566354 -0.276311
-0.42033085 0.014945015 0.0141539825 -0.19625996 -0.26356 -0.36483198 -0.0809197 -0.48996297
-0.23760144 -0.53212905 0.31876415 -0.3507531 -0.11583431 -0.69652385 -0.064180225 -0.48325005
-0.58275634 -0.09012646 -0.57465416 -0.26593104 0.100543015 -0.14177334 -0.0882486 -0.18845545
-0.36607754 -0.312976 -0.06991713 -0.28712296 -0.21311383 -0.41141462 -0.20154779 -0.40297136
-0.49671382 -0.50227696 -0.30624005 -0.29093415 -0.25891444 -0.5284105 -0.35049435 0.022967024
-0.6705926 -0.1041686 -0.1878495 -0.22219683 -0.5104062 0.011129102 -0.1833968 -0.49073055
-0.23778315 -0.339528 -0.8749698 -0.3276422 -0.5580405 -0.12055155 -0.27433982 -0.41094482
0.21277301 -0.5580577 0.106018774 -0.1485243 -0.073199175 -0.59908915 -0.438406 -0.3538341
-0.3679253 -0.21806814 -0.06067211 -0.087248944 0.0037430318 -0.35209146 0.110468574 -0.36850753
-0.09891456 -0.21618837 -0.05219153 -0.31749603 0.030813696 -0.10484259 -0.12560964 -0.38770148
-1.0892144 -0.1990998 -0.15646851 -0.0554414 -0.3037011 -0.27511272 -0.34141368 -0.6164565
-0.16515703 -0.44117934 -0.06531206 -0.17276515 -0.21988669 -0.389397 -0.23612508 -0.13286796
-0.1869167 -0.047796737 -0.30313265 -0.030848693 -0.2015131 -0.58038217 -0.012338433 -0.22482547
-0.08312081 -0.114401124 -0.3427464 -0.5132348 0.036727313 -0.34675142 -0.5703899 -0.24798319
-0.25811678 -0.17479134 -0.15895045 -0.38691252 0.022620937 -0.24903302 -0.11434962 -0.2199041
00000000: 9139 02be 2950 64be d0db 36be 477c f0be
00000010: 5dec e2be eb0a 8d3c 71bc 3c3d f434 4bbd
00000020: 9f20 b0bf e074 82be e8c1 71be c45d 6abe
00000030: 996c 18be 98b1 d5be 0f9e 91bc 5e13 1fbe
00000040: ed15 1cbe a676 7abe afe1 3dbe 317b 88bc
00000050: e297 66bd 4654 17be f9dc a3bd 860c 733d
00000060: 550c c1bd 9624 7f3c 739f 5c3d 4eb7 37bf
00000070: 9ee3 233d a6b8 65bf e4fb 783c cb16 b63c
00000080: a888 2ebe 9210 483d 96fb c9bd 4055 80be
00000090: aa89 4dbe dfad 043e 04d8 87be e2e5 72bd
000000a0: de6d bdbe c392 a1be 20ad 533e a15d 13bf
000000b0: 9fb2 7ebe 45a2 ee3c d40d 07be 0c82 aebe
000000c0: 18d7 57be 29d6 0abf 94a9 93bd 947b 62be
000000d0: e666 17be f2e9 95be 202f 7cbe 807c 5abe
000000e0: 7e29 3abe c7a0 4b3e 52c0 15be 3da2 6ebe
000000f0: 1e45 a7be daa2 b0be 0480 8fbe 3458 30be
00000100: a98c 20be c2e7 df3e 1f39 08be 809f 34bd
00000110: de8b 8abd 9269 eebe c219 25be 8943 e8be
00000120: 0560 9cbe 3034 8abe 351d b6be da14 f73d
00000130: 9403 8ebe de68 e73c 8883 80bc d19d 11bf
00000140: d30a bebd eb04 24be 70da 9fbe b380 bdbc
00000150: 7fe2 1e3e 537e 93be 8e7b ebbe c528 b7bd
00000160: 9763 4cbe 81f0 d2be 7beb 06bc 29c9 343e
00000170: 3f5c 74be ba7c 9bbc e50d 553e 65d5 81bf
00000180: 2c32 8abe cd70 d6be e8cd 46be 6e2f 84bf
00000190: e417 973c 3f90 fd3d 67d8 21bd 609c 76be
000001a0: a6f6 06bf 5518 18be 064d 3cbe 52c7 e9be
000001b0: d4b0 debe d450 803d 4247 debe 139c 41be
000001c0: cecd a8be e567 ebbe fd08 78be c34b cdbd
000001d0: 3785 debd bf21 81be 3575 9ebe 6360 cabe
000001e0: 4874 0fbf ba66 38bf 5ee7 c53b 3758 05be
000001f0: 5a8e f63c a700 d3be 13ed 79be 0526 8fbe
00000200: f621 d2be db7a 85be 3679 9cbd e8e3 d4bd
00000210: 1f24 25be 950e 99bb ea98 b6be a378 8dbe
00000220: 9b35 d7be f0db 743c 1be6 673c 5ff8 48be
00000230: 56f1 86be 42cb babe 3ab9 a5bd 6ddc fabe
00000240: cb4d 73be 9c39 08bf 0e35 a33e e995 b3be
00000250: 8a3a edbd 634f 32bf ec70 83bd 8d6c f7be
00000260: 852f 15bf 3994 b8bd 891c 13bf 1d28 88be
00000270: 7fe9 cd3d 082d 11be afbb b4bd 77fa 40be
00000280: 846e bbbe 643e a0be b630 8fbd c801 93be
00000290: 833a 5abe f0a4 d2be 8b62 4ebe 4352 cebe
000002a0: 4651 febe 3995 00bf 7fcb 9cbe 52f5 94be
000002b0: 6f90 84be e945 07bf ff73 b3be 5725 bc3c
000002c0: f5ab 2bbf 5956 d5bd 9f5b 40be 9187 63be
000002d0: fba9 02bf d656 363c 5fcc 3bbe 0941 fbbe
000002e0: 6d7d 73be 9dd6 adbe 05fe 5fbf b8c0 a7be
000002f0: bedb 0ebf bbe3 f6bd 4576 8cbe 5c67 d2be
00000300: 2be1 593e dfdc 0ebf 5f20 d93d c116 18be
00000310: 73e9 95bd e85d 19bf c076 e0be be29 b5be
00000320: b460 bcbe 414d 5fbe 5283 78bd 93af b2bd
00000330: a74d 753b 5545 b4be 593d e23d 05ad bcbe
00000340: b893 cabd 7c60 5dbe c9c6 55bd d78e a2be
00000350: 016d fc3c b6b7 d6bd d09f 00be cf80 c6be
00000360: 616b 8bbf d1e0 4bbe 4839 20be 8516 63bd
00000370: b67e 9bbe 93db 8cbe c6cd aebe 18d0 1dbf
00000380: ed1e 29be 42e2 e1be 54c2 85bd 59e9 30be
00000390: fa29 61be 0b5f c7be c6ca 71be 8a0e 08be
000003a0: 1767 3fbe 83c6 43bd 3434 9bbe 66b6 fcbc
000003b0: 7359 4ebe ed93 14bf 2427 4abc a638 66be
000003c0: 3e3b aabd 234b eabd 757c afbe 5b63 03bf
000003d0: 616f 163d 6789 b1be 1305 12bf 4eef 7dbe
000003e0: e227 84be 80fc 32be e8c3 22be 6619 c6be
000003f0: 8b4f b93c 8302 7fbe 2230 eabd 8a2e 61be

fc2.weight f4 [400, 300]
0.0029164462 -0.0066290065 0.026728371 -0.16480152 0.040052444 0.019007187 -0.06961472 -0.14191304
-0.025132064 -0.16645557 0.22124785 -0.048591446 -0.077267244 -0.244941 -0.074950084 0.007132228
-0.09584922 0.046725057 -0.07246155 -0.012803522 0.013062433 -0.004367808 0.2197577 0.03900988
-0.05923474 -0.12625171 -0.027261093 -0.12646034 0.03824619 0.03030923 0.017791532 -0.07215608
-0.08450185 0.024517383 -0.020533133 -0.0037728737 0.023802118 0.006348209 -0.25706327 -0.15416196
-0.05742423 0.06117937 0.02879966 -0.086185694 -0.06270117 -0.004748642 -0.01796265 -0.037519746
0.0441881 -0.15943703 -0.09411322 -0.07951735 0.044579264 -0.07771429 -0.118618496 0.038723025
0.037469137 -0.05390006 -0.11185328 -0.015030342 0.036241952 -0.052111898 -0.109863944 -0.05939866
-0.09475397 0.0205945 -0.04301834 -0.115638226 0.031237893 0.094694376 -0.15760417 -0.0751587
-0.0398071 -0.054668464 0.0011165926 -0.0032716617 -0.07811662 0.09733937 0.002220526 -0.27861062
0.0032828378 -0.13887316 -0.020643031 -0.038357943 0.043644547 0.022608146 -0.09842717 -0.0894938
-0.0064418083 0.06374427 0.08314582 -0.053970836 0.11953493 -0.06372936 0.097847804 -0.019642776
0.015152348 0.06920561 -0.027121393 0.11137644 0.0031073072 0.0646756 0.034244336 -0.07877228
0.021394733 -0.022043973 -0.14762026 0.05386653 -0.12547685 0.035314348 -0.2588216 -0.03884224
-0.012708525 -0.03137294 -0.10306894 -0.03596255 -0.08573867 -0.08600688 0.041461155 -0.073959135
0.07670844 -0.07775898 -0.03072566 -0.05532686 -0.20700213 -0.027051767 0.050808508 -0.05818997
0.097697 0.027721174 -0.055300787 -0.12219482 -0.11134664 -0.041420173 0.085731216 -0.06340898
-0.014182762 -0.23883143 0.013160223 0.15209067 0.020395985 -0.1392457 -0.11168191 -0.11725502
-0.0045814672 0.06123652 -0.06336428 -0.031515736 0.03575021 -0.09920949 -0.08128316 -0.012562813
-0.058072433 0.052387573 -0.17229691 -0.085135154 -0.0071640583 0.003042171 -0.00016050281 -0.019804372
-0.05782284 0.029416203 0.15644187 0.036767226 -0.05445513 -0.038346767 -0.070338115 -0.01470752
-0.045057364 0.02404231 0.043547343 -0.019054173 0.007456958 -0.065823 -0.11424495 0.025933012
0.072513714 -0.049235933 -0.063900724 0.014390515 -0.06615829 -0.03349638 0.0036389763 -0.06946639
-0.272054 0.013916467 -0.021953318 0.056243297 0.048740465 -0.017350595 -0.20826876 -0.21543631
0.013956608 -0.08705743 0.00061388384 -0.15919861 -0.13055821 -0.19181767 -0.0992981 -0.11069843
-0.12317086 -0.072312534 -0.19058086 -0.123662606 -0.02892073 -0.027620587 -0.081640705 -0.07957695
-0.11572655 -0.14995977 -0.01538857 -0.015850384 -0.103650086 0.029056076 0.11070588 -0.014083362
0.0007679422 -0.07544928 0.045670785 0.015791444 0.10076667 0.008838979 -0.06430306 0.014286581
-0.013873626 -0.09988005 0.014517804 -0.011312151 -0.043758813 -0.034904532 -0.040391978 -0.124705695
-0.13015588 0.11051215 0.059778642 -0.051012922 0.04589058 -0.009908003 -0.027473439 -0.06531635
0.017114941 -0.046281736 0.027205214 -0.0012323303 0.049217306 0.008093763 -0.14049742 0.026028007
0.042012505 -0.0019980338 0.040437255 -0.000720686 0.0036009853 0.02572253 0.018946137 -0.11326891
00000000: d921 3f3b 2338 d9bb 75f5 da3c bbc1 28be
00000010: 080e 243d f6b4 9b3c 2a92 8ebd a751 11be
00000020: c2e1 cdbc 5473 2abe cc8e 623e d307 47bd
00000030: 4a3e 9ebd d0d1 7abe 6e7f 99bd 77b5 e93b
00000040: 994c c4bd c662 3f3d b966 94bd ddc5 51bc
00000050: d103 563c d41f 8fbb 2a08 613e d3c8 1f3d
00000060: 20a0 72bd 2148 01be a852 dfbc d27e 01be
00000070: 09a8 1c3d 104b f83c 8cbf 913c 91c6 93bd
00000080: 4e0f adbd aed8 c83c 1a35 a8bc 5142 77bb
00000090: a9fc c23c a304 d03b cc9d 83be a2dc 1dbe
000000a0: ab35 6bbd 3897 7a3d 44ed eb3c 2082 b0bd
000000b0: 7969 80bd 7f9a 9bbb 6826 93bc 4eae 19bd
000000c0: 95fe 343d 7643 23be 6fbe c0bd fed9 a2bd
000000d0: bf98 363d ab28 9fbd 41ee f2bd 099c 1e3d
000000e0: 3d79 193d 4fc6 5cbd 5513 e5bd d341 76bc
000000f0: 7172 143d 4973 55bd 5900 e1bd 024c 73bd
00000100: 5f0e c2bd ccb5 a83c 0034 30bd bcd3 ecbd
00000110: 9ce6 ff3c 20ef c13d fd62 21be ceec 99bd
00000120: c50c 23bd 0aec 5fbd a15a 923a 6069 56bb
00000130: 9bfb 9fbd dd59 c73d 3f86 113b 0da6 8ebe
00000140: e124 573b c434 0ebe 931b a9bc 381d 1dbd
00000150: a0c4 323d b834 b93c 2f94 c9bd 8748 b7bd
00000160: ce15 d3bb 5b8c 823d 5b48 aa3d 8610 5dbd
00000170: bbce f43d 8a84 82bd 6e64 c83d e3e9 a0bc
00000180: 8e41 783c acbb 8d3d af2d debc 5519 e43d
00000190: f7a3 4b3b a474 843d ca43 0c3d 5c53 a1bd
000001a0: 0244 af3c 9095 b4bc c429 17be 27a3 5c3d
000001b0: 017d 00be c7a5 103d 4484 84be 0a19 1fbd
000001c0: 6b37 50bc e980 00bd cf15 d3bd 784d 13bd
000001d0: c197 afbd 6024 b0bd 2cd3 293d e377 97bd
000001e0: 5119 9d3d 1a40 9fbd 61b4 fbbc 6b9e 62bd
000001f0: 5ef8 53be ab9b ddbc 951c 503d 9b58 6ebd
00000200: 5d15 c83d 8417 e33c 1483 62bd 4741 fabd
00000210: b509 e4bd 33a8 29bd d993 af3d 91dc 81bd
00000220: d15e 68bc 3a90 74be fa9d 573c a8bd 1b3e
00000230: 7b15 a73c 6d96 0ebe 7cb9 e4bd 6623 f0bd
00000240: 2220 96bb 25d3 7a3d 22c5 81bd a516 01bd
00000250: d06e 123d 582e cbbd c977 a6bd 42d4 4dbc
00000260: 5cdd 6dbd 5a94 563d 9a6e 30be 575b aebd
00000270: 7ac0 eabb 295f 473b a54c 28b9 c73c a2bc
00000280: a4d7 6cbd 40fa f03c 4c32 203e 3b99 163d
00000290: 580c 5fbd 8011 1dbd 6e0d 90bd cff7 70bc
000002a0: 128e 38bd 61f4 c43c b35e 323d 7f17 9cbc
000002b0: 7f59 f43b 36ce 86bd 42f9 e9bd 7871 d43c
000002c0: 1282 943d 9eab 49bd 62de 82bd 32c6 6b3c
000002d0: ff7d 87bd 8033 09bd e47b 6e3b 6544 8ebd
000002e0: a94a 8bbe e501 643c 72d7 b3bc 5f5f 663d
000002f0: 15a4 473d d622 8ebc 6844 55be 569b 5cbe
00000300: 42aa 643c 2a4b b2bd 0ced 203a f604 23be
00000310: 0db1 05be da6b 44be cd5c cbbd dcb5 e2bd
00000320: 0141 fcbd 9818 94bd a127 43be d242 fdbd
00000330: 2beb ecbc 9244 e2bc 3e33 a7bd 3df9 a2bd
00000340: 0b02 edbd 0e8f 19be 5720 7cbc aad8 81bc
00000350: 7f46 d4bd 0207 ee3c c4b9 e23d e7bd 66bc
00000360: bb4f 493a 2785 9abd 4a11 3b3d 0f5d 813c
00000370: c25e ce3d 5dd1 103c 53b1 83bd 4412 6a3c
00000380: 344e 63bc e98d ccbd 15dc 6d3c 9a56 39bc
00000390: 713c 33bd 0ef8 0ebd 0f72 25bd b365 ffbd
000003a0: 9547 05be 3254 e23d 73da 743d edf2 50bd
000003b0: c3f7 3b3d 2d55 22bc fa0f e1bc 94c4 85bd
000003c0: a234 8c3c eb91 3dbd 78dd de3c 2586 a1ba
000003d0: 1698 493d b49b 043c 8ede 0fbe b038 d53c
000003e0: 4e15 2c3d 72f1 02bb 89a1 253d 6bec 3cba
000003f0: 82fe 6b3b 0eb8 d23c ee34 9b3c 88f9 e7bd

fc2.bias f4 [400]
-0.23360106 -0.066779815 -0.046736233 -0.16493563 -0.10729347 -0.12998402 -0.13875395 -0.14253995
-0.10420144 -0.14399923 -0.23149973 -0.07097887 -0.2588094 -0.10020788 -0.1647907 -0.119162396
-0.16782428 -0.08143962 -0.10901508 -0.04363675 -0.043741062 -0.15697166 -0.12632623 -0.0963161
-0.09403127 -0.22927925 -0.06479481 -0.203091 -0.09882205 -0.116301335 -0.09846442 -0.1093126
-0.13788968 -0.14312005 -0.115615875 -0.08448695 -0.05065896 -0.05086018 -0.15663558 -0.14641325
-0.13651875 -0.06497363 -0.082706235 -0.020983031 -0.10692056 -0.16220869 -0.06317057 -0.12436297
-0.05623957 -0.08848796 -0.10974474 -0.015450375 -0.14154051 -0.115086876 -0.072690696 -0.078828365
-0.16812876 -0.11934867 -0.060195882 -0.08007736 -0.04701936 -0.104894355 -0.11191289 -0.09051455
-0.09300307 -0.08486064 -0.103135996 -0.12918729 -0.10451437 -0.10563197 -0.052633442 -0.15369503
-0.08704362 -0.10677192 -0.14832063 -0.111811176 -0.120905854 -0.092514865 -0.06119138 -0.09670606
-0.15368167 -0.11116557 -0.16078435 -0.051463686 -0.071962364 -0.26843667 -0.12838441 -0.07190276
-0.10908163 -0.09052945 -0.087607734 -0.17078419 -0.07099708 -0.17000213 -0.06788731 -0.15299965
-0.08332557 -0.10408223 -0.12662293 -0.07385756 -0.075777106 -0.04244354 -0.048331764 -0.08645393
-0.05567332 -0.07800486 -0.13234638 -0.19732769 -0.08933416 -0.069794215 -0.19432425 -0.117933035
-0.07351114 -0.10913379 -0.0949477 -0.06758881 -0.0908828 -0.097682096 -0.18792993 -0.14136758
-0.12419657 -0.30800804 -0.022898724 -0.11094104 -0.11247914 -0.17320877 -0.089791834 -0.22007644
-0.17941976 -0.14348577 -0.050543528 -0.061749347 -0.06960795 -0.12646034 -0.19966762 -0.07171649
-0.103925765 -0.102584645 -0.13629523 -0.11086098 -0.20052138 -0.054525916 -0.05035354 -0.10075923
-0.06391251 -0.110445105 -0.13967979 -0.13424073 -0.043291237 -0.14832373 -0.117381684 -0.1634849
-0.11746364 -0.08922925 -0.213818 -0.1314821 -0.061220348 -0.1621436 -0.16773708 -0.193278
-0.11935612 -0.11567983 -0.20794094 -0.07275958 -0.15273505 0.07629424 -0.08199842 -0.2383546
-0.1326742 -0.23136586 -0.09176626 -0.12247237 -0.085850425 -0.122654766 -0.095751874 -0.08387599
-0.081096895 -0.0027754565 -0.17747518 -0.08959509 -0.08929293 -0.025953501 -0.06065782 -0.15271652
-0.058760017 -0.112650506 -0.1483299 -0.09533513 -0.045134336 -0.07010715 -0.09192649 -0.16987652
-0.06742344 -0.10718171 -0.07810917 -0.07193256 -0.108135395 -0.14960214 -0.03642077 -0.093637176
-0.040101405 -0.13679661 -0.11249977 -0.14932033 -0.06650898 -0.15283543 -0.06117192 -0.10812049
-0.045816075 -0.09326913 -0.13888414 -0.10960552 -0.08037216 -0.10500611 -0.09474653 -0.10513857
-0.124750406 -0.23363087 -0.1304092 -0.099060476 -0.055073917 -0.0657485 -0.10420144 -0.099465884
-0.1558607 0.0031559004 -0.2764807 -0.103814006 -0.09725741 -0.09494025 -0.1391861 -0.121896796
-0.1318247 -0.20308131 -0.09080512 -0.057183467 -0.07090437 -0.12912768 -0.093591675 -0.21430059
-0.061197467 -0.08295956 -0.13860494 -0.051243894 -0.114773005 -0.090894535 -0.049619645 -0.098123364
-0.20351546 0.028187374 -0.028859856 -0.08190862 -0.09178891 -0.048412636 -0.09064866 -0.24000882
00000000: 1e35 6fbe dbc3 88bd 7e6e 3fbd e3e4 28be
00000010: aebc dbbd 881a 05be 8415 0ebe fef5 11be
00000020: 9167 d5bd 8974 13be 440e 6dbe 5f5d 91bd
00000030: aa82 84be ca39 cdbd e5be 28be 6a0b f4bd
00000040: 21da 2bbe d1c9 a6bd 4c43 dfbd 73bc 32bd
00000050: d429 33bd 2ebd 20be aa5b 01be 6041 c5bd
00000060: 7793 c0bd 2ec8 6abe 24b3 84bd 16f7 4fbe
00000070: 3763 cabd 652f eebd b7a7 c9bd 49df dfbd
00000080: f432 0dbe 108e 12be 04c8 ecbd 7e07 adbd
00000090: c57f 4fbd c452 50bd 1465 20be 5bed 15be
000000a0: 92cb 0bbe e510 85bd e361 a9bd 9be4 abbc
000000b0: 2bf9 dabd 091a 26be 925f 81bd 03b2 febd
000000c0: 775b 66bd 2d39 b5bd dac1 e0bd 9223 7dbc
000000d0: ffef 10be abb2 ebbd dcde 94bd c470 a1bd
000000e0: f229 2cbe 136d f4bd f58f 76bd 99ff a3bd
000000f0: 5f97 40bd dad2 d6bd 9632 e5bd b15f b9bd
00000100: 6578 bebd 6acb adbd f738 d3bd ac49 04be
00000110: a10b d6bd 9355 d8bd 2a96 57bd 3b62 1dbe
00000120: ed43 b2bd 3dab dabd 5de1 17be 42fd e4bd
00000130: 7d9d f7bd 6f78 bdbd d0a3 7abd d40d c6bd
00000140: ba5e 1dbe c6aa e3bd a7a4 24be 96cb 52bd
00000150: 0161 93bd 8870 89be 3477 03be c141 93bd
00000160: 3166 dfbd 8167 b9bd af6b b3bd 0de2 2ebe
00000170: eb66 91bd 0a15 2ebe 8108 8bbd f1ab 1cbe
00000180: 99a6 aabd 1029 d5bd 71a9 01be a242 97bd
00000190: 0731 9bbd 47d9 2dbd 87f7 45bd c20e b1bd
000001a0: b509 64bd 03c1 9fbd cf85 07be 4510 4abe
000001b0: d4f4 b6bd 45f0 8ebd f0fc 46be e086 f1bd
000001c0: 028d 96bd 8981 dfbd f173 c2bd 016c 8abd
000001d0: c320 babd 8d0d c8bd b470 40be aac2 10be
000001e0: c55a febd 3bb3 9dbe 1b96 bbbc 0e35 e3bd
000001f0: 775b e6bd a45d 31be c8e4 b7bd b85b 61be
00000200: d0b9 37be efed 12be bb06 4fbd e2ec 7cbd
00000210: 9d8e 8ebd d27e 01be ab75 4cbe 18e0 92bd
00000220: 08d7 d4bd e617 d2bd fa90 0bbe 150b e3bd
00000230: 7a55 4dbe 9156 5fbd 833f 4ebd db5a cebd
00000240: 90e4 82bd 0b31 e2bd 3808 0fbe 6776 09be
00000250: 2752 31bd 2de2 17be cf65 f0bd 9668 27be
00000260: c790 f0bd d3bd b6bd 1bf3 5abe 3ea3 06be
00000270: 30c2 7abd f908 26be 45c3 2bbe abea 45be
00000280: fb70 f4bd 8ce9 ecbd 78ee 54be fa02 95bd
00000290: 9466 1cbe 2840 9c3d caee a7bd 3a13 74be
000002a0: bfdb 07be 2ceb 6cbe f3ef bbbd cbd2 fabd
000002b0: 59d2 afbd 6c32 fbbd 8f19 c4bd 2dc7 abbd
000002c0: 2116 a6bd 6fe4 35bb 0ebc 35be a17d b7bd
000002d0: 36df b6bd 709c d4bc 5674 78bd b861 1cbe
000002e0: 58ae 70bd 4fb5 e6bd cbe3 17be 113f c3bd
000002f0: c8de 38bd 5694 8fbd f543 bcbd 1cf4 2dbe
00000300: 4d15 8abd 1682 dbbd b3f7 9fbd 6151 93bd
00000310: 1776 ddbd 4e31 19be f22d 15bd d9c4 bfbd
00000320: 5f41 24bd 6914 0cbe 4866 e6bd 6ee7 18be
00000330: dc35 88bd e480 1cbe 688f 7abd 476e ddbd
00000340: a3a9 3bbd e303 bfbd a537 0ebe dc78 e0bd
00000350: 299a a4bd 720d d7bd 780a c2bd e452 d7bd
00000360: 247d ffbd ee3c 6fbe fd89 05be 38e0 cabd
00000370: 3095 61bd 26a7 86bd 9167 d5bd c5b4 cbbd
00000380: f399 1fbe 39d3 4e3b e18e 8dbe 709c d4bd
00000390: e52e c7bd 0970 c2bd cd86 0ebe 07a5 f9bd
000003a0: 0efd 06be 8cf4 4fbe 09f8 b9bd 3639 6abd
000003b0: 4f36 91bd 0c3a 04be feac bfbd 9d71 5bbe
000003c0: 32aa 7abd b4e6 a9bd 74ee 0dbe 1ee5 51bd
000003d0: 1c0e ebbd ea26 babd f83d 4bbd e7f4 c8bd
000003e0: 5b66 50be 35e9 e63c 816b ecbc b5bf a7bd
000003f0: d3fb bbbd 544c 46bd 01a6 b9bd dfc4 75be

fc3.weight f4 [1, 400]
0.004379552 -0.054018814 -0.00931288 0.018594094 0.0108598275 -0.08053175 -0.028650647 -0.0124819325
0.011698959 -0.014578646 -0.020537825 0.0010332576 -0.023693284 0.023699671 -0.0680475 0.012935772
0.0019851844 -0.022043759 0.0049700183 0.021566916 0.013218896 0.0021640584 -0.007018743 -0.029977083
-0.012137618 -0.03381944 0.0037366305 0.042248353 0.014674573 -0.006146109 0.02753677 0.0028353315
-0.023090579 -0.0123825595 0.007827402 0.020372944 -0.0070022237 -0.0054350356 0.0029268353 -0.011630971
-0.017258562 -0.01655261 -0.002432995 -0.007668758 -0.012804895 0.00078721816 -0.011384007 -0.015098331
0.012956262 0.011159717 0.011941107 -0.02206611 -0.0032358055 0.015453169 -0.008962194 -0.02963843
0.028831925 0.022325022 0.022118265 0.008697647 -0.02742501 0.0036907627 -0.015238031 -0.011558328
-0.020855376 0.039386697 -0.019443473 0.0080313645 -0.010233039 -0.02299372 -0.0023210023 0.00231252
0.007470983 -0.019890513 0.0030777117 -0.026749177 -0.0072073652 0.0145623265 -0.0440717 -0.011607689
0.006432552 0.03973281 -0.031471077 -0.0020325321 -0.028062042 0.01792786 -0.04669034 0.00044574545
0.0026034294 0.017740993 0.023971949 -0.025139784 -0.039429266 0.021613318 0.017133603 0.006172187
0.024825435 -0.0012426914 0.019270241 0.01770965 -0.019735912 0.0005195672 0.0077477614 0.02395672
-0.0046410733 -0.015751662 0.010507783 -0.0064028637 0.020205304 -0.027674608 0.0553697 -4.63248e-05
-0.009562312 0.018327732 0.008645114 0.006173584 0.037853062 -0.011700994 0.01978986 -0.02429732
0.012700631 -0.043807745 -0.018696543 -0.01996879 -0.0017899002 -0.0024532985 0.007321454 0.04526841
0.0065423925 0.003164613 0.014503084 0.007890733 -0.0021787877 -0.01068101 0.059837718 -0.0008311757
-0.0008373571 0.00038541242 -0.005002431 0.006766249 0.0026100678 0.022591382 -0.0015704046 -0.010945509
0.0073664454 -0.001732457 0.03462547 -0.020811532 -0.008582432 0.010203987 0.021866124 -0.0065082484
-0.008000629 -0.021409586 0.04850739 -0.024470817 -0.018556843 -0.061432768 0.018668188 -0.017772483
0.0048077814 0.011145202 -0.027008325 -0.0076050456 0.05286166 -0.03173254 0.00085627486 0.002339396
0.013541139 0.0013211564 -0.0008142484 -0.008095953 0.032125458 -0.024958253 -0.0015224572 0.026629651
-0.026523478 -0.037154984 -0.005618052 0.010067513 -0.0056883357 0.0067049107 0.027682059 0.013167674
0.021992516 -0.021097522 0.016221501 0.00012394754 -0.001952019 -0.010260979 -0.023771306 -0.036003876
-0.007367754 -0.010793703 -0.00014852603 0.0060404036 -0.004675067 0.00235616 0.015837345 0.018017055
-0.006767776 -0.056909267 0.01916957 -0.039392546 0.014673848 -0.006319081 0.00397936 0.0031766656
-0.008007148 0.011944624 0.023976197 0.014173635 -0.007869226 -0.00030482287 0.01939877 -0.016282918
0.023917604 0.004655509 0.003746177 0.023373704 -0.02946825 0.011829346 -0.016012436 -0.046243567
0.020929882 0.027276604 0.085643955 -0.006697593 -0.011564847 0.0020539418 -0.0019122045 -0.0020336856
-0.029135026 0.018243715 0.022259828 0.0026689556 0.026182609 -0.013711041 -0.010300095 -0.050331794
0.01047735 0.011183 -0.0056655407 0.012659166 -0.023253888 0.013523444 0.0060594953 -0.06193316
0.04471196 -0.023812423 0.021907492 -0.029754415 0.005164351 0.012326679 0.030859772 0.023669947
00000000: 5882 8f3b d542 5dbd 0d95 18bc a452 983c
00000010: 6bed 313c d5ed a4bd c3b4 eabc 0581 4cbc
00000020: feac 3f3c 46db 6ebc f13e a8bc 5f6e 873a
00000030: 6b18 c2bc d025 c23c 7d5c 8bbd 8ff0 533c
00000040: de19 023b 1d95 b4bc 89db a23b 1aad b03c
00000050: 1294 583c e0d2 0d3b 7cfd e5bb 8092 f5bc
00000060: dcdc 46bc 4186 0abd 42e2 743b 9c0c 2d3d
00000070: 9f6d 703c 4d65 c9bb cb94 e13c f8d0 393b
00000080: 7428 bdbc 38e0 4abc 813e 003c 29e5 a63c
00000090: e972 e5bb 6218 b2bb 26d0 3f3b d48f 3ebc
000000a0: d461 8dbc 5799 87bc e272 1fbb 344a fbbb
000000b0: 9fcb 51bc 515d 4e3a fc83 3abc fd5e 77bc
000000c0: 8046 543c 3fd7 363c a2a4 433c fdc3 b4bc
000000d0: cf0f 54bb 4a2f 7d3c 2bd6 12bc 4bcc f2bc
000000e0: ee30 ec3c f7e2 b63c 5d31 b53c 9380 0e3c
000000f0: 6aaa e0bc b9e0 713b efa8 79bc 245f 3dbc
00000100: e5d8 aabc f253 213d eb47 9fbc fc95 033c
00000110: 7aa8 27bc 535d bcbc f51b 18bb a68d 173b
00000120: 26cf f43b 6ef1 a2bc 6fb3 493b 1721 dbbc
00000130: c32b ecbb d396 6e3c 8784 34bd 2d2e 3ebc
00000140: 28c8 d23b dfbe 223d d1e7 00bd 3b34 05bb
00000150: 5ee2 e5bc 73dd 923c 5f3e 3fbd f1b2 e939
00000160: 4c9e 2a3b 8f55 913c d260 c43c f3f1 cdbc
00000170: 9580 21bd 6a0e b13c c55b 8c3c 0f40 ca3b
00000180: b65e cb3c cee1 a2ba a0dc 9d3c d413 913c
00000190: 35ad a1bc 9133 083a efe0 fd3b e240 c43c
000001a0: 2514 98bb a109 81bc d628 2c3c 1dcf d1bb
000001b0: 9885 a53c dcb5 e2bc 57cb 623d e04c 42b8
000001c0: 3eab 1cbc 0a24 963c 3ca4 0d3c c74b ca3b
000001d0: d00b 1b3d 87b5 3fbc 581e a23c 2c0b c7bc
000001e0: 4f16 503c c06f 33bd 7e29 99bc 9695 a3bc
000001f0: 169b eaba 85c7 20bb cfe8 ef3b 5e6b 393d
00000200: 9161 d63b 6565 4f3b 589e 6d3c 2248 013c
00000210: fec9 0ebb 67ff 2ebc 6518 753d 42e3 59ba
00000220: 1582 5bba 2e11 ca39 6feb a3bb 69b7 dd3b
00000230: ac0d 2b3b 9011 b93c 09d6 cdba cb54 33bc
00000240: 3962 f13b 9c13 e3ba 70d3 0d3d f27c aabc
00000250: 549d 0cbc a02e 273c 9620 b33c 2543 d5bb
00000260: 1215 03bc 2863 afbc afaf 463d 0677 c8bc
00000270: 8504 98bc eda0 7bbd 07ee 983c 9997 91bc
00000280: 988a 9d3b 5e9a 363c 9040 ddbc bf33 f9bb
00000290: 7885 583d fbf9 01bd a277 603a 8d50 193b
000002a0: a7db 5d3c a72a ad3a 4973 55ba e3a4 04bc
000002b0: fc95 033d 4075 ccbc 308d c7ba 6d26 da3c
000002c0: c447 d9bc d32f 18bd a317 b8bb 36f2 243c
000002d0: 3865 babb deb4 db3b 7cc5 e23c 3abd 573c
000002e0: a629 b43c b6d4 acbc f4e2 843c eaf7 0139
000002f0: e4da ffba aa1d 28bc 0bbc c2bc cd78 13bd
00000300: 336d f1bb 12d8 30bc a7bd 1bb9 94ee c53b
00000310: 4e31 99bb ce69 1a3b 52bd 813c 8198 933c
00000320: 38c4 ddbb b119 69bd 8109 9d3c 145a 21bd
00000330: 946a 703c 4b10 cfbb 4b65 823b 9b2f 503b
00000340: 6a30 03bc 62b3 433c bb69 c43c 8938 683c
00000350: eded 00bc a2d0 9fb9 2bea 9e3c c163 85bc
00000360: daee c33c 3d8d 983b 6c82 753b 367a bf3c
00000370: 6667 f1bc e0cf 413c 832c 83bc e569 3dbd
00000380: 2575 ab3c 2f73 df3c 1966 af3d 7b77 dbbb
00000390: 7c7a 3dbc 6d9b 063b f0a2 faba 9547 05bb
000003a0: 94ac eebc d873 953c 3e5a b63c a5e9 2e3b
000003b0: e97c d63c 46a4 60bc bbc1 28bc b628 4ebd
000003c0: 31a9 2b3c e738 373c 00a6 b9bb 6468 4f3c
000003d0: f07e bebc 6f91 5d3c bb8e c63b a0ad 7dbd
000003e0: e323 373d 4512 c3bc 5777 b33c 88bf f3bc
000003f0: b739 a93b d7f5 493c a2cd fc3c 7ae7 c13c

bn2.weight f4 [300]
0.10860262 0.100372985 0.12825531 0.29880506 0.15282315 0.15921606 0.19169156 0.08329781
0.33025503 0.13358895 -0.058357902 0.042648733 0.05981401 0.14442109 0.3844817 0.13898918
0.12448303 0.10830604 0.06267085 0.09143118 -0.0024031217 0.14214195 -0.045990076 0.11833143
0.12151583 0.08695565 0.14534415 0.8855441 0.088026285 0.3125926 0.22218947 0.23065308
0.100575194 0.10656715 0.056920893 0.02647008 0.12011511 0.15458682 0.093803145 0.22965725
0.25458014 0.07277167 0.09816287 0.13326286 0.08004374 0.1777776 0.11814879 0.09081956
0.08527757 0.12840681 0.11192392 -0.0007698205 0.5854102 0.106098644 0.5412813 0.054690838
0.23084666 0.33033815 1.2050685 0.053758174 0.1324961 0.1325418 0.31517714 0.09199737
0.08596047 0.2070244 0.10236573 0.11119233 0.09049088 -0.10549713 0.067706816 0.25255704
0.10441552 0.12693831 0.113595285 0.07736103 0.07502398 0.13057205 0.0477434 0.14140408
0.0779489 0.12975065 0.17600836 0.13763875 0.09470568 0.12325861 0.13426411 0.15189756
0.01602588 -0.061418887 -0.14725047 0.24889438 0.056387153 0.09617839 0.8646063 0.5447019
0.05612734 0.16274954 0.10325092 0.64920795 0.08809068 0.17710568 0.2098443 0.39888814
0.15488231 0.12870306 0.14453112 0.25929072 0.033743735 0.10660921 0.58770823 0.14002492
0.089099795 0.14869094 0.09596333 0.07526143 0.084799364 0.11570846 0.19154634 0.04960412
0.12905419 0.5219891 0.0382936 0.09414021 0.035149645 0.2254364 0.21147154 0.05093424
0.14301479 0.13344385 0.09623273 0.18543644 0.12533991 0.061004844 0.107714154 -0.09224667
0.23503047 0.55452764 -0.085869424 -0.049492337 0.10044309 0.056284983 0.076914065 0.3646128
0.07027032 0.2295282 0.25126606 0.54319584 0.038243458 0.17882197 0.07819115 0.17391616
0.12280469 0.10167721 0.09282601 0.098314434 0.13319257 0.09472964 -0.0008843085 0.28592902
0.09935132 0.17076063 0.2808822 0.12091915 0.0751547 0.121733926 0.14323305 0.0817763
0.2056222 0.15120198 0.067046836 0.14031754 0.18558119 0.15420452 0.07333191 0.10174326
0.19638166 0.13260446 0.12649456 -0.0017104289 0.018791484 -0.0005797986 0.12374769 0.09190239
0.41187948 0.1989096 0.25914976 -0.082328945 0.24931479 0.28634033 0.15575148 0.16693354
0.25438184 0.099533565 0.12309304 -0.023162689 0.11670457 0.39185277 0.25126025 0.050268512
0.080027685 0.05113118 0.19144385 0.04854603 0.08523681 0.11651898 0.25651467 0.08322565
0.83657885 0.061523896 0.21242271 0.06498585 0.166684 0.13618913 0.29392213 0.099688716
0.23388141 0.29558465 0.13459541 0.07549689 0.26762643 0.13579322 0.15228997 0.1492899
0.11734299 0.12913936 0.061629668 0.119296215 0.17821957 0.0652406 0.09146444 0.18973406
0.17209792 0.0049362634 0.11494427 0.12658004 0.06981211 0.31747624 0.042669076 0.07504273
0.16559693 0.08462028 0.14479215 0.07187671 0.3879452 0.116969585 0.29973397 0.18850785
0.107384376 0.067091025 0.982418 0.20055605 0.14124426 0.056859475 0.118907474 0.0412019
00000000: 0d6b de3d 5a90 cd3d 5c55 033e fafc 983e
00000010: ac7d 1c3e 8909 233e cb4a 443e 0b98 aa3d
00000020: 3017 a93e 8bcb 083e b208 6fbd 70b0 2e3d
00000030: 89ff 743d 1fe3 133e c9da c43e 2e53 0e3e
00000040: f5f0 fe3d 8fcf dd3d 9359 803d 4540 bb3d
00000050: b17d 1dbb a98d 113e 1760 3cbd c057 f23d
00000060: 4bdd f83d ce15 b23d 19d5 143e 05b3 623f
00000070: 2047 b43d 230c a03e a385 633e 5230 6c3e
00000080: 5efa cd3d e13f da3d e225 693d c8d7 d83c
00000090: e9fe f53d 024c 1e3e dd1b c03d 452b 6b3e
000000a0: 5458 823e 5009 953d 9d09 c93d 0f76 083e
000000b0: f9ed a33d 550b 363e fef7 f13d 9bff b93d
000000c0: 02a6 ae3d 137d 033e 5e38 e53d c7cd 49ba
000000d0: 71dd 153f 3f4a d93d 6991 0a3f 8003 603d
000000e0: 1163 6c3e 1522 a93e af3f 9a3f 8831 5c3d
000000f0: 0fad 073e 0ab9 073e e65e a13e 1e69 bc3d
00000100: 0b0c b03d 34fe 533e 20a5 d13d ceb8 e33d
00000110: 4853 b93d e10e d8bd dfa9 8a3d 284f 813e
00000120: ced7 d53d 1efc 013e a5a4 e83d 766f 9e3d
00000130: 2ca6 993d aeb4 053e 958e 433d 3bcc 103e
00000140: aca3 9f3d 5bdd 043e 893b 343e 2cf1 0c3e
00000150: 0df5 c13d 036f fc3d 887c 093e 098b 1b3e
00000160: b548 833c 5f92 7bbd d4c8 16be 2bde 7e3e
00000170: 37f6 663d 2df9 c43d d756 5d3f 9571 0b3f
00000180: c8e5 653d d1a7 263e 3875 d33d 7e32 263f
00000190: e368 b43d 315b 353e 6de1 563e 113b cc3e
000001a0: 7899 1e3e bcca 033e f7ff 133e c1c1 843e
000001b0: df36 0a3d ee55 da3d 0c74 163f b162 0f3e
000001c0: f479 b63d 7042 183e 6c88 c43d aa22 9a3d
000001d0: 4aab ad3d 8ff8 ec3d b924 443e b12d 4b3d
000001e0: c826 043e 14a1 053f c0d9 1c3d 95cc c03d
000001f0: 13f9 0f3d cdd8 663e ff8b 583e 6ca0 503d
00000200: 7872 123e 81a5 083e aa15 c53d 0de3 3d3e
00000210: 1b59 003e 37e0 793d 3d99 dc3d d2eb bcbd
00000220: d4ab 703e 86f5 0d3f 4fdc afbd 7ab8 4abd
00000230: 1bb5 cd3d 158b 663d 1f85 9d3d 87ae ba3e
00000240: e3e9 8f3d 7109 6b3e f2a5 803e e20e 0b3f
00000250: 2ca5 1c3d 1b1d 373e af22 a03d 1417 323e
00000260: 0681 fb3d 243c d03d 901b be3d 1459 c93d
00000270: a263 083e 9d01 c23d f0d0 67ba 4a65 923e
00000280: b478 cb3d e0db 2e3e cbcf 8f3e 76a4 f73d
00000290: b5ea 993d a34f f93d afab 123e 557a a73d
000002a0: a08e 523e b1d4 1a3e da4f 893d 67af 0f3e
000002b0: ff08 3e3e cae7 1d3e 0a2f 963d c55e d03d
000002c0: 4618 493e 77c9 073e ca87 013e 7830 e0ba
000002d0: 99f0 993c a0fd 17ba 6e6f fd3d 5237 bc3d
000002e0: dee1 d23e f5ae 4b3e 47af 843e 149c a8bd
000002f0: 604c 7f3e 339b 923e 517d 1f3e a0f0 2a3e
00000300: 563e 823e 41d8 cb3d 3418 fc3d aebf bdbc
00000310: ce02 ef3d eda0 c83e 2fa5 803e 5be6 4d3d
00000320: 8ee5 a33d ee6e 513d db09 443e 34d8 463d
00000330: a390 ae3d 81a1 ee3d e455 833e 3672 aa3d
00000340: 082a 563f 7b00 7c3d 5785 593e 4d17 853d
00000350: 36af 2a3e 2a75 0b3e f67c 963e 9929 cc3d
00000360: 9c7e 6f3e df56 973e 61d3 093e 1d9e 9a3d
00000370: 5506 893e 610d 0b3e e7f1 1b3e 74df 183e
00000380: 8651 f03d 1c3d 043e 646f 7c3d 9351 f43d
00000390: 317f 363e dd9c 853d b551 bb3d a549 423e
000003a0: 703a 303e 61c0 a13b e767 eb3d 339e 013e
000003b0: a7f9 8e3d 3f8c a23e c5c5 2e3d 01b0 993d
000003c0: 3e92 293e 664d ad3d 6544 143e 1934 933d
000003d0: c1a0 c63e c08d ef3d bb76 993e 3408 413e
000003e0: 57ec db3d 0567 893d bf7f 7b3f 915e 4d3e
000003f0: 56a2 103e 7be5 683d c385 f33d 53c3 283d

bn2.bias f4 [300]
0.031205326 0.02901129 0.024931021 0.08637871 -0.0085149305 0.036150165 0.048324157 0.02890853
0.098530784 0.066987425 -0.2786449 0.0072288895 0.024286972 0.06546369 0.0749071 0.060000326
0.0374509 0.014406411 0.03420416 0.040643744 -0.00039298958 0.035084326 -0.16848598 0.014727267
0.023242243 0.03476748 0.0653419 0.23301178 0.02130487 0.15018448 0.05330866 0.052999634
0.046054002 0.04068972 0.0036285382 -0.00056799914 0.023540499 0.03808631 0.020800484 0.06260719
0.1218361 0.019814823 0.019088665 0.05810907 0.015292557 0.037938945 0.042761113 0.01914784
0.02368199 0.034129202 0.029613983 -0.00028950506 0.14344032 0.043501306 0.102572486 0.0049321176
-0.020285688 0.0955394 0.34792247 0.011619077 0.054511257 0.0939259 0.17754062 0.038110092
0.023213342 0.07995589 0.031806387 0.025493586 0.017345292 -0.0412226 0.074093774 0.16354106
0.037558578 0.019722745 0.04060451 0.026180536 0.02474872 -0.0005679479 0.0112648355 0.064504266
0.015942167 0.030747646 0.10719142 0.05161043 -0.0055016386 0.055595428 0.07029261 0.02357178
0.00034369132 -0.030869314 -0.0408232 0.10155214 0.007782045 0.018762695 0.16731723 0.21555766
0.01824385 0.050939128 0.031842425 0.117299356 0.025574341 0.08245716 0.051295318 0.30377895
0.055983026 0.060091548 0.06841765 0.09010945 0.0024189595 0.023552492 0.26741472 0.08297488
0.019102715 0.046740923 0.044370525 0.015327303 0.018644126 0.028189119 0.08907042 0.012022909
0.043801755 0.23043133 0.0110202795 0.028487373 0.0032723444 0.11593817 0.10386095 0.006727063
0.059450645 0.020157132 0.033887684 0.05775404 0.080615036 0.019737817 0.030821033 -0.016042544
0.115474604 0.33775803 -0.010916534 -0.06473908 0.050382532 0.09373567 0.021141589 0.15667304
0.009869996 0.054910798 0.06975442 0.24062736 0.023860326 0.08166407 0.016069373 0.08173972
0.033836894 0.04059748 0.02334338 0.028170563 0.021409329 0.03000651 -1.4218597e-05 0.06653165
0.036266703 0.057732437 -0.05784192 0.03493829 0.023180086 0.020009452 0.03938106 0.012374187
0.051438235 0.06942366 0.012626346 0.056120496 0.08402053 0.058178816 0.020521905 0.00445087
0.040720034 0.040576216 0.053640135 0.00012831237 0.001042789 3.5903872e-06 0.015260132 0.025190124
0.14820717 0.00012523202 0.034859948 -0.019975388 0.1344466 0.12077308 0.07818351 0.08413667
0.04819426 0.015282924 -0.0042527546 0.118690684 0.0135342255 0.27366072 0.10243391 0.027542595
0.016394401 -0.001384576 0.11165977 0.004723827 0.00944249 0.036923736 0.18069431 0.01984389
0.26368442 0.013518554 0.1138325 0.029838555 0.071131125 0.058883842 0.1012756 0.021551427
0.06780777 0.12111035 0.054879274 0.017409394 0.039499164 0.035394594 0.070628464 0.045305103
0.039485637 0.033945348 0.016296284 0.017723856 0.037823167 0.010156174 0.029869104 0.06625015
0.03914614 4.558776e-05 0.051073756 0.030974587 0.027465623 0.11752857 0.018998863 0.0116324965
0.06657417 0.043510947 0.03343217 0.026613206 0.12158682 0.049901027 0.1932698 0.07057352
0.011980246 0.012258162 -0.025000345 0.06450639 0.06880475 0.013947184 0.030814935 -0.005791465
00000000: 50a2 ff3c 16a9 ed3c 243c cc3c 52e7 b03d
00000010: 3582 0bbc 3212 143d 8def 453d 95d1 ec3c
00000020: 82ca c93d b430 893d 8baa 8ebe 52e0 ec3b
00000030: 79f5 c63c d411 863d e568 993d e7c2 753d
00000040: 1d66 193d de08 6c3c a919 0c3d 0e7a 263d
00000050: 2b0a ceb9 95b4 0f3d 9787 2cbe a34a 713c
00000060: 8466 be3c 5868 0e3d f9d1 853d a49a 6e3e
00000070: 8d87 ae3c f6c9 193e 2e5a 5a3d 2516 593d
00000080: 1fa3 3c3d 44aa 263d c5cc 6d3b c7e5 14ba
00000090: 01d8 c03c 6400 1c3d c765 aa3c 3338 803d
000000a0: 3585 f93d b252 a23c d55f 9c3c c703 6e3d
000000b0: a28d 7a3c de65 1b3d 4726 2f3d eedb 9c3c
000000c0: bc00 c23c 10cb 0b3d 0699 f23c b6c8 97b9
000000d0: 05e2 123e 6d2e 323d 8611 d23d 9a9d a13b
000000e0: 2c2e a6bc 29aa c33d e522 b23e f15d 3e3c
000000f0: 3247 5f3d 395c c03d 35cd 353e 5419 1c3d
00000100: e829 be3c eabf a33d 6a47 023d edd7 d03c
00000110: b717 8e3c 07d9 28bd 7abe 973d 4f77 273e
00000120: 06d7 193d 9891 a13c ea50 263d 9078 d63c
00000130: d4bd ca3c 57e2 14ba 2590 383c d01a 843d
00000140: 2699 823c 7de2 fb3c 2d87 db3d 7565 533d
00000150: 1747 b4bb 08b8 633d 92f5 8f3d 9b19 c13c
00000160: 7831 b439 a5e1 fcbc 3a36 27bd 92fa cf3d
00000170: 8600 ff3b 39b4 993c 3555 2b3e 26bb 5c3e
00000180: 2074 953c 8ca5 503d 346d 023d a53a f03d
00000190: 4881 d13c 4ddf a83d 0a1b 523d ea88 9b3e
000001a0: 754e 653d 8e22 763d 8e1e 8c3d 4e8b b83d
000001b0: 6887 1e3b 28f1 c03c 95ea 883e bcee a93d
000001c0: 4c7d 9c3c 6973 3f3d debd 353d 5e1f 7b3c
000001d0: 91bb 983c deec e63c 8d6a b63d bcfb 443c
000001e0: 7869 333d 31f6 6b3e 678e 343c 5a5e e93c
000001f0: d474 563b fe70 ed3d 0db5 d43d b26e dc3b
00000200: 8582 733d 9220 a53c d0cd 0a3d 808f 6c3d
00000210: 7f19 a53d 34b1 a13c 647c fc3c a76b 83bc
00000220: f37d ec3d 9fee ac3e 43db 32bc ec95 84bd
00000230: ea5d 4e3d 7df8 bf3d 2031 ad3c e66e 203e
00000240: c4b5 213c 25ea 603d 68db 8e3d 0567 763e
00000250: bb76 c33c 7e3f a73d eba3 833c 2867 a73d
00000260: 8e98 0a3d 8b49 263d 9e3a bf3c f4c5 e63c
00000270: 9e62 af3c 36d0 f53c 698c 6eb7 bf41 883d
00000280: 658c 143d d978 6c3d a6eb 6cbd 741b 0f3d
00000290: 2ae4 bd3c ddea a33c 094e 213d 1abd 4a3c
000002a0: e6b0 523d fe2d 8e3d bcde 4e3c 9bde 653d
000002b0: f512 ac3d e94c 6e3d 8e1d a83c 9bd8 913b
000002c0: 0dca 263d 3f33 263d c2b5 5b3d 978b 0639
000002d0: 31ae 883a 62f2 7036 a205 7a3c 855b ce3c
000002e0: 9fc3 173e b750 0339 4ec9 0e3d 6da3 a3bc
000002f0: 5fac 093e e057 f73d ad1e a03d d94f ac3d
00000300: 5867 453d 3b65 7a3c b15a 8bbb 1a14 f33d
00000310: a8be 5d3c 421d 8c3e dfc8 d13d 02a1 e13c
00000320: 8d4d 863c a97a b5ba e1ad e43d 55ca 9a3b
00000330: acb4 1a3c 583d 173d ee07 393e a78f a23c
00000340: a501 873e ed7c 5d3c 0421 e93d fc6f f43c
00000350: 32ad 913d 2f30 713d 9569 cf3d 9e8c b03c
00000360: cdde 8a3d b408 f83d 17c9 603d 259e 8e3c
00000370: e0c9 213d ecf9 103d a8a5 903d d891 393d
00000380: b1bb 213d 470a 0b3d c97f 853c 9f31 913c
00000390: 77ec 1a3d 1566 263c 0db0 f43c 29ae 873d
000003a0: b457 203d 7c35 3f38 b732 513d 6bbe fd3c
000003b0: 96ff e03c d2b2 f03d 81a3 9b3c 3a96 3e3c
000003c0: 0a58 883d 8938 323d 2cf0 083d f003 da3c
000003d0: 8302 f93d 0565 4c3d 85e8 453e da88 903d
000003e0: cb48 443c 75d6 483c 86cd ccbc ed1b 843d
000003f0: 81e9 8c3d bb82 643c 9a6f fc3c 54c6 bdbb

bn2.running_mean f4 [300]
2.058958 0.724034 1.1470191 0.71345127 3.7620833 1.894029 0.76344585 0.85210246
0.42206323 1.2858684 1.0287737 4.2253547 2.4595025 6.83869 0.29274815 3.1273043
0.36003825 2.849723 2.1763852 2.3346756 0.3522041 0.23294353 28.235863 0.12339625
0.4654742 3.153883 3.594253 1.9646772 0.8175822 11.219869 0.86214095 0.71724176
2.1513824 4.9573355 0.048444115 0.012835134 0.7731347 0.42318475 0.80068856 0.71972257
4.025505 7.1931667 0.9076522 1.4786997 0.3562233 0.5929557 0.7966595 0.3357433
1.485732 0.32929772 5.910162 0.14819932 0.42648622 2.2690175 0.4923632 1.0141001
16.589903 0.45882508 30.662533 1.7692512 1.6168559 4.3315287 6.692055 3.4455884
1.4307636 1.4524415 1.5556263 3.0088534 3.4398632 2.690804 5.5563436 3.58267
2.3518343 1.0555853 8.365978 0.31989914 1.1005186 24.756845 3.2671247 1.425188
0.567097 0.41610953 3.13107 3.6920664 1.0396973 0.920903 1.635447 0.6127481
0.018593917 3.2128778 0.7148102 2.1914153 0.5286491 0.42439008 0.31098947 1.2701833
1.8993695 1.9500996 4.4399543 2.4692044 0.9076742 2.1953928 1.0038862 26.289242
5.59063 1.6799111 1.1727903 0.7138534 0.1790779 2.0872698 34.892845 7.7880664
0.6946146 0.9273624 2.6888733 0.39947486 0.28660995 0.827826 3.1067429 3.6576836
10.789953 2.0785427 0.34351587 0.76909536 6.117386 6.0345807 3.0914352 0.5578468
1.8739561 0.7136943 1.5125334 3.886275 4.1122327 1.5075923 2.8721962 0.15985118
3.1113 25.59076 0.40077943 14.658655 1.8623532 2.266518 1.4452307 3.316554
0.27963337 1.0415616 0.49170995 25.62809 9.828002 1.8621405 0.5330331 1.7349236
2.7246008 6.568341 0.55792844 4.059185 0.42608035 6.5555496 4.976924 0.4977775
3.3720295 0.9513639 23.255861 8.038903 1.5084556 0.3086977 0.4783857 1.657468
1.7117279 3.7577987 0.42508596 3.1323414 2.3994887 2.2025905 0.98223734 0.74968225
6.957388 1.2888514 2.963503 0.0012969865 0.00089215674 5.926656 0.7547503 0.5300021
1.3536736 9.181012e-11 7.302639 0.31081802 2.599842 1.6848949 1.5380157 4.909527
0.52377546 7.049418 0.6987534 0.27492303 0.86113495 2.113338 0.16374418 5.308452
1.5398681 0.6428587 1.4073817 0.49553266 0.5600743 1.0438662 13.715945 0.2147798
17.540155 0.27437586 5.2901874 2.959942 2.383124 2.83127 1.8974311 1.199975
0.39611456 5.1895466 0.8455872 7.3804975 0.09226017 2.1106749 2.7018683 5.185278
0.33635798 3.9839003 3.3068857 5.1555276 1.5097531 6.895106 1.4464424 1.3002192
1.0103229 0.431589 5.392493 4.8287506 1.5868713 1.0649158 2.0412095 0.9821846
1.4056249 3.0224574 0.4874791 2.1718976 0.8452503 1.2764964 4.278858 3.269468
1.1566086 0.34576243 6.8533616 0.670478 2.3798532 0.9913142 0.6649155 1.71338
00000000: f8c5 0340 4b5a 393f 86d1 923f bea4 363f
00000010: f9c5 7040 8b6f f23f 3071 433f 6323 5a3f
00000020: ac18 d83e 5697 a43f dbae 833f 1b36 8740
00000030: 7d68 1d40 8cd6 da40 16e3 953e c125 4840
00000040: ef56 b83e dd61 3640 e549 0b40 536b 1540
00000050: 1954 b43e c088 6e3e 0ce3 e141 2cb7 fc3d
00000060: a252 ee3e 38d9 4940 3e08 6640 8b7a fb3f
00000070: 114d 513f 9584 3341 45b5 5c3f 289d 373f
00000080: 40b0 0940 7ea2 9e40 566d 463d 744a 523c
00000090: 28ec 453f acab d83e edf9 4c3f bd3f 383f
000000a0: f0d0 8040 6c2e e640 e55b 683f 0846 bd3f
000000b0: e662 b63e f2cb 173f e1f1 4b3f 8ce6 ab3e
000000c0: 772c be3f b699 a83e 0c20 bd40 90c1 173e
000000d0: 675c da3e 9537 1140 0817 fc3e 08ce 813f
000000e0: 1fb8 8441 1feb ea3e de4c f541 d376 e23f
000000f0: 22f5 ce3f e29b 8a40 5125 d640 8584 5c40
00000100: 4323 b73f 9ae9 b93f c31e c73f 0e91 4040
00000110: b826 5c40 2236 2c40 91cd b140 774a 6540
00000120: 7484 1640 6b1d 873f 0cdb 0541 d2c9 a33e
00000130: cbdd 8c3f 050e c641 9218 5140 8f6c b63f
00000140: 452d 113f 4f0c d53e 7363 4840 d14a 6c40
00000150: cd14 853f 4dc0 6b3f 5456 d13f 0fdd 1c3f
00000160: 4552 983c ca9f 4d40 cdfd 363f 2640 0c40
00000170: 8c55 073f a849 d93e 033a 9f3e 5e95 a23f
00000180: 8a1e f33f dd9c f93f 1b14 8e40 7207 1e40
00000190: 565d 683f 5181 0c40 587f 803f 5e50 d241
000001a0: 71e6 b240 5407 d73f fe1d 963f 19bf 363f
000001b0: 3260 373e d495 0540 4692 0b42 d737 f940
000001c0: 43d2 313f 9f67 6d3f 8016 2c40 f887 cc3e
000001d0: 8abe 923e 68ec 533f e0d4 4640 7d17 6a40
000001e0: a6a3 2c41 d806 0540 50e1 af3e 6fe3 443f
000001f0: a0c1 c340 491b c140 13da 4540 0ccf 0e3f
00000200: cbdd ef3f abb4 363f b29a c13f bbb8 7840
00000210: 6997 8340 c9f8 c03f 10d2 3740 07b0 233e
00000220: 8a1f 4740 e0b9 cc41 f632 cd3e da89 6a41
00000230: 9761 ee3f a20e 1140 52fd b83f 6c42 5440
00000240: 1b2c 8f3e e451 853f 68c1 fb3e 5406 cd41
00000250: 7f3f 1d41 9f5a ee3f db74 083f fa11 de3f
00000260: dc5f 2e40 d92f d240 66d4 0e3f d8e4 8140
00000270: 3427 da3e 10c7 d140 f642 9f40 b1dc fe3e
00000280: 55cf 5740 968c 733f 010c ba41 599f 0041
00000290: 1315 c13f a00d 9e3e f8ee f43e e927 d43f
000002a0: e619 db3f c67f 7040 dea4 d93e 4878 4840
000002b0: 3991 1940 3ef7 0c40 e873 7b3f 2deb 3f3f
000002c0: eca2 de40 15f9 a43f 08aa 3d40 a5ff a93a
000002d0: a0df 693a 2aa7 bd40 5137 413f 38ae 073f
000002e0: 2d45 ad3f 81e4 c92e 38af e940 8a23 9f3e
000002f0: d063 2640 a3aa d73f b3dd c43f d81a 9d40
00000300: 2616 063f d594 e140 81e1 323f b6c2 8c3e
00000310: 5773 5c3f ee40 0740 8eac 273e d7de a940
00000320: 661a c53f 6392 243f 1525 b43f 75b6 fd3e
00000330: 0861 0f3f 689d 853f 8374 5b41 3cef 5b3e
00000340: 3d52 8c41 fe7a 8c3e 3749 a940 b16f 3d40
00000350: 1b85 1840 8733 3540 06df f23f c898 993f
00000360: 87cf ca3e c410 a640 6778 583f 092d ec40
00000370: e6f2 bc3d 4c15 0740 69eb 2c40 cced a540
00000380: 1d37 ac3e 39f8 7e40 04a4 5340 15fa a440
00000390: 973f c13f b5a4 dc40 0625 b93f 956d a63f
000003a0: 4352 813f 3cf9 dc3e 4d8f ac40 2085 9a40
000003b0: 991e cb3f 294f 883f 2da3 0240 7370 7b3f
000003c0: 84eb b33f f16f 4140 dc96 f93e 5f00 0b40
000003d0: 5362 583f 3c64 a33f 68ec 8840 f73e 5140
000003e0: c00b 943f c607 b13e bd4e db40 72a4 2b3f
000003f0: 844f 1840 c4c6 7d3f e737 2a3f 0950 db3f
