pretrainedNetworks/critic_local1.pth (torch_old, 553166 bytes, 9 tensors)

fc1.weight f4 [300, 52]
000000 86 4c 7e 3e 4b ad 36 3e 88 ed 80 bd bd b5 5f 3e
       0.24833879 0.17839544 -0.062953055 0.21846671
000010 14 82 e3 bd f3 d9 9d bd 6e 34 b5 bd b9 87 5e 3e
       -0.11108795 -0.07707586 -0.08847891 0.21731462
000020 da a7 cd 3e 21 60 dc 3e 0d cc 35 be b9 78 09 3f
       0.40167123 0.4304209 -0.1775362 0.53699833
000030 24 ab 3a bb c2 8b 31 be 7d ea 53 be 5b 90 01 3f
       -0.0028483355 -0.1733847 -0.20694919 0.50610894
000040 53 d2 a5 3e e7 7a 14 3f 19 06 91 3d ef 67 af 3d
       0.32387027 0.58000034 0.07081241 0.08564746
000050 ce 39 df 3d 4b 4b f0 be 50 2f 4f 3d e9 f1 fc 3d
       0.10899697 -0.46932444 0.05058223 0.12350828
000060 9f ea f9 bc 2f 7e 54 3d 49 57 be bd 2f b8 18 bd
       -0.030507384 0.05187815 -0.09293992 -0.037285026
000070 ba e6 15 3e f7 ac ff bc ef 39 de bd 3d f5 cc bd
       0.14638796 -0.031210406 -0.10850894 -0.10007713
000080 19 ad 28 3e 71 0d 5e 3c 90 02 db 3e f2 4d 87 3d
       0.16472282 0.013553009 0.42775393 0.06606664
000090 8c 68 94 3c 1d db 4d be 7f 39 cc 3e 12 94 87 3d
       0.018116258 -0.20103116 0.39887616 0.06620039
0000a0 35 37 1b 3e bb fe 8f 3d f5 60 c4 bd 92 36 a6 be
       0.15157779 0.07031008 -0.095888056 -0.3246351
0000b0 a6 cf d2 bd 25 4e dc be cf 34 31 be b1 5e b5 be
       -0.10293512 -0.4302837 -0.17305301 -0.35423806
0000c0 1c 78 04 bf 38 60 a9 3c 8e bb e2 3e 8f 16 20 3d
       -0.5174577 0.020675763 0.44283718 0.039084014
0000d0 22 e4 88 3c 24 60 26 bf 51 a4 44 bd 22 6f 49 3d
       0.016710345 -0.6499045 -0.048008267 0.04917825
0000e0 e2 59 98 3e d5 10 94 be d1 7e 1c bd d6 14 33 3c
       0.29756075 -0.28919092 -0.03820688 0.010930261
0000f0 32 35 30 3e cd e5 0b bf ce 16 6b bd 3e 4b 02 3d
       0.17207792 -0.54647523 -0.057394795 0.031810038
000100 8e fe 50 3e 8a c5 cf be a0 77 aa bc 7e 58 22 3d
       0.20409605 -0.40580398 -0.020808995 0.039635174
000110 ba 29 0f 3e ae a6 b3 be 1c 89 21 bd 59 cb 94 3f
       0.13980761 -0.35088104 -0.0394374 1.1624557
000120 4e d2 12 3d 8d 0d 06 be 0f cf 11 3c 79 45 90 3f
       0.035845093 -0.13091107 0.008899464 1.1271201
000130 c4 8a 8d 3c da cc f4 be 87 e3 35 3d c1 cb 8a be
       0.017278083 -0.4781254 0.04440644 -0.27108577
000140 b8 ff 8d be 68 0d 91 be a7 12 b7 bc 28 b6 95 be
       -0.2773416 -0.2833054 -0.022347761 -0.29240537
000150 d0 b8 d6 3d 57 f3 09 bf aa 89 ac 3d 11 6e 96 be
       0.10484469 -0.5388693 0.08424695 -0.2938085
000160 0b 1d 4c be 8e ea bd be d5 bc d1 3d c1 15 99 be
       -0.19932954 -0.37093014 0.10241095 -0.2989941
000170 92 f5 31 bc 58 ea 13 bf ce 92 ec bd 7b df b0 bd
       -0.010861771 -0.57779455 -0.11551438 -0.086363755
000180 25 5a 83 bd d2 7a 6d be 47 16 ea bd 11 ee 9a 3c
       -0.06413678 -0.23191383 -0.1143003 0.018912347
000190 9c df 4a be 4b de 4f 3d 46 36 1c bf a3 3c 6a be
       -0.19811863 0.050749104 -0.61020315 -0.22874694
0001a0 3d f0 07 3e 37 eb 9c be b4 c7 81 3e d0 15 7f be
       0.13275237 -0.30648205 0.25347674 -0.24910665
0001b0 e4 ba 26 bd 42 9b 78 3d f4 08 42 3e b7 69 92 be
       -0.040705577 0.06069494 0.18948728 -0.2859628
0001c0 75 b4 85 3e 48 cc a3 be 94 b9 30 bd 15 38 0e 3f
       0.2611424 -0.31991792 -0.04314573 0.55554324
0001d0 74 5a 4c 3e 81 a6 71 be 7c 3f 27 bb c7 18 f5 3e
       0.1995638 -0.23598672 -0.0025520017 0.47870466
0001e0 b5 89 43 3e 91 f6 7f be a8 79 69 be 8b d4 68 3e
       0.190955 -0.24996401 -0.22800314 0.22737329
0001f0 db c9 02 3f 3a 23 47 be 3b 7c 67 be 10 9c 91 3e
       0.51089257 -0.19447032 -0.22605984 0.2843938
000200 83 5c aa 3e da d4 05 3f 12 32 6c bd 8f 9d 58 be
       0.33273706 0.5227791 -0.05766494 -0.21153854
000210 59 b7 15 3e 37 ae 5f 3d 34 e9 b6 bd 87 b0 81 be
       0.14620723 0.054609504 -0.08931199 -0.25329992
000220 2d 4f ba 3e 24 02 47 3f 55 4a a7 bc 67 20 0a be
       0.3638853 0.7773764 -0.020421186 -0.13488923
000230 ff e9 60 be ca e6 75 be ff 3e 3f 3d bc 71 be bd
       -0.21964262 -0.2401382 0.046690937 -0.09299037
000240 56 1a b3 3e 78 75 37 3f 16 55 53 bd dc 76 9e bd
       0.3498103 0.7166362 -0.051594816 -0.077375144
000250 e0 00 05 bf e3 44 0a be 23 89 fe bc da 40 5c bc
       -0.5195446 -0.1350284 -0.031071251 -0.013443196
000260 b1 f0 c3 3e 8c 30 94 be 8c 85 35 bf 69 94 3b be
       0.3826957 -0.28943288 -0.709069 -0.18318333
000270 dd 1f 1f 3c c5 da 6b bf e7 6e b2 bd 96 23 6f 3e
       0.009712187 -0.9213069 -0.08712559 0.23353419
000280 5b ce d0 be 06 b2 eb be 60 2b 04 bd 68 19 9d 3e
       -0.40782437 -0.4603426 -0.032267928 0.30683446
000290 84 9e 44 3d 2c 8d 63 bf 9e 71 e1 bd 66 05 f9 3c
       0.048002735 -0.88887286 -0.11007999 0.030398082
0002a0 4b d1 91 be 32 8b 87 bd 32 a8 86 bc 21 56 98 bd
       -0.2847999 -0.06618346 -0.016437624 -0.07438303
0002b0 50 cb b6 3e 66 fa 58 bf b0 2d da 3d 8d 8b 52 3e
       0.3570199 -0.8475708 0.106532454 0.20561047
0002c0 b1 c4 9b be 5e d6 98 3e cc 2f 1b 3d b8 cf 16 3e
       -0.304235 0.2985105 0.03788738 0.14727676
0002d0 c3 5a 86 3e 31 e2 c5 bd 38 3f 1d 3e 3e 17 07 bf
       0.2624112 -0.09662283 0.15356147 -0.5276984
0002e0 6d 0d db 3e 98 89 0f bf 26 53 2b 3d c7 f3 07 bf
       0.4278368 -0.56069326 0.041827343 -0.5310635
0002f0 39 10 35 3e e3 50 b4 be aa 54 70 bc 0d de f9 bd
       0.1768197 -0.35217962 -0.014668623 -0.12200556
000300 d4 92 91 3e f3 cf 81 bd aa da a7 3d 3c b9 12 be
       0.28432333 -0.06338491 0.08196004 -0.14328474
000310 f8 fd 04 3e 33 20 f6 bd 2d f0 4c be 7f 7c 85 3e
       0.12987506 -0.1201786 -0.20013495 0.26071545
000320 60 31 9d 3e d3 6b 9a 3e 2f 20 8f be bb 2d 87 3e
       0.30701733 0.30160388 -0.27954242 0.26402077
000330 b9 3b a4 be e7 e0 a2 be 4b ef 6e bf ee 93 c0 3e
       -0.32076815 -0.31812212 -0.9333388 0.3761286
000340 78 cc 09 3f 52 1b fd be 7b 5e 04 3c be 99 89 3e
       0.5382762 -0.49434906 0.0080791665 0.26875108
000350 f0 ba a7 be 9a c7 a8 be 38 62 6c 3d c0 39 61 3e
       -0.3275981 -0.32964784 0.057710856 0.21994686
000360 1f a6 31 3f 13 03 d2 be 48 4d 85 3d d9 d8 e6 3e
       0.69394106 -0.4101797 0.06508881 0.45087317
000370 94 52 d1 be ac e2 38 be a3 eb b5 3d b6 21 d9 3e
       -0.40883315 -0.18055218 0.08882835 0.42408532
000380 d5 88 19 3f 64 d6 b7 be 3d 9e 8d 3d 85 48 90 3e
       0.59974414 -0.35905755 0.06914947 0.28180328
000390 ed 12 ac be 82 16 e1 bd c3 45 6e 3d 44 2d 93 3e
       -0.3360819 -0.10990621 0.058172 0.28745472
0003a0 bc f8 98 3c 37 d2 d8 be fe b9 18 3b f9 a0 14 bc
       0.018673293 -0.4234788 0.002330422 -0.009071582
0003b0 3c f5 c9 3e cd 6f c4 be 10 09 06 bd a1 a0 7e 3c
       0.3944491 -0.38366547 -0.032723486 0.015541227
0003c0 84 8f 8e 3d b5 57 c0 be 52 ec 32 bd ef d2 43 3e
       0.06960967 -0.37566915 -0.043682404 0.19123434
0003d0 d7 7c c6 3e b0 81 7f be a8 ff e6 bc 9a f0 5d 3e
       0.3876712 -0.24951816 -0.028198078 0.21673813
0003e0 7e 59 ab 3e 14 0e c1 be 03 cb 0c bd e9 c0 2e be
       0.33466715 -0.37706053 -0.034373295 -0.17065777
0003f0 e9 0b 93 3e 17 52 cd bd 11 33 1a bd 7b 13 2d be
       0.28720024 -0.10025423 -0.037646357 -0.16901962

fc1.bias f4 [300]
000000 df da 58 be 13 05 41 be 88 53 b5 be 0b 19 f1 be
       -0.21177243 -0.18849592 -0.35415292 -0.4708942
000010 4e d2 ec be cf 51 84 be b7 9a 21 be ec 32 f3 3d
       -0.462542 -0.25843665 -0.15781675 0.11874947
000020 51 a4 65 bf 24 2b 33 be f5 fe db bd 97 3b 91 be
       -0.8970385 -0.17496926 -0.107419886 -0.28365776
000030 db 2e 0d bf 65 d7 f1 be 67 40 82 3e 22 5e 2f bf
       -0.5514962 -0.47234645 0.2543976 -0.6850301
000040 f1 9d 9f bd 24 63 25 bf 19 6e 52 3e 04 1b b2 be
       -0.07793797 -0.646044 0.20549811 -0.34786236
000050 0c b7 b4 be 1f b9 66 be 42 1d a0 be 05 6c fe 3d
       -0.35295904 -0.22531556 -0.31272322 0.12422947
000060 1b b6 e6 be 06 ad ad bd 59 d5 52 be 0f 49 b7 be
       -0.4506081 -0.08480267 -0.20589198 -0.35797927
000070 69 aa b2 bc 00 57 cd be 05 c2 b6 3d f0 35 d5 3d
       -0.021809774 -0.40105438 0.08923725 0.104106784
000080 21 47 31 be a4 3c e0 bd 44 ea 3f be b8 04 00 bf
       -0.1731229 -0.10949066 -0.18741709 -0.500072
000090 60 10 20 bf 3f c1 ae be 6a 6a 15 bf 7b 57 e8 be
       -0.62524986 -0.3413181 -0.583655 -0.45379242
0000a0 48 80 4a be af c8 66 be 97 08 49 3e 19 73 6b be
       -0.19775498 -0.22537492 0.19632183 -0.22993125
0000b0 2c 7c 8a be ce 7f 8c bb ca 60 f3 bd c0 89 9f 3d
       -0.2704786 -0.0042876964 -0.118836954 0.077899456
0000c0 9d e3 c9 be 6b 90 8b be e1 e3 44 3d 28 d8 55 bf
       -0.39431468 -0.2725862 0.048068885 -0.83532953
0000d0 bd e7 fe bd 64 25 10 bf 4b a4 c5 be ee 50 ec 3d
       -0.12446544 -0.56307054 -0.38601908 0.115388736
0000e0 ce 47 41 be 4a b5 3f be ab 41 73 bf 01 62 3d be
       -0.18875048 -0.187215 -0.95022076 -0.18494417
0000f0 dc 27 9c be fe ac 8c bd 13 a0 ff 3d d4 0a 44 bd
       -0.3049916 -0.06868933 0.124817036 -0.04786189
000100 7f fc 15 3d 90 57 a4 be 5d ea 58 be a2 91 a1 be
       0.036617752 -0.32098055 -0.21183152 -0.31556422
000110 10 e7 cd bd 81 87 f6 be 73 8c b4 be ba b4 3a bf
       -0.10053837 -0.48150256 -0.35263404 -0.72932017
000120 2d b7 0c bf 89 13 83 be e0 7f 4b be cc 2f 2d be
       -0.54967004 -0.25600842 -0.19872999 -0.16912764
000130 de 96 a2 be 0e b5 25 3d 15 72 bb be 13 37 28 bf
       -0.31755728 0.04045587 -0.36610475 -0.65709037
000140 20 ef e8 be a7 da fe be 9d df cc be 88 c0 cf be
       -0.45494938 -0.49776193 -0.40014353 -0.40576577
000150 38 d1 f3 bc 01 6b e6 be 41 88 fb be ca f6 e4 bd
       -0.02976285 -0.45003513 -0.4912739 -0.11179884
000160 a9 fc 04 be aa c5 21 be d7 3a c0 bd e2 c0 4a bd
       -0.12987007 -0.15798059 -0.09386223 -0.049500354
000170 c7 82 0a be 45 3e 0e 3e b5 43 8b be 7a 40 7e bf
       -0.1352645 0.13890941 -0.27200094 -0.99317133
000180 92 b2 94 be af 8c 15 bf 0f 48 66 be 35 6b 8a be
       -0.29042488 -0.5841779 -0.22488426 -0.27034917
000190 fb ef 93 be af 80 29 be df 28 3c bd 01 96 7b 3d
       -0.28894028 -0.16552995 -0.045937415 0.06142235
0001a0 c2 39 e6 be fa f9 c0 be 7f 31 b6 be 6a 1d aa be
       -0.4496594 -0.37690717 -0.35584638 -0.33225566
0001b0 d3 d7 a1 3c eb c0 44 be 4d 6a 8b be 81 1e ca bd
       0.019756233 -0.19214217 -0.2722954 -0.098690994
0001c0 61 a6 0a 3b 75 92 3c be b2 b8 48 bf b3 c6 58 bd
       0.0021156298 -0.18415244 -0.7840682 -0.05292387
0001d0 92 79 28 be cc c9 8a bd 5a f4 88 be 57 64 11 bf
       -0.16452625 -0.06776771 -0.26748925 -0.5679373
0001e0 b9 b1 07 bf b9 41 0c be a6 63 e1 3c cd 53 da 3d
       -0.5300556 -0.13696946 0.027513336 0.10660515
0001f0 6b 9a d6 bc 29 37 30 bf ba 20 10 bf d0 56 82 be
       -0.02619668 -0.6883417 -0.56299937 -0.25456858
000200 9a d5 bf bd fd 78 52 bf cc 4d 40 be a4 95 d6 be
       -0.09366913 -0.82215863 -0.18779677 -0.41911042
000210 75 22 26 bf 3e 50 8e 3d 83 99 03 bf 14 54 40 be
       -0.6489633 0.06948899 -0.51406115 -0.18782073
000220 4b 92 16 bf 45 7c 38 be a5 09 61 be d3 41 a3 3d
       -0.58816975 -0.18016155 -0.21976335 0.07971539
000230 d8 43 34 bf ac 4f bb be a3 56 a8 bc 6c 6d 8b be
       -0.7041602 -0.36584222 -0.020549124 -0.2723192
000240 40 5c 1f 3e be 1f 80 bd 33 0f 46 3e fb 1e 5e be
       0.15562534 -0.06256054 0.19341736 -0.21691506
000250 97 10 c9 bc f6 59 2e bf f2 05 68 3b ae 23 f4 be
       -0.024544043 -0.6810602 0.0035403934 -0.4768347
000260 1c 83 b0 bd d6 9f 1b be f9 56 09 bf 0b 90 b8 be
       -0.08618757 -0.15197691 -0.53648335 -0.36047396
000270 e3 c1 1c 3e c4 2a 9f be 0f b3 f9 be 53 46 d8 be
       0.15308337 -0.31087315 -0.48769423 -0.42241153
000280 c6 ba d9 be cf 3a 06 be 2d c0 ce bc a3 08 0c bf
       -0.4252531 -0.13108371 -0.02523812 -0.5470068
000290 a4 a3 0e be 04 a9 17 bf 50 9d 62 be 6b 3f b4 be
       -0.13929611 -0.5924227 -0.22130322 -0.35204634
0002a0 d9 d0 a3 bd 62 a7 8f be 1e 14 ef be b3 80 92 be
       -0.07998819 -0.2805739 -0.46695036 -0.28613815
0002b0 e3 ef 88 be 45 a5 0b bf 34 6e a7 be 00 57 b5 3d
       -0.2674552 -0.54549056 -0.32701266 0.088544846
0002c0 d9 df 7f be d5 79 f4 bd ba 22 a3 bd 51 df d5 be
       -0.24987735 -0.119373 -0.07965608 -0.4177194
0002d0 57 12 75 be 0f 2c 68 3c 55 16 8e be 7e df 75 bc
       -0.23932777 0.014170661 -0.27751413 -0.015006898
0002e0 4c b4 21 be 07 e8 e2 be ba e9 90 bd 82 cd 49 be
       -0.15791434 -0.44317648 -0.0707583 -0.19707301
0002f0 86 69 f7 be 48 6d a2 be 6b 90 b2 be da ac f1 bd
       -0.48322695 -0.31724 -0.34875807 -0.11800547
000300 c1 e4 4a be f9 64 15 bf f8 56 f3 bd 63 91 b2 3d
       -0.19813825 -0.583572 -0.11881822 0.087191366
000310 ba 7f 03 bd 72 92 93 3d aa db 5f bd 3e 26 81 bc
       -0.03210423 0.072056666 -0.054652847 -0.015765306
000320 e3 40 21 be 3c 66 d5 be a6 79 93 be e6 36 4b 3e
       -0.15747409 -0.4167956 -0.28803748 0.19845161
000330 ec 39 e9 bd 75 e1 53 3d 4d 90 f8 bd 9c b2 a7 be
       -0.11388001 0.051728684 -0.12136898 -0.32753456
000340 86 e5 25 bf b8 c2 0a be 42 5d a3 be b8 aa 5e 3c
       -0.6480335 -0.13550842 -0.31907088 0.013590507
000350 3b 41 25 bd 02 da 21 bf 86 26 2b bf e4 59 13 bf
       -0.04034541 -0.6322328 -0.6685566 -0.5755904
000360 0e 6d 26 bf 01 8d d2 3d ba 2b bf be 98 46 fd bd
       -0.65010154 0.102808006 -0.37338048 -0.1236698
000370 fb 17 c2 3d 99 78 6f bf 68 99 db be 68 af 59 bf
       0.0947723 -0.9354339 -0.42890477 -0.85033274
000380 7b 12 c5 be 06 50 2a bf 10 91 c5 be 31 df 01 be
       -0.38490662 -0.66528356 -0.38587236 -0.12682797
000390 c2 a4 e6 be 79 29 46 be c2 5f e2 be f6 f9 96 3d
       -0.45047575 -0.19351758 -0.44213682 0.07371895
0003a0 d8 26 f9 bd 77 5d 3a bd 8f 09 a1 be a7 4b 3f be
       -0.12165612 -0.04549929 -0.31452605 -0.18681203
0003b0 9b e3 5a be d2 d8 32 bd b6 63 f4 3c e6 97 2c be
       -0.21375887 -0.043663807 0.029832702 -0.1685482
0003c0 bd 1c b4 bd 36 3c 5f be f2 0c b2 be 64 88 c3 3d
       -0.08794544 -0.21800312 -0.347755 0.09547499
0003d0 df d1 8b 3d 98 24 22 bf ee 42 d2 bd c1 e1 4f 3d
       0.06827139 -0.6333709 -0.10266672 0.050752405
0003e0 c9 32 fe bd 45 cd 2f be c0 da 82 be 52 e8 b2 be
       -0.1241203 -0.17168148 -0.25557518 -0.3494287
0003f0 cc e4 1c be ee 68 16 3c 19 9a f1 3a 1f 50 53 be
       -0.15321654 0.009180291 0.0018432766 -0.20636033

fc2.weight f4 [400, 300]
000000 39 17 88 bd e1 b5 44 3c 1c 20 61 3b 33 17 5b be
       -0.06645054 0.012006254 0.0034351414 -0.21395569
000010 30 27 5a 3c d4 a0 2a bd f0 49 ad 3c ea 9f c3 ba
       0.013315007 -0.041657284 0.02115342 -0.0014924977
000020 a2 60 88 bd 28 e5 fb bd 2a 84 42 3e d7 0d e3 3c
       -0.06659056 -0.122995675 0.18995729 0.02771656
000030 19 12 1a bd f4 3d 92 bd a4 7b 45 3d 36 2a 6c bb
       -0.037614916 -0.07140723 0.048213616 -0.0036035902
000040 75 dc 5c bd 21 21 e2 ba 0b 5e 8c bd 82 ef 82 bc
       -0.05392118 -0.0017252305 -0.06853875 -0.015983347
000050 c7 0a ff bc f0 e7 95 3c 1f 18 34 3e b9 61 ac 3d
       -0.031133069 0.018299073 0.17587326 0.084170766
000060 d4 d9 c0 3c 62 5f 03 be d8 0a 81 3d 8e 3b b4 bd
       0.023541369 -0.12829354 0.063008964 -0.08800422
000070 97 b0 28 3d e7 55 1a be 8c 8c 4e 3c 07 ef a6 bd
       0.041184034 -0.15071832 0.012606751 -0.081510596
000080 d2 ca 33 bc 0f d5 00 3d e3 29 57 bd 30 fe 9f bd
       -0.010973649 0.03145319 -0.05253018 -0.07812154
000090 bf 9b 77 bc 2b 0d 70 bd 8a de 59 bd b3 69 70 3c
       -0.015112816 -0.058606308 -0.053190745 0.014673638
0000a0 e3 48 dc bd 6e 82 3d bc ce a6 0c bc cf f5 34 bd
       -0.107560895 -0.011566741 -0.008584691 -0.044179734
0000b0 15 be 28 bd 43 a1 b8 bc 48 47 10 bd c4 fe 6c bd
       -0.0411969 -0.022537833 -0.03522423 -0.05786015
0000c0 5a 78 b8 bc 0e b8 1e be b1 f2 d6 bd 70 5a da bd
       -0.022518326 -0.15499899 -0.104955085 -0.10661781
0000d0 f2 cf df bd c3 bb 48 3d 91 d8 b7 bd 2f fc 98 39
       -0.10928334 0.04900719 -0.08976854 0.0002917959
0000e0 27 2a d3 3c e9 f4 1b be b9 7c f9 bd 46 7d 40 bc
       0.025776936 -0.15230145 -0.12181992 -0.0117486175
0000f0 d9 79 8b 3d fe 72 c7 bd 33 81 c2 3a af 30 79 bc
       0.0681035 -0.0973873 0.001483953 -0.015209361
000100 02 39 b5 bc b9 bc cd 3d b3 cb 26 bd 30 2d bc bd
       -0.02212191 0.100457616 -0.040721606 -0.09188306
000110 56 05 26 bd 28 a2 69 3d b1 bf ef bd 64 09 86 bd
       -0.040532432 0.05703941 -0.11706484 -0.0654476
000120 0d 26 68 bd 43 7f 2b bc 56 d2 60 bd 19 c7 40 3d
       -0.056676913 -0.010467353 -0.054888092 0.047064874
000130 ba 2c 0a be d4 f7 2a 3d 8e 17 84 bc 01 03 79 3c
       -0.13493624 0.041740254 -0.016124513 0.01519847
000140 58 ac 44 bd f7 41 0c be 51 93 1c 3d 0e 70 fa bd
       -0.048015922 -0.13697039 0.03822643 -0.12228404
000150 b2 1d 9d 3d 4b ed c5 bd a1 c2 60 3c 88 d2 05 3d
       0.076716796 -0.09664401 0.013718278 0.03267148
000160 cb 36 11 bd 09 09 2e 3c c2 c1 4d 3c 9a 90 75 bd
       -0.035452645 0.010622271 0.0125584025 -0.059952356
000170 29 d9 3f bd 7e 8f 83 bd 06 91 51 bd 79 ec d4 bd
       -0.04683796 -0.06423853 -0.051163696 -0.10396666
000180 67 b5 ea bd ea 70 14 ba df 8e ff bb d5 d2 be bc
       -0.11460381 -0.00056625775 -0.007799014 -0.023293892
000190 88 0d 0c bc 99 fd 86 bd fd 94 88 bd 7d 2f f9 bd
       -0.008548148 -0.06591339 -0.06669042 -0.12167261
0001a0 82 0f 33 be e8 2a 7f bd b8 60 94 be 9d 35 c8 3c
       -0.17486385 -0.062296778 -0.2898004 0.024439627
0001b0 55 9a db 3b 11 16 b0 bc f4 52 38 be cd 5c d7 bd
       0.0067017474 -0.021494897 -0.18000394 -0.10515747
0001c0 ed 2f d7 3c fb e6 ff 3b 13 e3 45 bd ba 66 ec bd
       0.02626797 0.0078095174 -0.048312258 -0.11543031
0001d0 5b 7b cc bb 1b 99 ac bd 90 87 e1 3a fd d9 43 bd
       -0.006240291 -0.0842764 0.0017206538 -0.04781531
0001e0 15 cf 23 bd 5b 5e ef bd 9e dd b4 bb 3a d1 aa bd
       -0.03999241 -0.11687919 -0.005519583 -0.08340688
0001f0 be cf 63 be 5d 94 9c bd 10 04 05 bd 4a 76 63 3a
       -0.22247216 -0.076454856 -0.032474577 0.0008676989
000200 f6 27 fe 3c d9 5d a3 3d a4 09 39 bd b7 fe 01 bd
       0.031024914 0.079768844 -0.04517521 -0.031737056
000210 07 9a 7f bd 60 b1 1b ba 9c 8f 5e 3c 9a e5 13 be
       -0.06240275 -0.00059392117 0.013584044 -0.14443055
000220 4a 63 52 bb b5 15 64 bd 2b 94 cb bd d0 29 0c 3e
       -0.0032102638 -0.055684764 -0.0994037 0.13687825
000230 49 e0 97 bc 15 09 ea bd c0 99 d1 bb 2a d2 92 3c
       -0.018539565 -0.114275135 -0.0063965023 0.01792248
000240 65 69 b6 bc 2a 72 12 3d 2d dd 3a bd eb 26 a1 bc
       -0.022267053 0.035753407 -0.045621086 -0.019671878
000250 fd cc ba 3d 08 75 0b bc 55 00 00 be fb 81 29 bd
       0.0912113 -0.008511789 -0.12500127 -0.041383725
000260 30 1b 1e 3d fb 9a 93 bc 58 0c 71 bd bf 49 0f bd
       0.038600147 -0.018018236 -0.058849663 -0.03498244
000270 5c df e8 ba 5b b0 59 bd cc 9b 09 bd 34 07 a5 3d
       -0.0017766762 -0.0531467 -0.033595845 0.080580145
000280 13 83 6a be 39 5f 2c 3c bc 28 03 3e cb 5b e6 bc
       -0.22901563 0.01052075 0.12808508 -0.028119942
000290 d0 38 dc 3c bc d3 b4 bd 4e db d7 bc 6a 1e 58 3d
       0.026882559 -0.088294476 -0.02634969 0.05276338
0002a0 0c bf 8d bd 1d 23 07 bb bf 0d b3 3d ec 86 ca bd
       -0.06921205 -0.0020620294 0.08742856 -0.098890156
0002b0 27 d5 f3 bd be 27 92 bd 6b 27 82 bc 7b a6 c8 bd
       -0.1190589 -0.071364865 -0.015887937 -0.09797379
0002c0 9f 4d 0b 3d e1 aa 62 be f8 10 ca bc 64 a0 ae 3c
       0.034009572 -0.22135498 -0.024666294 0.021316715
0002d0 61 9e 58 bc ba fb 1d bd 56 a1 0d be f5 8a 97 bc
       -0.013221354 -0.038570143 -0.13831076 -0.018498877
0002e0 3e f9 2f bd 93 d6 4d bd 57 d8 43 bd ca f2 b1 3c
       -0.042962305 -0.050253462 -0.04781374 0.021722216
0002f0 20 f8 81 bd cc 87 54 bd 4b 6b 0e bd 00 40 3c be
       -0.06346154 -0.05188732 -0.03477029 -0.18383789
000300 3e 3e 11 3d cc 13 41 3d 5b af 71 3a c8 e8 d2 bd
       0.03545975 0.04713802 0.00092195504 -0.10298306
000310 86 5f 03 3d 44 6e 7d be bb 98 bb bd be 3c 0c bc
       0.03207352 -0.24749094 -0.091599904 -0.008559404
000320 6d 94 05 be be 82 a0 bd d6 c7 17 bc f6 ce a5 3c
       -0.13044901 -0.07837437 -0.009263953 0.020240288
000330 a5 57 92 bd 0b 79 a9 3a 4a 5e 30 bd 1d d1 8e 3d
       -0.07145623 0.001292975 -0.04305867 0.06973479
000340 82 0d 1a be c5 8f cc bc 28 36 12 be 35 e5 85 bd
       -0.15044215 -0.024970898 -0.14278471 -0.065378584
000350 7f 70 1d bd 55 2b fc 3d 1f 42 63 3d 91 18 39 3d
       -0.038437363 0.123129524 0.05548298 0.045189444
000360 b4 94 7a bd 77 76 1c 3d 8b 05 a0 3b 20 c1 1d 3d
       -0.06117697 0.038198914 0.0048834733 0.038514256
000370 c3 8f 39 3d c2 81 8a bd d9 88 60 3d d3 2b 4d 3d
       0.045303117 -0.067630306 0.054818008 0.050090622
000380 b6 ba b4 bc 3a 7f fd bc a3 51 82 bd 4a f6 b6 bd
       -0.022061687 -0.030944455 -0.06363227 -0.08933695
000390 c9 f5 8e 3d 7b 8c 15 bb ba 7b 9d bd 9f 8d 99 bd
       0.069804735 -0.0022819329 -0.076896146 -0.07497715
0003a0 cb 2a fc bd 00 42 de 3d b1 c2 36 bd 94 e6 4b 3c
       -0.123128496 0.10852432 -0.044619266 0.012445111
0003b0 2f eb 23 3c de f4 dc bd dc 0a c4 bd 34 91 54 bd
       0.010004803 -0.10788892 -0.09572384 -0.05189629
0003c0 d0 f7 2b bd 70 78 39 bc e1 08 bb 3c 69 74 51 bd
       -0.04198438 -0.011320218 0.022831382 -0.051136408
0003d0 a9 7e 85 bd dd 84 33 bd 1a c7 d4 bc 34 ed fb bc
       -0.06518299 -0.04382788 -0.025973845 -0.030752756
0003e0 a4 56 da bc b2 49 96 3c c6 d2 4e 3d 9c 82 b4 bc
       -0.026652642 0.018345688 0.050493978 -0.022034936
0003f0 9d 0b aa 3d d5 c7 1e 3d 11 e6 8f bd 33 e4 01 3d
       0.08302996 0.038764793 -0.070263036 0.03171177

fc2.bias f4 [400]
000000 44 07 09 be c9 de 58 be 46 11 38 bd 62 d1 34 be
       -0.13381678 -0.21178736 -0.04493835 -0.17657998
000010 4b ae f9 bd c1 42 fa bd ab e1 fc bd 2f b0 66 bd
       -0.12191447 -0.122197635 -0.1234773 -0.056320366
000020 01 ec e9 bd ad 9d c4 bd f9 2d 27 be 55 ba df bd
       -0.11421967 -0.09600387 -0.16326131 -0.10924212
000030 53 99 d3 bd 3f e3 aa bd b5 f6 ec bd 8a b8 90 bd
       -0.10331979 -0.08344125 -0.11570493 -0.07066448
000040 d1 84 27 be 10 4b 0a bd aa ea ab bd bc 5e c2 3c
       -0.16359259 -0.03376299 -0.08394368 0.023726813
000050 94 4b a3 bd 92 0d e1 bc 98 bb 16 be 95 c1 34 bd
       -0.079734 -0.027472291 -0.14719999 -0.044129927
000060 7e d0 0a be e8 d9 39 be 13 e7 8f bd be 7a 6d bd
       -0.13556096 -0.18149531 -0.07026496 -0.057978384
000070 02 ef 1c be 6c 82 ea bd fc 80 0c be 29 0b ea bd
       -0.15325549 -0.11450657 -0.13721079 -0.1142791
000080 7b e5 10 be 93 e4 a2 bd e2 28 0e be 3e 5b 01 be
       -0.1415004 -0.07953753 -0.13882783 -0.12632462
000090 07 ec 1f bd a0 74 09 be 87 49 fd bd 9e cf 0f be
       -0.039043453 -0.13423395 -0.1236754 -0.14044043
0000a0 74 d3 1f be 45 0f dc bd 90 f9 14 be 56 90 78 bd
       -0.15608007 -0.107451 -0.14548326 -0.060684524
0000b0 29 ec ad bd b6 64 07 be e6 7d cb bd d6 ad 8f be
       -0.084923096 -0.13222012 -0.099361226 -0.28062314
0000c0 49 6c c5 bd fa 2f c0 bd 2e 1c b2 bd 5a 3c 08 bd
       -0.096397944 -0.09384151 -0.08696781 -0.03326068
0000d0 b4 b5 2f be b9 ef ef bd b4 31 b4 bd 76 8b e4 bd
       -0.17159158 -0.11715645 -0.087985426 -0.111594126
0000e0 2d 70 e0 bd a8 c2 14 be d8 26 13 be 80 a9 94 bd
       -0.10958896 -0.1452738 -0.14370286 -0.07258892
0000f0 ce ec 9a bd ef a5 3e be bf 4a 8c bd ca 4d f9 bd
       -0.07564698 -0.18617986 -0.06850194 -0.1217304
000100 70 d5 12 be 4e c5 dc bd 2f df 85 bd a7 ad 9a bd
       -0.14339232 -0.107798204 -0.065367095 -0.07552653
000110 ef 97 dc bd 1a ca 19 be ac fa 01 bd ac fc 0a be
       -0.107711665 -0.15018502 -0.0317332 -0.13572949
000120 38 a4 10 be 13 f2 cf bd de 55 4a be e1 1e d4 bd
       -0.14125144 -0.10153594 -0.19759318 -0.10357452
000130 d5 b0 f8 bd d8 80 94 bd a7 fa d4 bd 2a e2 d2 bd
       -0.12143103 -0.072511375 -0.10399371 -0.102970436
000140 4c 01 f5 bd 6f 8c b4 bc c8 fa d6 bd 04 d0 49 bd
       -0.11963138 -0.02203962 -0.104970515 -0.049270645
000150 70 40 aa bd f9 77 f5 bc 5b 3c 0e be 4b 33 90 bd
       -0.08313072 -0.029964434 -0.13890211 -0.07041033
000160 02 fb 12 be 44 b2 21 be 4b c1 f3 bd a2 80 fa bd
       -0.14353564 -0.15790659 -0.11902102 -0.12231566
000170 df 9f a1 bd 15 0f 31 be 59 b6 b2 bd ef e3 32 be
       -0.07891821 -0.1729091 -0.08726186 -0.17469762
000180 42 28 ff bc b2 30 e9 bd 7e 91 cc bd ac 39 ca bd
       -0.031147126 -0.11386241 -0.09988688 -0.09874281
000190 3f cb ca bd 75 27 99 bd 76 cc e8 bd 7a 61 af bd
       -0.09902047 -0.07478229 -0.11367123 -0.08563514
0001a0 ee 46 5f bd 0c fe c4 be 90 db dd bd 45 fe 23 be
       -0.054511003 -0.38475072 -0.10832894 -0.16014965
0001b0 4b b4 47 be 87 e4 94 bd da cf 8a be dd 01 4b be
       -0.1950237 -0.07270151 -0.27111703 -0.1982493
0001c0 e0 64 00 be a9 78 cb bd 1e be 9c bd 77 4e f9 bc
       -0.12538481 -0.099351235 -0.076534495 -0.030432923
0001d0 39 36 9d bd 31 22 d9 bd e7 0f c8 bd ff 28 fc bd
       -0.07676358 -0.106022246 -0.09768658 -0.12312507
0001e0 20 d6 8c bd 0a 8c ac bd e6 61 07 be 7b d6 fb bd
       -0.068767786 -0.08425148 -0.13220939 -0.12296768
0001f0 e4 d0 8d bd 81 e9 fd bd 1d ef 2d be 16 3c d2 bd
       -0.06924608 -0.12398053 -0.16985746 -0.10265367
000200 60 b7 03 be ed 9c 2b be 8b 38 9e bd 39 0f 84 bd
       -0.12862921 -0.16759081 -0.077256285 -0.06448216
000210 06 8b ba bd 11 ca e8 bd c9 a9 b4 bd 4e c7 1f bd
       -0.09108548 -0.11366666 -0.088214464 -0.03900843
000220 7a c8 21 be 98 44 fd bd b0 ca 56 be 3d 61 00 be
       -0.15799132 -0.12366599 -0.20975757 -0.12537093
000230 e7 05 46 be 75 12 7e bd b5 10 0a be 4d 14 53 be
       -0.19338189 -0.06202932 -0.13482936 -0.20613213
000240 ee ee 76 bd f5 46 c5 bd ac fb ec bd 05 31 3f be
       -0.060286455 -0.096326746 -0.1157144 -0.18671043
000250 e8 5b 17 be 52 25 c5 bd a7 5a e9 bd 7b 65 fc bd
       -0.14781153 -0.09626259 -0.11394244 -0.12324043
000260 dc ce bf bd 30 c2 01 bd 81 b7 49 be 03 fc 70 be
       -0.09365627 -0.031679332 -0.19698907 -0.23533635
000270 e7 f2 f3 bd 24 c2 17 bd ab 72 e2 bd df 6d 0a be
       -0.11911564 -0.03705038 -0.110570274 -0.13518475
000280 3e d8 0f be 6f 9c f3 bd 93 40 11 be da b2 bd bd
       -0.14047334 -0.11895072 -0.1418479 -0.09262629
000290 59 64 40 bd 48 5f 85 bd 1f a6 cf bd 17 68 09 be
       -0.0469707 -0.06512314 -0.10139107 -0.13418613
0002a0 c3 da 16 be c5 a9 cb bd 10 f7 ca bd e1 a2 2f be
       -0.14731888 -0.0994449 -0.09910405 -0.17151977
0002b0 6d 20 ed bd cc a6 c2 bd 84 62 c5 bd f8 fa de bd
       -0.1157845 -0.0950447 -0.09637931 -0.10887712
0002c0 01 ff 92 bd 38 0b a1 3d 45 d4 db bd 0d 19 a1 bd
       -0.071775444 0.07863468 -0.107338466 -0.07866106
0002d0 3f 78 f0 bd 1a a1 e6 bd b3 38 bd bd 2b 99 16 be
       -0.11741685 -0.112611964 -0.0923933 -0.14706866
0002e0 65 bc d5 bd d5 22 23 be 6c 07 07 be 40 98 bf bd
       -0.10436324 -0.15931256 -0.13186425 -0.09355211
0002f0 15 37 ed bd 6e a2 f3 bd e0 e7 6d bd b2 91 02 be
       -0.11582772 -0.118962154 -0.05808246 -0.12750891
000300 fb 4e d7 bd 17 6f c1 bd 42 fe a5 bd bc 70 96 be
       -0.10513111 -0.09445017 -0.081051365 -0.29382885
000310 49 57 45 be eb 00 a9 bd 7d 9b 11 bd aa 6c 39 bd
       -0.19271578 -0.08252128 -0.035548676 -0.045269646
000320 d9 c0 9c bd bc 13 7e bd 0c 12 42 be 38 55 0d be
       -0.0765397 -0.06203054 -0.18952197 -0.1380204
000330 39 cb ed bd 23 7a 47 be 9d 3f ca bd b3 8e e2 bd
       -0.11611027 -0.19480185 -0.098754145 -0.11062374
000340 17 87 b1 bd cd 04 7c bd 1d cb ee bd 96 0b ce bd
       -0.086683445 -0.061528016 -0.116598345 -0.100608036
000350 b7 2e 8b bd 8c 67 e1 bd ff 75 f0 bd 68 13 c0 bd
       -0.067960195 -0.11006078 -0.11741256 -0.093787014
000360 e1 45 eb bd 38 64 c2 bd 94 90 41 be d9 5d 80 bd
       -0.11487938 -0.094917715 -0.18902808 -0.062679
000370 ad e3 12 be be 04 9d be 50 23 11 be 8f dc 15 be
       -0.14344664 -0.3066768 -0.14173627 -0.14634918
000380 56 d2 07 be 75 ab e2 bd 87 a9 33 be 88 d8 9f bd
       -0.1326383 -0.11067859 -0.17545138 -0.07804972
000390 d1 82 cb bd 5c 77 96 bd 66 92 1d be 28 9a 11 be
       -0.099370606 -0.07346985 -0.15387878 -0.14218962
0003a0 2f 24 0f be 34 10 24 be c9 b1 b5 bd 0f 70 5a be
       -0.13978647 -0.16021806 -0.088718005 -0.2133181
0003b0 d6 2f 9e bd 49 ce 92 bd 03 d6 39 be 71 a2 0d be
       -0.07723968 -0.07168252 -0.18148045 -0.13831498
0003c0 28 3c ac bd 5f 02 d6 bd af a3 01 be 19 46 ee bd
       -0.084099114 -0.10449671 -0.12660097 -0.11634464
0003d0 53 52 c7 bd 0c 99 12 be fe bb 63 bd ef 81 9c bc
       -0.09732499 -0.14316195 -0.055599205 -0.019104926
0003e0 79 5a ec bd 33 a9 97 3d 36 5d 29 be 06 b3 b9 bd
       -0.11540694 0.07405319 -0.16539463 -0.09067349
0003f0 79 7f 93 bd 52 a1 bb bd ee cb 17 be bd f2 1f be
       -0.07202048 -0.09161629 -0.14823887 -0.15619941

fc3.weight f4 [1, 400]
000000 56 00 08 bb a7 94 15 bc 6c 9b e6 39 34 f7 08 3b
       -0.0020752153 -0.00912968 0.00043984817 0.0020899298
000010 84 75 91 3c b1 70 3a bb 7e c6 27 3c 39 2d bd bc
       0.017756231 -0.0028448517 0.010240195 -0.023092853
000020 97 68 f2 bb 7a d0 24 bc a3 73 24 3c a4 1f da bc
       -0.007397722 -0.01005947 0.010037336 -0.026626416
000030 05 87 9f bc 53 4b f8 bb 94 94 84 ba 30 ec 25 3c
       -0.019473562 -0.0075773387 -0.001011508 0.010127112
000040 de 85 ec 3c 2b 26 8f 3c ba a1 a0 3c 1f 44 81 3c
       0.028872427 0.017474255 0.019608367 0.015779553
000050 90 84 f0 3b 9e cf 86 3c 0a 49 b1 bc 25 09 c2 3c
       0.0073400214 0.016456421 -0.021641273 0.023686001
000060 19 96 b8 ba 4d cc 89 bc 99 f4 0c 3a 23 98 37 bc
       -0.0014082819 -0.016821051 0.0005377024 -0.011205706
000070 8e 1f 83 bc 5e 90 04 3c fe 00 1f 3d 4a 6a 14 3d
       -0.016006257 0.00809106 0.038819306 0.036234178
000080 24 88 14 3c e9 f0 45 bc d3 cd 67 bc 5e 09 f1 3c
       0.009065662 -0.012081363 -0.014148193 0.029423412
000090 e1 6e 83 3c 34 79 ca bc 2c 59 db bb 1b e4 eb bc
       0.016044082 -0.024715997 -0.0066939797 -0.028795293
0000a0 e3 9e 43 bd 3a c0 fb bc 1a a7 9c 3c 16 25 48 bd
       -0.047758948 -0.03073131 0.019122649 -0.048863493
0000b0 d6 fc ae bc 36 2c 0a 3d d7 0a 99 3b 43 aa 97 3d
       -0.021360796 0.03373357 0.0046704817 0.07405522
0000c0 ce 17 9e 3c 25 ab 65 bb bb 91 0b 3c 1f 44 b1 3c
       0.01929846 -0.0035044637 0.008518632 0.021638928
0000d0 c8 91 7d bc 45 4a 82 3c 75 a1 e9 bc e0 36 82 3c
       -0.0154766515 0.015904555 -0.028519372 0.015895307
0000e0 bb 02 bb 3b 86 c9 cb bc ea af a2 bc e8 40 2a 3b
       0.0057071126 -0.024876367 -0.019859273 0.0025978629
0000f0 6e b3 79 bc 2a 61 47 3b fd 0f 88 3c e6 33 01 3c
       -0.015240533 0.0030422905 0.016609186 0.007885909
000100 e6 81 9b bb 74 7a c3 3c 39 31 d4 bb f4 d7 d9 3b
       -0.0047457097 0.023862101 -0.0064755944 0.006648058
000110 b5 bb a3 ba b0 a5 3d bb d5 28 b4 3c a5 a6 91 bb
       -0.0012491854 -0.0028937869 0.021992126 -0.0044449144
000120 31 4a de 3b 46 2f 80 bc 8e ba 31 3c 9d c5 70 bb
       0.0067837466 -0.015647542 0.010847701 -0.003673888
000130 75 02 12 3d 45 17 75 3c 8b 69 68 bd 3c 49 4b bc
       0.035646874 0.014959161 -0.05674128 -0.012407597
000140 a5 fd 70 bc bf 6a ba 3b 79 7a b0 3b 2a 1d 63 bc
       -0.014708911 0.0056889947 0.0053856936 -0.013861934
000150 f2 04 00 3d 78 97 1b bd 00 e5 5e bc f3 1c ee bb
       0.031254716 -0.03798625 -0.013604403 -0.0072666346
000160 a9 d1 ab 3a 22 fa 26 3c bb 90 67 bd 93 5f db 3a
       0.0013108748 0.010191472 -0.05653451 0.0016736857
000170 bd d9 37 ba 5f ac d5 3b 63 43 87 3b 59 fb c4 3a
       -0.00070133415 0.0065207924 0.004127906 0.0015028521
000180 4b 9c 2a b9 53 cd 70 3b 95 e7 d0 3c 1c bb da 39
       -0.00016270687 0.0036743477 0.025501052 0.00041719608
000190 a3 c2 ac 3c 1f 06 2b 3c da ab 9b 3a c0 5a c0 bb
       0.021088904 0.010438471 0.0011876777 -0.0058701932
0001a0 bb 24 9a 3c bf eb 4a bd 10 97 a3 3c d7 4b c2 bc
       0.018816343 -0.04954123 0.019969493 -0.023717804
0001b0 3c 4c ff bc 14 2d 81 3c c0 f2 1b 3d 78 a2 6a 3b
       -0.031164281 0.015768565 0.0380733 0.0035802405
0001c0 71 e2 8b bc 85 9d 4b bc d8 4d 83 3b 01 2d f4 3c
       -0.01707575 -0.012427692 0.0040070824 0.029806616
0001d0 f1 a1 ea 3c f9 82 47 3c cc 26 14 bc 54 d5 55 bc
       0.028641673 0.012177222 -0.009042453 -0.01305135
0001e0 48 0a 5d 3c 71 ab 19 bc bf 32 a6 3c 07 03 98 3c
       0.013491221 -0.009379254 0.02028787 0.018556131
0001f0 af 7a 07 3c ed 64 66 3c 33 0d 0f 3d 52 e3 6d ba
       0.008268996 0.0140621485 0.034924697 -0.0009074706
000200 db bc 70 bc fe cf 14 bc ba 1a ae 3c 82 46 aa bc
       -0.014693464 -0.009082792 0.021252979 -0.020785574
000210 85 85 b2 3c 64 19 5f 3d c1 43 4a bc 7e 31 31 bd
       0.021792183 0.054467574 -0.012345255 -0.04326009
000220 bb 38 e0 bc 1a 5b 39 3b 8b 15 19 3c 94 5b 44 bc
       -0.027370801 0.002828306 0.009343515 -0.011984725
000230 78 1e 18 bc ba 4a 99 3a b6 3a 94 bc 7d b7 d7 3c
       -0.009284608 0.0011695244 -0.018094402 0.026332611
000240 f2 36 87 3c b4 0e 5d bc df 22 d9 bc b9 0c 0c 3b
       0.016505692 -0.013492275 -0.026505886 0.0021369888
000250 cb 90 16 ba f2 90 00 3c 6d 23 17 3d 6a f0 91 3c
       -0.0005743622 0.007847058 0.03689902 0.017814834
000260 00 fc a5 bc 3d 16 a9 bc 44 f9 0b 3d e9 0f b7 ba
       -0.020261765 -0.020640487 0.034173265 -0.0013966534
000270 6e 8c 49 bb b3 e5 ef 38 1f ac 85 bb f7 9d 3a bb
       -0.0030753869 0.00011439193 -0.0040793563 -0.0028475502
000280 7e 1f 50 3c b1 5d d5 3b ab 5e 9c bb f3 c2 30 3d
       0.012702821 0.006511413 -0.0047720275 0.043154668
000290 c9 65 f3 bb 9c 2c 02 bd 40 4c e0 bc 97 49 a4 bc
       -0.007427905 -0.031780824 -0.027380109 -0.020054622
0002a0 8d 04 e6 ba b0 7d 99 bc f4 02 b6 bb 41 41 a9 3b
       -0.0017548964 -0.01873669 -0.0055545513 0.0051652496
0002b0 f9 04 9e bb 30 b6 23 bd 3f 90 8e bc 4c 4b 09 3c
       -0.00482237 -0.03996867 -0.017402766 0.008379769
0002c0 93 3e 14 3c 60 c9 1c bd 23 8f d0 3a ee 1f 04 bc
       0.009048122 -0.038277984 0.0015911799 -0.008064253
0002d0 4e 3d 02 3b 3a 95 1c bc b3 f9 bb 3b f8 60 dd bc
       0.0019872966 -0.009557063 0.0057365536 -0.027023777
0002e0 b3 76 80 3c fc 98 02 bd 54 b9 41 bb 63 fd b5 bb
       0.0156816 -0.03188418 -0.0029559927 -0.0055538877
0002f0 a2 11 56 bd 33 17 63 bc 92 51 97 3d 73 9e 88 3c
       -0.05226291 -0.013860512 0.07388605 0.016677117
000300 26 fd 33 3b 60 57 0d 3b 8f 70 28 3c e1 a5 6f 3d
       0.002746412 0.0021566972 0.010280742 0.058507804
000310 c7 f0 20 3d b9 59 7d 3c 8c b4 a5 3c e2 8f 1f 3c
       0.039292123 0.015463286 0.020227693 0.009738894
000320 9a 69 a6 bc 88 16 26 bc 15 e7 64 bc 92 87 28 bd
       -0.020314027 -0.010137208 -0.01397111 -0.041144915
000330 10 5b 07 b9 49 40 14 bd 83 70 d1 3b 7f ee 73 3b
       -0.00012908527 -0.03619412 0.0063915863 0.0037221012
000340 7b 0d 76 3c 62 49 e4 bb 60 94 e1 3b d6 e9 ff bb
       0.015017862 -0.0069667557 0.0068841428 -0.007809858
000350 05 db db 3a bb 8b 0f bb bb 58 e6 bc 6c 44 a8 bc
       0.0016773647 -0.0021903354 -0.028118482 -0.020540439
000360 cf 98 f7 3b db 80 8c ba 4d 57 37 ba f6 da a6 bb
       0.007556058 -0.0010719554 -0.0006993905 -0.00509202
000370 17 fe 3c bd d2 c1 9a 3d 22 9d 1d 3d 46 e9 cc bc
       -0.046140756 0.075564995 0.03847993 -0.025013577
000380 61 ac 44 3c a5 e5 8f bb 14 0b 84 bc 35 d2 d5 ba
       0.012003989 -0.0043913894 -0.016118564 -0.0016313257
000390 1e 01 a7 bb f8 d0 5f 3a 8b ab e1 3c b4 1b 21 3c
       -0.0050965687 0.00085379137 0.027547618 0.009833265
0003a0 08 7a 6e bc 16 39 d3 3c b6 6e ee bc 8f d3 8c 3c
       -0.014555462 0.025784057 -0.029105525 0.017190723
0003b0 f8 bb 3b 3d 68 4f f9 bb 60 11 27 bd 89 8c f4 bc
       0.045833558 -0.007608343 -0.040788054 -0.029852169
0003c0 86 d5 61 3b 8c f3 0d 3d 2a ec 23 bb 6a 15 2b 3c
       0.0034459545 0.034656093 -0.002501259 0.010442117
0003d0 4c 93 b2 3c 59 04 39 bb 12 31 2f bc 1e e6 09 3b
       0.021798752 -0.0028231351 -0.010692852 0.0021041702
0003e0 fe 5c 9e 3c 80 10 fa bc b3 cf 05 b9 83 5b 81 3c
       0.019331452 -0.030525446 -0.00012761242 0.015790707
0003f0 2a dd 51 bd 9b 7f fd bb 63 d2 b4 3c 7a 0a a5 3a
       -0.05123631 -0.007736159 0.022072976 0.0012591623

bn2.weight f4 [300]
000000 57 12 98 3d 98 96 cb 3d 41 0f 94 3d 39 0c f7 3d
       0.07425373 0.09940833 0.07229472 0.12062878
000010 a4 92 24 3e 55 35 9f 3e 60 31 9c 3e 8a ea b5 3e
       0.16071564 0.31095377 0.3050642 0.35530502
000020 7a 40 4b 3e 4c cd b1 3c 1a 7e fd bc a5 bc e0 3d
       0.19848815 0.021704338 -0.030943919 0.10973481
000030 37 88 3b 3e 91 6f ba 3e 6c 41 45 3e cf cb f3 3d
       0.1831368 0.36413243 0.19263238 0.11904108
000040 bb fb e2 3d 11 fd b4 3d 38 2b a6 3d fd 77 ed 3d
       0.1108317 0.08837331 0.08113712 0.115951516
000050 bf 38 84 3d 0e 66 f1 3d 94 ac 5f bc f2 da 13 be
       0.06456136 0.117870435 -0.013651986 -0.1443899
000060 78 54 aa 3d 58 4d 57 3e 65 d7 c1 3d 90 2a 6d 3f
       0.083168924 0.21025598 0.09464911 0.9264307
000070 da bd 67 3d c0 e7 d9 3d 30 c1 cb 3d b7 39 c1 3e
       0.05657754 0.10639906 0.09948957 0.37739345
000080 70 91 09 3e a2 72 05 3e 32 03 e4 3d a8 9a 8f 3d
       0.13434386 0.1303201 0.11133422 0.0701192
000090 29 d7 98 3e e8 96 04 3e a4 7d 84 3e 40 1f 84 3d
       0.29851654 0.12948191 0.25877106 0.06451273
0000a0 17 7d 92 3d 53 1c ee 3e ca 88 48 3e 31 d4 81 3d
       0.07152765 0.46505985 0.19583431 0.063393004
0000b0 2c fd 87 3d 8e 98 37 3e 8b b3 59 3d 7f a1 67 3e
       0.066400856 0.17929289 0.05314974 0.226202
0000c0 e3 07 8d 3d 99 3b 62 3e da 65 dc 3e c3 4a b1 3e
       0.0688627 0.22093047 0.43046457 0.3462735
0000d0 d0 69 26 3e 44 54 43 3e 73 06 6e 3e 91 47 3b 3e
       0.16251302 0.19075114 0.23244648 0.18289019
0000e0 e7 37 ce 3d 59 8b c8 3d 09 60 61 3f 2d 6c 79 3d
       0.10069256 0.097922035 0.88037163 0.06089418
0000f0 ae 46 ed 3e 7e dc af 3d 14 a7 3b 3f d3 07 14 3e
       0.46342987 0.085869774 0.73301816 0.1445611
000100 ba 92 09 3e c9 ba 17 3f 30 81 28 3e ab ca f8 3d
       0.13434878 0.59269387 0.16455531 0.12148031
000110 4a 5d 11 3f c7 a0 a1 3d 57 05 47 3e 7d a2 d1 3e
       0.5678297 0.07891994 0.1943563 0.4094428
000120 74 77 c2 3d 29 90 8c 3d 67 28 3b 3e f3 52 c1 3d
       0.0949544 0.06863434 0.18277131 0.094396494
000130 b5 11 ae 3d 53 0a 56 3d c7 9a 5d 3e a9 ec 95 3d
       0.08499471 0.05225594 0.21641074 0.0732053
000140 c6 d3 0f 3e a1 9e 93 3e 4e 2d aa 3d 70 2b a8 3d
       0.14045629 0.28831962 0.083094224 0.0821141
000150 35 a2 4d 3e 06 4a 7b 3e b5 2b 06 3e a3 ab 90 3d
       0.20081408 0.24539956 0.1310261 0.07063987
000160 e4 9f 7c 3d 94 08 18 39 a4 e5 59 3d e3 82 08 3e
       0.06167592 0.00014499045 0.053197518 0.1333118
000170 74 4a a3 3d 03 c5 a5 3d 29 cc 80 3e be 6b c9 3e
       0.07973185 0.08094218 0.25155762 0.39340013
000180 4f b3 04 3e 70 64 ef 3d 3e 00 e4 3d 6b d1 7a 3d
       0.12959026 0.11689079 0.11132859 0.061234873
000190 7e 56 e4 3d b0 18 f4 3d d3 36 b1 3e 20 21 84 3e
       0.111493096 0.11918771 0.3461214 0.25806522
0001a0 c6 05 77 3e 3c 34 c2 3d 9b a5 56 3e e8 3e 1a 3e
       0.24123296 0.09482619 0.20961611 0.1506306
0001b0 16 0f e0 3d da 9f f7 3d 4f 55 14 3f 0c 6b eb 3d
       0.109403774 0.12091036 0.5794267 0.11495027
0001c0 15 ac 59 3e 8d 0e bd 3d 84 09 23 3e 57 23 83 3d
       0.2125705 0.09231291 0.15921599 0.06403225
0001d0 fb c8 e7 3d 8a cf 4d 3e 00 c0 52 3e e1 4a 6c 3d
       0.11317631 0.20098701 0.20581055 0.057688598
0001e0 a0 ea 03 3e 6b a8 44 3e 8a 57 7a 3d 91 ae 8d 3d
       0.12882471 0.19204871 0.06111864 0.069180615
0001f0 24 0d 94 3d 8e 8a 9e 3e 8d 08 88 3e 07 0a 1b 3e
       0.07229069 0.30965084 0.26569024 0.15140544
000200 1d c9 ca 3d 77 5b 0c 3e 46 c6 b3 3d 2c 26 22 3e
       0.099016406 0.13706766 0.08778052 0.15834874
000210 f4 41 fe 3d aa 77 f6 3d 75 98 47 3e 34 92 24 3e
       0.12414923 0.12034543 0.19491751 0.16071397
000220 2f 51 33 3e f0 c8 d6 3e 87 b9 96 3d 61 9c 4d 3b
       0.17511438 0.41950178 0.07359605 0.0031373727
000230 28 44 89 3d d6 b3 23 3f 9f b4 c5 bc 7a 6f e2 3d
       0.06702453 0.6394628 -0.024133978 0.11056419
000240 c3 99 72 3e 8d 32 0f 3e 0b b6 73 3e 13 52 f1 3d
       0.23691468 0.13984127 0.23799913 0.117832325
000250 e6 ac e7 bb b7 b2 ae 3e a1 8e 3a 3e 50 82 39 3e
       -0.0070701716 0.34120724 0.18218471 0.18116117
000260 d8 49 3c 3e 18 72 09 3e 4e 23 80 3d ef 28 aa 3d
       0.18387544 0.1342243 0.06256734 0.08308589
000270 b6 3f 03 3e 0b 31 01 3f bc 9f c9 3d b8 56 24 3e
       0.12817273 0.5046546 0.0984492 0.16048706
000280 e7 67 0a 3e f2 b0 0d 3e ee 78 6f 3d 79 0f 6d 3f
       0.13516198 0.1383703 0.058464937 0.92601734
000290 c3 04 08 3e 97 5f 64 3e d0 73 7c 3c cb e1 d9 3d
       0.13283066 0.2230209 0.015408471 0.1063877
0002a0 0c fc 98 3d b3 b9 a9 3d 40 95 bf 3d 5c c4 19 3f
       0.07469949 0.082873724 0.09354639 0.60065246
0002b0 5d cb 17 3e 62 f3 39 3e cf b0 a4 3e d9 9c 3f 3e
       0.1482367 0.1815925 0.32166144 0.18712176
0002c0 b9 2a 0e 3e 83 6e 76 3d 45 ee 9c 3d 8d b5 db bd
       0.13883485 0.060163986 0.07662634 -0.107279874
0002d0 45 95 28 3e ca cc ea 3d a1 01 b5 3e f1 bf 7e 3d
       0.16463192 0.11464842 0.35352805 0.06219477
0002e0 ab 39 8d 3e f0 42 aa 3d 87 17 6e bc 7f 47 dc 3d
       0.2758306 0.083135486 -0.014531977 0.10755824
0002f0 2d 11 0f 3e f4 c7 63 3e e1 6e b8 3d 6f ef 31 3e
       0.13971396 0.22244245 0.090055235 0.17376493
000300 81 df 2b bd 7d 1c dd 3d 4c 68 8a 3d ea 8b 8e 3b
       -0.041961197 0.10796449 0.06758174 0.004350175
000310 de f4 99 3d 46 3a 5b 3e 9b e3 92 3e 62 de 94 3e
       0.07517408 0.21408948 0.28689274 0.29075915
000320 d2 e0 6f 3d 1b e5 8e 3d bd 76 0b 3e 91 51 09 3e
       0.058564015 0.06977292 0.13619514 0.13410021
000330 13 37 17 3e bc fb a1 3d 79 3b b6 3d a1 d1 83 3d
       0.14767103 0.07909343 0.08898062 0.06436468
000340 a3 9f 52 3e 30 d5 22 3e 48 98 49 3e c1 08 cf 3d
       0.20568709 0.15901637 0.19686997 0.101090916
000350 a9 ea b8 3d 75 24 07 3e 78 cf 13 3e 02 03 76 3e
       0.09029133 0.13197501 0.14434612 0.24024585
000360 c2 08 10 3e 82 19 a7 3d 17 2a f3 3d dc 2a 9e bb
       0.14065841 0.08159162 0.118732624 -0.0048268866
000370 25 12 eb 3d c9 cc bd 3e 54 e0 c2 3d e8 3f cf 3e
       0.1147807 0.370703 0.095154434 0.40478444
000380 87 a7 ff 3d 40 20 a5 3e 46 0a d4 3d 41 0a 7c 3d
       0.12483125 0.32251167 0.10353522 0.061533216
000390 fd 7a 1c 3e a6 07 24 3e d3 95 80 3d 13 af cd 3d
       0.15281291 0.16018543 0.06278577 0.100431584
0003a0 3b 6f 14 bc fb e9 d3 bb 5e 3d 2c 3e 4c c7 9a 3d
       -0.009059723 -0.0064671016 0.16820285 0.07557544
0003b0 88 62 63 3d 3e 2b 85 3e c0 b3 af 3d d7 ea 9a 3d
       0.05551389 0.26009554 0.085792065 0.075643234
0003c0 ed db a6 3d 72 f3 8e 3d d8 ba 19 bd fd f2 0c 3c
       0.08147416 0.06980027 -0.037531704 0.008602855
0003d0 25 73 c0 3d 39 d4 60 3e 83 be 57 3e c3 90 eb 3e
       0.09396962 0.21955957 0.21068768 0.46008882
0003e0 26 a2 78 3d 4d 37 41 3e 07 49 b2 3d c6 23 5f 3e
       0.06070151 0.18868752 0.08705335 0.2179099
0003f0 3a 7f 9f 3e 29 4e 56 3e af 84 30 3e 41 67 b5 3d
       0.31151754 0.20928253 0.17238115 0.08857585

bn2.bias f4 [300]
000000 8a e9 66 3c 83 c0 b0 3c ef a2 fc 3c 60 33 33 3d
       0.014093766 0.021576172 0.030839412 0.043750167
000010 22 bb dc 3c 31 6e 0d 3e f8 6e cd 3d 60 c8 02 3e
       0.0269447 0.13811566 0.10030931 0.1277175
000020 d7 f0 b7 3d 32 33 de 3c 40 16 88 be f3 71 1d 3d
       0.089814834 0.027124021 -0.26579475 0.03843875
000030 ba f1 e4 3c f3 1f 28 3e 5c bd 23 3d af 11 74 3d
       0.027947295 0.16418438 0.03997551 0.059587177
000040 ec 5e 79 3c 77 35 1a 3d d4 19 95 3c 71 37 8d 3d
       0.015220385 0.037648644 0.018200792 0.0689534
000050 d9 e1 27 3a 0f 56 99 3c 6b 7f aa bd 9d 99 e9 bc
       0.00064041984 0.018717794 -0.08325084 -0.028515631
000060 e5 52 1e 3d 32 38 c0 3d 1c a5 30 3d 65 39 78 3e
       0.038653273 0.093857184 0.04312621 0.24240644
000070 8e 24 13 3c f6 a0 58 3d de 59 03 3c 35 17 b1 3d
       0.008980883 0.05288788 0.0080170315 0.086470045
000080 7b 80 13 3d dd 8e 5f b7 86 7e 0c 3d 21 74 2c 3b
       0.0360112 -1.3325099e-05 0.03430035 0.0026314335
000090 1f d4 d3 3d 2e b1 ff 3c d6 39 ba 3d b2 3f 03 3d
       0.10343193 0.031212416 0.090930626 0.032043166
0000a0 83 38 14 3c 59 11 5b 3e d8 0d d5 3d f4 b3 8a 3c
       0.009046677 0.21393336 0.10403031 0.016931511
0000b0 2c 5e 0f 3d 68 ab 08 3d 7e 28 28 bb 87 58 9d 3d
       0.03500192 0.03336659 -0.00256589 0.07682901
0000c0 60 eb aa 3c fd 4f 84 3d 1b fd 6d 3e f0 36 37 3e
       0.020864189 0.06460569 0.23241083 0.1789205
0000d0 96 2f 9a 3d c5 8b bf 3d 88 50 cb 3d 34 60 1a 3d
       0.075286075 0.09352831 0.099274695 0.037689403
0000e0 d6 55 cc 3b 35 d7 e8 3c 0c c3 8b 3e 37 78 a9 3c
       0.0062358184 0.028422931 0.27297246 0.020687206
0000f0 dd 9c 42 3e ee 62 9a 3c ce 7f 56 3e 57 26 f0 3c
       0.19005151 0.018846001 0.20947191 0.029315157
000100 eb 85 53 3c d9 41 fc 3d bd 93 0e 3d a1 d9 33 3d
       0.0129103465 0.12317247 0.034808863 0.04390872
000110 5b c8 76 3d f4 99 b2 3b 0a f8 e5 3d 45 2f 7f 3e
       0.060249668 0.0054504815 0.1122895 0.24920376
000120 55 d4 1f 3d 74 9b 53 3c 54 ef 88 3d 09 46 85 3c
       0.039020855 0.012915481 0.06686273 0.016268747
000130 b3 20 37 3d 43 c7 6a 3b 41 d6 a0 3d 2c 11 0d 3d
       0.04470892 0.0035824336 0.07853366 0.034440205
000140 0e a0 1b 3d fb bf 3d 3e ca aa 13 3d e8 1d 05 3d
       0.037994437 0.18530266 0.03605155 0.032499224
000150 d2 be 80 3d d8 46 fa 3d 74 f7 7e 3d d9 5b 84 3b
       0.06286396 0.122205436 0.06224771 0.0040392694
000160 ba c2 81 bb e6 88 6b 3b 50 c1 62 bb 27 dd 83 3d
       -0.003959981 0.0035939752 -0.0034600087 0.06438666
000170 9c ec 91 3c d8 39 0d 3c 79 77 59 3d 0e e0 4f 3e
       0.01781302 0.008619748 0.053092454 0.20300314
000180 19 15 a0 3c ad 47 86 3d b1 ba b2 3b 1f f3 d1 3c
       0.01954131 0.0655664 0.0054543843 0.025628624
000190 22 92 41 3c 25 39 d7 3c 74 df 4f 3d 64 88 3e 3d
       0.011814626 0.026272366 0.05075021 0.04651679
0001a0 aa 75 c7 3d dc 11 ea 3c 3f c6 8e 3d a5 65 90 3d
       0.097392395 0.02857297 0.06971406 0.07050637
0001b0 2c 0b 8b 3c 32 a6 2d 3d 5b 17 8a 3e 9b 02 ae 3c
       0.0169731 0.042394824 0.26970944 0.021241477
0001c0 81 a2 4d 3d 4e 42 e4 3c 2f 2f 6a 3d cd de fc 3c
       0.050203804 0.027863648 0.057173904 0.030867958
0001d0 a2 a9 87 3c e2 71 39 3d 9d 60 74 3d c9 e4 33 3c
       0.01656038 0.045274623 0.05966245 0.01097984
0001e0 d2 79 5d 3d e2 80 e8 3d 5e 1b 96 3b 77 81 48 3c
       0.054071255 0.113527074 0.004580899 0.012237898
0001f0 83 05 14 3c 74 60 4d 3e 9d f5 e0 3c 77 6b 56 3d
       0.009034517 0.20056325 0.027460868 0.05234858
000200 8a 98 b3 3c fb b3 21 3d 57 b3 52 3c a9 6d 22 3d
       0.021923322 0.039478283 0.012860141 0.03965536
000210 2d 8d 5e 3d 74 34 23 3d f1 c0 c7 3d 5d 05 28 3d
       0.054333854 0.039844945 0.097535975 0.04102074
000220 ec 6d 2e 3d e0 63 f9 3d 1a 23 67 3c 93 38 28 ba
       0.0425853 0.12177253 0.01410749 -0.00064171216
000230 df b6 b6 3c a9 a9 a6 3e 24 73 53 3a 1d 15 17 3d
       0.022303997 0.32551315 0.00080661685 0.03688537
000240 59 ca 25 3d dd 9e 2b 3d d2 5a 89 3d b1 b7 54 3d
       0.040476177 0.04189955 0.06706776 0.051932994
000250 87 0e cf 3a 58 2f 35 3e f0 c0 61 3d 6b e6 96 3d
       0.0015797176 0.17693841 0.05511564 0.073681675
000260 15 e3 9d 3b 1c 65 08 3d cc 42 73 b9 ca 9d 33 3c
       0.00481833 0.03329955 -0.0002319917 0.010962913
000270 37 55 ad 3d ee 25 b5 3d f9 07 5c 3d f8 54 52 3d
       0.08463519 0.08845125 0.05371854 0.051350564
000280 38 06 45 3d 45 51 4b 3d 45 ad 32 bb 80 c7 b7 bd
       0.048101634 0.04963805 -0.0027263921 -0.089735985
000290 8b 66 4b 3d f2 67 ad 3d a8 71 98 3c 2c 47 45 3c
       0.04965834 0.084670916 0.018608883 0.0120408945
0002a0 e9 02 8b bb 0c 5d 97 3a fa 51 67 3c 20 80 0f 3e
       -0.0042422903 0.0011548116 0.014118666 0.1401372
0002b0 71 bc e4 3c 89 d7 d4 3d c4 b9 87 3d 46 de 11 3d
       0.027921887 0.103926726 0.06627229 0.035612367
0002c0 93 f7 2a 3b 2e 43 a3 3c c3 2b 14 3d a7 b3 49 3b
       0.0026087507 0.019929495 0.036174547 0.0030777247
0002d0 73 52 06 3d 87 41 59 3c 00 42 ff 3d 3f 91 06 3c
       0.032793473 0.013260252 0.124637604 0.00821334
0002e0 11 17 58 3d df aa 18 3c 4f e3 86 b8 cd 9a 56 3c
       0.052756373 0.009318083 -6.4319574e-05 0.013098431
0002f0 20 28 3f 3d 56 7c 77 3d 31 3c dc 3c 09 e1 9f 3d
       0.046669126 0.06042131 0.02688417 0.07806594
000300 d3 41 8f ba 2c 2a 6b bb cc 22 5a 3b bb a9 9a 3a
       -0.0010929651 -0.003588329 0.00332849 0.0011799851
000310 2d 95 22 bc cd a4 00 3e bd 97 a3 3d 1e bd dd 3d
       -0.009923262 0.12562867 0.07987926 0.10827087
000320 37 4c 4e 3d 4a 74 51 3c 49 d8 29 3d 0c 67 23 3d
       0.050365653 0.012784073 0.04146603 0.039893195
000330 c6 41 53 3d 0b 1b 87 3c 3d c6 44 3c 41 8e 38 3c
       0.0515764 0.016492387 0.012010154 0.011264385
000340 cf 41 dc 3d 6e 53 80 3d b3 29 1f 3e 28 c9 15 3d
       0.107547395 0.06265913 0.1554325 0.03656879
000350 76 b7 05 3d 31 1b 28 3a 7a 48 ab 3a 9b fc 9d 3d
       0.032645665 0.0006412743 0.0013067864 0.07714196
000360 08 ac 64 3c 41 f2 22 3d dc 83 1d 3d 34 68 6e bb
       0.013957031 0.039781813 0.03845583 -0.0036378028
000370 c0 6e b1 3c 8a 7a 04 3e f2 98 d3 3c cc f8 2f 3e
       0.021659255 0.1293737 0.025829766 0.17184752
000380 c6 b1 12 3d 32 f6 e8 bc c4 a1 09 3d 87 7e 27 3c
       0.03581407 -0.028437708 0.033601537 0.010223038
000390 db 70 2b 3d d3 6d 26 3d 74 44 0e 3c f8 2f 0f 3d
       0.041855674 0.04063208 0.008683313 0.034957856
0003a0 32 e4 91 3b 1c 78 be bb 1e bd 0a 3d f2 f6 41 3c
       0.004452252 -0.005812658 0.033871762 0.0118386615
0003b0 e5 2f a3 3c 30 b1 36 3e 90 3b 03 3d ea 0e c7 3c
       0.019920299 0.17841029 0.032039225 0.024299104
0003c0 62 c8 c1 3c b2 b9 01 3c e1 19 60 3b fb b1 8b bb
       0.02365512 0.007917808 0.0034195113 -0.0042631603
0003d0 ba 59 b8 3b 2e d9 fa 3d 55 04 25 3e ff 05 1d 3e
       0.0056259306 0.12248455 0.16114934 0.15334319
0003e0 82 04 2a 3c 4b 02 bd bb 28 b1 23 bc 5d 40 72 3d
       0.010377051 -0.0057680956 -0.009990968 0.059143413
0003f0 cf 03 f1 3d 48 08 74 3d 8d 95 da 3c 15 44 9f 3b
       0.117683046 0.05957821 0.02668264 0.004860411
