pretrainedNetworks/critic_target1.pth (torch_old, 553166 bytes, 9 tensors)

fc1.weight f4 [300, 52]
0.2396693 0.17249918 -0.065213025 0.2200717 -0.10486207 -0.063684374 -0.090739205 0.21891986
0.3904043 0.4209762 -0.1586622 0.53633255 -0.00045553266 -0.16007997 -0.18807559 0.5054434
0.30542386 0.56554973 0.06746818 0.07805256 0.10680488 -0.4588892 0.047237735 0.115913905
-0.037867352 0.03764804 -0.10447643 -0.065901116 0.14016247 -0.017818278 -0.120045625 -0.12869382
0.15441275 0.0026433733 0.4294763 0.07604633 0.015723657 -0.18772724 0.40059835 0.076180086
0.13627844 0.059617892 -0.10543648 -0.31865248 -0.100742854 -0.4198482 -0.18260224 -0.3482561
-0.50720024 0.03979282 0.42254794 0.03606633 0.028058847 -0.60192037 -0.06697354 0.054622944
0.27824017 -0.31048873 -0.05717191 0.016374433 0.17696667 -0.48454157 -0.06554192 0.04841839
0.19253464 -0.4195156 -0.028955752 0.056243673 0.13724805 -0.28768966 -0.05626629 1.1381627
0.026671397 -0.12723733 -0.007928761 1.1028243 0.028345533 -0.45672956 0.06263796 -0.2440109
-0.25801978 -0.30460304 -0.0041170497 -0.26533076 0.114592046 -0.51023906 0.08486127 -0.2805343
-0.1877679 -0.38464138 0.103025526 -0.28572 -0.0032825186 -0.5497684 -0.13857777 -0.08554477
-0.054963484 -0.22824132 -0.13736375 0.019732714 -0.2022503 0.05428606 -0.6045103 -0.23478255
0.14406103 -0.26953936 0.25277236 -0.2579168 -0.030861512 0.053307306 0.18878183 -0.2947731
0.2667663 -0.28653878 -0.036503565 0.53189284 0.2125829 -0.23830748 0.004090748 0.4550542
0.19175248 -0.22181751 -0.21843307 0.21204047 0.52476513 -0.18947044 -0.21649002 0.26906174
0.33837596 0.5133626 -0.049697615 -0.19531496 0.13636453 0.047221884 -0.08134523 -0.23707652
0.36970922 0.76482606 -0.031552017 -0.13779369 -0.23266178 -0.24245891 0.035560966 -0.09589445
0.35498378 0.6961831 -0.050891615 -0.092513874 -0.5334176 -0.13002796 -0.0303678 -0.02858116
0.3851404 -0.2854029 -0.67910355 -0.16658054 0.00887894 -0.8957887 -0.071559116 0.23935948
-0.41285437 -0.465207 -0.016700717 0.3126603 0.0497108 -0.8662802 -0.09885952 0.018638458
-0.2913372 -0.079558745 -0.005215981 -0.086143956 0.35235503 -0.8326294 0.11307374 0.19790268
-0.30989045 0.28527236 0.044427827 0.1395684 0.25227508 -0.09486043 0.16193894 -0.5148364
0.43286702 -0.5655601 0.050203666 -0.5182033 0.16839911 -0.34601882 -0.01581287 -0.1323589
0.2908605 -0.07676014 0.08081693 -0.1536384 0.12358935 -0.11768162 -0.19462709 0.25906897
0.3126723 0.2883656 -0.27403566 0.26237416 -0.28880155 -0.32974312 -0.8982007 0.3613479
0.53951603 -0.5001775 -0.0029847978 0.27037796 -0.32998022 -0.32600743 0.04664749 0.22157359
0.6764449 -0.42453054 0.048492532 0.42968884 -0.41812837 -0.17727113 0.07223235 0.40290073
0.5790389 -0.37918046 0.065510936 0.2582875 -0.35177958 -0.113009006 0.0545334 0.26393858
0.021002412 -0.40894398 -0.0038438942 -0.01840304 0.3968329 -0.38002542 -0.03889828 0.0062100785
0.067220435 -0.3655025 -0.04343377 0.20215876 0.39696595 -0.24623798 -0.02794929 0.22766282
0.32713965 -0.36137226 -0.02926215 -0.1633446 0.3028974 -0.10335679 -0.032535233 -0.16170631
00000000: de6b 753e a0a3 303e 688e 85bd 7a5a 613e
00000010: edc1 d6bd f46c 82bd 7ad5 b9bd 872c 603e
00000020: 13e3 c73e 318a d73e 5878 22be 174d 093f
00000030: 8fd4 eeb9 01ec 23be e396 40be bd64 013f
00000040: 8460 9c3e dec7 103f c22c 8a3d 05da 9f3d
00000050: 84bc da3d 86f3 eabe 5b7c 413d 4564 ed3d
00000060: cc1a 1bbd d534 1a3d bdf7 d5bd 2af7 86bd
00000070: c086 0f3e a3f7 91bc 7bda f5bd 50c8 03be
00000080: 601e 1e3e 723c 2d3b 51e4 db3e 2ebe 9b3d
00000090: e6ce 803c 923b 40be 3a1b cd3e 4e04 9c3d
000000a0: 938c 0b3e e431 743d 15ef d7bd 6b26 a3be
000000b0: 4552 cebd 58f6 d6be 15fc 3abe a04e b2be
000000c0: e0d7 01bf ccfd 223d 3458 d83e 4aba 133d
000000d0: abdb e53c 7417 1abf 6c29 89bd 4fbc 5f3d
000000e0: 7f75 8e3e 61f8 9ebe 182d 6abd ad23 863c
000000f0: c036 353e d515 f8be d83a 86bd 5d52 463d
00000100: cd27 453e c0ca d6be 9d34 edbc c45f 663d
00000110: c18a 0c3e 0f4c 93be 7b77 66bd 51af 913f
00000120: f97d da3c 814a 02be a2e7 01bc 5929 8d3f
00000130: e434 e83c 75d8 e9be 5548 803d fedd 79be
00000140: 2b1b 84be eef4 9bbe 51e8 86bb 6fd9 87be
00000150: 3caf ea3d 079f 02bf bfcb ad3d 31a2 8fbe
00000160: 3a46 40be b7ef c4be 0cff d23d e449 92be
00000170: 861f 57bb 9fbd 0cbf 55e7 0dbe 1932 afbd
00000180: 6421 61bd 18b8 69be 15a9 0cbe 80a6 a13c
00000190: b41a 4fbe 0f5b 5e3d 30c1 1abf d66a 70be
000001a0: bc84 133e 1001 8abe 616b 813e ac0d 84be
000001b0: 48d1 fcbc c358 5a3d 0650 413e 80ec 96be
000001c0: 9895 883e 36b5 92be c384 15bd 212a 083f
000001d0: 55af 593e e006 74be ae0b 863b ddfc e83e
000001e0: c35a 443e 2124 63be ebac 5fbe 2321 593e
000001f0: 0257 063f 8a04 42be 8faf 5dbe 76c2 893e
00000200: 9d3f ad3e bb6b 033f ba8f 4bbd a500 48be
00000210: 25a3 0b3e bc6b 413d 5498 a6bd 30c4 72be
00000220: 874a bd3e a4cb 433f b03c 01bd ca19 0dbe
00000230: e43e 6ebe 2647 78be 60a8 113d 4f64 c4bd
00000240: 6fc0 b53e 0e39 323f ba73 50bd ea77 bdbd
00000250: 0e8e 08bf 0d26 05be e4c5 f8bc 0923 eabc
00000260: 1f31 c53e 5420 92be bbd9 2dbf 1794 2abe
00000270: f978 113c 6952 65bf 968d 92bd a71a 753e
00000280: a661 d3be 9d2f eebe f1cf 88bc 0315 a03e
00000290: 8d9d 4b3d 8ac4 5dbf dc76 cabd aeaf 983c
000002a0: 262a 95be b2ef a2bd d2ea aabb 3e6c b0bd
000002b0: e167 b43e 3327 55bf 3493 e73d 00a7 4a3e
000002c0: f6a9 9ebe 380f 923e f4f9 353d 05eb 0e3e
000002d0: 332a 813e 2f46 c2bd 52d3 253e 51cc 03bf
000002e0: bfa0 dd3e 8cc8 10bf 5ca2 4d3d f9a8 04bf
000002f0: d170 2c3e 6129 b1be fe89 81bc 1789 07be
00000300: abeb 943e 6c34 9dbd 5983 a53d 6253 1dbe
00000310: 6a1c fd3d 1003 f1bd 534c 47be b0a4 843e
00000320: 9516 a03e a8a4 933e 674e 8cbe e855 863e
00000330: ccdd 93be 17d4 a8be 7bf0 65bf 9802 b93e
00000340: b91d 0a3f a20b 00bf 999c 43bb fb6e 8a3e
00000350: 2bf3 a8be 72ea a6be 7011 3f3d 30e4 623e
00000360: 7e2b 2d3f 115c d9be 1ba0 463d 2d00 dc3e
00000370: ec14 d6be 9086 35be 8eee 933d 0149 ce3e
00000380: e53b 143f f123 c2be 992a 863d 423e 843e
00000390: 741c b4be 4471 e7bd 6a5e 5f3d f522 873e
000003a0: 400d ac3c 1b61 d1be d8e9 7bbb f9c1 96bc
000003b0: af2d cb3e b192 c2be ce53 1fbd ea7d cb3b
000003c0: deaa 893d 2523 bbbe 9ce7 31bd b502 4f3e
000003d0: 1f3f cb3e cf25 7cbe e9f5 e4bc 7120 693e
000003e0: d97e a73e c905 b9be 2db7 efbc cf43 27be
000003f0: 5e15 9b3e baac d3bd aa43 05bd 5796 25be

fc1.bias f4 [300]
-0.19470927 -0.19844371 -0.357023 -0.4624303 -0.45062205 -0.24324511 -0.18207635 0.12989509
-0.8694421 -0.16140251 -0.10314031 -0.28855395 -0.56765085 -0.4718459 0.24856988 -0.6899108
-0.06545733 -0.63713217 0.19901931 -0.32790855 -0.33618364 -0.2147591 -0.3117146 0.10383409
-0.4503803 -0.07127803 -0.20981394 -0.36272645 -0.01029367 -0.38938153 0.08775345 0.10769921
-0.1671927 -0.08948029 -0.19197914 -0.50095713 -0.61804885 -0.33664632 -0.57346064 -0.4474927
-0.17268334 -0.22242227 0.18603177 -0.22329643 -0.2586395 -0.019336129 -0.12183779 0.08502058
-0.3958771 -0.2601991 0.049019214 -0.81802815 -0.117160186 -0.56689125 -0.37664476 0.10678465
-0.18903522 -0.18072224 -0.92789274 -0.17402755 -0.30429968 -0.03924245 0.11646518 -0.03439532
0.058788843 -0.29879385 -0.22017421 -0.30540305 -0.10351872 -0.45062146 -0.35345188 -0.71916384
-0.5406738 -0.23859929 -0.1719616 -0.17720726 -0.30481812 0.03219183 -0.36227506 -0.63695973
-0.45312026 -0.4810307 -0.4061705 -0.38972786 -0.026937006 -0.4247991 -0.4888724 -0.11046146
-0.12400186 -0.15581311 -0.089291796 -0.0507672 -0.13614011 0.13912001 -0.2701385 -0.9782789
-0.29737523 -0.5902392 -0.22224312 -0.24403498 -0.2815682 -0.16798975 -0.041578412 0.04335103
-0.44451618 -0.36988243 -0.33958438 -0.32134303 0.017339151 -0.18567257 -0.26883805 -0.092775464
-0.0014179234 -0.15980929 -0.7869127 -0.04194543 -0.1462988 -0.056370143 -0.26098537 -0.5635703
-0.5130556 -0.15301147 0.029954556 0.11623448 -0.03006962 -0.6902729 -0.54234004 -0.2590743
-0.0882315 -0.80995595 -0.1996015 -0.42023304 -0.63526213 0.06386501 -0.4981258 -0.18095154
-0.57623065 -0.17988941 -0.23466957 0.07981755 -0.7117012 -0.36964116 -0.021390071 -0.26678443
0.15246598 -0.06214417 0.17736243 -0.22404571 -0.024314852 -0.6801872 0.005454969 -0.47842267
-0.08384792 -0.15497153 -0.5358486 -0.35722494 0.15553842 -0.29353887 -0.47446412 -0.40420324
-0.43124563 -0.13580726 -0.015564276 -0.5799013 -0.1268883 -0.6002959 -0.2085044 -0.36179098
-0.07970819 -0.29822516 -0.47772723 -0.2772222 -0.2557615 -0.52681977 -0.32754356 0.08068924
-0.2607658 -0.1203743 -0.08531525 -0.41768238 -0.2283235 0.02208364 -0.27458984 -0.018497245
-0.16717774 -0.4294076 -0.066902466 -0.20349322 -0.4776915 -0.30458337 -0.32443652 -0.104673885
-0.2018921 -0.5623062 -0.11156553 0.08655817 -0.042127423 0.05168802 -0.046966273 -0.020207351
-0.14936118 -0.395796 -0.2580702 0.20411603 -0.10311554 0.045300614 -0.12000426 -0.33856294
-0.6422893 -0.13186917 -0.30342153 0.006142608 -0.024106443 -0.6113537 -0.65292084 -0.56700236
-0.6409268 0.124923274 -0.35735622 -0.12362466 0.0929005 -0.9104659 -0.41142905 -0.8355513
-0.37813452 -0.66129506 -0.37512743 -0.11923448 -0.44575667 -0.20245124 -0.42998442 0.097533844
-0.12098052 -0.043414835 -0.298039 -0.18864731 -0.20172386 -0.03991149 0.031214321 -0.1427978
-0.084453605 -0.24356699 -0.34163174 0.094136514 0.068438545 -0.60497046 -0.102758616 0.045936685
-0.1251123 -0.17167105 -0.25942454 -0.34242404 -0.13389981 0.025279498 -0.030701848 -0.20434028
00000000: de61 47be d434 4bbe b8cb b6be aac3 ecbe
00000010: efb7 e6be 3f15 79be 3972 3abe 3803 053e
00000020: c293 5ebf b346 25be 3a3b d3bd 58bd 93be
00000030: 9151 11bf c995 f1be 1a89 7e3e ff9d 30bf
00000040: 7e0e 86bd 181b 23bf b8cb 4b3e a1e3 a7be
00000050: 4320 acbe cfe9 5bbe 0e99 9fbe f8a6 d43d
00000060: 3f98 e6be 37fa 91bd 77d9 56be 48b7 b9be
00000070: c8a6 28bc 045d c7be 15b8 b33d 6791 dc3d
00000080: 9034 2bbe 7141 b7bd 2e96 44be ba3e 00bf
00000090: 7338 1ebf e85c acbe 51ce 12bf c31d e5be
000000a0: e7d3 30be aac2 63be 1d7f 3e3e d2a7 64be
000000b0: 666c 84be cd66 9ebc 1786 f9bd 451f ae3d
000000c0: 67b0 cabe d138 85be 5fc8 483d 4b6a 51bf
000000d0: aef1 efbd c91f 11bf 95d7 c0be e9b1 da3d
000000e0: 7392 41be 400f 39be 618a 6dbf 4734 32be
000000f0: 2bcd 9bbe b1bc 20bd 4c85 ee3d 1be2 0cbd
00000100: 92cc 703d 82fb 98be 5975 61be ca5d 9cbe
00000110: 9f01 d4bd dbb7 e6be a5f7 b4be 1f1b 38bf
00000120: 9969 0abf 5f53 74be b416 30be d275 35be
00000130: 1f11 9cbe 95db 033d 1e7c b9be cb0f 23bf
00000140: 61ff e7be a849 f6be 94f5 cfbe 698a c7be
00000150: ffaa dcbc 457f d9be 7c4d fabe 9e39 e2bd
00000160: b0f4 fdbd 798d 1fbe 9ede b6bd 44f1 4fbd
00000170: 5068 0bbe 7a75 0e3e 984f 8abe 7c70 7abf
00000180: 9141 98be eb19 17bf b393 63be 4ee4 79be
00000190: b529 90be 8105 2cbe 204e 2abd da90 313d
000001a0: a097 e3be 3b61 bdbe 01de adbe 1387 a4be
000001b0: d60a 8e3c f320 3ebe 24a5 89be 1001 bebd
000001c0: 9dd9 b9ba 0ca5 23be 1c73 49bf f9ce 2bbd
000001d0: 5acf 15be 61e4 66bd e09f 85be 2546 10bf
000001e0: 9d57 03bf 0aaf 1cbe 4263 f53c 580c ee3d
000001f0: 9054 f6bc bab5 30bf ccd6 0abf 63a5 84be
00000200: b7b2 b4bd 4659 4fbf 5664 4cbe c928 d7be
00000210: 8aa0 22bf a9cb 823d 580a ffbe 5c4b 39be
00000220: da83 13bf ee34 38be 384d 70be 6277 a33d
00000230: 0d32 36bf 9b41 bdbe 3b3a afbc f897 88be
00000240: 0b20 1c3e e38a 7ebd 7f9e 353e 3d6c 65be
00000250: f12f c7bc c020 2ebf 99bf b23b d1f3 f4be
00000260: 75b8 abbd dbb0 1ebe 602d 09bf 30e6 b6be
00000270: 7745 1f3e ba4a 96be f6ec f2be baf3 cebe
00000280: 3acc dcbe 0f11 0bbe 4e01 7fbc 6974 14bf
00000290: 02ef 01be feac 19bf 2d82 55be ab3c b9be
000002a0: 0c3e a3bd f8b0 98be aa98 f4be 11f0 8dbe
000002b0: 2cf3 82be a9dd 06bf cab3 a7be 6640 a53d
000002c0: 1883 85be cd86 f6bd c3b9 aebd 77da d5be
000002d0: a3cd 69be c0e8 b43c 0a97 8cbe 8987 97bc
000002e0: a430 2bbe 50db dbbe 2904 89bd 8760 50be
000002f0: fb93 f4be 5af2 9bbe 8b1c a6be 435f d6bd
00000300: cdbc 4ebe 4df3 0fbf 787c e4bd 6945 b13d
00000310: ce8d 2cbd d1b6 533d b55f 40bd e389 a5bc
00000320: 23f2 18be c6a5 cabe c721 84be cb03 513e
00000330: 3e2e d3bd 238d 393d cbc4 f5bd 1f58 adbe
00000340: 126d 24bf b608 07be 115a 9bbe ee47 c93b
00000350: e07a c5bc ad81 1cbf d225 27bf 1127 11bf
00000360: c713 24bf c6d7 ff3d 65f7 b6be ed2e fdbd
00000370: 9e42 be3d 4b14 69bf d4a6 d2be b1e6 55bf
00000380: d99a c1be a24a 29bf b410 c0be 3531 f4bd
00000390: 383a e4be 614f 4fbe eb26 dcbe d3bf c73d
000003a0: a3c4 f7bd c1d3 31bd 9198 98be c32c 41be
000003b0: b390 4ebe 3b7a 23bd 2db5 ff3c 9639 12be
000003c0: 03f6 acbd a069 79be 5bea aebe a5ca c03d
000003d0: 8229 8c3d 58df 1abf 1c73 d2bd 1b28 3c3d
000003e0: 701d 00be 89ca 2fbe 4bd3 84be 3452 afbe
000003f0: 081d 09be f316 cf3c 7182 fbbc 943e 51be

fc2.weight f4 [400, 300]
-0.06644886 0.01200723 0.0034353437 -0.21394618 0.0133148255 -0.04165487 0.021155264 -0.0014925218
-0.06659787 -0.122992046 0.18995501 0.027715586 -0.037616603 -0.071411006 0.048215188 -0.00360345
-0.053918686 -0.0017252391 -0.06853505 -0.015984494 -0.031131722 0.018299792 0.17587322 0.08416657
0.023543205 -0.1282932 0.06300665 -0.088011116 0.041185476 -0.15071975 0.01260701 -0.08150668
-0.01097345 0.03145117 -0.052529134 -0.07811662 -0.015113231 -0.058608882 -0.053188518 0.014674572
-0.10756169 -0.01156764 -0.008584577 -0.044176925 -0.041200377 -0.022539226 -0.035224933 -0.05786009
-0.022516876 -0.15499642 -0.10495396 -0.10661546 -0.10929024 0.049008686 -0.08976948 0.00029178424
0.02577841 -0.15231417 -0.12182228 -0.01174832 0.068110354 -0.097391516 0.0014839071 -0.01520916
-0.02212199 0.10046119 -0.04071981 -0.09187802 -0.04052982 0.057036795 -0.11706131 -0.06545047
-0.056675434 -0.010467734 -0.054887272 0.047064062 -0.13492431 0.041744277 -0.016126057 0.015198914
-0.048014022 -0.13698068 0.038227558 -0.12228423 0.07672334 -0.096639 0.013719023 0.032669354
-0.035455905 0.010623267 0.01255765 -0.05995373 -0.046836816 -0.06424346 -0.051161934 -0.10397046
-0.11460259 -0.00056622236 -0.007798763 -0.023295471 -0.008548255 -0.06591241 -0.066687286 -0.12167328
-0.17485994 -0.062300693 -0.28978664 0.024441011 0.006701651 -0.021494271 -0.18001579 -0.105155125
0.026270153 0.007809473 -0.04831205 -0.11542961 -0.00624064 -0.08427832 0.0017206988 -0.047812857
-0.039989647 -0.11688248 -0.005519787 -0.08341405 -0.22246976 -0.07646257 -0.032471914 0.0008676837
0.031023687 0.07977066 -0.04517904 -0.031734295 -0.06240128 -0.00059387134 0.013584911 -0.14443137
-0.003210194 -0.055688217 -0.0994032 0.13687639 -0.018540077 -0.114274755 -0.006396638 0.017921671
-0.022267278 0.03575021 -0.04561863 -0.019670717 0.09120746 -0.008511932 -0.124996275 -0.041386645
0.038603816 -0.018018529 -0.05885103 -0.03498279 -0.0017768117 -0.053143814 -0.03359324 0.08058279
-0.22901145 0.010520821 0.12808459 -0.028121646 0.02688111 -0.08830169 -0.026348388 0.05276383
-0.069213055 -0.0020620911 0.08742252 -0.098889105 -0.11905809 -0.0713663 -0.015889497 -0.097972676
0.034010474 -0.22135216 -0.024666397 0.021315455 -0.01322076 -0.038570292 -0.13830692 -0.01850096
-0.042962465 -0.05025295 -0.04781658 0.021723378 -0.06346114 -0.05188465 -0.03477417 -0.18383054
0.035463355 0.04714229 0.0009219339 -0.102979526 0.0320733 -0.24748912 -0.09160234 -0.008559431
-0.130439 -0.078369945 -0.00926352 0.020238832 -0.07145572 0.0012929834 -0.043055598 0.06973461
-0.15043661 -0.024971873 -0.14277732 -0.06537596 -0.0384399 0.1231336 0.055487048 0.045186494
-0.061179366 0.03819776 0.0048832204 0.038518135 0.045301978 -0.06762607 0.054820213 0.05009276
-0.022062384 -0.030945452 -0.0636325 -0.089344785 0.06980911 -0.0022818863 -0.07689471 -0.074972436
-0.12312616 0.108530276 -0.04462024 0.012444959 0.010005793 -0.10789697 -0.095730014 -0.051895827
-0.041986424 -0.011319906 0.022831667 -0.051135857 -0.065182246 -0.043826744 -0.025975851 -0.030751737
-0.026653863 0.018344497 0.050495096 -0.022036307 0.08302662 0.038764007 -0.07026361 0.031711943
00000000: 5716 88bd f9b9 443c 8123 613b b514 5bbe
00000010: 6d26 5a3c 4c9e 2abd ce4d ad3c b9a0 c3ba
00000020: 7764 88bd 41e3 fbbd 9183 423e cc0b e33c
00000030: de13 1abd ef3f 92bd 4a7d 453d dc27 6cbb
00000040: d7d9 5cbd 6b21 e2ba 1b5c 8cbd eaf1 82bc
00000050: f407 ffbc 72e9 953c 1c18 343e 865f ac3d
00000060: aedd c03c 4b5f 03be a109 813d 2c3f b4bd
00000070: 1ab2 283d 4756 1abe a28d 4e3c f9ec a6bd
00000080: fcc9 33bc f1d2 003d ca28 57bd 9bfb 9fbd
00000090: 7c9d 77bc de0f 70bd 34dc 59bd 9e6d 703c
000000a0: 4e49 dcbd 3386 3dbc 53a6 0cbc ddf2 34bd
000000b0: bac1 28bd 2fa4 b8bc 0548 10bd b4fe 6cbd
000000c0: 5075 b8bc 62b7 1ebe 1af2 d6bd 3559 dabd
000000d0: 90d3 dfbd 55bd 483d 10d9 b7bd 9efa 9839
000000e0: 3e2d d33c 3ff8 1bbe f67d f9bd 077c 40bc
000000f0: 717d 8b3d 3475 c7bd a97f c23a d72f 79bc
00000100: 2d39 b5bc 99be cd3d d1c9 26bd 8b2a bcbd
00000110: 9902 26bd 6a9f 693d d7bd efbd e50a 86bd
00000120: 8024 68bd dc80 2bbc 7ad1 60bd 3fc6 403d
00000130: 9929 0abe 0cfc 2a3d cb1a 84bc de04 793c
00000140: 5aaa 44bd aa44 0cbe 8094 1c3d 2870 fabd
00000150: 2021 9d3d abea c5bd c1c5 603c 4dd0 053d
00000160: 363a 11bd 360d 2e3c 9abe 4d3c 0b92 75bd
00000170: f6d7 3fbd 1392 83bd 2d8f 51bd 77ee d4bd
00000180: c3b4 eabd 8a6e 14ba c48c ffbb 25d6 bebc
00000190: fb0d 0cbc 16fd 86bd 5893 88bd d72f f9bd
000001a0: 7c0e 33be 032f 7fbd ea5e 94be 8438 c83c
000001b0: 8699 db3b c114 b0bc 0f56 38be 925b d7bd
000001c0: 8134 d73c 9ce6 ff3b dbe2 45bd 5c66 ecbd
000001d0: 487e ccbb 1d9a acbd 1289 e13a 6ad7 43bd
000001e0: 2fcc 23bd 1560 efbd 54df b4bb fcd4 aabd
000001f0: 1dcf 63be 6898 9cbd 4501 05bd 4475 633a
00000200: 6325 fe3c cd5e a33d a80d 39bd d2fb 01bd
00000210: 7c98 7fbd 08ae 1bba 3f93 5e3c d1e5 13be
00000220: 1e62 52bb 5419 64bd e893 cbbd 5329 0c3e
00000230: 5ce1 97bc e208 eabd e49a d1bb 78d0 923c
00000240: de69 b6bc d06e 123d 9ada 3abd 7c24 a1bc
00000250: faca ba3d a175 0bbc 0cfe ffbd 0b85 29bd
00000260: 091f 1e3d 989b 93bc c70d 71bd 1d4a 0fbd
00000270: e8e3 e8ba 54ad 59bd 1199 09bd 9708 a53d
00000280: fa81 6abe 865f 2c3c 9b28 033e 5e5f e6bc
00000290: c635 dc3c 84d7 b4bd 93d8 d7bc e31e 583d
000002a0: 93bf 8dbd 2624 07bb 940a b33d 5f86 cabd
000002b0: bad4 f3bd 7f28 92bd b12a 82bc e6a5 c8bd
000002c0: 914e 0b3d 24aa 62be 2f11 cabc c09d ae3c
000002d0: e39b 58bc e2fb 1dbd 54a0 0dbe 538f 97bc
000002e0: 69f9 2fbd 0ad6 4dbd 51db 43bd 3af5 b13c
000002f0: eaf7 81bd 0085 54bd 5c6f 0ebd 133e 3cbe
00000300: 0642 113d 4618 413d f0ad 713a eee6 d2bd
00000310: 4b5f 033d ca6d 7dbe 029a bbbd db3c 0cbc
00000320: cd91 05be 6c80 a0bd 05c6 17bc e8cb a53c
00000330: 6057 92bd 5379 a93a 115b 30bd 05d1 8e3d
00000340: 0e0c 1abe d091 ccbc 3834 12be d5e3 85bd
00000350: 2873 1dbd 782d fc3d 6346 633d 7915 393d
00000360: 3797 7abd 4175 1c3d 6c03 a03b 31c5 1d3d
00000370: 918e 393d 897f 8abd 298b 603d 112e 4d3d
00000380: 2cbc b4bc 5181 fdbc c251 82bd 66fa b6bd
00000390: 14f8 8e3d b38b 15bb f97a 9dbd 268b 99bd
000003a0: 9129 fcbd 1f45 de3d b6c3 36bd f1e5 4b3c
000003b0: 56ef 233c 16f9 dcbd 190e c4bd b890 54bd
000003c0: f5f9 2bbd 2177 39bc 7a09 bb3c d573 51bd
000003d0: 457e 85bd ac83 33bd 4fcb d4bc 11eb fbbc
000003e0: 3459 dabc 3347 963c f2d3 4e3d 7c85 b4bc
000003f0: dc09 aa3d 02c7 1e3d 5ee6 8fbd 62e4 013d

fc2.bias f4 [400]
-0.1338067 -0.21158303 -0.043824714 -0.1750082 -0.12185646 -0.12219483 -0.12254103 -0.056317803
-0.11421515 -0.09599824 -0.16325179 -0.109238096 -0.10331481 -0.08343641 -0.09674769 -0.0706585
-0.15887485 -0.036179833 -0.083943054 0.024069361 -0.07973133 -0.030189779 -0.15031332 -0.044128496
-0.13552648 -0.18149103 -0.070199214 -0.05775886 -0.15245804 -0.11450572 -0.13468635 -0.114274755
-0.14143863 -0.07852449 -0.13829176 -0.12632623 -0.039043408 -0.12927513 -0.12367006 -0.14043781
-0.15430215 -0.10583263 -0.14547446 -0.059620224 -0.0846278 -0.13578486 -0.09836444 -0.28058538
-0.09639313 -0.09383755 -0.08696803 -0.033257958 -0.17158164 -0.114628434 -0.08795537 -0.105270036
-0.10958828 -0.143661 -0.14370121 -0.072561264 -0.07180955 -0.18473619 -0.0684978 -0.121732876
-0.14338827 -0.1019859 -0.06536106 -0.075523786 -0.10771071 -0.15018329 -0.03100235 -0.12778158
-0.12462495 -0.10106356 -0.1975845 -0.10286972 -0.11613062 -0.069221504 -0.10027325 -0.102964625
-0.11963179 -0.022038171 -0.09440605 -0.04926208 -0.083130926 -0.023733608 -0.13890298 -0.06791289
-0.1435373 -0.1578808 -0.11212222 -0.122254506 -0.078913845 -0.17290786 -0.08337961 -0.17469601
-0.031146623 -0.113857515 -0.09967848 -0.08057046 -0.096905835 -0.073947564 -0.11364823 -0.08563183
-0.054511014 -0.37631974 -0.10834314 -0.16058403 -0.19220568 -0.07269998 -0.27145797 -0.19824016
-0.12520133 -0.09935105 -0.07636865 -0.031607207 -0.061486296 -0.10601941 -0.09692539 -0.12303913
-0.06876602 -0.08364053 -0.12806073 -0.122962244 -0.069242865 -0.12397554 -0.17004457 -0.1026517
-0.1276751 -0.16531166 -0.07725234 -0.064481884 -0.0910808 -0.118529975 -0.08821229 -0.043960452
-0.1579916 -0.123662606 -0.20975891 -0.12537254 -0.19338232 -0.06200321 -0.13482 -0.20594236
-0.06011353 -0.096326075 -0.11571273 -0.15333545 -0.14779907 -0.09618598 -0.11393947 -0.123237915
-0.09365128 -0.031678416 -0.18634582 -0.23532963 -0.11899634 -0.03691049 -0.11056432 -0.13517763
-0.14046761 -0.11894633 -0.14183854 -0.09320205 -0.04697093 -0.049218684 -0.09959911 -0.1296683
-0.1465719 -0.099440455 -0.09910518 -0.17133495 -0.115779795 -0.09346122 -0.096361555 -0.10559642
-0.0717761 0.079001 -0.107338175 -0.07866052 -0.11741149 -0.10284802 -0.09239212 -0.14706892
-0.10297374 -0.15512587 -0.13185462 -0.09354697 -0.11050362 -0.11896123 -0.05469999 -0.12750344
-0.10512532 -0.09173712 -0.08012081 -0.30012068 -0.1986403 -0.08172098 -0.03553852 -0.045231953
-0.07653708 -0.062028747 -0.18931633 -0.1352257 -0.11610762 -0.18882921 -0.09836431 -0.10858751
-0.08667745 -0.061525825 -0.116599366 -0.10059455 -0.06791247 -0.110057674 -0.11733655 -0.09207243
-0.11487826 -0.0949179 -0.18901622 -0.06267882 -0.13647246 -0.29306838 -0.13387239 -0.14371559
-0.1326295 -0.10702804 -0.17396407 -0.078026906 -0.09902681 -0.073467396 -0.15387882 -0.13693018
-0.13978215 -0.15647526 -0.08859409 -0.21789625 -0.07729749 -0.071679235 -0.16968158 -0.13954908
-0.08407465 -0.10059241 -0.12659445 -0.109394655 -0.09732447 -0.14314985 -0.05558817 -0.019081041
-0.11540726 0.07221025 -0.16538267 -0.09066943 -0.06325479 -0.09153538 -0.13976867 -0.15618853
00000000: a004 09be 39a9 58be 8b81 33bd 5935 33be
00000010: e18f f9bd 4841 fabd cbf6 fabd 7fad 66bd
00000020: a2e9 e9bd ba9a c4bd 7a2b 27be 39b8 dfbd
00000030: b796 d3bd b5e0 aabd a723 c6bd 67b5 90bd
00000040: 17b0 22be 4e31 14bd 56ea abbd 1c2d c53c
00000050: 2e4a a3bd 8e50 f7bc bceb 19be 15c0 34bd
00000060: 74c7 0abe c9d8 39be 9bc4 8fbd 8e94 6cbd
00000070: f61d 1cbe fa81 eabd 38eb 09be e208 eabd
00000080: 4ad5 10be 73d1 a0bd 5b9c 0dbe aa5b 01be
00000090: fbeb 1fbd b360 04be ba46 fdbd eece 0fbe
000000a0: 6201 1ebe c7be d8bd 42f7 14be 5634 74bd
000000b0: 5751 adbd 300b 0bbe 4c73 c9bd e3a8 8fbe
000000c0: c369 c5bd e72d c0bd 4b1c b2bd 7f39 08bd
000000d0: 19b3 2fbe 50c2 eabd f221 b4bd d197 d7bd
000000e0: d26f e0bd df1b 13be 6926 13be 009b 94bd
000000f0: e310 93bd 7c2b 3dbe 9348 8cbd 164f f9bd
00000100: 60d4 12be fcdd d0bd 05dc 85bd 37ac 9abd
00000110: 6f97 dcbd a6c9 19be a4f8 fdbc 2dd9 02be
00000120: 5e3b ffbd 69fa cebd 9753 4abe 5cad d2bd
00000130: e4d5 edbd 01c4 8dbd 105c cdbd 1edf d2bd
00000140: 8301 f5bd 6589 b4bc f657 c1bd 09c7 49bd
00000150: 8c40 aabd fc6c c2bc 953c 0ebe ea15 8bbd
00000160: 71fb 12be 81ab 21be 56a0 e5bd 9260 fabd
00000170: 959d a1bd c20e 31be eec2 aabd 83e3 32be
00000180: 3427 ffbc 212e e9bd 3b24 ccbd 2002 a5bd
00000190: 9176 c6bd d271 97bd 67c0 e8bd be5f afbd
000001a0: f146 5fbd fbac c0be 02e3 ddbd 2470 24be
000001b0: 91d1 44be bae3 94bd 8afc 8abe 78ff 4abe
000001c0: c734 00be 9078 cbbd 2b67 9cbd 8f76 01bd
000001d0: 0ed9 7bbd b420 d9bd d280 c6bd f0fb fbbd
000001e0: 33d5 8cbd ba4b abbd 5a22 03be a1d3 fbbd
000001f0: 34cf 8dbd e3e6 fdbd 2a20 2ebe 0e3b d2bd
00000200: 43bd 02be 7647 29be 7a36 9ebd 140f 84bd
00000210: 9288 babd d8bf f2bd a5a8 b4bd e00f 34bd
00000220: 8dc8 21be d242 fdbd 0acb 56be a961 00be
00000230: 0406 46be 14f7 7dbd 410e 0abe 8ee2 52be
00000240: 9b39 76bd 9b46 c5bd ccfa ecbd f803 1dbe
00000250: a458 17be 28fd c4bd 1959 e9bd 2964 fcbd
00000260: 3ecc bfbd 3ac1 01bd 70d1 3ebe 40fa 70be
00000270: 5ab4 f3bd 742f 17bd 8c6f e2bd 016c 0abe
00000280: bed6 0fbe 229a f3bd 1f3e 11be b7e0 bebd
00000290: 9764 40bd 8899 49bd 9efa cbbd c4c7 04be
000002a0: f216 16be 70a7 cbbd a8f7 cabd 6e72 2fbe
000002b0: f51d edbd 9968 bfbd 3559 c5bd f042 d8bd
000002c0: 59ff 92bd 47cb a13d 1ed4 dbbd c418 a1bd
000002d0: 6f75 f0bd fca1 d2bd 1438 bdbd 3c99 16be
000002e0: e5e3 d2bd 51d9 1ebe e604 07be 8e95 bfbd
000002f0: b94f e2bd f2a1 f3bd 190d 60bd 4390 02be
00000300: f24b d7bd ace0 bbbd 6116 a4bd 6ba9 99be
00000310: 5d68 4bbe 545d a7bd d790 11bd 2445 39bd
00000320: 79bf 9cbd db11 7ebd 24dc 41be 9b78 0abe
00000330: d5c9 edbd 725c 41be 3a73 c9bd 2163 debd
00000340: f283 b1bd 8102 7cbd a6cb eebd 8404 cebd
00000350: b115 8bbd eb65 e1bd 254e f0bd 7890 bcbd
00000360: 4b45 ebbd 5164 c2bd 788d 41be c15d 80bd
00000370: 70bf 0bbe 0f0d 96be d815 09be 2e2a 13be
00000380: 07d0 07be 8431 dbbd a323 32be 92cc 9fbd
00000390: 91ce cabd 1376 96bd 6992 1dbe 6d37 0cbe
000003a0: 0d23 0fbe 0d3b 20be d170 b5bd 3220 5fbe
000003b0: 254e 9ebd 90cc 92bd 02c1 2dbe f4e5 0ebe
000003c0: 552f acbd 6503 cebd faa1 01be 4e0a e0bd
000003d0: 0d52 c7bd e095 12be 6cb0 63bd d84f 9cbc
000003e0: a45a ecbd f8e2 933d 135a 29be e5b0 b9bd
000003f0: ba8b 81bd e776 bbbd 851f 0fbe e3ef 1fbe

fc3.weight f4 [1, 400]
-0.00207513 -0.008953974 0.00013296628 -0.0010884694 0.017679134 -0.0028451106 0.0069532217 -0.023092441
-0.007397823 -0.01005888 0.010033781 -0.026625926 -0.019473275 -0.0075771054 0.007076456 0.010127798
0.032994036 0.01633653 0.019609248 0.017586272 0.0073354123 0.014856734 -0.04284807 0.02368477
-0.0014272747 -0.016820835 0.00056957366 -0.010965681 -0.015262405 0.008090969 0.031736396 0.036234505
0.009108898 -0.009054145 -0.011975662 0.029423654 0.0160441 -0.020274917 -0.0066927997 -0.028794073
-0.046554808 -0.029751433 0.019123092 -0.04942746 -0.021289468 0.047582425 0.004962307 0.06261267
0.019298185 -0.0035044956 0.008518452 0.021637697 -0.015477383 0.00890976 -0.028520262 0.015783153
0.005705696 -0.023687184 -0.01986071 0.002657694 -0.007596133 0.0038068402 0.01661035 0.007885145
-0.004745383 0.025995336 -0.006475337 0.006648099 -0.0012490944 -0.0028940057 0.019130861 -0.013607394
-0.018472236 -0.014611074 0.010847719 -0.0034240286 0.037504803 0.019662706 -0.056593597 -0.012407705
-0.014709963 0.00568929 -0.0028639382 -0.013843561 0.031252798 -0.03452002 -0.013605401 -0.0047295154
0.0013096659 0.010166883 -0.05630995 0.0017044756 -0.0007013241 0.0065209717 0.006796495 0.0014991962
-0.00016271432 0.0036742315 0.025399627 0.0058740964 0.018278232 0.009658145 0.0011761962 -0.0058706566
0.018815754 -0.04951203 0.019918038 -0.023015281 -0.036144145 0.015768426 0.031245776 0.003580399
-0.016896486 -0.012427263 0.0039558182 0.029555993 -0.0038116134 0.012176734 -0.008726932 -0.012964484
0.013490847 -0.009755175 0.027233604 0.01855498 0.008268855 0.0140617555 0.025846824 -0.00090744003
-0.0073385863 -0.0092316065 0.021252124 -0.020784594 0.021792298 0.046609223 -0.012346236 -0.037153326
-0.027370993 0.0028283466 0.009345203 -0.01198581 -0.009284009 0.0012019322 -0.018093038 0.025882084
0.016283138 -0.013490781 -0.026506713 0.009633336 -0.0005767694 0.007735771 0.036897615 0.017813638
-0.020261185 -0.020639306 0.036027696 -0.0013967108 -0.0031860515 0.00020577823 -0.0040790127 -0.0028476717
0.012702938 0.0065116584 -0.0047719255 0.04529563 -0.007427059 -0.03144431 -0.024832038 -0.006185422
-0.0026621816 -0.018735658 -0.005554712 0.0051089325 -0.004819898 -0.034352016 -0.017369807 0.00851385
0.009048381 -0.037524328 0.0015911269 -0.008065116 0.0019873513 -0.005728963 0.0057363226 -0.027024534
0.017451052 -0.0313466 -0.0029559396 -0.005553781 -0.03970381 -0.013860587 0.07587701 0.016675547
0.0027432875 0.0020606057 0.0094036665 0.06231575 0.031146731 0.0028292506 0.020213304 0.009698843
-0.02031334 -0.010137112 -0.013805397 -0.039957892 -0.00012863839 -0.029347295 0.005642279 0.0033673015
0.015017305 -0.0069666156 0.0068841926 -0.0078047696 0.0017010289 -0.0021901499 -0.028025312 -0.01849252
0.00755615 -0.0010720242 -0.00069870317 -0.005091839 -0.045589913 0.074274294 0.033609618 -0.02156597
0.012003506 -0.0007214118 -0.016451936 -0.0016336907 -0.0049256873 0.00085377187 0.027547946 0.0027783052
-0.014555363 0.025356794 -0.02878188 0.020270282 0.043369874 -0.0076087704 -0.03402063 -0.020892723
0.0034356727 0.027174305 -0.0025012156 0.006174216 0.021797886 -0.0028229917 -0.010697436 0.002084745
0.01932985 -0.029040154 -0.00012760011 0.015787259 -0.038076174 -0.007180151 0.020765841 0.0012591062
00000000: e7fe 07bb b0b3 12bc dd6c 0b39 f9aa 8eba
00000010: d5d3 903c 0975 3abb dad7 e33b 5c2c bdbc
00000020: 7069 f2bb 00ce 24bc ba64 243c 9d1e dabc
00000030: 6b86 9fbc 5e49 f8bb 9ee1 e73b 10ef 253c
00000040: c124 073d 30d4 853c 93a3 a03c 1611 903c
00000050: e65d f03b a969 733c 7581 2fbd 9006 c23c
00000060: 6413 bbba d9cb 89bc 714f 153a 66a9 33bc
00000070: 2b0f 7abc fc8f 043c 06fe 013d a26a 143d
00000080: 7d3d 153c d657 14bc 9135 44bc e009 f13c
00000090: eb6e 833c 9517 a6bc 464f dbbb 8ce1 ebbc
000000a0: 41b0 3ebd 47b9 f3bc 08a8 9c3c 7374 4abd
000000b0: 4067 aebc cae5 423d d99a a23b 123b 803d
000000c0: 3a17 9e3c aeab 65bb fa90 0b3c 8a41 b13c
000000d0: d994 7dbc 3efa 113c 53a3 e9bc ac4b 813c
000000e0: d9f6 ba3b a00b c2bc edb2 a2bc b52c 2e3b
000000f0: fbe8 f8bb 2e7c 793b 6e12 883c b230 013c
00000100: 287f 9bbb 2cf4 d43c 102f d4bb 4cd8 d93b
00000110: a7b8 a3ba 5ca9 3dbb 53b8 9c3c 8cf1 5ebc
00000120: 1653 97bc 4963 6fbc a2ba 313c ab65 60bb
00000130: a39e 193d af13 a13c b0ce 67bd b049 4bbc
00000140: 0f02 71bc 396d ba3b e9b0 3bbb 1ad0 62bc
00000150: ef02 003d dd64 0dbd 30e9 5ebc 0dfa 9abb
00000160: 18a9 ab3a ff92 263c 43a5 66bd b668 df3a
00000170: 10d9 37ba e0ad d53b 22b5 de3b ad80 c43a
00000180: 4b9e 2ab9 60cb 703b e112 d03c 7e7b c03b
00000190: 3bbc 953c 323d 1e3c 982a 9a3a a35e c0bb
000001a0: 7f23 9a3c 20cd 4abd 272b a33c 8b8a bcbc
000001b0: e20b 14bd c92c 813c 24f7 ff3c 21a5 6a3b
000001c0: 806a 8abc b89b 4bbc cf9f 813b 691f f23c
000001d0: 43cc 79bb ed80 473c 68fb 0ebc fd68 54bc
000001e0: b708 5d3c 2bd4 1fbc 0219 df3c 9d00 983c
000001f0: 177a 073c 4763 663c b8bc d33c 45e1 6dba
00000200: 8678 f0bb 2a40 17bc ef18 ae3c 7444 aabc
00000210: c385 b23c 50e9 3e3d de47 4abc 162e 18bd
00000220: 2239 e0bc c85b 393b 9f1c 193c 2160 44bc
00000230: f51b 18bc 278a 9d3a da37 94bc aa06 d43c
00000240: 3764 853c 7008 5dbc 9b24 d9bc 24d5 1d3c
00000250: 5732 17ba 5a7c fd3b f421 173d e8ed 913c
00000260: c9fa a5bc c313 a9bc c791 133d d611 b7ba
00000270: 13cd 50bb 2cc6 5739 3da9 85bb 01a0 3abb
00000280: fc1f 503c c05f d53b d05d 9cbb e987 393d
00000290: b05e f3bb c0cb 00bd 8f6c cbbc 15af cabb
000002a0: ff77 2ebb 867b 99bc 4d04 b6bb d568 a73b
000002b0: 3cf0 9dbb b3b4 0cbd 204b 8ebc ad7d 0b3c
000002c0: a93f 143c 1cb3 19bd 5c8d d03a 8c23 04bc
000002d0: 393e 023b 06ba bbbb c3f7 bb3b 8e62 ddbc
000002e0: 82f5 8e3c 4b65 00bd 70b8 41bb 7efc b5bb
000002f0: 76a0 22bd 8417 63bc 6865 9b3d 289b 883c
00000300: bac8 333b 3a0b 073b d611 1a3c cd3e 7f3d
00000310: 6e27 ff3c f36a 393b 5f96 a53c e5e7 1e3c
00000320: 2968 a6bc 2116 26bc 0830 62bc e3aa 23bd
00000330: 1be3 06b9 bd69 f0bc dee2 b83b f2ad 5c3b
00000340: 240b 763c 3548 e4bb cb94 e13b 27bf ffbb
00000350: 0ff5 de3a 9e88 0fbb 5795 e5bc a07d 97bc
00000360: 9599 f73b 2a83 8cba 2d29 37ba 71d9 a6bb
00000370: 7dbc 3abd 1f1d 983d 3daa 093d 1eab b0bc
00000380: 5aaa 443c 201d 3dba 36c6 86bc 9021 d6ba
00000390: a967 a1bb a9cf 5f3a 3bac e13c 3a14 363b
000003a0: 9e79 6ebc 0db9 cf3c fac7 ebbc dd0d a63c
000003b0: 9ca4 313d fe52 f9bb 3759 0bbd 3727 abbc
000003c0: 0629 613b a69c de3c 6feb 23bb 1451 ca3b
000003d0: 7b91 b23c f101 39bb 4c44 2fbc 38a0 083b
000003e0: a259 9e3c 9ee5 edbc 65cc 05b9 4854 813c
000003f0: c3f5 1bbd 7947 ebbb 201d aa3c 9808 a53a

bn2.weight f4 [300]
0.08810912 0.096244335 0.07837886 0.12591247 0.1609813 0.31324863 0.30959043 0.35139954
0.19231506 0.026986456 -0.02977871 0.108545564 0.18224111 0.36160105 0.18532789 0.123652816
0.10474425 0.089737564 0.091268435 0.12525274 0.07408854 0.09904541 -0.011296808 -0.13161625
0.08891737 0.21523756 0.09999066 0.928004 0.06005945 0.106764965 0.09795281 0.37803364
0.13174273 0.1316121 0.10514349 0.055158794 0.2971979 0.13160986 0.26629242 0.07200278
0.07716367 0.46304825 0.19935979 0.06095207 0.06335647 0.17172079 0.059240207 0.23584755
0.08864672 0.23366676 0.4300947 0.34714302 0.16680197 0.20715424 0.23435032 0.18145694
0.10562572 0.096932195 0.88431144 0.06267125 0.4659422 0.09191245 0.7283586 0.15049303
0.13435067 0.5938519 0.16907462 0.12565777 0.5588687 0.06605613 0.19794586 0.39896426
0.11036295 0.07197004 0.1849881 0.08698912 0.097240455 0.0580858 0.22942625 0.08823534
0.15927105 0.2898637 0.091977894 0.08909005 0.20701836 0.2495086 0.1391205 0.06049738
0.06342856 -0.00078404276 0.0557314 0.13769156 0.0798405 0.07752398 0.24648091 0.3983925
0.10769975 0.13435137 0.1069319 0.059880238 0.11799452 0.12518416 0.3455459 0.24952823
0.24101728 0.10583176 0.21301077 0.16202849 0.11163489 0.12643999 0.5784399 0.09989798
0.20932798 0.0923842 0.16424926 0.06909648 0.115415365 0.2027483 0.21088868 0.05967945
0.13068652 0.19923101 0.04835238 0.06956218 0.06901278 0.31318656 0.26977378 0.15235434
0.10148942 0.13532716 0.066439584 0.16328095 0.12059997 0.13349009 0.19746551 0.16236821
0.16247031 0.42526916 0.072931685 -0.0009069363 0.067487754 0.6375367 -0.013057459 0.12647723
0.238204 0.1347731 0.24668494 0.12723775 -0.0020903058 0.3341472 0.19518247 0.19367841
0.18505539 0.13875051 0.06121459 0.08160383 0.124578185 0.49271584 0.094309375 0.16380782
0.13890432 0.14332847 0.056878988 0.9231183 0.13543054 0.23813935 0.022330359 0.09452785
0.08402515 0.08225139 0.08414785 0.6038909 0.14993757 0.1862034 0.32503086 0.18914674
0.13349372 0.056443606 0.07870337 -0.10870977 0.17314775 0.11714041 0.35741338 0.06379102
0.2761763 0.06414509 -0.0018287565 0.10752357 0.14711529 0.22170193 0.09729093 0.18302552
-0.035717227 0.11126259 0.056483265 0.0025235298 0.07119253 0.2198801 0.28401324 0.29046315
0.05974461 0.064637884 0.14369468 0.13999584 0.12586184 0.0802745 0.0810278 0.066392094
0.20292658 0.15893745 0.20450066 0.107901946 0.08921079 0.13123398 0.14651868 0.23136413
0.13681333 0.09180969 0.1256605 -0.002325625 0.11764088 0.35839057 0.095967695 0.4099654
0.1131497 0.31930113 0.09447385 0.058839977 0.16076015 0.1598282 0.06670718 0.1033438
-0.000522428 0.0024925387 0.16123739 0.06775127 0.06211995 0.26439995 0.09538079 0.07832613
0.08930632 0.06177497 -0.04116987 0.0022851548 0.08521427 0.22906235 0.21188694 0.4868204
0.05161041 0.18870328 0.0860322 0.21167292 0.3062738 0.20544052 0.18777767 0.09171869
00000000: 8e72 b43d c01b c53d 1985 a03d 33ef 003e
00000010: 48d8 243e 2062 a03e a382 9e3e a4ea b33e
00000020: 3dee 443e b312 dd3c 7bf2 f3bc 234d de3d
00000030: 6a9d 3a3e c623 b93e 98c6 3d3e b03d fd3d
00000040: 2784 d63d 54c8 b73d f2ea ba3d 4142 003e
00000050: bcbb 973d 52d8 ca3d 3f16 39bc 69c6 06be
00000060: 4f1a b63d 3c67 5c3e e7c7 cc3d ac91 6d3f
00000070: e600 763d 97a7 da3d 7c9b c83d a08d c13e
00000080: 91e7 063e 53c5 063e 7855 d73d 30ee 613d
00000090: 532a 983e bcc4 063e 7b57 883e 3276 933d
000000a0: fc07 9e3d a914 ed3e f924 4c3e e1a8 793d
000000b0: 09c1 813d 93d7 2f3e dca5 723d 0582 713e
000000c0: 698c b53d 5746 6f3e 5f35 dc3e bbbc b13e
000000d0: 23ce 2a3e 3e20 543e 88f9 6f3e d9cf 393e
000000e0: 4c52 d83d 6384 c63d 3c62 623f c959 803d
000000f0: fa8f ee3e 983c bc3d b675 3a3f d81a 1a3e
00000100: 3993 093e ae06 183f e621 2d3e 6eac 003e
00000110: 0512 0f3f 7048 873d 52b2 4a3e 0b45 cc3e
00000120: f805 e23d 0765 933d 856d 3d3e 5a27 b23d
00000130: 0126 c73d 60eb 6d3d b7ee 6a3e bbb4 b43d
00000140: f317 233e 0469 943e e85e bc3d d874 b63d
00000150: 9ffc 533e 2f7f 7f3e 9b75 0e3e 1acc 773d
00000160: d5e6 813d 3888 4dba 9c46 643d 04ff 0c3e
00000170: 6b83 a33d e4c4 9e3d 7e65 7c3e 1afa cb3e
00000180: b091 dc3d 6893 093e 1dff da3d fb44 753d
00000190: 1ca7 f13d 4730 003e 64eb b03e 5484 7f3e
000001a0: 3ccd 763e 52be d83d 7f1f 5a3e ccea 253e
000001b0: d5a0 e43d 7c79 013e a314 143f 5097 cc3d
000001c0: 135a 563e ed33 bd3d f530 283e 7582 8d3d
000001d0: e45e ec3d 409d 4f3e 34f3 573e 7072 743d
000001e0: b0d2 053e 3703 4c3e 250d 463d 9e76 8e3d
000001f0: 9356 8d3d fd59 a03e ca1f 8a3e c702 1c3e
00000200: afd9 cf3d 3493 0a3e 7a11 883d 1f33 273e
00000210: 1efd f63d a0b1 083e 6634 4a3e da43 263e
00000220: 9e5e 263e e1bc d93e 355d 953d 77bf 6dba
00000230: 0537 8a3d 9b35 233f f4ee 55bc 3f83 013e
00000240: c0eb 733e f601 0a3e fa9a 7c3e 9d4a 023e
00000250: 83fd 08bb 5815 ab3e eadd 473e a253 463e
00000260: 297f 3d3e 9d14 0e3e 26bc 7a3d e91f a73d
00000270: d922 ff3d 4045 fc3e 4625 c13d 3dbd 273e
00000280: ef3c 0e3e b3c4 123e f1f9 683d 7b51 6c3f
00000290: 4eae 0a3e cdda 733e 28ee b63c d197 c13d
000002a0: 6115 ac3d 6b73 a83d b555 ac3d 9898 1a3f
000002b0: 3c89 193e 1bac 3e3e 726a a63e afaf 413e
000002c0: 94b2 083e 6931 673d 3c2f a13d 3aa3 debd
000002d0: a54d 313e 50e7 ef3d e3fe b63e dea4 823d
000002e0: fb66 8d3e 805e 833d e3b2 efba 5135 dc3d
000002f0: 64a5 163e d505 633e 7840 c73d 0b6b 3b3e
00000300: 3a4c 12bd a4dd e33d ff5a 673d ce61 253b
00000310: 64cd 913d 4028 613e 2f6a 913e 96b7 943e
00000320: c4b6 743d de60 843d b324 133e 125b 0f3e
00000330: ede1 003e f566 a43d e7f1 a53d 94f8 873d
00000340: fccb 4f3e 80c0 223e 9f68 513e b2fb dc3d
00000350: 26b4 b63d 3362 063e fe08 163e b8ea 6c3e
00000360: cb18 0c3e b806 bc3d 25ad 003e 8369 18bb
00000370: b4ed f03d f87e b73e b68a c43d fce6 d13e
00000380: 08bb e73d 707b a33e 827b c13d 3002 713d
00000390: 4f9e 243e 01aa 233e c69d 883d eaa5 d33d
000003a0: 8df3 08ba dc59 233b 6a1b 253e 2ec1 8a3d
000003b0: 7d71 7e3d 6e5f 873e 0157 c33d 7369 a03d
000003c0: 3be6 b63d c007 7d3d bda1 28bd 89c2 153b
000003d0: d284 ae3d 528f 6a3e e4f8 583e 8640 f93e
000003e0: 7065 533d 6f3b 413e a631 b03d c9c0 583e
000003f0: ebcf 9c3e 005f 523e ca48 403e 02d7 bb3d

bn2.bias f4 [300]
0.014166062 0.022249505 0.018918362 0.04525321 0.022954114 0.1450829 0.10651045 0.12801874
0.08799406 0.025433978 -0.26438046 0.043356314 0.03157686 0.16665056 0.041021533 0.05625973
0.014100313 0.040365763 0.01859044 0.0742105 -0.00031754308 0.019852947 -0.0828599 -0.028979171
0.03629356 0.09471662 0.04115681 0.24361381 0.013887637 0.05182812 0.009781844 0.089699134
0.03929021 0.0031059405 0.032480136 0.003471081 0.10617686 0.031226957 0.089973405 0.031765293
0.006224212 0.21340042 0.10348177 0.013233176 0.030321682 0.0336491 0.00065467576 0.07722035
0.021989001 0.06484444 0.23089144 0.17749569 0.07386248 0.09412068 0.10639039 0.034523506
0.006467514 0.032180257 0.27748922 0.02152491 0.18875909 0.021356488 0.20867696 0.0326527
0.01715763 0.11907873 0.031175792 0.047410958 0.06268244 0.0090665 0.11833144 0.25206888
0.04051307 0.0131355105 0.061794043 0.012524874 0.041656192 0.0045531327 0.081272855 0.03598298
0.033327557 0.18191172 0.03689086 0.03453843 0.06585431 0.1270219 0.06386983 0.0035625778
-0.0077498984 -0.00024704184 -0.0039146757 0.06828435 0.017951315 0.010594654 0.05351457 0.20636623
0.018040406 0.06313632 0.010638815 0.02432582 0.015574973 0.027131982 0.05098285 0.049048476
0.09898871 0.023782693 0.06972202 0.06703269 0.019777706 0.03972027 0.268554 0.026934817
0.04853925 0.029463585 0.054643065 0.035414387 0.018794643 0.047678933 0.059427977 0.01294355
0.05711455 0.11964345 0.007828365 0.013842599 0.0069310246 0.19982655 0.02612363 0.05457937
0.020811733 0.038349 0.007930928 0.041455545 0.04975284 0.040864248 0.103554055 0.039481986
0.041794833 0.12702557 0.016082952 -0.0006986018 0.026207775 0.32336876 -0.0016906841 0.039476447
0.042661034 0.04783146 0.069940604 0.04887613 -0.0003008192 0.17367089 0.051546056 0.08020265
0.003434869 0.035898626 0.0026494395 0.015030186 0.08516726 0.086035535 0.053966265 0.042739388
0.049670335 0.043895338 -0.0031789665 -0.09203735 0.050887384 0.08804912 0.020992901 0.009804592
-0.004947609 0.002795318 0.014762762 0.13644499 0.031913932 0.10640108 0.06855125 0.036411315
0.0043598125 0.013703209 0.03574408 -9.719237e-05 0.032844093 0.017640198 0.120838344 0.013347199
0.056454916 0.014070627 -0.00042728466 0.01428974 0.047564894 0.05696563 0.027607452 0.07879816
-0.0025756476 -0.0066800425 0.0036860052 0.002061101 -0.0057110717 0.12961727 0.079696424 0.10721175
0.04789432 0.010668009 0.04330682 0.03695839 0.05126136 0.013650503 0.01266288 0.012586005
0.11349132 0.05867479 0.15913223 0.034245998 0.03524599 0.0046249265 0.0011513202 0.07583199
0.016280005 0.0367265 0.03781791 -0.00061086303 0.024589878 0.12840538 0.02419698 0.17084955
0.036055278 -0.029673375 0.034251034 0.014111657 0.03961807 0.039598275 0.0074219056 0.034547668
-0.00013724121 -4.9038363e-06 0.036220845 0.012760236 0.01363382 0.18321542 0.03462793 0.02488149
0.029274115 0.009925165 -0.0010236495 0.00020265886 0.0065992917 0.12354433 0.16061713 0.15341957
0.005756764 -5.9734048e-05 -0.0029910451 0.06050029 0.1093288 0.055846117 0.028562725 0.0074572205
00000000: c518 683c 9844 b63c aefa 9a3c 6e5b 393d
00000010: 440a bc3c 9d90 143e 2722 da3d 5817 033e
00000020: 3b36 b43d eb5a d03c e05c 87be 6496 313d
00000030: bd56 013d 72a6 2a3e 3206 283d 9a70 663d
00000040: 0005 673c 9256 253d fa4a 983c adfb 973d
00000050: e97b a6b9 a6a2 a23c 74b2 a9bd ba65 edbc
00000060: 8ea8 143d cafa c13d 0b94 283d e675 793e
00000070: f988 633c b949 543d 0744 203c 2eb4 b73d
00000080: c5ee 203d 098d 4b3b e409 053d 137b 633b
00000090: 4173 d93d adcf ff3c fa43 b83d 531c 023d
000000a0: 79f4 cb3b a485 5a3e 40ee d33d f7cf 583c
000000b0: 2d65 f83c a4d3 093d 8c9e 2b3a b425 9e3d
000000c0: 4722 b43c 29cd 843d ce6e 6c3e 6ec1 353e
000000d0: 3645 973d 58c2 c03d 34e3 d93d 8568 0d3d
000000e0: 71ed d33b 72cf 033d 1113 8e3e 0255 b03c
000000f0: 104a 413e cdf3 ae3c 6aaf 553e d6be 053d
00000100: 288e 8c3c 8ddf f33d 6064 ff3c fe31 423d
00000110: a75f 803d a88b 143c c157 f23d 2c0f 813e
00000120: 08f1 253d 5336 573c c01b 7d3d 2135 4d3c
00000130: af9f 2a3d 7232 953b 6272 a63d e462 133d
00000140: 7a82 083d 1147 3a3e df1a 173d 2b78 0d3d
00000150: a0de 863d 0712 023e 2fce 823d 237a 693b
00000160: dcf2 fdbb 6585 81b9 ae46 80bb aad8 8b3d
00000170: a30e 933c 3395 2d3c 1832 5b3d ab51 533e
00000180: 79c9 933c 9d4d 813d 6d4e 2e3c f146 c73c
00000190: 2c2e 7f3c e443 de3c 65d3 503d 0ee7 483d
000001a0: 98ba ca3d ecd3 c23c 6bca 8e3d 6f48 893d
000001b0: db04 a23c b9b1 223d e97f 893e 68a6 dc3c
000001c0: 18d1 463d 9e5d f13c 68d1 5f3d ad0e 113d
000001d0: 39f7 993c fc4a 433d c06a 733d 2f11 543c
000001e0: f2f0 693d a007 f53d 8b42 003c 11cc 623c
000001f0: a61d e33b 559f 4c3e 3901 d63c 9e8e 5f3d
00000200: 5e7d aa3c d713 1d3d b9f0 013c 4acd 293d
00000210: a2c9 4b3d 4561 273d 2614 d43d ddb7 213d
00000220: 0f31 2b3d fe12 023e 65c0 833c 6022 37ba
00000230: b0b1 d63c 9790 a53e f299 ddba 0eb2 213d
00000240: 56bd 2e3d ecea 433d 053d 8f3d 5632 483d
00000250: 45b7 9db9 c8d6 313e f521 533d 4941 a43d
00000260: 8a1b 613b 700a 133d 38a2 2d3b 2b41 763c
00000270: 2c6c ae3d 6633 b03d bb0b 5d3d 7f0f 2f3d
00000280: 1f73 4b3d 99cb 333d 3556 50bb 147e bcbd
00000290: 4a6f 503d 1953 b43d 4ef9 ab3c 70a3 203c
000002a0: 8d1f a2bb a731 373b 83df 713c 3cb8 0b3e
000002b0: 2fb8 023d cfe8 d93d 9964 8c3d 0824 153d
000002c0: c2dc 8e3b 6d83 603c 6268 123d c2d3 cbb8
000002d0: 8787 063d 2d82 903c 187a f73d 36ae 5a3c
000002e0: 453d 673d 7d88 663c 2d05 e0b9 831f 6a3c
000002f0: 68d3 423d cb54 693d 0629 e23c ee60 a13d
00000300: 32cc 28bb 42e4 dabb e890 713b 8913 073b
00000310: f123 bbbb 64ba 043e e137 a33d d591 db3d
00000320: d62c 443d dfc8 2e3c 7e62 313d ae61 173d
00000330: 6ff7 513d 5ca6 5f3c f877 4f3c 8835 4e3c
00000340: 236e e83d fa54 703d 8ff3 223e 8845 0c3d
00000350: 195e 103d b28c 973b e5e7 963a cd4d 9b3d
00000360: a55d 853c 876e 163d f4e6 1a3d 5322 20ba
00000370: b670 c93c b37c 033e bf38 c63c 2ff3 2e3e
00000380: b3ae 133d 9415 f3bc d04a 0c3d 9434 673c
00000390: 8f46 223d cd31 223d 7533 f33b db81 0d3d
000003a0: 68e8 0fb9 a28b a4b6 4f5c 143d 4f10 513c
000003b0: 6360 5f3c d39c 3b3e 04d6 0d3d 44d4 cb3c
000003c0: 45d0 ef3c 299d 223c fa2b 86ba d380 5439
000003d0: df3e d83b cf04 fd3d d178 243e 051a 1d3e
000003e0: 3da3 bc3b f28a 7ab8 6905 44bb 27cf 773d
000003f0: c7e7 df3d e6be 643d 60fc e93c b35b f43b

bn2.running_mean f4 [300]
1.1736752 0.9052951 0.90688574 2.7394252 1.0165359 6.61394 1.5549635 1.7145991
3.7354567 13.2351465 4.780902 2.4787118 0.4074562 2.5859282 1.4300274 1.5937079
0.4060946 4.1007967 1.6109458 1.0410911 0.0035528447 0.65826684 1.6280519 0.25323105
2.1721144 4.078892 4.0222244 2.2652338 1.3193469 4.053381 0.496065 0.7681561
4.0665436 1.571958 1.0913123 0.027022166 0.9755128 0.7518838 5.467859 5.075322
0.354784 27.073275 2.7054853 0.6073368 2.0561647 0.5711622 3.1351373 1.5288564
0.1547427 0.47804847 24.685522 0.6043527 3.2542427 0.82656056 2.6997833 0.5841501
1.0336657 4.4389944 2.1857233 0.566572 1.5738695 0.65911853 1.2648532 0.30035478
1.4164557 0.18447995 0.2278969 1.7308358 0.06078084 0.5081 3.377175 3.9741106
0.77783006 0.20246853 2.092452 0.254319 1.3205029 29.871498 1.6638615 3.2897127
0.60313666 3.0915673 0.2484377 5.8805833 0.782103 2.36195 3.5699673 0.103354044
0.35562545 1.0506215 0.25930133 7.9477763 1.0790718 2.058801 0.7466778 0.78543276
0.23545521 0.83469695 1.9846848 2.9646442 2.314155 1.9029322 0.33662343 0.51515424
4.634678 1.0297672 0.57226765 5.884528 0.8498642 1.1042993 33.786915 1.1975472
0.64517087 0.94912314 4.995311 1.0671124 0.43407494 0.68596387 1.3751224 4.9743757
4.7084665 6.940834 6.9529476 9.401694 1.4294261 3.1736643 5.8592277 2.0234644
1.1407053 4.3156276 0.22596906 1.0574234 3.117988 0.39854175 3.2995582 3.430513
0.81111133 1.4012738 1.2223623 9.504133 1.5591049 32.588882 0.18941765 0.78616786
0.90998155 3.8537703 1.068907 0.69446695 0.63457054 3.130402 1.2420996 2.0561833
1.1477348 5.376907 3.8072157 1.5695232 4.807647 0.22522159 4.0922737 0.8409993
2.5808403 0.79158753 0.31758958 6.520547 1.7103643 1.5945656 6.26343 0.37705362
0.5865621 2.6511376 0.17294112 0.3308935 6.5468283 2.6206868 1.524963 3.2307582
3.6176195 1.6281618 0.7931686 6e-45 0.8343642 2.2645922 1.0663086 0.7700683
1.1407788 0.8126852 2.4752467 0.474685 1.5817351 0.7104329 2.769922 7.2649684
0.040650297 15.189748 0.15026428 17.904154 2.5327432 5.725284 1.051115 0.5323913
0.48488924 0.51153326 1.5997555 2.645283 3.0349452 1.3246455 5.145547 0.3296794
3.8858986 2.285387 7.839975 1.5245587 2.4657483 1.0480856 8.922907 1.002288
3.2225127 5.6226206 1.5058225 7.6168814 5.482659 1.9641086 4.4728117 2.4330127
0.6701935 11.874297 1.1086048 1.0608077 0.6962028 0.47337872 0.8689741 1.1021206
0.65709645 1.3742838 0.5876678 0.2598057 5.8234854 7.610867 2.372306 4.717065
7.446433 1.6893574 0.06511636 10.05717 0.451349 4.002837 13.965206 0.48982617
2.8422105 6e-45 4.1480007 2.7297564 1.6183032 0.7152729 0.40183118 0.3577582
00000000: fd3a 963f 6bc1 673f aa29 683f be52 2f40
00000010: d91d 823f 65a5 d340 0b09 c73f fc77 db3f
00000020: b911 6f40 29c3 5341 26fd 9840 37a3 1e40
00000030: 199e d03e d97f 2540 230b b73f 9ffe cb3f
00000040: a2eb cf3e ba39 8340 7933 ce3f 7942 853f
00000050: d8d6 683b 2d84 283f 0164 d03f 80a7 813e
00000060: ec03 0b40 4986 8240 10b6 8040 97f9 1040
00000070: 5ce0 a83f 4cb5 8140 3bfc fd3e e1a5 443f
00000080: 2021 8240 eb35 c93f 1fb0 8b3f 975d dd3c
00000090: 35bb 793f 757b 403f b3f8 ae40 0a69 a240
000000a0: 40a6 b53e 1196 d841 ac26 2d40 6d7a 1b3f
000000b0: 3498 0340 b037 123f 17a6 4840 91b1 c33f
000000c0: df74 1e3e c5c2 f43e f37b c541 dcb6 1a3f
000000d0: 8345 5040 7999 533f 40c9 2c40 dc8a 153f
000000e0: 284f 843f 3e0c 8e40 e4e2 0b40 dd0a 113f
000000f0: 8e74 c93f febb 283f b6e6 a13f 1ac8 993e
00000100: 6c4e b53f 50e8 3c3e ce5d 693e 078c dd3f
00000110: 55f5 783d d712 023f a323 5840 d457 7e40
00000120: df1f 473f e953 4f3e bcea 0540 1a36 823e
00000130: 3d06 a93f d4f8 ee41 6af9 d43f a78a 5240
00000140: 2a67 1a3f 3ddc 4540 7466 7e3e bd2d bc40
00000150: e737 483f 302a 1740 587a 6440 49ab d33d
00000160: 8a14 b63e c47a 863f 25c3 843e 2f54 fe40
00000170: 061f 8a3f 65c3 0340 4726 3f3f 1f12 493f
00000180: 2c1b 713e b3ae 553f 270a fe3f bbbc 3d40
00000190: 1e1b 1440 4893 f33f e859 ac3e 26e1 033f
000001a0: 484f 9440 69cf 833f 2280 123f 0e4e bc40
000001b0: b390 593f ae59 8d3f cd25 0742 3a49 993f
000001c0: eb29 253f bcf9 723f 96d9 9f40 2497 883f
000001d0: 123f de3e 549b 2f3f 0304 b03f 162e 9f40
000001e0: c2ab 9640 501b de40 8c7e de40 576d 1641
000001f0: 6ff7 b63f 511d 4b40 cb7e bb40 7180 0140
00000200: a202 923f 9f19 8a40 6f64 673e a659 873f
00000210: 1e8d 4740 aa0d cc3e f62b 5340 868d 5b40
00000220: fea4 4f3f f15c b33f 5e76 9c3f ee10 1841
00000230: c090 c73f 045b 0242 b3f6 413e 4c42 493f
00000240: 8df4 683f 2ca4 7640 f2d1 883f 96c8 313f
00000250: 3773 223f 8258 4840 1ffd 9e3f 8298 0340
00000260: f9e8 923f 9f0f ac40 6ca9 7340 23e6 c83f
00000270: 3fd8 9940 7da0 663e e8f3 8240 bb4b 573f
00000280: 7d2c 2540 7ba5 4a3f 1a9b a23e 52a8 d040
00000290: 38ed da3f ba1a cc3f 056e c840 2c0d c13e
000002a0: ef28 163f 3dac 2940 7a17 313e df6a a93e
000002b0: 9e7f d140 55b9 2740 fd31 c33f bec4 4e40
000002c0: 1487 6740 9b67 d03f 190d 4b3f 0400 0000
000002d0: e498 553f 14ef 1040 cd7c 883f 3223 453f
000002e0: 0a05 923f 230c 503f 716a 1e40 ea09 f33e
000002f0: 4c76 ca3f eede 353f 6746 3140 9f7a e840
00000300: ed80 263d 3509 7341 e1de 193e b53b 8f41
00000310: 7718 2240 8735 b740 f08a 863f cc4a 083f
00000320: 6743 f83e d8f3 023f cac4 cc3f 514c 2940
00000330: 8b3c 4240 fc8d a93f 52a8 a440 bdcb a83e
00000340: 90b2 7840 c843 1240 13e1 fa40 bd24 c33f
00000350: d2ce 1d40 ab27 863f 3ac4 0e41 f94a 803f
00000360: a63d 4e40 82ec b340 cbbe c03f 7ebd f340
00000370: f171 af40 e967 fb3f 4621 8f40 7bb6 1b40
00000380: cd91 2b3f 1ffd 3d41 c3e6 8d3f 8cc8 873f
00000390: 593a 323f b25e f23e 1675 5e3f 4a12 8d3f
000003a0: 7937 283f 88e8 af3f 6671 163f 4105 853e
000003b0: fe59 ba40 398c f340 ddd3 1740 32f2 9640
000003c0: 2e49 ee40 dd3c d83f ba5b 853d 2bea 2041
000003d0: 3717 e73e 3e17 8040 7c71 5f41 7fca fa3e
000003e0: c7e6 3540 0400 0000 6cbc 8440 54b4 2e40
000003f0: 8f24 cf3f 201c 373f d1bc cd3e 152c b73e
