pretrainedNetworks/critic_local2.pth (torch_old, 553166 bytes, 9 tensors)

fc1.weight f4 [300, 52]
0	0x3c581425	0.013188397
1	0x3f98b27a	1.1929467
2	0x3e59a63b	0.21254818
3	0x3daebd2a	0.08532174
4	0x3d979fdc	0.07403538
5	0xbb768700	-0.0037617087
6	0x3e3f829e	0.1870217
7	0x3dac6140	0.084169865
8	0x3dd7673e	0.10517739
9	0x3f6fca1e	0.9366778
10	0xbd8a58ce	-0.067552194
11	0xbeb412cc	-0.3517059
12	0xbe490362	-0.19630197
13	0x3e0f4d98	0.13994443
14	0xbdc695b1	-0.0969652
15	0xbec3e347	-0.38259336
16	0x3da37666	0.07981567
17	0x3f4fbe2e	0.81149566
18	0xbe12f057	-0.14349495
19	0x3ebff8c3	0.37494478
20	0xbf0b34f2	-0.54377663
21	0x3b81d518	0.0039621703
22	0xbe27a7ac	-0.16372555
23	0x3ed35b5f	0.41280648
24	0xbd19326d	-0.037401605
25	0x40005bc3	2.0056007
26	0xbe0d500f	-0.13800071
27	0xbe2305e8	-0.15920222
28	0xbd1ea905	-0.03873541
29	0x3d2c7513	0.04210384
30	0xbe1d4143	-0.15356927
31	0xbe635289	-0.22199453
32	0xbcb32149	-0.021866458
33	0x3fe5315c	1.7905688
34	0x3d87bc98	0.06627768
35	0xbcfaa49d	-0.030596072
36	0x3e58a5c7	0.21156989
37	0x3de5fc83	0.112298034
38	0x3d193050	0.03739959
39	0xbcf98bfc	-0.030462258
40	0x3d1ceeac	0.038313553
41	0x3fc5fbc1	1.5467454
42	0x3e060549	0.13087954
43	0xbe467520	-0.19380617
44	0x3f0cc22d	0.5498379
45	0x3d3024f5	0.043003995
46	0x3d5c0363	0.053714167
47	0xbe64c533	-0.2234085
48	0xbea33d55	-0.3188273
49	0x3f0a378e	0.5399102
50	0xbe4f9b42	-0.2027407
51	0x3fc220df	1.5166281
52	0x3eabafda	0.33532602
53	0xbf48b2f2	-0.7839805
54	0x3db4679c	0.088088244
55	0x3ce9a583	0.028521305
56	0x3d732806	0.05936434
57	0xbf023460	-0.5086117
58	0x3dc87a89	0.09788997
59	0xbc1f5956	-0.009725889
60	0x3e701ff5	0.2344969
61	0xbf34c957	-0.7061972
62	0xbe1b6530	-0.15175319
63	0xbecc56f3	-0.39910087
64	0x3e0805a7	0.13283406
65	0xbecbc77f	-0.3980064
66	0xbdebdc53	-0.11516633
67	0xbec85542	-0.39127547
68	0x3cf8a42b	0.030351719
69	0xbf2a8d6d	-0.6662205
70	0xbe0f552a	-0.13997331
71	0x3e2a71de	0.16645
72	0x3e7e485e	0.24832293
73	0x3ca0a791	0.019611152
74	0xbdbbac38	-0.091637075
75	0x3e06434b	0.13111608
76	0x3f5e68c5	0.86878616
77	0x3e8d02e2	0.27541262
78	0xbd93c38e	-0.072150335
79	0x3db05906	0.0861073
80	0xbd205781	-0.03914595
81	0xbf00b291	-0.5027247
82	0xbe0e3d2e	-0.13890526
83	0x3d84af79	0.06478781
84	0x3f2723f2	0.65289223
85	0x3e9da43f	0.30789372
86	0xbea6e4a9	-0.3259633
87	0x3d7a7a2a	0.06115166
88	0xbe032424	-0.12806755
89	0xbeb9ec8c	-0.36313283
90	0xbe9d97ea	-0.30779964
91	0x3d653c30	0.055965602
92	0x3f222e8c	0.63352275
93	0x3e565c50	0.20933652
94	0xbe5467c4	-0.20742708
95	0xbec951b7	-0.39320156
96	0xbe8da083	-0.27661523
97	0xbda6b05e	-0.08139108
98	0xbe53297e	-0.20621297
99	0xbe936aea	-0.28792506
100	0xbd48110d	-0.048844386
101	0xbf17d6cf	-0.59312147
102	0x3f3d0543	0.73836154
103	0x3ee273c3	0.44228944
104	0x3e9f01c3	0.31056032
105	0x3f1227a0	0.5709171
106	0x3d9d4b17	0.07680338
107	0xbea5f653	-0.32414493
108	0x3e4f435e	0.20240542
109	0xbec33ab6	-0.3813073
110	0x3c51ecaa	0.012812773
111	0xbeb8d548	-0.3610022
112	0x3e718aba	0.23588076
113	0x3ecd125c	0.4005307
114	0xbe2a8184	-0.16650969
115	0xbe0573e9	-0.13032497
116	0x3e75f2b7	0.2401837
117	0xbecc9adc	-0.39961898
118	0xbe00f052	-0.12591675
119	0xbe542210	-0.20716119
120	0x3dddb8be	0.108262524
121	0x3ec06206	0.37574786
122	0xbe6a14cb	-0.22859494
123	0xbe4902d5	-0.19629987
124	0x3eb425d5	0.35185114
125	0xbede9084	-0.43469632
126	0xbe681752	-0.22665146
127	0xbe0e9f89	-0.13928045
128	0x3f3768d3	0.71644324
129	0x3d6a4708	0.057196647
130	0x3e9d8440	0.3076496
131	0xbebd979c	-0.3702973
132	0xbdc6753d	-0.0969033
133	0xbec65862	-0.38739306
134	0x3e8d5045	0.27600303
135	0xbed2f97e	-0.41205972
136	0x3f1701e5	0.58987266
137	0x3e09f979	0.13474073
138	0xbe5fcc4f	-0.21855281
139	0x3e175bb8	0.14781082
140	0xbe85413d	-0.26026335
141	0xbecebb09	-0.40377071
142	0xbe1b1357	-0.15144096
143	0x3e424409	0.18971266
144	0x3e83f3d5	0.25771967
145	0x3e90e3da	0.28298837
146	0xbe581cc3	-0.21104722
147	0x3ec5603f	0.38549992
148	0xbeb893f6	-0.36050385
149	0xbec02183	-0.37525567
150	0xbe43189a	-0.19052354
151	0x3ee61bfa	0.4494322
152	0x3e68c411	0.22731043
153	0xbed990a0	-0.42493153
154	0x3e4268f1	0.18985344
155	0xbeab4d8b	-0.33457598
156	0x3ef02e45	0.469103
157	0x3ee125bc	0.43974102
158	0xbdcbd1b6	-0.099521086
159	0x3e7437fd	0.23849483
160	0xbe9ef467	-0.3104584
161	0xbe9b57e5	-0.30340496
162	0xbd36f024	-0.04466261
163	0x3e9fa375	0.31179395
164	0x3f1d958e	0.6155633
165	0x3ef70238	0.4824388
166	0xbc704059	-0.014663779
167	0x3d975563	0.07389333
168	0xbec782f1	-0.38967088
169	0xbe23bc67	-0.15989839
170	0x3da1bf57	0.07897823
171	0xbcfd085c	-0.030887775
172	0x3f56ae2f	0.83859533
173	0x3f19c2d7	0.60062927
174	0x3da8126c	0.08206639
175	0xbd6b7bc5	-0.057491083
176	0xbf245d47	-0.6420483
177	0x3e18b2cc	0.14911956
178	0x3c5be1bd	0.013420519
179	0xbded35d6	-0.11582534
180	0x3e162578	0.1466273
181	0xbf232071	-0.63721377
182	0x3d76d12d	0.06025808
183	0x3d7e37db	0.062064987
184	0x3ea9338e	0.33047146
185	0xbeceb928	-0.40375638
186	0xbd52d9ca	-0.05147723
187	0x3d706fdd	0.05870043
188	0x3ec09235	0.37611547
189	0xbe979fc8	-0.2961409
190	0xbbb9624c	-0.00565747
191	0x3e7a002b	0.24414127
192	0x3ec74478	0.38919425
193	0xbe20dec4	-0.15709978
194	0x3dba4ef4	0.0909709
195	0x3e643603	0.22286229
196	0x3ed71752	0.4200998
197	0xbe17a14b	-0.14807622
198	0x3c92a568	0.017901137
199	0xbc3eef76	-0.011653772
200	0x3f2513a0	0.6448307
201	0x3e1bdded	0.15221377
202	0xbd7bebce	-0.061504178
203	0xbc08c62e	-0.008348031
204	0x3d27f1bd	0.041002024
205	0x3eb79e8f	0.35863158
206	0xbf83837f	-1.0274504
207	0xbf45d1f1	-0.7727347
208	0x3eb1fd9a	0.34763795
209	0xbe52bb86	-0.20579347
210	0xbce3f094	-0.027824678
211	0x3d0669e6	0.032815836
212	0xbe970465	-0.2949554
213	0x3ce8ab67	0.028402044
214	0x3cb2a362	0.021806423
215	0xbc82f88b	-0.015987655
216	0x3f436b9b	0.7633607
217	0xbdc72893	-0.09724536
218	0xbcdd016a	-0.026978213
219	0xbca0fe68	-0.01965256
220	0x3e602041	0.21887304
221	0x3e35f702	0.17770007
222	0xbb544616	-0.0032390407
223	0xbd3e3894	-0.046440676
224	0x3f169580	0.5882187
225	0xbe1c0700	-0.15237045
226	0xbd424133	-0.04742546
227	0xbdd2b9c6	-0.1028934
228	0x3f154e12	0.5832225
229	0x3eeb9750	0.4601388
230	0xbd6f3799	-0.05840263
231	0xbdc7268d	-0.0972415
232	0x3ddad62f	0.106853835
233	0xbfb3065b	-1.3986315
234	0x3b553702	0.0032534008
235	0xbb7b28a0	-0.0038323775
236	0x3eb93ec0	0.36180687
237	0xbcd1d909	-0.025616186
238	0xbd0240ae	-0.031799965
239	0x3caa3bd2	0.020780478
240	0xbcfc82d3	-0.0308241
241	0xbfc78887	-1.558854
242	0xbcc1a6f3	-0.023639178
243	0xbec4e2e6	-0.3845436
244	0xbe75cba2	-0.24003461
245	0x3ddeb047	0.10873466
246	0xbc059a7d	-0.008154509
247	0xbeb7d3c6	-0.35903758
248	0xbdcdfda0	-0.10058141
249	0xbfc223f2	-1.516722
250	0x3d1587d6	0.036506496
251	0x3c9232d9	0.017846512
252	0xbf21d196	-0.6321043
253	0x3ef0882f	0.469789
254	0x3d081f6b	0.033233088
255	0x3c9f9e3f	0.019484637

fc1.bias f4 [300]
0	0xbe0f2998	-0.1398071
1	0xbe7d553c	-0.24739546
2	0xbea101e5	-0.31446758
3	0xbf3895b9	-0.7210346
4	0xbf07c62c	-0.5303676
5	0xba50509d	-0.00079465826
6	0x3e4aea58	0.19815958
7	0xbe14f7e3	-0.14547686
8	0xbfe83f35	-1.8144289
9	0xbed0ffe7	-0.40820238
10	0xbe8f9a0f	-0.28047225
11	0xbecd5efb	-0.40111527
12	0xbe2b481f	-0.16726731
13	0xbee9cf18	-0.45665812
14	0xbcd89f13	-0.02644304
15	0xbe6f9554	-0.23396808
16	0xbe37345e	-0.1789107
17	0xbed80162	-0.42188555
18	0xbdf9d157	-0.121981315
19	0xbd62ab46	-0.05533912
20	0xbe7f70b5	-0.24945338
21	0xbe5bf7bc	-0.21481222
22	0xbd7ea75d	-0.06217133
23	0x3e408f72	0.1880472
24	0xbe75f897	-0.24020611
25	0x3ba9d11c	0.0051823985
26	0xbccbcbb3	-0.024877405
27	0xbf8482a7	-1.0352372
28	0x3ca7a5e5	0.020464847
29	0xbf721335	-0.9456056
30	0xbc99ff3f	-0.018798469
31	0x3dd8ba1e	0.10582374
32	0xbe23841d	-0.15968366
33	0x3d8d46f3	0.06898298
34	0xbeb355a7	-0.35026285
35	0xbeb2b142	-0.34900862
36	0xbe80f4a1	-0.25186637
37	0x3cb35448	0.021890774
38	0xbe68e3f6	-0.2274321
39	0x3dbf8d29	0.09353096
40	0xbf01a2e6	-0.5063919
41	0xbe9b5eb4	-0.3034569
42	0x3e7a30a5	0.24432619
43	0xbf1e47a2	-0.61828053
44	0xbe9eff7a	-0.31054288
45	0xbe13e9cc	-0.14444655
46	0xbe4bad40	-0.19890308
47	0xbec17d2c	-0.3779081
48	0xbedea21e	-0.4348306
49	0xbf2e27ee	-0.6802968
50	0xbc7c749e	-0.015408663
51	0xbeabdf98	-0.33569026
52	0xbea0e92d	-0.314279
53	0xbef783d0	-0.48342752
54	0xbe26bd95	-0.16283257
55	0xbe939012	-0.28820854
56	0xbe899ddc	-0.2687825
57	0x3e720c0a	0.23637405
58	0xbdf63e09	-0.12023551
59	0xbea654e0	-0.3248663
60	0xbeddae1c	-0.43296897
61	0xbf110fd2	-0.56664765
62	0xbeb49a1d	-0.3527383
63	0xbe9f933a	-0.31167012
64	0xbe8d765d	-0.27629367
65	0x3f015744	0.5052378
66	0xbe922948	-0.2854712
67	0xbe032fbc	-0.12811178
68	0x3d148761	0.03626192
69	0xbf303fdd	-0.6884745
70	0xbec64a32	-0.38728482
71	0xbf3bb38c	-0.7332084
72	0xbe78ff1c	-0.24316067
73	0xbe6a523a	-0.2288293
74	0xbec7aff2	-0.39001423
75	0x3cec9ccf	0.028883366
76	0xbf1b0711	-0.6055766
77	0x3e0c0145	0.1367236
78	0xbd053d4b	-0.032529157
79	0xbf1850d0	-0.5949831
80	0xbd884c21	-0.066551454
81	0xbe2d82ff	-0.16944502
82	0xbf31ff46	-0.6953014
83	0xbe2695ef	-0.16268133
84	0x3e3fdaa2	0.18735746
85	0xbf00f479	-0.50373036
86	0xbf2a2c2e	-0.6647366
87	0x3d020ddc	0.0317515
88	0xbe72a340	-0.23695087
89	0xbef2b9d3	-0.47407398
90	0x3ca23121	0.019798817
91	0x3e8ce0fb	0.27515396
92	0xbe9dcaba	-0.3081873
93	0xbdb462ad	-0.088078834
94	0x3e2cbeee	0.16869709
95	0xbfadbc96	-1.3573177
96	0xbecbf8ec	-0.3983835
97	0xbee56768	-0.44805455
98	0xbea0ada0	-0.31382465
99	0xbfc98f90	-1.5746937
100	0xbd9d9622	-0.07694651
101	0x3e067a66	0.13132629
102	0x3d2249ec	0.03962128
103	0xbe9edb7a	-0.31026822
104	0xbf4458c8	-0.7669797
105	0xbe1f4ef7	-0.15557466
106	0xbe6fe5b4	-0.23427469
107	0xbf304ffc	-0.68872046
108	0xbef6a2b0	-0.48170996
109	0xbddedb73	-0.108817
110	0xbf004773	-0.5010902
111	0xbe465652	-0.19368866
112	0xbeabd5f3	-0.33561668
113	0xbe8f78b8	-0.2802179
114	0xbece40e3	-0.4028388
115	0xbe0eac56	-0.13932928
116	0xbe2c34ee	-0.16817066
117	0xbedcc57f	-0.43119428
118	0xbf0bf36d	-0.54668313
119	0xbf065b80	-0.5248337
120	0xbf144e67	-0.5793213
121	0xbf6cca1a	-0.9249588
122	0xbdf9c85a	-0.12196417
123	0xbe36b04d	-0.17840691
124	0xbc617849	-0.013761588
125	0xbe5bcbf1	-0.21464516
126	0xbea16e26	-0.3152935
127	0xbee26b8f	-0.44222686
128	0xbf0c565f	-0.5481929
129	0xbeacae60	-0.33726788
130	0xbe486685	-0.19570358
131	0xbded9a8a	-0.116017416
132	0xbecf6493	-0.4050642
133	0xbe220509	-0.15822233
134	0xbf1322d5	-0.57475024
135	0xbea3005f	-0.3183622
136	0xbf38a385	-0.7212451
137	0xbe159722	-0.14608434
138	0x3bb19301	0.0054191356
139	0xbeb3e7cd	-0.35137787
140	0xbe7160e5	-0.23572119
141	0xbef59f5c	-0.47973144
142	0xbdc35139	-0.09536976
143	0xbf502b01	-0.8131562
144	0xbedd6de9	-0.43247917
145	0xbf717b96	-0.943292
146	0x3ea078b8	0.313421
147	0xbf15c335	-0.5850099
148	0xbe57f528	-0.21089613
149	0xbf7b286b	-0.9810855
150	0xbe0ba473	-0.13636951
151	0xbec11d32	-0.37717587
152	0xbf32dab0	-0.6986494
153	0xbd2cbbca	-0.042171277
154	0xbeeba7db	-0.460265
155	0xbea40ab1	-0.32039407
156	0xbbc64c0c	-0.006051546
157	0xbead8797	-0.3389251
158	0xbe0cf29d	-0.13764425
159	0xbe129efb	-0.14318459
160	0xbf0c400b	-0.5478522
161	0xbf4263ce	-0.7593354
162	0xbe89919b	-0.268689
163	0xbe46f5e7	-0.19429742
164	0xbef005b9	-0.46879366
165	0xbeeab511	-0.45841268
166	0xbe92ea6d	-0.28694478
167	0xbf079302	-0.5295869
168	0xbefe316b	-0.49647078
169	0xbf2b9694	-0.6702664
170	0xbe8d9862	-0.2765532
171	0xbeb39d83	-0.3508111
172	0xbee8fe4e	-0.4550652
173	0xbf30aa97	-0.690103
174	0xbf0d67eb	-0.5523669
175	0xbc068976	-0.008211484
176	0xbf4bf273	-0.79666823
177	0xbdbe6556	-0.09296672
178	0xbe8b41ca	-0.2719863
179	0xbe64468f	-0.22292541
180	0xbf17cc53	-0.5929615
181	0xbc5483b3	-0.012970853
182	0xbe61e3a7	-0.22059499
183	0xbf708dc7	-0.93966335
184	0xbea91359	-0.33022574
185	0xbed4b624	-0.41545212
186	0xbfa8d785	-1.3190771
187	0xbea1f790	-0.31634188
188	0xbf6c611e	-0.9233569
189	0xbdb74a00	-0.08949661
190	0xbe973bcb	-0.29537806
191	0xbf15ff80	-0.5859299
192	0x3ed48154	0.4150492
193	0xbf3eff6a	-0.7460848
194	0x3d203793	0.0391155
195	0xbe451da6	-0.19249591
196	0xbda493cb	-0.08036002
197	0xbf746e6c	-0.9548099
198	0xbec8aee1	-0.39195922
199	0xbe99109c	-0.29895484
200	0xbf3f13ed	-0.7463978
201	0xbe3b3675	-0.18282492
202	0xbd3ef9fe	-0.04662513
203	0xbe5199f1	-0.2046888
204	0x3dea6819	0.11445636
205	0xbed37a9b	-0.41304478
206	0x3cc3ebd3	0.02391616
207	0xbeeadbb0	-0.45870733
208	0xbd35c729	-0.044379387
209	0xbe58049a	-0.21095505
210	0xbe045b95	-0.12925561
211	0xbefcacb1	-0.49350503
212	0x3d7f2168	0.062287718
213	0xbe1ed939	-0.15512551
214	0xbe47491c	-0.19461483
215	0xbef56ddc	-0.4793538
216	0xbfc32a73	-1.524733
217	0xbef3bcbd	-0.47604933
218	0xbe80d2c1	-0.25160792
219	0xbea8bd14	-0.32956755
220	0xbedc7296	-0.43056172
221	0xbe75ab4e	-0.23991129
222	0xbf1c8337	-0.6113772
223	0xbf4c5cf4	-0.79829335
224	0xbdbedf0c	-0.093198866
225	0xbeda86d2	-0.42680985
226	0xbe872745	-0.26397148
227	0xbe8fb23f	-0.28065678
228	0xbe5bbc97	-0.2145866
229	0xbeedf9e0	-0.46479702
230	0xbe193108	-0.1496011
231	0xbee10e74	-0.4395634
232	0xbe4f3ecc	-0.20238799
233	0xbdc73b3e	-0.097280964
234	0xbef7e7ca	-0.4841903
235	0xbdab5da9	-0.08367474
236	0xbec2daf1	-0.38057664
237	0xbf47b76b	-0.7801425
238	0xbe3740c0	-0.17895794
239	0xbe43f3cd	-0.19135971
240	0xbe2d9d06	-0.16954431
241	0xbdc2ca1c	-0.095112056
242	0xbeb30e1a	-0.34971696
243	0xbf226194	-0.6343014
244	0xbdad0220	-0.08447671
245	0xbee9970f	-0.4562306
246	0xbf22d2d5	-0.63602954
247	0xbe9cff76	-0.3066365
248	0xbed1f4bc	-0.4100703
249	0xbeac95e6	-0.33708113
250	0x3f5f71e5	0.87283164
251	0xbf2af551	-0.66780573
252	0x3c04874e	0.0080889
253	0xbed95473	-0.42447242
254	0xbe759c98	-0.23985517
255	0xbe3cea5e	-0.18448779

fc2.weight f4 [400, 300]
0	0x3c7299e3	0.014807197
1	0xbc3b50a0	-0.011432797
2	0x3cac6f20	0.021049082
3	0xbe18c13a	-0.1491746
4	0x3d565a94	0.052332476
5	0xbc21f603	-0.009885314
6	0xbd95b47b	-0.073098145
7	0xbe149d7c	-0.145132
8	0xbc63686f	-0.013879879
9	0xbe44e850	-0.19229245
10	0x3e6cfeac	0.23144025
11	0xbd24de6e	-0.040251188
12	0xbd8b1297	-0.06790655
13	0xbe80644e	-0.25076526
14	0xbdaf03e1	-0.08545662
15	0x3c314863	0.010820481
16	0xbdd62821	-0.10456873
17	0x3ccbe38d	0.024888778
18	0xbd87a01f	-0.066223375
19	0x3bee40dd	0.007270916
20	0x3bd9555a	0.006632489
21	0x3c77f34c	0.01513369
22	0x3e6cbfac	0.23119992
23	0x3d1b2e33	0.037885856
24	0xbd7724bb	-0.060337763
25	0xbe002793	-0.12515096
26	0xbd13ffcf	-0.03613263
27	0xbdce7020	-0.1007998
28	0x3d225f37	0.039641585
29	0x3d09488b	0.033516448
30	0x3d53d67f	0.05171823
31	0xbddf0510	-0.108896375
32	0xbde95c76	-0.11394589
33	0x3d1ed733	0.03877945
34	0xbccdbd7f	-0.025114773
35	0xbb9a409a	-0.004707408
36	0x3d3e8861	0.04651678
37	0xba8288a3	-0.0009958934
38	0xbe900a24	-0.28132737
39	0xbe2148ac	-0.15750378
40	0xbd7bc17f	-0.06146383
41	0x3d975391	0.07388986
42	0x3d4cc5cf	0.049993332
43	0xbdc5727d	-0.096409775
44	0xbd6f787e	-0.05846452
45	0xbc0934fc	-0.008374449
46	0xbad094d3	-0.0015913494
47	0xbd377df0	-0.044797838
48	0x3d58e370	0.052951276
49	0xbe24564c	-0.16048545
50	0xbda4d03d	-0.08047531
51	0xbd9c605d	-0.07635567
52	0x3ccce9a8	0.02501376
53	0xbdb4d2cd	-0.088292696
54	0xbdd0ea03	-0.10200884
55	0x3d37776c	0.044791624
56	0x3d385c72	0.045010038
57	0xbd941141	-0.072298534
58	0xbdaf9957	-0.08574169
59	0xbbb01fe6	-0.0053748963
60	0x3c90d929	0.017681675
61	0xbd8d4fa0	-0.06899953
62	0xbe01d5cd	-0.12679215
63	0xbd09f68c	-0.03368239
64	0xbdc73813	-0.09727492
65	0x3c51a362	0.012795301
66	0xbd25374a	-0.04033593
67	0xbdce9bb3	-0.10088291
68	0x3d73786c	0.059441015
69	0x3db9591b	0.09050199
70	0xbe281766	-0.16415176
71	0xbda07f19	-0.07836742
72	0xbd8c95d1	-0.06864513
73	0xbd8f8229	-0.07007248
74	0x3c43fed4	0.011962611
75	0xbc1f781e	-0.009733228
76	0xbdc22a8e	-0.09480773
77	0x3dd445a5	0.10364846
78	0x3b919e07	0.004443887
79	0xbe88a1a8	-0.26685834
80	0x3b244ae6	0.0025069057
81	0xbe10fcaa	-0.14158884
82	0xbb85a000	-0.0040779114
83	0xbcc606fc	-0.024173252
84	0x3dad2753	0.08454766
85	0x3b051bb4	0.0020310702
86	0xbdbb944b	-0.09159144
87	0xbd9e8d7d	-0.077418305
88	0xbb85d469	-0.004084159
89	0x3d6bdce7	0.057583716
90	0x3dc52e64	0.09627989
91	0xbd832bce	-0.064048395
92	0x3e0eaed2	0.13933876
93	0xbd83068f	-0.06397735
94	0x3dc80061	0.09765697
95	0xbc6f8a03	-0.014620307
96	0x3cc627f0	0.024188966
97	0x3d879aa9	0.06621296
98	0xbc954201	-0.01821995
99	0x3de4d1a5	0.11172799
100	0x3b95ca6a	0.004571249
101	0x3d67db71	0.05660576
102	0x3d36d3e0	0.044635653
103	0xbdb2a97b	-0.08723732
104	0x3ce0c270	0.027436465
105	0xbd065c07	-0.032802608
106	0xbe226651	-0.15859343
107	0x3cb403fb	0.021974554
108	0xbe023994	-0.12717277
109	0x3d22abcf	0.03971463
110	0xbe7c625f	-0.246469
111	0xbcaefc06	-0.021360409
112	0xba4e948a	-0.00078804104
113	0xbcc6010d	-0.024170423
114	0xbdbfbd6c	-0.09362301
115	0xbd07392a	-0.0330135
116	0xbda8ba71	-0.08238686
117	0xbdd6e8e0	-0.10493636
118	0x3c206165	0.009788846
119	0xbdacdabe	-0.08440159
120	0x3dbd5f86	0.09246735
121	0xbdfb0abc	-0.12257907
122	0xbd07d184	-0.033158794
123	0xbdafb523	-0.08579471
124	0xbe4e9dca	-0.20177379
125	0xbca91585	-0.020640144
126	0x3d11a0da	0.03555379
127	0xbd55f232	-0.05223293
128	0x3dd433b0	0.10361421
129	0x3d26a052	0.040680237
130	0xbd5ecb70	-0.054393232
131	0xbe21b989	-0.15793432
132	0xbe0bcad4	-0.13651592
133	0xbd5a0943	-0.05323149
134	0x3db59a45	0.08867315
135	0xbd84f1f0	-0.064914584
136	0xbcd2a1af	-0.025711862
137	0xbe7a98c1	-0.24472333
138	0x3bc92dd6	0.0061394973
139	0x3e1bc2a4	0.15210968
140	0x3c9a3d30	0.018828005
141	0xbe1cbaff	-0.15305708
142	0xbdd9661f	-0.10615181
143	0xbdae4d71	-0.085108645
144	0x3c7c554d	0.015401197
145	0x3d977127	0.07394629
146	0xbda1d6d6	-0.07902305
147	0x3ba5ec64	0.0050635803
148	0x3c9e9bd5	0.019361416
149	0xbdb093f6	-0.08621971
150	0xbda2d2bb	-0.0795035
151	0xbca41842	-0.020031098
152	0xbd3a9abe	-0.04555773
153	0x3d86581a	0.06559773
154	0xbe4738de	-0.19455287
155	0xbdb867d6	-0.0900418
156	0xbc961489	-0.018320339
157	0x3bb07dd8	0.0053860955
158	0xbc36fc7a	-0.011168594
159	0xbad1fd63	-0.001602095
160	0xbd575976	-0.05257555
161	0x3cea188d	0.02857616
162	0x3e321a34	0.17392808
163	0x3d4e3c64	0.05035056
164	0xbd5f2512	-0.054478712
165	0xbd229f28	-0.039702564
166	0xbd979e3f	-0.0740323
167	0xbd489cd0	-0.048977673
168	0xbd687a90	-0.05675751
169	0x3ca8aac2	0.020589236
170	0x3d379322	0.04481805
171	0xbc0593c1	-0.008152903
172	0xbc1cede3	-0.009578201
173	0xbd8df729	-0.06931908
174	0xbddc2e97	-0.10751074
175	0xbbaee767	-0.005337644
176	0x3daa682a	0.08320649
177	0xbda1ddb4	-0.07903615
178	0xbdb75988	-0.089526236
179	0x3c65b655	0.014020522
180	0xbd905eb6	-0.07049315
181	0xbd080a6d	-0.033213068
182	0xbcf61091	-0.030037196
183	0xbd997d29	-0.074945755
184	0xbe9c8b60	-0.30575085
185	0x3c8ac06d	0.016937459
186	0xbc7b95a8	-0.015355505
187	0x3d546317	0.051852312
188	0x3d082798	0.033240885
189	0xbc7023e4	-0.0146569945
190	0xbe610443	-0.21974282
191	0xbe3b067d	-0.18264194
192	0xbc9f0d52	-0.019415531
193	0xbde984c2	-0.11402275
194	0xbc815e29	-0.01579197
195	0xbe30d8ea	-0.17270246
196	0xbe23174d	-0.15926857
197	0xbe49571d	-0.19662137
198	0xbdf82d89	-0.1211806
199	0xbdbbb8cb	-0.09166106
200	0xbdeb7627	-0.11497145
201	0xbdd81019	-0.105499454
202	0xbe3475e4	-0.17623097
203	0xbdf69d81	-0.1204176
204	0xbc766d44	-0.015040699
205	0xbce7654d	-0.028246546
206	0xbd8de433	-0.06928291
207	0xbd61510d	-0.055008937
208	0xbdd8ee8e	-0.10592376
209	0xbe1cf833	-0.15329055
210	0xbd45fd66	-0.048337363
211	0xbce77cf5	-0.028257826
212	0xbdc36bd0	-0.09542048
213	0x3d1ce942	0.03830839
214	0x3dc5c293	0.09656253
215	0xbc2ce8a8	-0.010553516
216	0x3c7e90c5	0.015537445
217	0xbd9bb7f0	-0.07603443
218	0x3d1ec916	0.03876599
219	0x3cdedb77	0.027204258
220	0x3db6ff92	0.08935465
221	0x3d2892f7	0.04115578
222	0xbd6dbd7e	-0.058042042
223	0xbcd595f7	-0.026072485
224	0xbcbeca8d	-0.023289943
225	0xbdb85e20	-0.09002328
226	0x3cbd536b	0.023111066
227	0x3ca93c1f	0.02065855
228	0xbcf62bcd	-0.030050183
229	0xbd7685b9	-0.06018612
230	0xbd037c15	-0.032100756
231	0xbde529a6	-0.111895844
232	0xbe06c2f2	-0.13160303
233	0x3dd7d19c	0.10538027
234	0x3d3040f0	0.04303068
235	0xbdac46f5	-0.084119715
236	0x3d7c0456	0.061527573
237	0xbcbce7aa	-0.023059685
238	0xbc7bdd56	-0.015372595
239	0xbd636b89	-0.055522475
240	0x3c1717d3	0.009221989
241	0xbd4ca22d	-0.04995935
242	0x3c92230d	0.01783898
243	0x3c7191cf	0.014744236
244	0x3ca3b123	0.019981926
245	0x3be75748	0.0070599653
246	0xbe16f0b0	-0.14740252
247	0x3cd7b90f	0.02633336
248	0x3d8e27e4	0.06941202
249	0xbb9fbd0a	-0.00487483
250	0x3d33358d	0.043752242
251	0xbc6b4e1b	-0.0143618835
252	0x3a85658d	0.0010177359
253	0x3d00ea7c	0.03147362
254	0x3d38fc56	0.04516252
255	0xbdcebd20	-0.100946665

fc2.bias f4 [400]
0	0xbe77e3ca	-0.24207988
1	0xbc69272f	-0.0142305335
2	0xbd3f6ea2	-0.046736367
3	0xbe5ae39b	-0.21375887
4	0xbddbbef9	-0.107297845
5	0xbe52a5bd	-0.20571037
6	0xbe1451c1	-0.14484312
7	0xbe11fe33	-0.14257126
8	0xbdf137e5	-0.11778239
9	0xbe1375c3	-0.14400391
10	0xbe7f1a3e	-0.24912354
11	0xbda3296c	-0.07966885
12	0xbea41a0b	-0.3205112
13	0xbdcd3aa0	-0.100209475
14	0xbe846a9e	-0.25862592
15	0xbdf40c70	-0.11916435
16	0xbe4affb8	-0.19824111
17	0xbda6c954	-0.08143869
18	0xbdd59436	-0.104286596
19	0xbd95fbf6	-0.07323448
20	0xbd800870	-0.06251609
21	0xbe3940c9	-0.1809112
22	0xbe18e291	-0.14930178
23	0xbd82022f	-0.06348073
24	0xbde3121f	-0.11087441
25	0xbea4c5c8	-0.32182145
26	0xbd99656e	-0.07490049
27	0xbeacbbcf	-0.33737037
28	0xbdf0a4f6	-0.11750214
29	0xbdee3092	-0.11630358
30	0xbdfa596a	-0.12224086
31	0xbe1e4034	-0.15454179
32	0xbe0d3413	-0.13789396
33	0xbe1f8b74	-0.15580541
34	0xbe0d5e58	-0.1380552
35	0xbdad0860	-0.08448863
36	0xbd58abcd	-0.052898217
37	0xbd50553c	-0.050862536
38	0xbe5383dc	-0.20655769
39	0xbe15ed0e	-0.1464121
40	0xbe22b324	-0.15888649
41	0xbd851445	-0.06498007
42	0xbe026f46	-0.1273776
43	0xbd4a7c8a	-0.049435176
44	0xbddafb84	-0.10692504
45	0xbe2f3e21	-0.17113544
46	0xbdb66cfe	-0.08907507
47	0xbe08f5f8	-0.1337508
48	0xbd665c9f	-0.056240674
49	0xbdee3474	-0.116310984
50	0xbde0c1c1	-0.109744556
51	0xbcdc6473	-0.026903367
52	0xbe10f2ed	-0.14155169
53	0xbe12d436	-0.14338765
54	0xbd985f54	-0.074400574
55	0xbda92b9f	-0.08260273
56	0xbe52fa5f	-0.20603321
57	0xbdf46ee8	-0.11935216
58	0xbd7690f8	-0.060196847
59	0xbda47b29	-0.080313034
60	0xbda09361	-0.0784061
61	0xbdc5221c	-0.096256465
62	0xbde535a7	-0.11191874
63	0xbdb96159	-0.09051771
64	0xbdbe7b4b	-0.0930086
65	0xbdecd907	-0.11564832
66	0xbdd338f3	-0.103135966
67	0xbe135542	-0.14387992
68	0xbe0445bf	-0.12917231
69	0xbe4124d5	-0.18861707
70	0xbd57989e	-0.05263578
71	0xbe1d653d	-0.1537065
72	0xbdb2f7ef	-0.08738696
73	0xbddaaa8e	-0.10677062
74	0xbe332f1e	-0.17498443
75	0xbde508bd	-0.11183307
76	0xbe048cdb	-0.12944357
77	0xbdc3a869	-0.09553606
78	0xbd92f20f	-0.07175075
79	0xbdc60de3	-0.096706174
80	0xbe2a9fb1	-0.1666248
81	0xbe3a90d3	-0.18219309
82	0xbe700ba5	-0.23441942
83	0xbd918d2b	-0.07107004
84	0xbd936402	-0.07196809
85	0xbf184a16	-0.59488046
86	0xbe157a3d	-0.14597411
87	0xbda2f97d	-0.07957742
88	0xbddf6578	-0.109080255
89	0xbdb96891	-0.090531476
90	0xbde2375a	-0.11045714
91	0xbe2eef1b	-0.17083399
92	0xbe060524	-0.13087898
93	0xbe2e944b	-0.17048757
94	0xbdb20a91	-0.08693422
95	0xbe1cab93	-0.15299825
96	0xbdaad32a	-0.083410576
97	0xbdf4fa74	-0.11961833
98	0xbe68eec4	-0.22747332
99	0xbd999967	-0.07499962
100	0xbd9b32f2	-0.075780764
101	0xbd5b1e91	-0.053495947
102	0xbd423742	-0.04741598
103	0xbdb110ee	-0.08645807
104	0xbde2b0bf	-0.11068868
105	0xbdc7af4b	-0.09750231
106	0xbe0786c7	-0.13235007
107	0xbe55927a	-0.20856658
108	0xbdb70123	-0.08935764
109	0xbdbb1439	-0.091347165
110	0xbe81ecbf	-0.25375935
111	0xbe0800f6	-0.13281617
112	0xbd969079	-0.07351775
113	0xbe00b7fa	-0.12570181
114	0xbdc27650	-0.094952226
115	0xbd8a6bb8	-0.06758827
116	0xbdba262d	-0.09089313
117	0xbdc80d2f	-0.097681396
118	0xbea370ef	-0.319221
119	0xbe7998ea	-0.24374738
120	0xbdffc346	-0.12488417
121	0xbecacca2	-0.39609247
122	0xbd62bd6e	-0.055356435
123	0xbe216533	-0.1576126
124	0xbde65e61	-0.1124847
125	0xbe49227b	-0.1964206
126	0xbdb7e518	-0.08979243
127	0xbe8d5acd	-0.27608338
128	0xbe467931	-0.19382168
129	0xbe349161	-0.17633583
130	0xbda30c0b	-0.079612814
131	0xbd7cee26	-0.061750554
132	0xbdc2ecc4	-0.09517816
133	0xbe0181db	-0.12647192
134	0xbe7d5ffd	-0.24743648
135	0xbdb8ae81	-0.09017659
136	0xbdd4d980	-0.10393047
137	0xbdd217e0	-0.1025846
138	0xbe0b93d3	-0.13630609
139	0xbde31c63	-0.11089399
140	0xbe4d8868	-0.20071566
141	0xbd5f55f5	-0.054525334
142	0xbdbd6729	-0.09248192
143	0xbe06d39b	-0.13166659
144	0xbdbc5812	-0.091964856
145	0xbdf83fd1	-0.12121547
146	0xbe6c6df5	-0.2308882
147	0xbe098eb3	-0.13433342
148	0xbda169ce	-0.07881509
149	0xbe17f472	-0.14839342
150	0xbdf066cf	-0.11738359
151	0xbe42e260	-0.19031668
152	0xbdf0924d	-0.11746655
153	0xbddcbb9c	-0.10777971
154	0xbe52a851	-0.2057202
155	0xbe121eb2	-0.14269522
156	0xbdb53752	-0.08848442
157	0xbe6973bf	-0.2279806
158	0xbe2bc68d	-0.1677496
159	0xbe45edce	-0.19328997
160	0xbdf471dd	-0.1193578
161	0xbdecf1f1	-0.11569584
162	0xbe54eefe	-0.20794293
163	0xbd9505fb	-0.07276531
164	0xbe25881f	-0.16165207
165	0x3ddc9cd6	0.107721016
166	0xbdceb457	-0.10092991
167	0xbe7008c9	-0.23440851
168	0xbe07dc7b	-0.132677
169	0xbe6ced6d	-0.23137446
170	0xbdbbf006	-0.0917664
171	0xbe0a24ae	-0.13490555
172	0xbdafd375	-0.08585254
173	0xbdfb3c02	-0.12267305
174	0xbdd32ebe	-0.1031165
175	0xbdabc8a5	-0.08387879
176	0xbddcd6ea	-0.10783179
177	0xbbd6ae42	-0.006551535
178	0xbe35ec35	-0.17765887
179	0xbdd1faae	-0.102528915
180	0xbddcc67c	-0.107800454
181	0xbd6afcab	-0.05736987
182	0xbe013b35	-0.12620242
183	0xbe314aa2	-0.17313626
184	0xbd75ab9e	-0.05997812
185	0xbde6b7e8	-0.11265546
186	0xbe354679	-0.17702664
187	0xbdc34044	-0.09533742
188	0xbdcc3dcc	-0.09972724
189	0xbd8f94f8	-0.070108354
190	0xbe1b39ec	-0.15158814
191	0xbe8a6dd6	-0.27036923
192	0xbdcc4438	-0.09973949
193	0xbddb81cb	-0.107181154
194	0xbd9f4488	-0.07776743
195	0xbd9351b6	-0.071933195
196	0xbddd7889	-0.10814006
197	0xbe3823a9	-0.17982353
198	0xbe180b39	-0.14848031
199	0xbdea45b4	-0.11439076
200	0xbd2442b4	-0.040102676
201	0xbe59be48	-0.21263993
202	0xbde79b53	-0.113089226
203	0xbe771933	-0.24130706
204	0xbd8878dd	-0.06663678
205	0xbe2997ca	-0.16561809
206	0xbdac5181	-0.08413983
207	0xbdfb6217	-0.122745685
208	0xbd8ec447	-0.06971031
209	0xbdbf2f85	-0.093352355
210	0xbe0e3b02	-0.13889697
211	0xbe09b458	-0.13447702
212	0xbdb505b5	-0.08838979
213	0xbddd673b	-0.10810705
214	0xbdc20c34	-0.09474984
215	0xbdd75573	-0.10514345
216	0xbdff7fe8	-0.12475568
217	0xbe8ff95f	-0.28119943
218	0xbe058a11	-0.1304095
219	0xbe038a19	-0.12845649
220	0xbdb6e1b4	-0.08929768
221	0xbdc26b9b	-0.0949318
222	0xbdd569b7	-0.10420554
223	0xbda3a66a	-0.07990725
224	0xbe5faffc	-0.21844476
225	0xbcd1a259	-0.025590109
226	0xbeb99284	-0.36244595
227	0xbdd49c83	-0.10381415
228	0xbdc73044	-0.09726003
229	0xbdc26f94	-0.09493938
230	0xbe0e8759	-0.13918819
231	0xbdf9a6a2	-0.12189986
232	0xbde65536	-0.112467214
233	0xbeb63e88	-0.35594583
234	0xbdcbdd1c	-0.09954283
235	0xbd6a72bb	-0.05723832
236	0xbdf0c2c9	-0.11755902
237	0xbe156231	-0.14588238
238	0xbdbd9e7e	-0.092587456
239	0xbe96468d	-0.293507
240	0xbd7ab7e1	-0.061210517
241	0xbdc0909e	-0.094025835
242	0xbe05743f	-0.13032626
243	0xbd86dc2b	-0.065849625
244	0xbdeb2144	-0.11480954
245	0xbdba273d	-0.09089515
246	0xbd4b3deb	-0.049619596
247	0xbe32a62a	-0.17446199
248	0xbe98aea6	-0.29820746
249	0x3b071686	0.002061279
250	0x3c7c6dd7	0.015407047
251	0xbda7c263	-0.08191373
252	0xbdbc1f8c	-0.091857046
253	0xbd6ad18d	-0.05732875
254	0xbdf5363b	-0.11973234
255	0xbe91cbaa	-0.28475696

fc3.weight f4 [1, 400]
0	0xbc0b7759	-0.008512341
1	0xbd86fea1	-0.06591535
2	0xbc18983a	-0.009313637
3	0xbcbb4e33	-0.022864437
4	0x3c31eecf	0.010860159
5	0xbd05e1a0	-0.032685876
6	0xbccaaebd	-0.024741525
7	0xbc4cd130	-0.012501046
8	0x3bc8e4e1	0.0061308
9	0xbc6edc41	-0.01457888
10	0xbd259fe3	-0.040435683
11	0xbc9c7847	-0.019100321
12	0xbcf840e7	-0.030304385
13	0x3cc2257b	0.023699513
14	0xbd2defef	-0.042465147
15	0x3c53f07a	0.012935752
16	0x3bb08588	0.005387012
17	0xbcb495bc	-0.022044055
18	0xbc28cb34	-0.010302354
19	0xbc23b1e5	-0.009991144
20	0xbbda373c	-0.0066594165
21	0xbcf095f6	-0.029368382
22	0x3a23979b	0.00062405475
23	0xbc8e8570	-0.017397612
24	0x3c8a3b28	0.016873911
25	0xbc9357be	-0.017986175
26	0xbb90ede3	-0.0044228896
27	0x3d93fab6	0.07225554
28	0x3c24b181	0.010052086
29	0xbbc96145	-0.0061456286
30	0x3ba2dacd	0.0049699307
31	0x3c8cc860	0.01718539
32	0xbcbd282a	-0.02309044
33	0x3ba529b1	0.0050403704
34	0xbc28698f	-0.010279073
35	0x3ca6e4cd	0.020372773
36	0xbc16ea6b	-0.009211163
37	0xbbb21692	-0.0054348195
38	0xbc7073e8	-0.014676072
39	0xbc3e8bfb	-0.011630054
40	0x3a4c9008	0.0007803445
41	0xbc879930	-0.016552538
42	0x3d19eb01	0.037577633
43	0x3bca72b2	0.0061782235
44	0xbc51c5fd	-0.012803552
45	0x3ca7e380	0.020494223
46	0x3c546845	0.012964313
47	0xba421dc4	-0.0007404948
48	0x3c544766	0.012956476
49	0xbc8f1edc	-0.01747077
50	0x3c43a57f	0.011941313
51	0x3c54f65d	0.012998191
52	0xbb5412f0	-0.003235992
53	0xbc737054	-0.014858324
54	0xbc281f7f	-0.0102614155
55	0x3c015f29	0.007896223
56	0x3ccdfc81	0.025144817
57	0x3cb6e598	0.022326276
58	0x3cb533e3	0.022119468
59	0x3c128375	0.008942475
60	0xbcad5ab6	-0.021161418
61	0xbaaa0fed	-0.0012974717
62	0xbc79aa8c	-0.015238415
63	0xbc3d5fd5	-0.011558493
64	0xbcaad98a	-0.020855684
65	0x3d09fbc5	0.03368737
66	0xbc9f499a	-0.019444276
67	0xbaf90da8	-0.0019001262
68	0x3ba0d501	0.0049082045
69	0xbbe619e1	-0.007022128
70	0xbb181d4c	-0.0023210822
71	0x3b17d5dd	0.0023168244
72	0x3c0368e2	0.0080206115
73	0xbca2f41d	-0.019891793
74	0xbc81fcd8	-0.015867636
75	0xbcdb7e68	-0.026793674
76	0xbbb53129	-0.005529542
77	0x3cbdd438	0.023172483
78	0xbd5a6774	-0.053321317
79	0xbc3e2e07	-0.011607653
80	0x3cb0fe12	0.021605525
81	0x3cc3e0e9	0.023910956
82	0xbc9b4455	-0.018953482
83	0x3c67d673	0.01415025
84	0xbce5e371	-0.028062554
85	0x3cd0587a	0.025432814
86	0xbd31ea2e	-0.04343622
87	0xbcf8e0c9	-0.030380623
88	0x3b2aa052	0.00260355
89	0x3c915750	0.01774183
90	0xbb29a3c2	-0.002588496
91	0xbcce6327	-0.025193764
92	0xbd35886b	-0.04431955
93	0x3cb0b613	0.021571195
94	0x3bdbb59a	0.006704998
95	0x3bca4152	0.0061723376
96	0x3ccdaa8e	0.02510574
97	0x3cd27f09	0.02569534
98	0x3cf02cf8	0.029318318
99	0x3c9d41ad	0.019196356
100	0xbca1acb0	-0.019735664
101	0x3cb53989	0.022122161
102	0xbad681dd	-0.0016365607
103	0x3cc44279	0.023957478
104	0xbc190ece	-0.009341909
105	0xbc036e37	-0.008021883
106	0x3c2c29c6	0.010508006
107	0xbcd2ad51	-0.02571741
108	0x3ca585fa	0.020205487
109	0x3c3d8c95	0.011569162
110	0x3ccd0d9e	0.025030907
111	0x3c2968ef	0.0103399595
112	0xbc1cbd4f	-0.009566619
113	0xbb131cb4	-0.0022447528
114	0x3c0da4c8	0.008645244
115	0x3bca4b32	0.0061735148
116	0x3d1b0f6a	0.037856497
117	0xbc3fb9e3	-0.011702034
118	0x3cb09054	0.021553196
119	0xbc8edb59	-0.017438577
120	0x3c5a59a9	0.013327041
121	0xbd7baab8	-0.061442107
122	0x3b4c1c23	0.00311447
123	0xbd47786d	-0.04869883
124	0xbaea8c26	-0.0017894551
125	0xba861448	-0.0010229433
126	0x3befeaed	0.0073217065
127	0x3d46c716	0.048529707
128	0xbc80f91a	-0.01574378
129	0xbd177055	-0.036972363
130	0x3b8f3bc4	0.0043711383
131	0x3c014b3d	0.007891473
132	0x3c01a9bc	0.007914003
133	0xbc2efb2e	-0.010680003
134	0x3d70d20a	0.05879406
135	0xbc8d9c57	-0.017286463
136	0xba5b7f19	-0.0008373126
137	0x39ca0e12	0.00038538926
138	0xbba3ec11	-0.0050025065
139	0x3bde53d4	0.0067848954
140	0x3b211d7e	0.002458423
141	0x3cb90d8a	0.022589464
142	0x3b789f73	0.0037936836
143	0x3c3f70b9	0.01168459
144	0x3c6aa011	0.014320389
145	0x3b2d7e48	0.0026472975
146	0x3d295d73	0.041348886
147	0xbcab8099	-0.020935344
148	0x3cffd946	0.031231534
149	0x3c29283d	0.010324535
150	0x3cb32533	0.021868324
151	0x3ca2a0dc	0.019852094
152	0xbc031112	-0.007999675
153	0x3cab9180	0.020943403
154	0x3d278ed6	0.040907703
155	0xbc0fe204	-0.008781914
156	0x3c36d747	0.011159725
157	0xbdd78f79	-0.10525412
158	0x3c98f8b5	0.01867328
159	0xbc91a2ba	-0.01777779
160	0x3b9d895a	0.0048076333
161	0x3c36ea1c	0.011164214
162	0xbcdd4425	-0.027010033
163	0xbbf93349	-0.0076049906
164	0x3d055b78	0.032557935
165	0xbd19d6be	-0.03755831
166	0x3c35b624	0.011090789
167	0xbc132304	-0.008980516
168	0x3c5dda80	0.013540864
169	0x3aad2d79	0.0013212404
170	0xba5572e2	-0.0008142424
171	0x3b9aec43	0.0047278716
172	0x3d03970e	0.03212648
173	0xbccc82d7	-0.024964733
174	0x3b8d05fd	0.0043036924
175	0x3cda2803	0.026630407
176	0x3a1f6f74	0.00060819765
177	0xbd09fe03	-0.03368951
178	0xbbbdd429	-0.0057931137
179	0x3b648d2f	0.003487419
180	0x3ca59003	0.020210272
181	0x3c2f6ffc	0.0107078515
182	0x3c276405	0.010216718
183	0xbd1e503f	-0.038650747
184	0x3cb9e469	0.022691922
185	0xbcacd5dc	-0.02109807
186	0xbc4f26cf	-0.01264353
187	0x3901f848	0.0001239489
188	0x3ca069f4	0.019581772
189	0xbc281e39	-0.010261112
190	0xbce906ab	-0.028445562
191	0xbda17265	-0.07883147
192	0xbc564049	-0.01307685
193	0xbc30d944	-0.010793988
194	0xbc246e07	-0.010035998
195	0x3bc5f11e	0.0060407063
196	0xbb9933a3	-0.004675345
197	0xbcca4b3a	-0.024694074
198	0xbc7338f5	-0.014845123
199	0x3cf628f0	0.030048817
200	0xbbddc5da	-0.0067679705
201	0xbdb685b3	-0.0891222
202	0x3ca252d0	0.019814879
203	0xbd7b8f49	-0.061415944
204	0x3c7c92c0	0.015415847
205	0xbc468722	-0.012117179
206	0xbccb2363	-0.024797147
207	0x3c1f6aa7	0.009730018
208	0x3b3ff53d	0.002929046
209	0x3c431e59	0.011909091
210	0x3cc494ae	0.023996677
211	0x3b6c8906	0.0036092415
212	0xba30eddb	-0.00067493104
213	0x3cee02f6	0.029054146
214	0x3c9eea60	0.019398868
215	0xbc8570d7	-0.016289158
216	0x3cc3efd2	0.023918066
217	0x3c49b7d7	0.012311897
218	0x3b7584c9	0.003746318
219	0xbb949e0f	-0.0045354436
220	0xbce6ef51	-0.028190287
221	0xbc9ae8d8	-0.018909857
222	0xbc832d2b	-0.016012749
223	0xbd14bc3c	-0.036312327
224	0x3caebde1	0.021330776
225	0x3ccd1c95	0.025038043
226	0x3dc2de49	0.09515054
227	0xbbdb79cd	-0.0066978694
228	0xbc3d7d09	-0.011565455
229	0x3b0697e7	0.0020537318
230	0xbafaa317	-0.0019122091
231	0xbb054a7b	-0.0020338583
232	0xbc7be9be	-0.015375553
233	0x3cbff2a5	0.023431132
234	0xbbf91076	-0.0076008392
235	0x3b3e8b81	0.002907485
236	0xbc231113	-0.009952801
237	0x3ca50954	0.02014605
238	0x3b908abb	0.004411069
239	0xbcfc3700	-0.030787945
240	0x3c2b9925	0.010473524
241	0x3cd9eb70	0.026601523
242	0x3c3a39cf	0.011366322
243	0xbb3c23df	-0.0028707904
244	0xbcbf49f8	-0.0233507
245	0x3c5d9246	0.013523644
246	0x3bc68b22	0.0060590664
247	0xbd806346	-0.06268935
248	0x3d4ddcc2	0.05025936
249	0xbcfdbcc4	-0.0309738
250	0x3cb73b18	0.022367045
251	0xbcf3c31c	-0.029756121
252	0x3baaf585	0.0052172565
253	0xb7e911a0	-2.7783972e-05
254	0x3c2662ad	0.010155362
255	0x3d22cc82	0.039745815

bn2.weight f4 [300]
0	0x3db7d9b9	0.08977074
1	0x3d919d81	0.071101196
2	0x3d88169f	0.0664494
3	0x3e4aa3e5	0.19789083
4	0x3debf785	0.1152182
5	0x3db11555	0.08646647
6	0x3df6aeb2	0.12045039
7	0x3df0a5b7	0.117503576
8	0x3ec960e1	0.39331725
9	0x3e3c3000	0.18377686
10	0xbca5f8a7	-0.020260168
11	0x3dc10669	0.09425051
12	0x3d9ffba7	0.07811671
13	0x3d79ae92	0.0609575
14	0x3e7ffb21	0.24998142
15	0x3e0203f4	0.1269682
16	0x3ddb282b	0.10701021
17	0x3dcf6cc6	0.10128169
18	0x3d301631	0.042989913
19	0x3da748dc	0.08168194
20	0xbcd4e05f	-0.025985895
21	0x3d9e73dc	0.07736942
22	0xbd984660	-0.07435298
23	0x3e2989e9	0.16556515
24	0x3e030a04	0.1279679
25	0x3d72e897	0.059303846
26	0x3db95e69	0.090512104
27	0x3f68a149	0.908711
28	0x3d7bab8d	0.0614429
29	0x3e78676a	0.242582
30	0x3e357353	0.17719774
31	0x3e583234	0.21112901
32	0x3d8a8d91	0.06765283
33	0x3cf25649	0.02958216
34	0x3cedc7f2	0.029026005
35	0x3d016475	0.031589944
36	0x3d978f98	0.07400435
37	0x3dffccee	0.12490259
38	0x3dc4f26a	0.09616549
39	0x3e6362af	0.22205614
40	0x3e5024ed	0.20326586
41	0x3df6add9	0.120448776
42	0x3d4ec318	0.050479025
43	0x3dc473cc	0.09592399
44	0x3d64d056	0.055862747
45	0x3e20adc3	0.15691285
46	0x3e1a0ca1	0.1504388
47	0x3d526197	0.0513626
48	0x3d2a78cd	0.04161911
49	0x3d9d8da9	0.07693035
50	0x3db271e7	0.087131314
51	0x3d0b87ec	0.034065172
52	0x3f164129	0.58693177
53	0x3e1542a0	0.14576197
54	0x3effdfba	0.49975377
55	0x3d8bad02	0.06820108
56	0x3e54ba3e	0.20774171
57	0x3e5f80c1	0.2182646
58	0x3f9fc196	1.2480953
59	0x3ddab21d	0.10678504
60	0x3dd07fce	0.10180627
61	0x3e00cf64	0.12579113
62	0x3e6b4ad1	0.22977759
63	0x3db9888e	0.09059249
64	0x3d5af4b6	0.05345603
65	0x3e756404	0.23963934
66	0x3e0ca541	0.13734914
67	0x3e006395	0.12537988
68	0x3ddc1258	0.10745686
69	0xbdea4db1	-0.114406
70	0x3d604ce1	0.054760817
71	0x3e7a5c07	0.24449168
72	0x3dabcfba	0.0838923
73	0x3de42407	0.11139684
74	0x3e2a60ab	0.16638438
75	0x3d9d5034	0.07681313
76	0x3dd30920	0.10304475
77	0x3e0059e2	0.12534288
78	0x3ca9d472	0.020731185
79	0x3df74da0	0.12075353
80	0x3d94c58f	0.07264244
81	0x3d9a5044	0.07534841
82	0x3e1dbef1	0.1540487
83	0x3e02f17f	0.12787436
84	0x3dafbf8b	0.08581456
85	0x3e0713f5	0.13191207
86	0x3e0a4bf7	0.13505541
87	0x3e4a532a	0.19758287
88	0x3ac25cb3	0.0014828652
89	0xbdc930ab	-0.09823736
90	0xbe1a347f	-0.15059088
91	0x3e128a74	0.14310628
92	0x3d4c7d94	0.049924448
93	0x3d837fe9	0.06420881
94	0x3f40d70f	0.75328153
95	0x3f278c7f	0.65448755
96	0x3d4efcb1	0.050533954
97	0x3df02c0c	0.11727151
98	0x3e164c20	0.14677477
99	0x3f42d20e	0.7610177
100	0x3de42923	0.11140659
101	0x3e328f4e	0.17437479
102	0x3e3f6466	0.18690643
103	0x3ed7d549	0.4215491
104	0x3d9528b6	0.072831556
105	0x3dfb71ef	0.122775905
106	0x3dc3bf09	0.095579214
107	0x3e8b9027	0.27258417
108	0x3d074348	0.03302315
109	0x3d3ca349	0.04605416
110	0x3f195212	0.59890854
111	0x3dd6b223	0.10483196
112	0x3da598ae	0.08085762
113	0x3dece65a	0.115673736
114	0x3dd06b4f	0.101767175
115	0x3dc2309e	0.09481929
116	0x3e2490a9	0.16070808
117	0x3db8d87d	0.09025667
118	0x3e4255b1	0.18978001
119	0x3da26833	0.07930031
120	0x3e23e025	0.16003473
121	0x3f0edd05	0.55806
122	0x3d703207	0.05864146
123	0x3d9f2b80	0.07771969
124	0x3d2a3930	0.041558444
125	0x3e8c332c	0.2738279
126	0x3e340198	0.17578733
127	0x3def8fbe	0.116973385
128	0x3df5bb1f	0.11998581
129	0x3d897ca6	0.06713228
130	0x3d9c4f8e	0.07632361
131	0x3e1b681c	0.15176433
132	0x3d86d7ba	0.06584115
133	0x3da40c42	0.080101505
134	0x3e1ac1a9	0.15112938
135	0xbde496ff	-0.11161613
136	0x3e767a36	0.24070057
137	0x3f0c6a00	0.54849243
138	0xbdb5624b	-0.088566385
139	0xbdaa7c7c	-0.08324525
140	0x3d526a8f	0.051371153
141	0x3dca4280	0.09875965
142	0x3da3b0f8	0.079927385
143	0x3eb801be	0.3593883
144	0x3df346f6	0.11878769
145	0x3e8aca05	0.27107254
146	0x3db55d17	0.08855646
147	0x3f0e0745	0.5547984
148	0x3d8adf10	0.06780827
149	0x3e4249a3	0.18973403
150	0x3d88d638	0.06681484
151	0x3e3c9242	0.18415168
152	0x3df32774	0.118727595
153	0x3dc93b8b	0.0982581
154	0x3ddd5d2a	0.10808785
155	0x3dc5ce94	0.09658542
156	0x3dbccdec	0.09218964
157	0x3d836bd0	0.06417048
158	0xbc002c40	-0.00782305
159	0x3e78cc67	0.24296723
160	0x3d75874b	0.05994348
161	0x3e0dd1f5	0.13849624
162	0x3e87371c	0.26409233
163	0x3dcf9cf8	0.10137361
164	0x3df2e1c6	0.11859469
165	0x3dd79ff9	0.10528559
166	0x3de8b7bc	0.113631696
167	0x3d84286e	0.06453024
168	0x3e73d9eb	0.23813598
169	0x3e3be820	0.18350267
170	0x3d77e5e1	0.060521964
171	0x3e22c9df	0.1589732
172	0x3df32723	0.11872699
173	0x3e4f6d4e	0.2025654
174	0x3d84867b	0.064709626
175	0x3e1bb0c8	0.15204155
176	0x3e5fdc7e	0.21861455
177	0x3e1869a9	0.14884056
178	0x3db54836	0.08851664
179	0x3d20863f	0.039190527
180	0x3cf7cd70	0.030249327
181	0xbaa49b06	-0.0012558408
182	0x3d8427dd	0.06452916
183	0x3dae3c8c	0.08507642
184	0x3eba488a	0.36383468
185	0x3d62743a	0.055286624
186	0x3ea2faf7	0.31832096
187	0xbdc69a20	-0.09697366
188	0x3e899602	0.2687226
189	0x3e81e682	0.25371176
190	0x3e0d255b	0.13783781
191	0x3e1b50d0	0.15167546
192	0x3e8cc26f	0.2749209
193	0x3d96149c	0.0732815
194	0x3dba14c2	0.090859905
195	0xbce22ebd	-0.027610177
196	0x3de92389	0.11383731
197	0x3ed9c9e1	0.42536834
198	0x3de4e7b3	0.111770056
199	0x3d79e1c2	0.061006315
200	0x3dadb45e	0.08481668
201	0x3d4ae994	0.049539164
202	0x3e02acb2	0.1276119
203	0x3d553244	0.05204989
204	0x3d6aefb2	0.057357498
205	0x3d836e27	0.06417494
206	0x3e813c7a	0.25241452
207	0x3de0cd2b	0.10976633
208	0x3f4cc719	0.799913
209	0x3d055fe3	0.032562148
210	0x3e49ca6f	0.19706129
211	0x3da5365b	0.08067008
212	0x3e1b9fb0	0.15197635
213	0x3dcd8bec	0.100364536
214	0x3ea45e92	0.321034
215	0x3d8db97c	0.06920144
216	0x3e986738	0.2976625
217	0x3e950377	0.29104206
218	0x3dde3d09	0.10851485
219	0x3d83e1fc	0.064395875
220	0x3e1777b2	0.14791754
221	0x3df14662	0.117810026
222	0x3e15892c	0.14603108
223	0x3e47673c	0.19472975
224	0x3dbd0f33	0.09231415
225	0x3e1e4f34	0.15459901
226	0x3d8c0ff5	0.06838981
227	0x3dc7defd	0.097593285
228	0x3e12f0d3	0.1434968
229	0x3dbcf8fc	0.092271775
230	0x3d9fe09a	0.07806511
231	0x3e87fb85	0.26559082
232	0x3db6036a	0.0888737
233	0x3bcd4d5b	0.006265325
234	0x3dd5542d	0.10416446
235	0x3e04d7b7	0.12972914
236	0x3d62be08	0.05535701
237	0x3e3e3ce7	0.1857792
238	0x3d4876b3	0.048941325
239	0x3d9b6654	0.07587877
240	0x3e04db65	0.12974317
241	0x3c6dda74	0.014517415
242	0x3dcc2ae8	0.09969121
243	0x3dfd9c9c	0.123833865
244	0x3eba4d85	0.36387268
245	0x3dc117ae	0.09428345
246	0x3e5e9319	0.21735801
247	0x3e4dca92	0.20096806
248	0x3da97423	0.082741044
249	0x3d6c9db3	0.05776758
250	0x3f7cdd8a	0.9877554
251	0x3e67e4c0	0.22645855
252	0x3e25fd06	0.16209802
253	0x3d809857	0.062790565
254	0x3e0ecade	0.13944575
255	0x3ca2e55b	0.019884756

bn2.bias f4 [300]
0	0x3c9470d4	0.018120207
1	0x3c8a35b2	0.016871307
2	0x3c207f7c	0.00979602
3	0x3d724406	0.059146903
4	0x3b7b2756	0.0038323007
5	0x3abf409a	0.0014591396
6	0x3c18c071	0.009323225
7	0x3d02d98e	0.031945758
8	0x3de419e2	0.11137749
9	0x3da58798	0.08082503
10	0xbe9d826b	-0.30763564
11	0x3c85b4d5	0.016321579
12	0x3d236b11	0.03989703
13	0x3c84fe08	0.016234413
14	0x3d279865	0.04091682
15	0x3d4a1a9a	0.049341775
16	0x3d0bd89a	0.034142114
17	0x3c748490	0.0149241835
18	0x3c70f9a6	0.014707958
19	0x3d06695e	0.03281533
20	0x3a85d7c0	0.0010211393
21	0x3cf885c0	0.030337214
22	0xbe400c79	-0.18754758
23	0x3cf9697f	0.030445812
24	0x3cf30fd5	0.029670635
25	0x3c81ef16	0.015861075
26	0x3d239050	0.03993255
27	0x3e4e3b8c	0.20139903
28	0x3ca3956f	0.019968716
29	0x3e44365c	0.19161361
30	0x3d0a9c09	0.033840213
31	0x3d3e21e3	0.046419036
32	0x3d078fd8	0.033096164
33	0x3b8c7820	0.004286781
34	0x3a79d912	0.0009530942
35	0x3b87cd98	0.0041443817
36	0x3c2ff6e2	0.010740014
37	0x3d09286e	0.033485822
38	0x3c41a0f6	0.011818161
39	0x3d64172f	0.055686172
40	0x3dbd725f	0.0925033
41	0x3d16cf10	0.036818564
42	0x3c082e4c	0.008311819
43	0x3d239743	0.039939176
44	0xbb2dc25b	-0.002651355
45	0x3d37b245	0.044847745
46	0x3d246513	0.040135454
47	0x3c5a8160	0.0133365095
48	0x37a453d4	1.9589359e-05
49	0x3c493894	0.012281556
50	0xbb28fbf6	-0.0025784946
51	0xbacd5bd1	-0.0015667622
52	0x3e2159cd	0.15756913
53	0x3d5239bd	0.051324595
54	0x3dd14d06	0.10219769
55	0x3c770c01	0.015078546
56	0xbd6b4de8	-0.057447344
57	0x3da2fece	0.079587564
58	0x3ec42134	0.38306582
59	0x3c629ef5	0.013831844
60	0x3cf5bf4f	0.02999845
61	0x3dad1a32	0.08452262
62	0x3e23fb4f	0.16013835
63	0x3c0905a1	0.008363158
64	0x3c7de11e	0.015495567
65	0x3db18563	0.086680196
66	0x3d02c02f	0.03192156
67	0x3bf9e04d	0.0076256157
68	0x3c9fc6d0	0.01950398
69	0xbd069545	-0.0328572
70	0x3d1e597e	0.038659565
71	0x3e36bbcb	0.17845075
72	0x3d4a519f	0.049394246
73	0x3b1202c1	0.0022279473
74	0x3d92812f	0.07153546
75	0x3c8f2d90	0.01747778
76	0x3cce9a01	0.02521992
77	0x3c427de2	0.011870833
78	0xbbdfc34a	-0.0068287
79	0x3d360f05	0.044447917
80	0x3ce9921a	0.02851205
81	0x3cc1de8f	0.023665695
82	0x3db4e903	0.08833506
83	0x3d7f4df6	0.06233021
84	0xbcd73526	-0.02627046
85	0x3d653489	0.055958305
86	0x3d665dc8	0.05624178
87	0x3ce30f37	0.027717216
88	0x39b013c8	0.00033584074
89	0xbd2ac85a	-0.041694976
90	0xbd258a35	-0.040415008
91	0x3daae443	0.08344319
92	0x3c75817a	0.014984483
93	0x3bf3c32c	0.007439038
94	0x3e1a67bc	0.15078634
95	0x3e8859e6	0.26631087
96	0x3c9dd3b0	0.01926598
97	0x3d0ec9d3	0.034860443
98	0x3d1d9873	0.038475465
99	0x3e67c7d8	0.22634828
100	0x3cd92894	0.026508607
101	0x3dcd98ce	0.10038911
102	0x3d320764	0.04346408
103	0x3e9f7dc6	0.31150645
104	0x3c9c0397	0.01904468
105	0x3d3412f0	0.043963373
106	0x3d46fc96	0.04858073
107	0x3dc571d0	0.09640849
108	0x3b948f45	0.0045336806
109	0x3bd749dd	0.0065700845
110	0x3e919302	0.2843247
111	0x3d7159b1	0.058923427
112	0x3c916993	0.017750537
113	0x3d3782ce	0.04480248
114	0x3cace7dc	0.021106653
115	0x3cb619d2	0.022229109
116	0x3cbe9dcd	0.023268605
117	0x3c752fa2	0.01496497
118	0x3db1693e	0.086626515
119	0x3bfd6ee8	0.0077341683
120	0x3dba9876	0.09111111
121	0x3e6afbf7	0.2294768
122	0x3c8fc816	0.017551463
123	0x3c909371	0.01764843
124	0x3b5d58f9	0.0033774956
125	0x3e2fc3f5	0.17164595
126	0x3daab8f1	0.08336056
127	0x3c2cd528	0.010548867
128	0x3d8aa92a	0.06770547
129	0x3c09a255	0.008400519
130	0x3cc0d3fb	0.02353858
131	0x3d790b88	0.060802013
132	0x3d2e63bf	0.042575594
133	0x3c8dbbb0	0.01730141
134	0x3d43eb52	0.04783184
135	0xbca45d56	-0.020064037
136	0x3dd49559	0.10380048
137	0x3eaba72f	0.33525988
138	0xbc9d7ba0	-0.019223988
139	0xbdb56f3e	-0.088591084
140	0x3c64dd58	0.013968788
141	0x3dc7d61f	0.09757637
142	0x3cc07c88	0.023496881
143	0x3e237daf	0.15965913
144	0x3cbc1747	0.022960318
145	0x3ccbf445	0.02489675
146	0x3d88492c	0.066545814
147	0x3e792b3a	0.24332896
148	0x3d0f2a30	0.034952343
149	0x3df6a4a0	0.120431185
150	0x3ca45833	0.020061588
151	0x3dca1f04	0.09869197
152	0x3d39287f	0.045204636
153	0x3d706e48	0.058698922
154	0x3c185ce3	0.00929949
155	0x3cab8da6	0.020941567
156	0xbb541cfb	-0.0032365907
157	0x3cac6fc3	0.021049386
158	0xba4dc250	-0.0007849084
159	0x3d81c351	0.06336082
160	0x3c89328d	0.016747737
161	0x3cd8aaf7	0.02644871
162	0xbdab6eac	-0.08370718
163	0x3d0acd0a	0.033886947
164	0x3c9ac687	0.018893493
165	0x3ca37462	0.019952957
166	0x3cffd3b7	0.031228883
167	0x3c2f66fd	0.010705707
168	0x3ce60e4b	0.028082987
169	0x3db138b1	0.08653391
170	0x3bb8a61b	0.0056350357
171	0x3d3d7c55	0.04626115
172	0x3d464913	0.048409533
173	0x3d89953c	0.06717917
174	0xbc6859d2	-0.014181571
175	0x3c8c1cf7	0.017103655
176	0x3e07825b	0.1323332
177	0x3d4d800e	0.05017095
178	0x3d0ddebb	0.03463624
179	0x3a25d052	0.00063252926
180	0xbb4c83ad	-0.0031206415
181	0x3a00d07b	0.00049138785
182	0x3b9ee107	0.0048486027
183	0x3caca9f4	0.021077134
184	0x3e0ce479	0.1375903
185	0x3ac47a43	0.001499005
186	0x3dae1bf5	0.08501426
187	0xbd02548b	-0.031818908
188	0x3e003eb6	0.12523922
189	0x3dd250e5	0.10269336
190	0x3d686b89	0.05674318
191	0x3d90bdca	0.070674494
192	0x3ce3caa8	0.027806595
193	0x3c89ac2f	0.016805736
194	0xbd33d2b1	-0.043902103
195	0x3e06030e	0.13087103
196	0xb9a20815	-0.0003090507
197	0x3e71fc3e	0.23631379
198	0x3db39bcd	0.08769951
199	0x3c98fd80	0.018675566
200	0x3c8c55fd	0.017130846
201	0xbb51ed87	-0.0032032446
202	0x3d1909ec	0.037362978
203	0x3b7c25d3	0.0038474693
204	0x3bdcb7b1	0.006735765
205	0x3c577c87	0.013152248
206	0x3e3201e9	0.17383541
207	0x3c9a6bd5	0.018850246
208	0x3e85ceeb	0.26134428
209	0x3aa157cd	0.0012309492
210	0x3da9b51b	0.08286496
211	0x3d15a321	0.036532525
212	0x3da0f4f6	0.078592226
213	0x3d434ee9	0.047682676
214	0x3e0571c4	0.1303168
215	0x3c7203e9	0.01477144
216	0x3dcb11f1	0.099155314
217	0x3e1936a5	0.14962251
218	0x3d82b10e	0.06381427
219	0x3c91e49c	0.017809205
220	0x3cb3f7b0	0.021968693
221	0x3d02d650	0.031942666
222	0x3d96bb02	0.07359888
223	0x3d8bef5d	0.06832764
224	0x3d1ed9e8	0.03878203
225	0x3cff309a	0.031151105
226	0x3c0417b4	0.008062292
227	0x3cf92aab	0.030415853
228	0x3cc012d8	0.023446485
229	0x3c3e17e4	0.011602376
230	0x3d15d1b1	0.03657693
231	0x3d86ea72	0.06587686
232	0x3ccc2af3	0.024922824
233	0x3b38f8e3	0.002822452
234	0x3d26d802	0.040733345
235	0x3d4193b9	0.04726002
236	0x3c6a5ac2	0.014303865
237	0x3d68a475	0.056797463
238	0x3c5e2ceb	0.013560514
239	0x3b96dec8	0.0046041943
240	0x3d0056fc	0.031332955
241	0x3c40d537	0.011769584
242	0x3cf42323	0.02980191
243	0x3ce3757d	0.027765984
244	0x3de54855	0.11195437
245	0x3d17a0f9	0.03701875
246	0x3e00d993	0.12582998
247	0x3d960c37	0.073265485
248	0x3b1cbaa5	0.002391496
249	0x3c638aea	0.0138881
250	0x3db11104	0.086458236
251	0x3dabd157	0.08389538
252	0x3d7ab1ce	0.061204724
253	0x3c9a3a8a	0.018826742
254	0x3d03c59c	0.032170877
255	0xbad41d5e	-0.0016183069
